Experiment/pre_trained_model/IMDB-BINARY/Edgepred_Gprompt.GCN.128hidden_dim.pth (torch, 69736 bytes, 4 tensors)

conv_layers.0.bias f4 [128]
000000 ad 3d be 3b 4a b3 86 3b 12 3e c9 3b 25 5d b6 bb
       0.005805692 0.0041107284 0.0061414326 -0.005565303
000010 76 51 cd bb 9f d0 09 bc cd 42 00 bc 23 37 f3 bb
       -0.0062658144 -0.008411556 -0.007828427 -0.0074223443
000020 39 ec 97 bb fe b8 0a 3c e6 4d ac bb a4 f2 c1 3b
       -0.004636314 0.008466957 -0.0052583097 0.0059188176
000030 77 68 04 3c 61 3a a8 bb 10 a0 f4 ba 0b 0a a5 3b
       0.008081547 -0.0051339124 -0.0018663425 0.0050365976
000040 2b 0d 53 bb 45 b1 fd bb f1 07 e6 3b aa 95 05 bc
       -0.0032203894 -0.0077420794 0.0070199897 -0.0081533585
000050 94 63 ce bb 4b 75 a3 3b bf 64 b7 bb 6b 4c b0 bb
       -0.0062984917 0.0049883476 -0.0055967267 -0.0053802035
000060 9e e0 f4 bb 83 10 b3 3b 8c 4e ff 3b 32 8e 0c bc
       -0.0074730655 0.005464615 0.007791346 -0.008578824
000070 05 22 01 bc 8d b9 04 bc 30 f1 f3 3b 1d 12 92 bb
       -0.007881646 -0.008100879 0.0074445233 -0.0044577257
000080 c8 c5 a7 3b 4b a4 12 ba 8a f1 c4 bb b1 15 0b 3c
       0.005120013 -0.00055939396 -0.006010239 0.008489058
000090 9e 33 d3 3b f7 1c 62 bb c8 c5 0a bc dd a6 f2 bb
       0.006445362 -0.0034502128 -0.008470006 -0.0074051456
0000a0 d5 f7 d2 bb 06 a9 10 bb 1a 51 90 bb eb 20 8a bb
       -0.0064382353 -0.0022073402 -0.0044041993 -0.00421535
0000b0 53 d7 da 3b 34 c8 0f bc af aa cc bb 3f 59 a0 3b
       0.0066785007 -0.0087757595 -0.006245933 0.0048934515
0000c0 d8 29 65 bb 93 71 fe 3b c8 39 88 3b 98 f4 b2 3b
       -0.0034967568 0.007765004 0.0041572787 0.0054612868
0000d0 2b 1b cb 3b 2e 2b 83 bb 8a 19 c0 3b c2 ef e4 bb
       0.006198307 -0.00400295 0.0058624195 -0.006986589
0000e0 a4 65 0f 3c 4a 61 c8 bb 03 5f 10 3b e4 57 23 bb
       0.00875226 -0.0061151134 0.0022029288 -0.0024924213
0000f0 97 eb ff 3b 0c b4 10 3c ae 2d a1 bb 38 ef 62 ba
       0.007810067 0.008831989 -0.0049187755 -0.0008656862
000100 90 4f c8 bb 91 3c cb 3b ad ee de bb 8f 4d b2 3b
       -0.006113 0.0062022884 -0.0068033547 0.0054413746
000110 54 e0 bc 3b e9 a2 9c 3b 20 54 d6 bb 9a 79 ee 3b
       0.0057640467 0.0047801626 -0.00654079 0.0072776796
000120 8c 74 62 3b ae 4c f6 3b cd be 3d 3b 02 b7 c6 3b
       0.003455433 0.007516465 0.0028952837 0.0060642967
000130 1a 71 b4 3b 9e 55 e8 3b 68 c3 2f bb bc 71 e1 3b
       0.005506647 0.0070902845 -0.0026819352 0.0068800133
000140 d0 61 fb bb ba c6 0a bc 49 76 f0 bb e4 90 db bb
       -0.0076715723 -0.008470232 -0.0073383194 -0.006700622
000150 ea c3 f1 3a bd cd 0a 3c d5 07 8d bb ba 8a c9 ba
       0.0018445228 0.008471903 -0.004303912 -0.0015376427
000160 71 5c 7d bb 6d a0 0d 3c c8 77 11 3c 74 da fa 3a
       -0.0038659836 0.0086442055 0.008878656 0.001913859
000170 2c 76 ae bb f6 cd ac bb 66 28 87 bb 62 2c 99 3b
       -0.005324146 -0.005273576 -0.004124689 0.0046744803
000180 cf ae fe 3b 9a 7c fe 39 d3 a7 54 3b e1 34 0f bc
       0.0077723037 0.0004853949 0.0032448664 -0.008740635
000190 a3 21 8b bb a2 87 07 3c aa b2 ec bb 71 a9 cd 3a
       -0.004245953 0.0082720835 -0.007223447 0.0015690756
0001a0 d0 8f 3e bb cf 55 c3 bb a3 4d 20 bb 04 95 df bb
       -0.0029077418 -0.005961157 -0.0024460338 -0.006823184
0001b0 33 5d bc ba a6 4e ba bb c0 af df bb 32 74 de bb
       -0.0014371037 -0.005685645 -0.006826371 -0.006788754
0001c0 53 fe bf 3b 03 24 ce ba c2 71 e9 bb 8b bb c4 3b
       0.005859175 -0.0015727285 -0.0071241567 0.006003802
0001d0 fe 08 c1 3b f4 e9 dd bb 53 0f b0 bb 5e 03 a5 bb
       0.0058909645 -0.006772274 -0.0053729205 -0.005035802
0001e0 74 47 d6 bb b0 71 de 3b cc 57 bd 39 90 7e a0 bb
       -0.0065392796 0.006788455 0.00036114303 -0.0048979
0001f0 56 da cc 3b 29 34 cc bb 7c b4 01 bc 45 d5 fe ba
       0.0062516136 -0.006231804 -0.007916566 -0.0019442221

conv_layers.0.lin.weight f4 [128, 1]
000000 ad 99 57 3d 33 0c 29 3e fa 70 84 bc 36 dc 4d be
       0.05263679 0.1650856 -0.016167153 -0.20103535
000010 38 65 cb 3d 60 1b 0b be 03 3a 26 3d c4 69 4f 3e
       0.09931415 -0.13584661 0.040582668 0.2025519
000020 d5 a8 46 3e cd 91 42 3e e2 63 88 bd 90 86 b8 bd
       0.19400342 0.19000931 -0.06659676 -0.09010041
000030 87 26 3a 3c 59 fa bd bd b7 85 cd bc d2 1b c8 3d
       0.011361725 -0.09276266 -0.025088174 0.09770931
000040 b3 b4 5c be 9c 0b 23 be 7a 0a 3f be 61 8e 0c 3d
       -0.21553306 -0.15922397 -0.1865634 0.03431547
000050 69 e7 d7 3d 96 02 15 be be bf 2a be 2a 9b 00 3e
       0.10542185 -0.14551768 -0.16674706 0.1255919
000060 1c 38 7d 3d b9 5e 93 bd fb 52 64 3d 10 9c 4f be
       0.06182109 -0.07195801 0.0557432 -0.20274377
000070 da f4 03 3e cf ff e5 bd ac d1 3c be 66 8e a0 bd
       0.12886372 -0.11230432 -0.18439358 -0.0783966
000080 44 7f 8e 3d 9e 19 4b 3e da 02 c8 bd 57 51 10 3e
       0.06957868 0.19833991 -0.09766169 0.14093529
000090 55 e6 d0 3b ad 8d 5e be f5 ce 49 3e 47 d1 c7 bd
       0.006375114 -0.21733733 0.19707854 -0.09756713
0000a0 b5 f9 08 3e 61 2b 2b 3d 86 ef 42 3e b3 29 21 be
       0.13376506 0.041789416 0.19036683 -0.15738563
0000b0 1f a4 3d 3e a8 a0 90 3d 24 e3 08 3e 44 9c 40 3e
       0.18519638 0.07061893 0.13367897 0.1880961
0000c0 62 ca 20 3e 65 b8 31 be c8 dd 8e bd a2 9c 06 be
       0.15702203 -0.17355497 -0.06975895 -0.13145688
0000d0 41 65 de bd a5 8f 76 bd 8c 85 e9 bd c4 00 06 be
       -0.108591564 -0.060195584 -0.11402425 -0.1308623
0000e0 aa 4c d2 bd f8 56 91 bd 26 b8 38 3d 9d e0 60 bb
       -0.10268529 -0.07096666 0.045097493 -0.0034313567
0000f0 22 82 92 3d 14 54 04 be e3 0c 21 3e 27 c1 4c bd
       0.07153727 -0.12922698 0.15727572 -0.049988892
000100 f4 31 bf 3d 7e 5b 3c 3e 51 12 9e 3d 3a 30 3b be
       0.093357 0.18394276 0.07718337 -0.18280116
000110 9f e2 fe 3c da c0 1c 3e 32 8d 41 3e 7e c5 6d bd
       0.03111392 0.15307942 0.18901518 -0.05804967
000120 d3 2a 72 bb 83 5d ec 3d e8 f3 4a be af 9e 59 3e
       -0.0036951795 0.115412734 -0.19819605 0.21251939
000130 94 b4 74 3d 8a 28 d3 bc 6d 27 05 3e 50 d7 a0 3d
       0.059742525 -0.025776166 0.13003321 0.078535676
000140 51 99 11 be 8b c5 dc bd 0b d5 01 3d 41 c8 ec 3d
       -0.14218642 -0.10779866 0.031697314 0.11561633
000150 7d 35 f6 3d 70 fe 46 3e 2e 06 ab bd dd d0 15 bd
       0.12021921 0.19432998 -0.08350788 -0.03657614
000160 aa 43 dc bb c9 d4 81 bd f6 ba 2c 3b b2 cd ba ba
       -0.0067219334 -0.06339414 0.0026356555 -0.0014251976
000170 a4 7a b9 3d e8 2f ed bd 62 0f 2e bb 25 5f 9d bd
       0.09056595 -0.11581403 -0.0026559462 -0.07684163
000180 84 15 e0 bc e1 13 30 be be 6e 1c 3e 4b c1 c9 3c
       -0.02735401 -0.17195083 0.1527662 0.024628302
000190 06 78 de 3c f2 2e 31 be 4c 4e f6 3d 60 3d df bd
       0.027156841 -0.17303064 0.12026653 -0.10900378
0001a0 f2 b2 d9 3d ca 15 da bd d5 a1 9a 3d 01 86 75 3d
       0.10629834 -0.10648687 0.07550398 0.05994225
0001b0 2c 05 c0 3c 76 89 4e 3c d9 79 f4 bc ca df ab ba
       0.023439966 0.012606015 -0.029843258 -0.0013112959
0001c0 a6 b9 61 bd 4e cd 55 3e 51 61 d5 3d 5a ea 4b 3e
       -0.05510869 0.20879099 0.10418952 0.19913617
0001d0 ba 4f a8 3c 9a a9 1d 3e 49 85 c0 bc 70 34 2c 3e
       0.02054583 0.15396729 -0.023501055 0.16816878
0001e0 e0 7b f8 3c c3 29 c2 3b e7 22 27 3d c5 00 0e be
       0.030332506 0.0059253885 0.04080477 -0.13867481
0001f0 54 54 2e 3e c4 a1 04 3e ee 86 2a be 40 b0 0e be
       0.17024356 0.12952334 -0.16653034 -0.13934422

conv_layers.1.bias f4 [128]
000000 f5 1f 10 3c 32 fa f8 bb 1e 82 de bb bc 99 b0 bb
       0.008796682 -0.007598185 -0.0067904135 -0.0053894203
000010 2a f3 dd 3b ce 8a ec 3b 1f 07 dd 3b 5c 7c ea 3b
       0.006773372 0.0072186952 0.0067452337 0.007155938
000020 67 8f 47 ba ff d2 e4 3b 2b 96 93 3b e5 4b d4 3b
       -0.0007612616 0.0069831605 0.0045039854 0.006478774
000030 9e 52 c7 3b c8 c5 e0 3b 73 8b d4 3b 50 fa c8 3b
       0.006082847 0.006859515 0.00648635 0.006133355
000040 e5 eb 76 bb 7a bc ef 3b 9f d2 d2 3b cd 38 fb bb
       -0.0037677225 0.0073161693 0.0064337994 -0.0076666833
000050 6b 6b b5 3b b0 f5 24 bb 52 98 a7 bb 30 b1 b6 3b
       0.005536487 -0.0025170855 -0.0051145935 0.0055753216
000060 f3 2c b2 3a 96 a2 93 3b 81 dc 25 bb 33 c3 b5 bb
       0.0013593718 0.0045054657 -0.0025308433 -0.005546951
000070 17 5a 74 3b c2 4e 0f bc 24 75 c2 3b e5 7a b2 bb
       0.0037285143 -0.008746805 0.0059343744 -0.005446779
000080 c3 ec 04 bc 26 8b e3 3b c8 5f c5 bb ca d4 fc 3b
       -0.008113089 0.006944078 -0.006023381 0.007715796
000090 a1 d9 d7 3b 1e 0c df bb 8e af b6 bb 0f b3 cf bb
       0.0065872227 -0.0068068644 -0.005575127 -0.006338484
0000a0 f0 fc 21 3b a8 8f c3 3b 01 82 9f 3b 81 3c 0c bc
       0.0024717413 0.005968053 0.0048677926 -0.008559347
0000b0 18 eb 0e bc fc 66 4e 39 c8 9f 8b 3a e9 38 cf 3b
       -0.008723043 0.00019684056 0.0010652477 0.006323923
0000c0 1e b2 4f bb 49 f5 d3 3b cc 90 bd bb db b8 c1 bb
       -0.003169186 0.0064684493 -0.0057850834 -0.005911929
0000d0 01 d6 9a bb a4 32 77 3b d3 6a 02 3c b2 e5 eb ba
       -0.0047252183 0.0037719393 0.007960039 -0.0017997532
0000e0 1b e1 9d 3b 97 57 28 bb 1a 40 91 3b 63 19 0f 3c
       0.0048180944 -0.0025686973 0.0044326903 0.00873408
0000f0 15 38 62 3b ea c0 e5 3b 2a d6 11 3b 42 15 0b 3c
       0.003451829 0.0070115225 0.0022252896 0.008488955
000100 ef 9c ad bb 48 4c c1 bb 12 30 6c 3a 43 c2 6c bb
       -0.005298249 -0.005898986 0.00090098486 -0.0036126531
000110 43 bf ec 3b 32 04 cc 3a f1 aa a7 bb 94 37 a0 3a
       0.0072249486 0.0015565215 -0.0051168134 0.0012223595
000120 0a 10 02 bc e6 9f e6 bb 9d 07 44 3b a6 9b e7 3b
       -0.007938394 -0.0070381043 0.0029911764 0.0070681153
000130 49 91 b7 3b e1 90 d1 bb df 73 db bb 1f 34 10 bc
       0.005602036 -0.0063954447 -0.0066971625 -0.008801489
000140 92 90 0f bc 24 74 b1 3b e9 05 17 3b e0 b3 0a bc
       -0.008762496 0.0054154564 0.0023044294 -0.008465737
000150 14 47 56 3b 30 92 7c 3b 4b fe 4a bb e6 4b dd bb
       0.0032696174 0.0038539283 -0.0030974324 -0.0067534326
000160 17 aa da bb 24 f0 9e 3b 6e 32 d9 3a 87 d9 8f 3b
       -0.0066731083 0.0048504043 0.0016570815 0.004389945
000170 af 1f d3 3b 5d 66 97 bb 64 61 dc bb c4 03 e2 bb
       0.006442986 -0.004620357 -0.006725477 -0.0068974216
000180 3c ed d9 3b 41 3c d8 3b 7e 12 d8 bb b3 59 30 3b
       0.006650595 0.0065989797 -0.0065940013 0.0026908934
000190 48 74 d8 3b 34 b6 04 3c bf 10 fd bb bd 04 e5 bb
       0.0066056587 0.008100081 -0.0077229436 -0.0069890902
0001a0 f8 7c 25 3b ab 50 44 bb 81 79 a5 bb 1f 3c f5 bb
       0.002525149 -0.0029955308 -0.005049885 -0.0074839736
0001b0 6c 3b 0c 3c ae a5 cc bb 89 1d c8 bb a5 d3 bb 3b
       0.008559089 -0.0062453365 -0.0061070365 0.005732017
0001c0 d5 97 69 bb 62 0d c6 3b 5a fe 56 3b 32 34 a2 bb
       -0.0035643477 0.006044076 0.0032805414 -0.00495007
0001d0 af a1 08 bc 0a b3 85 bb d9 68 05 bc 02 b5 7f bb
       -0.00833933 -0.004080181 -0.008142673 -0.0039017801
0001e0 02 dd 02 bc 54 a1 2c ba a7 53 9d ba 86 83 3a 3b
       -0.007987263 -0.0006585319 -0.001200308 0.0028459742
0001f0 a3 0e 87 ba 42 24 af 3b 3d b9 06 bc b0 69 b9 bb
       -0.0010304045 0.0053448984 -0.008222875 -0.005658351

conv_layers.1.lin.weight f4 [128, 128]
000000 77 55 0a be fb 90 98 bc db 60 f5 3d 93 ad 44 ba
       -0.13509165 -0.01862382 0.11981364 -0.0007502671
000010 b8 50 a6 3b 92 11 21 3a 55 3e e2 bd c9 99 9b 3c
       0.0050755404 0.0006144281 -0.11047045 0.018994229
000020 fb 76 2d bd c3 a3 f0 3d 49 74 f1 bd 1c 75 d2 bc
       -0.042349797 0.11749985 -0.11789758 -0.025690608
000030 c9 85 d8 3d 52 51 62 3c 03 19 04 bd dd 0e a4 bd
       0.105723925 0.013813334 -0.032250416 -0.080106474
000040 47 a1 b8 bd fd 37 fc 3c 14 9f cb 3d d3 70 cf bc
       -0.09015136 0.030788416 0.09942451 -0.025322353
000050 6f c4 d1 bd 70 96 79 3d 6b 5b 0b bc f7 aa ce 3d
       -0.10242545 0.060934484 -0.008505682 0.10091203
000060 b6 c7 65 bc 16 67 65 3d f4 be a0 3d 99 ec 1c 3e
       -0.014024666 0.056006514 0.078489214 0.1532463
000070 78 e4 0f bc 2c 15 17 3e 35 c8 a2 3b 4a a2 a7 bd
       -0.008782499 0.1475417 0.004967714 -0.08185251
000080 c6 02 07 be c5 5c 97 3d d6 53 ca 3c bd 9e 88 3d
       -0.13184652 0.07390741 0.02469818 0.06670902
000090 e8 8f 1e 3d e9 b7 f0 bc 74 65 be 3d 1c cf e5 3d
       0.03871146 -0.02938457 0.092966944 0.112211436
0000a0 4b d9 df bd 6a ca cb 3c d8 66 df 3d 71 e2 12 3c
       -0.10930117 0.024876792 0.10908288 0.008965121
0000b0 da b3 e8 3d 7c 37 05 3e 96 1f 08 3e f8 19 14 3e
       0.11362429 0.13009447 0.13293299 0.14463031
0000c0 5d 8e 98 3d f9 81 53 3d 62 c0 11 bd 69 2a 30 bd
       0.07449029 0.051637623 -0.03558386 -0.043009195
0000d0 4c e8 58 bd b8 14 07 3d 25 7e 77 3d 28 7f c6 bd
       -0.05295591 0.032978743 0.060423035 -0.09692222
0000e0 f8 88 2e bc d3 fe e4 bd 89 6d 9a bc 6e e5 ef bd
       -0.010652773 -0.11181416 -0.018851059 -0.11713682
0000f0 a7 9a ce 3d 75 40 74 3c be 42 cd bd 6d 14 14 3e
       0.10088091 0.014907946 -0.10022496 0.14460917
000100 06 5a 0c be d8 60 f8 3d f5 20 10 bd e5 90 ef 3d
       -0.13706216 0.121278465 -0.03518768 0.11697558
000110 18 fc 68 bd 5a f7 87 3d ed d4 c2 3d 5f 1e 07 3e
       -0.05688104 0.066389754 0.095132686 0.1319518
000120 5c b5 84 bd 63 61 0a 3c 34 24 24 3d 80 57 13 bd
       -0.06479904 0.00844607 0.04007359 -0.03597212
000130 5f ef 4e bd 2d 19 88 3c ee 52 83 3d fd 51 02 3d
       -0.05052125 0.016613567 0.06412302 0.03181647
000140 18 86 bf 3d 48 f6 9d 3d e9 d9 82 bd 77 b7 d9 3d
       0.09351748 0.0771299 -0.06389219 0.10630696
000150 62 0d 01 bd 4c 2b 16 3c 4f 1a 4d bd 6b 6b 85 bd
       -0.031506903 0.009165596 -0.050073918 -0.06514629
000160 ac ed 81 bd 5f 67 b3 3d b0 99 83 bd 74 bd 2f bd
       -0.063441604 0.08759951 -0.06425798 -0.042905286
000170 09 8a 01 3e de 81 a0 bd 5f be 1f be 0d 5b 8a bd
       0.12650312 -0.0783727 -0.15599965 -0.06755648
000180 38 c0 f5 3c a2 99 d8 bd 60 fe 92 bd 9e 5b 93 3d
       0.029998884 -0.10576178 -0.071774244 0.07195209
000190 69 e3 dc bd ff f9 a3 3d 77 d5 09 be 9f e0 1a 3e
       -0.107855625 0.08006667 -0.13460337 0.15124749
0001a0 c6 b8 1d be 94 b8 08 be ea 62 b2 3d 38 e2 d3 bd
       -0.15402517 -0.13351661 0.087102726 -0.10345882
0001b0 b1 e3 16 bd 84 36 ae bc bb 33 da 3d d0 41 eb bd
       -0.036838237 -0.02126623 0.10654398 -0.11487162
0001c0 71 9c 08 3e d0 f7 f3 3d 4f c3 d5 bd a0 76 08 be
       0.13340928 0.11912501 -0.10437643 -0.13326502
0001d0 39 62 bc 3b 10 c6 87 3d a7 fb d2 3d 78 5f 0c 3e
       0.0057490137 0.06629574 0.10301905 0.13708293
0001e0 37 1f 63 3d 5c b2 8e bd 70 1d f1 bd f1 e2 d1 bb
       0.05544969 -0.06967613 -0.11773193 -0.0064052274
0001f0 ab 80 fe bc 14 51 4a bd a8 e9 8c 3d df 6b 0b bd
       -0.031067213 -0.04939373 0.06880504 -0.03403842
000200 01 15 a7 3b e2 25 a1 bd 0b 37 fc bd c0 38 6d 3d
       0.0050989394 -0.07868554 -0.12315186 0.05791545
000210 4f 44 7c bc 0d 62 ee bd 65 21 a6 bc 50 7b cb 3d
       -0.015397145 -0.116397955 -0.020279596 0.09935629
000220 11 49 d1 3d 91 22 c8 bd 9b ce 10 3e 74 9d f7 3c
       0.102190144 -0.09772218 0.14141314 0.030226447
000230 ea a2 0a 3e 91 43 25 bd b6 a0 4e 3d fd 77 0b 3e
       0.1353871 -0.04034764 0.050446235 0.1361999
000240 4a 0b 0f be 45 cc 99 b9 03 81 14 3e 93 79 ab 3c
       -0.1396915 -0.00029334627 0.14502339 0.020931995
000250 f1 66 ea bd 3f 9a 5c bd a7 42 f1 3d 0b 6c 67 3d
       -0.11445416 -0.053858038 0.11780291 0.056499522
000260 e3 b7 6f 3c 68 d1 f4 3d 5d fb 1c 3e a0 ab 1c bc
       0.014631244 0.119540036 0.15330262 -0.009562403
000270 ff 51 73 bc 18 25 d6 bd 52 4f 39 3d 34 12 56 bd
       -0.014851092 -0.10456294 0.04524166 -0.052263454
000280 31 65 b0 3d 45 5b 7d 3d eb be 92 3c 33 37 dd bd
       0.08613051 0.06185462 0.017913302 -0.10801544
000290 a4 ab 3a bd d7 ba 40 bd e0 0f 06 3e f8 c1 97 3d
       -0.045573846 -0.047053184 0.13091993 0.074100435
0002a0 16 bb d0 bd 51 43 d6 3d 9d 7e 6f 3d c0 85 a2 bd
       -0.10191934 0.10462058 0.058470357 -0.07935667
0002b0 c9 f7 12 be 60 46 d2 3d eb 46 16 3e 5e 28 89 3d
       -0.14352335 0.10267329 0.1467549 0.066971526
0002c0 71 1b c5 3d df eb 1b 3c b5 5e 5b bd d8 70 cc 3d
       0.09624375 0.009516685 -0.053557117 0.09982461
0002d0 a0 a0 ab bd 22 7b e6 bd 76 e1 b8 bd a2 39 28 bc
       -0.08380246 -0.112539545 -0.09027378 -0.010267647
0002e0 7c 1c 78 3c b8 7d 57 bc cd ed e8 3d 95 b0 f0 3d
       0.01514351 -0.013152532 0.11373482 0.1175243
0002f0 a7 b7 09 3d 78 2e b5 bd 6f 77 d3 3c c2 5a d3 bd
       0.03362241 -0.08846754 0.025813786 -0.10320045
000300 5e 46 db 3d 10 68 00 be 2f b9 1b 3e 07 d6 4d 3d
       0.10706781 -0.12539697 0.1520736 0.05025294
000310 87 e6 0d be 67 3b d3 bd 49 bf 0a be dc b5 dd 3d
       -0.1385747 -0.103140645 -0.13549532 0.108257025
000320 42 81 ca bd c6 0e 9c 3a ee b9 c5 bd 29 40 ef 3c
       -0.09887935 0.0011906258 -0.09654604 0.029205399
000330 aa f4 c3 3d 6f 12 9b bd 47 f9 ec 3d 23 b1 30 bd
       0.0956815 -0.07571875 0.115709834 -0.04313768
000340 49 9c 19 3d ed 71 c3 3b f7 47 02 bd 74 62 79 ba
       0.03750256 0.0059645087 -0.031806912 -0.0009513267
000350 3f 05 68 bd 9a c1 a6 3c bb 6d a0 bc 9b be d6 3c
       -0.056645628 0.020355988 -0.019583574 0.026213935
000360 21 0d b7 bb ce 28 0e be 41 d8 37 bd b5 7f 05 3e
       -0.005586282 -0.13882753 -0.04488397 0.13036998
000370 91 21 b5 3d 3b a9 a1 bd 26 c1 81 bd a5 14 fc bd
       0.08844293 -0.07893606 -0.06335668 -0.12308625
000380 08 5c 03 bd 62 58 09 bd 45 06 9d bd 32 ae 05 3e
       -0.03207019 -0.033531554 -0.076672114 0.13054731
000390 8f 65 6c bd fe 8e af bc 53 1b 8e bd cf e2 e4 bc
       -0.05771404 -0.021430489 -0.069388054 -0.027940182
0003a0 fd b4 ed bd e6 25 60 bc 04 69 e0 bd 53 7c 9a 3d
       -0.116067864 -0.013680911 -0.1095753 0.07543244
0003b0 ca 1f 04 be f8 4f 37 3d 5c 6f b5 ba 86 0d ad bd
       -0.12902752 0.044754 -0.0013842392 -0.08449845
0003c0 16 01 a7 3d 3f 1f 05 3e 36 08 a0 bd 4e 6b 8c 3c
       0.08154504 0.130002 -0.07814066 0.01714101
0003d0 6b d6 ec bd 90 8d f6 3c da f1 9b bd 58 a3 a7 3d
       -0.115643345 0.0300968 -0.07614489 0.08185452
0003e0 ff a6 11 3d ef ea ac 3d 86 43 9d 3d de b1 dd 3d
       0.03555965 0.084432475 0.07678895 0.10824941
0003f0 36 27 c1 3d 25 4c be bb 75 38 86 bd 75 9b 5e bc
       0.09431307 -0.005807417 -0.06553737 -0.0135868685
