Experiment/pre_trained_model/IMDB-BINARY/Edgepred_GPPT.GCN.128hidden_dim.pth (torch, 69712 bytes, 4 tensors)

conv_layers.0.bias f4 [128]
0	0xbbbe3da1	-0.0058056866
1	0x3c807e04	0.015685089
2	0xbe2cbfe3	-0.16870074
3	0xbcef21d8	-0.029190943
4	0x3a370431	0.00069815206
5	0x3dbd148b	0.09232434
6	0x3a8fa943	0.0010960478
7	0x3c40cee4	0.011768077
8	0x3c265079	0.010151022
9	0xbbe18308	-0.006882075
10	0xbe18c6c6	-0.14919576
11	0x3bcd0253	0.0062563806
12	0x3e15d841	0.14633276
13	0x3ae7c889	0.0017683666
14	0x3d7106f7	0.058844533
15	0x3bf5aefa	0.0074976655
16	0x39af5e81	0.00033449012
17	0x3cd1a76f	0.025592534
18	0xbd320c70	-0.043468893
19	0xbdb448f1	-0.08802975
20	0x3e0fd4d2	0.14046028
21	0x3b8823e3	0.0041546687
22	0xbe528a62	-0.20560601
23	0x3a09c200	0.00052550435
24	0x3a1d56e0	0.000600202
25	0x3cb00574	0.021486975
26	0xbe2e72e9	-0.17036022
27	0x3c6a2eb7	0.014293364
28	0x3d82c4c0	0.06385183
29	0xbd797a3e	-0.060907595
30	0xbde37a8d	-0.11107359
31	0x3adecba6	0.0016997948
32	0xbe140696	-0.14455637
33	0xbdd5940f	-0.104286306
34	0x3e23babb	0.15989201
35	0x39d2e965	0.00040228214
36	0x3e0c672f	0.13711236
37	0x3cf40b36	0.029790502
38	0x3c121136	0.008915236
39	0xbcb26c20	-0.021780074
40	0x3e1dcc2d	0.15409918
41	0x3ad81682	0.00164862
42	0x3a96fb2d	0.0011518948
43	0xbcd8685e	-0.026416954
44	0x3c099503	0.008397344
45	0x3b4374c6	0.002982424
46	0x3b0e32a7	0.0021697672
47	0xb9e58ba3	-0.0004378232
48	0xba062dea	-0.0005118536
49	0x3e407b1b	0.18796961
50	0xbdf9e336	-0.1220154
51	0x3bafe3e4	0.005367743
52	0xbe128619	-0.14308967
53	0x3c229a1c	0.009924438
54	0xbef9012b	-0.48633704
55	0x3cad285f	0.021137415
56	0xbdc58470	-0.09644401
57	0x3d99cf16	0.07510202
58	0xbe35361c	-0.17696422
59	0x3c1b0a6a	0.009462932
60	0xba5ad05b	-0.00083470874
61	0x3e82bde5	0.25535503
62	0xbbeeb3d0	-0.007284619
63	0x3b45b230	0.0030166022
64	0xbce397fa	-0.027782429
65	0xbc3800b8	-0.01123064
66	0xbb804b45	-0.003915223
67	0x3c7995a1	0.015233428
68	0xbc12bd57	-0.008956275
69	0x3f390ffc	0.72290015
70	0x3ddb0873	0.10694971
71	0xbdd3b192	-0.10336603
72	0x3b4786fb	0.0030445445
73	0xb9c07838	-0.00036710664
74	0xbd96eb74	-0.07369128
75	0xbe058f62	-0.13042977
76	0x3e88a9c8	0.26692033
77	0x3bd41b42	0.006472976
78	0x3aba61f8	0.0014219871
79	0x3bce0c8a	0.006288116
80	0x3a826a6b	0.0009949928
81	0xbe20e8bf	-0.15713786
82	0x3df4a5e6	0.11945705
83	0x3ddacf35	0.10684053
84	0x3c02a95b	0.007974948
85	0x3ad4c5fc	0.001623332
86	0x3913fbd8	0.00014112832
87	0xbc2f6167	-0.010704375
88	0x3b0159e3	0.0019737415
89	0x3a9270e1	0.0011172557
90	0xbdb0c1fe	-0.08630751
91	0x3b56fa4b	0.0032802995
92	0x3b7a8b8c	0.003823015
93	0xbdaa1924	-0.083055764
94	0x3b0a7e6c	0.0021132482
95	0x3a3b10ec	0.00071360054
96	0xb975a4ea	-0.00023426456
97	0xbde9595a	-0.113939956
98	0xbc5804e1	-0.013184757
99	0x3dccc324	0.099981576
100	0x3bbda05f	0.00578694
101	0x3c39bb2b	0.011336128
102	0x3b97e574	0.0046355072
103	0xbe3694ec	-0.17830247
104	0xbc7eae64	-0.015544508
105	0xbe0ac672	-0.13552263
106	0xbde45e04	-0.111507446
107	0xbda3d59e	-0.079997286
108	0x3f890d64	1.0707211
109	0x3ac008da	0.0014651075
110	0x3b5172b0	0.0031959228
111	0x3beeceab	0.0072878203
112	0xbde8c259	-0.11365194
113	0x3cf55800	0.029949188
114	0xbbbd2c97	-0.005773138
115	0x3a9b5fd7	0.0011854124
116	0x3bd756f9	0.0065716472
117	0x3bd6a16f	0.006550006
118	0x3bd9db4b	0.006648456
119	0x3d2bea42	0.041971453
120	0x3c0cf3bb	0.008603032
121	0x3e021198	0.12702024
122	0x3ba52f55	0.005041043
123	0x3b835405	0.0040078186
124	0xbb392858	-0.0028252807
125	0xba9acb69	-0.0011809889
126	0x3b15fdba	0.0022886829
127	0x3c055ace	0.008139325

conv_layers.0.lin.weight f4 [128, 1]
0	0x3e34f16f	0.17670225
1	0xbd00f1ce	-0.031480603
2	0x3e3c6166	0.1839653
3	0x3d89802d	0.06713901
4	0xbd1db35f	-0.03850114
5	0x3e13707b	0.14398377
6	0xbc18fb45	-0.009337251
7	0xbd7b8d42	-0.06141401
8	0xbdbef9da	-0.09324999
9	0xbe1a9cf0	-0.1509893
10	0x3d807dc5	0.06273989
11	0xbca66824	-0.02031333
12	0x3da3d534	0.0799965
13	0xbd8235c0	-0.06357908
14	0x3e1dc805	0.15408333
15	0xbd876f93	-0.06613078
16	0xbcd8a41f	-0.026445447
17	0x3d2e1561	0.042500857
18	0x3dd31293	0.10306277
19	0x3e342ab0	0.17594409
20	0x3e456f55	0.19280751
21	0xbdc0c851	-0.09413207
22	0x3d5bb4d4	0.053639248
23	0xbba7a026	-0.0051155267
24	0xbba822a8	-0.0051310845
25	0xbdfbb459	-0.12290258
26	0x3e4838df	0.19552945
27	0xbdf58023	-0.11987331
28	0x3de07c28	0.10961181
29	0x3d9a7dbd	0.07543514
30	0x3d91395e	0.0709102
31	0xbd6e5da2	-0.058194764
32	0x3e484f4b	0.19561498
33	0x3d4b1bb5	0.04958697
34	0x3cc9274d	0.024554873
35	0xbdb322e7	-0.087468915
36	0x3db2930d	0.08719454
37	0xbcdc4440	-0.026888013
38	0xbd6b6fa9	-0.057479534
39	0x3e371132	0.17877653
40	0x3d378f86	0.04481461
41	0xbd648f85	-0.055800933
42	0xbc0b517e	-0.008503316
43	0xbb24eda9	-0.002516607
44	0x3dede9ad	0.11616836
45	0xbcf87751	-0.030330332
46	0xbd1ad87d	-0.037804116
47	0xbce98eb4	-0.028510429
48	0xbda467d0	-0.08027613
49	0x3d918c68	0.071068585
50	0x3e28f7fa	0.16500846
51	0xbdf6c271	-0.120488055
52	0x3d508344	0.050906435
53	0x3ddd76c6	0.1081367
54	0x3d5e5dc9	0.05428866
55	0xbd6cee18	-0.05784425
56	0x3de9b045	0.11410574
57	0x3ddd5395	0.10806958
58	0x3da50df6	0.080593035
59	0xbcc7dffc	-0.024398796
60	0xbd1a80d4	-0.037720516
61	0x3c7296c1	0.01480645
62	0xbcc1380e	-0.0235863
63	0xbcf60d52	-0.030035648
64	0x3e086c4c	0.13322562
65	0x3e37e3f9	0.17958058
66	0xbb8c6bd3	-0.0042853146
67	0xbcf6ddd3	-0.03013507
68	0xbb2b086a	-0.0026097544
69	0xbbb1b5db	-0.00542329
70	0x3d40258d	0.04691081
71	0x3d7ca147	0.061677244
72	0xbd3edb86	-0.046596073
73	0xbd03da66	-0.032190703
74	0x3e3a53ba	0.18196002
75	0x3dad5501	0.08463479
76	0x3b7bbd73	0.003841248
77	0xbdad1dc8	-0.08452946
78	0xbd36ee92	-0.044661112
79	0xbdc54886	-0.096329734
80	0xbc3afa68	-0.011412241
81	0x3d961efc	0.073301286
82	0x3e088417	0.13331638
83	0x3dc0bd1a	0.09411068
84	0xbdf36859	-0.11885137
85	0xbd37e319	-0.04489431
86	0xbb0781bd	-0.0020676695
87	0x3e510da0	0.20415354
88	0x3cef9da0	0.029249966
89	0xbc1e6063	-0.009666535
90	0x3dacc08f	0.08435165
91	0xbcfd5068	-0.03092213
92	0xbdb5763d	-0.08860443
93	0x3e206cfb	0.15666573
94	0xbd63318a	-0.055467166
95	0xbbc73071	-0.0060787727
96	0xbdb7020c	-0.08935937
97	0x3e1407b9	0.14456071
98	0x3e266dbd	0.162528
99	0x3d9707f1	0.073745616
100	0xbdb9b198	-0.090670764
101	0xbdad88ce	-0.08473359
102	0xbdd45618	-0.103679836
103	0x3e227879	0.15866269
104	0x3dcc604f	0.09979307
105	0x3e36c94d	0.17850228
106	0x3de84eba	0.11343141
107	0x3d5e80fe	0.054322235
108	0xbdcfdc86	-0.101494834
109	0xbde00761	-0.109389074
110	0xbdc47874	-0.09593287
111	0xbe0a9956	-0.13535056
112	0x3da0b767	0.07847481
113	0xbdb68bc7	-0.08913379
114	0xbc910339	-0.017701732
115	0xbd996b71	-0.07491196
116	0xbcb7b93f	-0.0224272
117	0xbdb41a2b	-0.08794054
118	0xbda07dc1	-0.07836486
119	0x3d8b3d19	0.06798763
120	0xbd2334de	-0.03984534
121	0x3e04a385	0.12953003
122	0xbd354e8e	-0.04426437
123	0xbdac73b4	-0.08420506
124	0xbc8d1d23	-0.017225808
125	0xbbe0b6a9	-0.0068577123
126	0xbd48c704	-0.04901792
127	0xbe09720d	-0.13422413

conv_layers.1.bias f4 [128]
0	0x3c9d2818	0.019184157
1	0xbd5a1148	-0.053239137
2	0x3b1253dd	0.0022327818
3	0xbd5ee54a	-0.054417886
4	0x3c5ab3d0	0.013348535
5	0xbba5b347	-0.005056772
6	0x3cb9a37a	0.02266096
7	0x3cc84a41	0.02444947
8	0x3d6d732d	0.05797117
9	0xbd4e64fe	-0.050389282
10	0xbba80c07	-0.005128387
11	0xbc958bdb	-0.018255165
12	0x3d58ef0c	0.052962348
13	0x3c170e98	0.009219788
14	0xbd5960ff	-0.05307102
15	0x3d103620	0.035207868
16	0x3c903a48	0.017605916
17	0x3b26f8f7	0.0025477984
18	0xbc84dbe7	-0.016218139
19	0x3cd18ff8	0.025581345
20	0xbcbe3a20	-0.023221076
21	0x3d6ab162	0.05729807
22	0xbd5bec6e	-0.053692274
23	0x3ca1b792	0.019740853
24	0xbd7605d5	-0.060064156
25	0x3c23cdb4	0.009997774
26	0xbd66b26f	-0.05632251
27	0xbc7801bc	-0.015137132
28	0x3b8ed2e1	0.004358635
29	0xbc57d32f	-0.013172909
30	0x3c96ab7e	0.01839232
31	0x3d03d6f8	0.032187432
32	0xbd7ece6c	-0.062208578
33	0xbd6580a6	-0.05603089
34	0x3d6572e9	0.05601779
35	0x3d683899	0.0566946
36	0x3d79146c	0.06081049
37	0x3d31a481	0.043369774
38	0xbcf3693b	-0.029713264
39	0x3d378314	0.04480274
40	0xbd660514	-0.056157187
41	0xbca1dd17	-0.019758744
42	0x3d083d07	0.033261325
43	0xbd0d47e3	-0.034492385
44	0xbd7d7835	-0.061882216
45	0xbd0920fe	-0.03347873
46	0x3bc9b9ca	0.006156181
47	0x3cb3789c	0.021908097
48	0x3c864b2e	0.01639327
49	0x3cdf0ef1	0.027228804
50	0xbc90c225	-0.0176707
51	0xbd174d9c	-0.03693925
52	0x3c9eff3a	0.01940881
53	0xbcbb078d	-0.022830749
54	0x3d614df9	0.055006
55	0x3cac1b4c	0.02100911
56	0xbd787c70	-0.060665548
57	0xbd03461a	-0.032049276
58	0x3c113919	0.008863711
59	0xbd04e6ab	-0.032446545
60	0x3c491dd7	0.012275181
61	0xbd825197	-0.06363218
62	0xbcb95635	-0.022624115
63	0x3c2f84c7	0.010712809
64	0xbd076e42	-0.033064134
65	0x3d501cf8	0.050808877
66	0x3d764921	0.060128335
67	0xbd0901fc	-0.033449158
68	0xbcd0cf6a	-0.025489528
69	0x3d80bb9d	0.062857844
70	0xbcd4ee95	-0.025992671
71	0x3d7745fa	0.06036947
72	0xbd384ac8	-0.044993192
73	0x3d80af98	0.06283492
74	0x3b299633	0.002587688
75	0x3d6ea862	0.05826605
76	0xbce38ba6	-0.02777655
77	0x3cfff6c3	0.031245595
78	0x3d7fdcb3	0.062466335
79	0x3d7def46	0.061995767
80	0xbcda5410	-0.026651412
81	0xbd567180	-0.052354336
82	0xbbf18c91	-0.007371493
83	0xbcfb849a	-0.030702878
84	0x3d71b142	0.059006937
85	0xbd18e58c	-0.037328288
86	0x3cc0edb8	0.023550853
87	0x3ca9386f	0.020656792
88	0xbc951a98	-0.018201157
89	0x3d29ed43	0.041486036
90	0xbcb6730e	-0.02227166
91	0xbcee3ab6	-0.02908073
92	0xbd5980a4	-0.053101197
93	0xbd0fe75c	-0.03513275
94	0xbd6e41ea	-0.05816833
95	0x3d65a1ad	0.05606239
96	0x3d4e435f	0.05035722
97	0x3c0e971f	0.008703022
98	0x3d38329d	0.044970144
99	0xbd60e809	-0.054908786
100	0x3d823526	0.063577935
101	0x3d425287	0.047441985
102	0x3c9c9ee1	0.019118728
103	0x3c8dedcb	0.017325303
104	0x3c84c715	0.016208211
105	0xbd8154aa	-0.063149765
106	0xbcc96e9e	-0.02458888
107	0xbd54ffb9	-0.05200169
108	0x3cabaa6c	0.020955287
109	0xbc4fd181	-0.012684227
110	0xbd6316d0	-0.055441678
111	0xbd128c4d	-0.035778333
112	0x3ca78bf0	0.02045247
113	0x3d4ebe98	0.050474733
114	0x3c4838bd	0.012220559
115	0x3c907ae7	0.01763673
116	0x3cb24999	0.02176361
117	0xbd44c33d	-0.048037756
118	0xbc9613d0	-0.018319994
119	0x3d775a5f	0.06038892
120	0x3d7d9c67	0.061916735
121	0x3d0ce31f	0.034396287
122	0xbd23cf65	-0.03999271
123	0xbb883ab3	-0.004157388
124	0x3cac1c11	0.021009477
125	0xbd61f821	-0.055168275
126	0x3d54965e	0.051901214
127	0x3a900a19	0.0010989337

conv_layers.1.lin.weight f4 [128, 128]
0	0x3bebac9e	0.0071922084
1	0x39dc9e4f	0.0004207962
2	0xbda0f2f6	-0.07858841
3	0xbd4395c8	-0.047750264
4	0x3c5b0870	0.013368711
5	0xbdd52f49	-0.104094096
6	0x3a4718a2	0.0007594918
7	0xbb0ba842	-0.0021310006
8	0x3bea3116	0.007146965
9	0x3d14119e	0.036149614
10	0xbd7cfe8e	-0.0617662
11	0x3882bcee	6.234074e-05
12	0xbd973df6	-0.07384865
13	0xbc3e23de	-0.011605231
14	0xbdb9a38f	-0.090643995
15	0xbcaea983	-0.021321064
16	0x37e08460	2.6764523e-05
17	0xbd3856c8	-0.045004636
18	0x3e051cee	0.12999317
19	0xbcb588a3	-0.02215988
20	0x3ca9d03f	0.020729182
21	0xbbff1f25	-0.007785695
22	0x3cc8f9a7	0.024533106
23	0x3af2bd5b	0.0018519567
24	0x383d827c	4.5182634e-05
25	0xbb52f9db	-0.0032192382
26	0x3c710ed0	0.014713004
27	0x3ca76b6a	0.020436961
28	0xbdc8e09e	-0.09808467
29	0x3e18ca8b	0.14921014
30	0xbcea030a	-0.028565902
31	0x3be2c940	0.0069209635
32	0x3df4a752	0.11945976
33	0x3c1bd147	0.009510345
34	0x3c234ec0	0.009967506
35	0x3ca26fd6	0.019828718
36	0xbc93d02e	-0.018043604
37	0x3a5555f3	0.00081381126
38	0x3be8aab1	0.007100426
39	0xbcd6b091	-0.02620724
40	0xbd432115	-0.04763897
41	0x3c049fc2	0.00809473
42	0x3bec9b52	0.007220664
43	0xba18a531	-0.0005822955
44	0xbe0ef2d4	-0.13959819
45	0x39cfd827	0.00039643163
46	0x3bafe7be	0.005368202
47	0xba97c49e	-0.0011578982
48	0x3c65361d	0.013989952
49	0xbd992cb9	-0.07479233
50	0x3da984cb	0.082772814
51	0x3af79de3	0.0018891658
52	0x3d4b29f4	0.049600556
53	0xbdb35ef8	-0.08758348
54	0xbd090d92	-0.033460207
55	0xba9ce9e8	-0.0011971565
56	0x3dadf8fd	0.08494756
57	0xbdef8fcf	-0.11697351
58	0x3c49c1bb	0.012314255
59	0x39aa6a6f	0.00032504226
60	0xb82e9cb8	-4.163079e-05
61	0xbd0a95aa	-0.033834137
62	0xb926112e	-0.00015837394
63	0x391005cc	0.0001373507
64	0xbda61b7d	-0.08110712
65	0xbd20a958	-0.039224
66	0xb8d009d0	-9.9200406e-05
67	0x3991b67e	0.00027792522
68	0x3ac9fea5	0.0015410973
69	0x3e7547ae	0.23953125
70	0xbda52051	-0.080628045
71	0xbde8c636	-0.11365931
72	0xbca2d264	-0.019875713
73	0xba03a52d	-0.00050218665
74	0x3dfe085d	0.12403939
75	0xbc681b16	-0.014166614
76	0xbd2b9eb2	-0.04189939
77	0xbc39b43f	-0.011334478
78	0x3b1a0570	0.0023501776
79	0x3cd0af06	0.025474083
80	0xbaa81298	-0.0012822924
81	0x3ded125b	0.11575767
82	0x3e0b4db4	0.1360386
83	0x3d19703b	0.037460547
84	0x3c694eef	0.014240011
85	0x3b768b7e	0.0037619765
86	0x37284de4	1.0031716e-05
87	0xbd67ec1a	-0.05662165
88	0xbd01dde3	-0.03170575
89	0xb96c8e44	-0.00022559712
90	0xbb8396a4	-0.0040157605
91	0x3a16d903	0.0005754383
92	0x3a17800b	0.0005779273
93	0x3daf4717	0.08558481
94	0xbb802d20	-0.0039116293
95	0x38cee476	9.8653996e-05
96	0xbc7fe4d6	-0.015618524
97	0x3dfce55b	0.123484336
98	0x3e0f87a3	0.14016585
99	0xbdf321e0	-0.118716955
100	0xbca46e98	-0.020072266
101	0x3ccfd36c	0.025369368
102	0x3c9c9cf3	0.019117808
103	0xbc6d5316	-0.014485141
104	0x3d0236cb	0.031790536
105	0x3cc3781c	0.023860984
106	0xbd2c0ace	-0.04200249
107	0x3da6c984	0.08143905
108	0xbf4f2e53	-0.8093006
109	0xbcc06c95	-0.023489276
110	0xbbf8b622	-0.0075900713
111	0xbca6fabf	-0.020383237
112	0x3d88a576	0.06672184
113	0xbc15017f	-0.009094595
114	0xb9846540	-0.0002525244
115	0xbc3f7133	-0.011684704
116	0x396219fb	0.00021562718
117	0xbc80cd67	-0.015722943
118	0xbb799518	-0.0038083252
119	0xbdaa9e4f	-0.08330976
120	0x3a8aec17	0.0010598925
121	0x3e08f666	0.13375244
122	0x3a3c91f8	0.0007193382
123	0xbc114a3d	-0.008867797
124	0xb8602a93	-5.3445412e-05
125	0xbbd3cf8f	-0.006463952
126	0xba2ac713	-0.000651465
127	0xbc02bfbb	-0.007980282
128	0xbe00007e	-0.12500188
129	0xb8c3881c	-9.323677e-05
130	0x3dc1c4d3	0.09461369
131	0x3d77cdb5	0.060498912
132	0xb74089ab	-1.1476145e-05
133	0x3df93d10	0.1216985
134	0x36f18488	7.1977884e-06
135	0xb621cdde	-2.41107e-06
136	0xb8f87314	-0.000118469965
137	0xb79cab73	-1.8676486e-05
138	0xbd739d73	-0.059476327
139	0xb724797d	-9.803448e-06
140	0xbdc064b6	-0.09394209
141	0xb83f2f00	-4.558172e-05
142	0x3de6576c	0.11247143
143	0xb8efa386	-0.00011426867
144	0x38715385	5.753666e-05
145	0xbd997069	-0.07492144
146	0xbd8e03cc	-0.06934318
147	0x3e0271ed	0.12738772
148	0x3d8c90eb	0.068635784
149	0xb8307e6c	-4.207941e-05
150	0xbc675747	-0.01411993
151	0xb69ebdc4	-4.7308586e-06
152	0xb5cf4abe	-1.5444455e-06
153	0xb966107b	-0.00021940649
154	0xbda2a8b6	-0.07942335
155	0xb9091d74	-0.0001307631
156	0x3d5b6ea6	0.05357232
157	0x3d39c87d	0.045357216
158	0x3dea25c6	0.11432986
159	0xb744f739	-1.1740071e-05
160	0x3d9aef51	0.07565177
161	0xbd1a87c6	-0.03772714
162	0xbd022249	-0.031770978
163	0xb81fab4d	-3.806809e-05
164	0xbd4bf129	-0.049790535
165	0xb8c0ed25	-9.199445e-05
166	0xb8168220	-3.5883975e-05
167	0xbd8b1bef	-0.06792437
168	0xbd4c9bcb	-0.049953263
169	0x35a748e0	1.2463679e-06
170	0xb5b86f72	-1.3741503e-06
171	0x391dcc16	0.00015048715
172	0x3ddf5869	0.10905535
173	0x38245942	3.9183775e-05
174	0xb6aa2565	-5.070748e-06
175	0x3799a359	1.8315086e-05
176	0x37cdf314	2.4551096e-05
177	0xbd0cbf25	-0.034361977
178	0xbd55ca0a	-0.052194633
179	0xb979e51e	-0.00023831843
180	0x3db19fe2	0.08673073
181	0xbdc76f63	-0.09738042
182	0x3da31e98	0.0796482
183	0xb8ad5459	-8.264994e-05
184	0x3d570dc7	0.052503373
185	0x3d51cb72	0.05121941
186	0x3d9ad85c	0.075607985
187	0xb80bd7ac	-3.3341043e-05
188	0x3853465c	5.0371847e-05
189	0xbd80ba9f	-0.06285595
190	0x38af0e18	8.3472754e-05
191	0x3794adfa	1.7723989e-05
192	0x3aa154cf	0.00123086
193	0xbc47a3e8	-0.012185074
194	0x38088f3f	3.2558335e-05
195	0xb7bd6074	-2.257547e-05
196	0x38b159ad	8.456721e-05
197	0xbed1c9fe	-0.4097442
198	0xbd379a56	-0.04482492
199	0x3db5f722	0.088850275
200	0xb89297ef	-6.990122e-05
201	0x38017660	3.0866242e-05
202	0x3df936fd	0.12168691
203	0xbc2b29ba	-0.01044696
204	0xbe09d29c	-0.13459247
205	0xb730f6ef	-1.0547911e-05
206	0xb7bcbb16	-2.2498465e-05
207	0xb8ecb6a1	-0.00011287374
208	0x374b1588	1.2104756e-05
209	0x3cd5d568	0.026102737
210	0xbdb8290a	-0.089922026
211	0x3d2cd8ac	0.042198822
212	0xb9694a6c	-0.00022248336
213	0x371bab18	9.278556e-06
214	0x369599f7	4.45847e-06
215	0xbcb72ea5	-0.022361109
216	0xbd9744b7	-0.07386153
217	0xb5cdb5fc	-1.5326655e-06
218	0xbcdcd518	-0.02695708
219	0x370955f0	8.185845e-06
220	0xb895663f	-7.1239185e-05
221	0xbadd409c	-0.0016880217
222	0x383bb43a	4.4752123e-05
223	0x36471049	2.966279e-06
224	0xb88a8827	-6.605713e-05
225	0xbd9fffdf	-0.078124754
226	0x3da1b8cb	0.078965746
227	0xbd73503a	-0.059402682
228	0xb8d0977b	-9.946428e-05
229	0xb93059a5	-0.00016818063
230	0xb8ad15b1	-8.253323e-05
231	0xbdbfb142	-0.09359981
232	0xbd898de7	-0.06716519
233	0xbbcc798d	-0.006240076
234	0x3d5613c2	0.052264936
235	0xbca18eb4	-0.019721366
236	0x3f498aeb	0.78727597
237	0xb7a91731	-2.015717e-05
238	0xb90060a6	-0.00012243036
239	0xb93df292	-0.00018114809
240	0xbd8cf777	-0.06883138
241	0xb92db360	-0.00016565388
242	0x38810432	6.151981e-05
243	0x3833de1d	4.2883785e-05
244	0x3777f585	1.4779512e-05
245	0xb9136aca	-0.00014058794
246	0xb7e14f8f	-2.6859138e-05
247	0x3be49d2d	0.0069767446
248	0xb87451c7	-5.8250294e-05
249	0xbca35594	-0.019938268
250	0x38090042	3.2663585e-05
251	0xb8bd3940	-9.022886e-05
252	0x38571ea9	5.128855e-05
253	0x37848496	1.5797366e-05
254	0x38181195	3.6256e-05
255	0xb96f5bb5	-0.0002282698
