Experiment/pre_trained_model/Texas/Edgepred_Gprompt.GCN.128hidden_dim.pth (torch, 941160 bytes, 4 tensors)

conv_layers.0.bias f4 [128]
-0.003641941 0.0108221285 -0.006943888 -0.008465679 -0.0014870005 0.0035899286 0.008764328 -0.0028408305
-0.0046092076 -0.002848824 -0.0019401712 0.0012792526 -0.0018414876 -0.0030593046 -0.012519193 0.0065060593
0.014031635 -0.0047931382 0.004969917 -0.008169424 0.0005591178 -0.005960135 -0.0027382842 0.019354766
0.006104215 -0.0037863706 -0.00017979874 -0.0020104954 -0.0016671055 -0.0011383642 -0.00023024956 -0.0030672816
-0.010109171 -0.00054789125 -0.0030246307 4.4485874e-05 -0.0075778603 -0.00048559238 -0.005129968 -0.005967036
-0.002497648 -0.004045471 -0.002084279 0.00036767428 0.0029573496 -0.0038659952 -0.0072630467 -0.004401791
-0.00043698977 0.00050313724 -0.0027528657 0.0024295752 0.003826141 -0.0037650126 0.014588836 0.0046290853
-0.003756238 0.0005655684 0.0051510413 0.0030651614 0.0045993533 -0.00020036972 -0.0026311192 0.0023697943
0.00041084283 -0.00084669725 -0.00354198 0.010819067 -0.007463457 -5.6224897e-05 -0.0001224075 0.0020481478
0.0029011008 -0.009213195 -0.0061125597 0.0017152884 0.0027555902 -0.0058438047 -0.005836036 0.0063422467
-0.0017913238 -0.005082966 0.010819115 0.001459116 0.0039596595 0.0028063387 0.0026566815 -0.0010331803
-0.0031198028 -0.006516484 0.0065245833 0.00062384905 -0.0069302595 0.0049395375 -0.0021881824 -0.007891407
0.0018984509 -0.0024343207 -0.0048027122 0.00019726889 0.0030945444 0.0018880528 -0.008729894 9.623482e-05
-0.003954118 0.014090725 -0.007469026 -0.0032234713 8.996972e-05 -0.004564801 -0.003168701 0.0051097604
-0.008555849 0.0015919318 0.0039540683 -0.0060330527 0.0019869509 0.002179694 0.00048794656 0.010573335
-0.008766201 -0.001944754 0.0012797752 0.0014125893 0.0033596382 -0.007637395 0.0011436864 0.0016052881
00000000: a1ad 6ebb 4c4f 313c 8e89 e3bb a2b3 0abc
00000010: 75e7 c2ba 0245 6b3b 4298 0f3c 3a2d 3abb
00000020: d608 97bb 56b3 3abb 584d feba 98ac a73a
00000030: 125e f1ba 9d7e 48bb 4d1d 4dbc c830 d53b
00000040: f1e4 653c c20f 9dbb afda a23b 0cd9 05bc
00000050: c391 123a 3c4d c3bb c974 33bb e38d 9e3c
00000060: de05 c83b c224 78bb 5b88 3cb9 84c2 03bb
00000070: c782 daba 2a35 95ba 256f 71b9 7204 49bb
00000080: f0a0 25bc 5ca0 0fba e238 46bb 5896 3a38
00000090: b34f f8bb 1b97 feb9 4a19 a8bb 2087 c3bb
000000a0: 94af 23bb df8f 84bb 6698 08bb 68c4 c039
000000b0: 18d0 413b a35c 7dbb dafe edbb e63c 90bb
000000c0: c61b e5b9 f8e4 033a 6c69 34bb 8239 1f3b
000000d0: febf 7a3b 6ebe 76bb 0306 6f3c 95af 973b
000000e0: 372b 76bb a742 143a 11ca a83b e0e0 483b
000000f0: 2cb6 963b 561a 52b9 db6e 2cbb 8d4e 1b3b
00000100: 6466 d739 e4f4 5dba 9020 68bb 7542 313c
00000110: 0490 f4bb 06d3 6bb8 835a 00b9 383a 063b
00000120: 6520 3e3b f1f2 16bc de4b c8bb 87d3 e03a
00000130: 2297 343b 637d bfbb 383c bfbb 9fd2 cf3b
00000140: daca eaba 028f a6bb a842 313c cf3f bf3a
00000150: 08c0 813b 8dea 373b b81b 2e3b c76b 87ba
00000160: 9b75 4cbb 3b88 d5bb 2ccc d53b cd89 233a
00000170: 3b17 e3bb d8db a13b 9c67 0fbb f64a 01bc
00000180: 71d5 f83a 2089 1fbb 1260 9dbb f7d9 4e39
00000190: d7cd 4a3b 8a78 f73a d407 0fbc add1 c938
000001a0: 8c91 81bb c9dc 663c bbbe f4bb e040 53bb
000001b0: 20ae bc38 5494 95bb fba9 4fbb c76f a73b
000001c0: d52d 0cbc 5ea8 d03a 2191 813b eab0 c5bb
000001d0: 8137 023b 32d9 0e3b 14d3 ff39 c83b 2d3c
000001e0: 1da0 0fbc 1ee7 feba 21be a73a a226 b93a
000001f0: 602d 5c3b 1d43 fabb bfe7 953a 8868 d23a

conv_layers.0.lin.weight f4 [128, 1703]
-0.039084177 0.0009589741 0.005365106 -0.010986596 -0.03355741 0.014860931 0.011761348 -0.02727121
-0.014542601 -1.8257414e-13 -0.003637033 -0.019764606 -0.0005667467 -0.030229233 2.572334e-15 0.038059216
-0.00054074137 -0.056499895 0.049814872 0.027669782 0.009868929 0.023246426 -0.0015022084 0.034364324
-0.0067226123 -0.0012710713 -0.011083152 -0.03541972 -0.014766783 -0.014485567 0.017755127 0.011862686
0.000422193 0.034161367 0.01985728 -0.021165427 -0.007967355 0.0010785905 0.012417125 1.5291704e-14
-0.008334205 -0.00048613877 0.033953067 -6.0570343e-14 -1.04637246e-13 0.028409643 0.058454316 0.016134957
0.01123651 2.3262647e-13 -0.04541409 0.0012362535 -0.019599332 0.00039102402 -0.0024849982 -0.00966288
0.002659342 -0.015531404 0.016481686 0.013416487 2.9616836e-13 -3.5966133e-15 -0.039500363 -0.0013291955
0.0010760315 -0.008117902 0.050222997 -0.0011396689 -0.015835997 -2.644372e-13 0.024318898 -0.0009731095
-6.946459e-13 0.0049869893 3.3786803e-13 -0.0018771118 -0.0036940142 -0.00057263806 0.043143105 -0.002277259
0.02850552 -0.002422878 0.00016146165 0.0005856044 -0.00085796707 -2.6348173e-13 -0.0014083212 0.0010930763
-1.8043477e-16 0.058703743 0.045957476 0.0026804686 0.016619235 0.02502181 -0.00044874448 0.008799555
0.006338951 0.0005941642 0.005906826 -0.022075105 -0.03890293 6.156591e-14 -0.02920664 -3.5992512e-13
-0.00016264919 0.018067421 -0.00029641716 2.2887284e-14 -0.00026753248 -0.02488814 0.0002061834 7.9162024e-13
0.012230078 -0.04202671 0.004168397 -0.051208112 0.063522846 0.035645235 0.0010994434 0.014476684
-0.024867728 0.014511351 0.001782617 4.547903e-15 -0.0009743315 0.014358218 0.045922443 -0.00044746522
-0.002462423 0.004159819 -0.040303003 -0.034778573 -0.03322182 0.018884558 0.0008864715 -0.04450298
0.00049817865 0.00035225204 0.0036118098 -0.0035391133 -1.4556243e-14 -0.015299827 -0.049965035 0.025814876
-0.04194569 -0.006181231 0.0123266345 -0.014514209 -0.0016925348 0.009675535 0.0044324906 -0.0005120595
-0.022098048 0.0145966085 0.0043023103 1.936713e-15 0.00086792215 0.0070685213 -0.013177071 3.293693e-14
-0.0018290764 -0.008973118 -0.0018237054 -0.0043038037 0.0001678031 -2.0419358e-13 -0.01053634 -0.0139532285
-4.52403e-14 -6.808198e-14 -0.041634426 0.015343766 0.00077983865 -0.014183199 -0.014013443 3.9971778e-13
3.746862e-14 -0.0010972247 -0.002910102 1.6479995e-13 8.52518e-13 -0.039809596 0.009555048 0.00039903724
-0.0037476511 -0.035244875 -0.011791228 0.049455002 0.059406474 -1.3900059e-13 -0.0014879474 0.006431504
2.889186e-13 -0.0014012243 0.042962596 -0.009602788 -0.035965186 8.85858e-14 0.017526567 -1.7999499e-13
-0.0048705894 -0.02275056 2.7480598e-13 -0.022600878 -0.0045275073 -0.0010044063 -0.004237729 -0.009643391
-3.6929612e-13 -0.006925034 0.037596434 -0.0035178862 -7.826617e-14 0.022649042 0.0014762417 0.0005721751
0.0014692304 0.06488063 0.0562825 0.010919636 -0.0031239947 0.029514033 -0.0017988627 0.021115767
-3.561438e-14 -0.018006666 -0.041101627 0.047262557 -0.008451729 -3.330536e-05 0.0031286806 -4.4622053e-13
-0.0033765887 -0.043673545 -0.00044367518 0.042659216 0.0072053424 -0.0201571 -0.024605958 0.0011085252
-0.0011155701 0.00024566465 0.012332814 -0.032459445 -0.03518108 -0.00045532 0.037905417 -0.0012431025
-0.0016687614 -0.0038221746 0.007959611 0.0072067366 0.03279869 -0.00016725017 -0.00019068665 0.0009095192
00000000: bb16 20bd aa63 7b3a c5cd af3b 2001 34bc
00000010: 7f73 09bd 437b 733c abb2 403c df67 dfbc
00000020: 1744 6ebc 6a8f 4daa 4a5b 6ebb 62e9 a1bc
00000030: ba91 14ba 4ca3 f7bc 305b 3927 fbe3 1b3d
00000040: 8ac0 0dba 6f6c 67bd ae0a 4c3d bdab e23c
00000050: 4ab1 213c 4a6f be3c c0e5 c4ba 9bc1 0c3d
00000060: 5c49 dcbb 139a a6ba 1c96 35bc 4514 11bd
00000070: 61f0 71bc df54 6dbc 3373 913c b65b 423c
00000080: c959 dd39 caec 0b3d bcab a23c 1e63 adbc
00000090: 8289 02bc 7e5f 8d3a 3271 4b3c 45bc 8928
000000a0: 308c 08bc 71e0 feb9 5f12 0b3d 6d64 88a9
000000b0: 449f eba9 57bb e83c cb6d 6f3d 752d 843c
000000c0: 5719 383c 02f5 822a 2004 3abd c909 a23a
000000d0: c78e a0bc 5b02 cd39 5adb 22bb 0e51 1ebc
000000e0: 5b48 2e3b 6e77 7ebc 9a04 873c d3d0 5b3c
000000f0: 5cba a62a e794 81a7 22cb 21bd 6638 aeba
00000100: a009 8d3a f300 05bc a1b6 4d3d f160 95ba
00000110: 7eba 81bc 6bdd 94aa 6d38 c73c 4618 7fba
00000120: 8386 43ab e669 a33b ea33 be2a 6c09 f6ba
00000130: 4617 72bb 171d 16ba d3b6 303d 113e 15bb
00000140: 6984 e93c 26c9 1ebb 084e 2939 3f83 193a
00000150: 32e9 60ba b853 94aa 6b97 b8ba 8e45 8f3a
00000160: f206 50a5 5673 703d e83d 3c3d cdaa 2f3b
00000170: 1025 883c 8afa cc3c 7745 ebb9 022c 103c
00000180: fab6 cf3b afc1 1b3a 0c8e c13b dad6 b4bc
00000190: ae58 1fbd 55a2 8a29 c342 efbc ad9e caaa
000001a0: cf8c 2ab9 2102 943c 7068 9bb9 7c26 ce28
000001b0: 9a43 8cb9 36e2 cbbc ef32 5839 40d2 5e2b
000001c0: aa60 483c 3324 2cbd 0c97 883b 99bf 51bd
000001d0: 4418 823d bd00 123d 331b 903a 9d2f 6d3c
000001e0: 68b7 cbbc 04c1 6d3c b3a6 e93a 00db a327
000001f0: 486a 7fba bb3e 6b3c 2c19 3c3d c499 eab9
00000200: 9a60 21bb 174f 883b c314 25bd fa73 0ebd
00000210: 9a13 08bd cab3 9a3c 1862 683a c248 36bd
00000220: 3498 023a 78ae b839 1db4 6c3b 78f0 67bb
00000230: 691c 83a8 20ac 7abc 23a8 4cbd b879 d33c
00000240: 3ecf 2bbd ec8b cabb a7f5 493c 01cd 6dbc
00000250: 0bd8 ddba 2386 1e3c 6d3e 913b bb3b 06ba
00000260: f706 b5bc 9d26 6f3c 65fa 8c3b 0d8e 0b27
00000270: 4585 633a 0e9f e73b a4e4 57bc b255 1429
00000280: 9fbd efba fc03 13bc 6609 efba ec06 8dbb
00000290: 4df4 2f39 cbe6 65aa 9da0 2cbc 159c 64bc
000002a0: 84be 4ba9 974e 99a9 dc88 2abd 6b64 7b3c
000002b0: 166e 4c3a a660 68bc a498 65bc 6705 e12a
000002c0: 61be 2829 c0d0 8fba 69b7 3ebb 5a8c 392a
000002d0: 65f6 6f2b 630f 23bd c78c 1c3c df35 d139
000002e0: 279b 75bb ee5c 10bd ff2f 41bc 5491 4a3d
000002f0: 3454 733d 3180 1caa 3b07 c3ba 5ebf d23b
00000300: 8fa5 a22a 49a9 b7ba 8cf9 2f3d 0355 1dbc
00000310: 3b50 13bd 3d7a c729 e093 8f3c 06a8 4aaa
00000320: 7799 9fbb 625f babc b7b3 9a2a 7a25 b9bc
00000330: 7c5b 94bb 48a6 83ba a6dc 8abb 50ff 1dbc
00000340: 2ee5 cfaa 65eb e2bb b8fe 193d 568c 66bb
00000350: 603d b0a9 7c8a b93c 747e c13a 05fe 153a
00000360: 3193 c03a 23e0 843d 7b88 663d 46e8 323c
00000370: efbb 4cbb 6ac7 f13c d1c7 ebba f9fa ac3c
00000380: 9664 20a9 b782 93bc 2e5a 28bd 6296 413d
00000390: 1f79 0abc 5cb1 0bb8 8d0a 4d3b 2833 fbaa
000003a0: c249 5dbb 08e3 32bd 139d e8b9 6ebb 2e3d
000003b0: cb1a ec3b 8120 a5bc 6f92 c9bc ef4b 913a
000003c0: 5238 92ba 8dcc 8039 920f 4a3c 32f4 04bd
000003d0: 091a 10bd 04b8 eeb9 b642 1b3d 99ef a2ba
000003e0: 57ba daba 737d 7abb 0769 023c 7d26 ec3b
000003f0: eb57 063d e05f 2fb9 0ff3 47b9 cd6c 6e3a

conv_layers.1.bias f4 [128]
0.002048419 0.011377203 0.0022567464 -0.006649357 0.009114409 0.002739561 -0.008388179 -0.0060661607
-0.0025951136 -0.002924774 0.0063108164 -0.009025593 -0.0038913311 -0.010471514 -0.010707267 -0.0026234868
-0.008185885 0.004651527 -0.0098721 0.010283361 -0.004477745 -0.006973188 -0.010890609 -0.013064983
0.011787241 0.0066278996 -0.007142081 0.005255562 -0.013287479 0.0012514248 -0.013293831 0.0063970606
-0.00449175 0.010453434 -0.007825437 0.012945476 -0.010078779 -0.013429962 0.0007772021 0.012439634
0.0032858606 -0.007689755 -0.0058015496 0.008242111 0.008865299 0.014402328 -0.0062989527 0.0015730938
0.00474254 -0.009498617 -0.008579799 -7.834003e-05 -0.01280512 -0.01184786 -0.009203191 0.002152738
-0.005215236 0.001607694 0.006317396 0.011163685 0.0062947236 -0.00094340387 -0.009496939 -0.0006590938
0.0049770544 -0.013992968 0.015721235 -0.011765335 0.0074694618 0.0016451109 0.008090663 -0.004588942
-0.0062364666 0.0060926685 0.007112416 -0.012739321 -0.007980625 -0.0017785499 -0.010007451 -0.008096579
-0.00024203943 0.008437891 -0.011554575 -0.0020611025 -0.013275855 0.0022428303 0.014945006 0.00078242534
-0.002507624 0.009360269 0.0025055239 0.0057077357 9.694007e-05 0.011947569 -0.010866282 0.011621066
0.014126984 -0.012328378 -0.005990527 0.0041635227 -0.0073477286 0.0032448112 0.00839247 0.007533142
-0.00289992 0.0032921163 1.0368979e-05 0.015632136 0.0017689754 -0.0030616478 0.00543249 -0.0024556506
0.00082642544 -0.0050641 -6.161809e-05 -0.00027283104 0.01062186 0.00810223 0.010512704 0.002285599
-0.014048313 0.005575834 0.0069805565 0.010595922 0.009068081 -0.005080162 0.0036057585 -0.006575221
00000000: c53e 063b 7367 3a3c ece5 133b d9e2 d9bb
00000010: 9a54 153c 358a 333b 936e 09bc a5c6 c6bb
00000020: c812 2abb 91ad 3fbb f7ca ce3b 15e0 13bc
00000030: b405 7fbb b790 2bbc 886d 2fbc ceee 2bbb
00000040: 171e 06bc d66b 983b 97be 21bc 8b7b 283c
00000050: 0cba 92bb 577f e4bb 866e 32bc 830e 56bc
00000060: 461f 413c da2e d93b 1e08 eabb d936 ac3b
00000070: bab3 59bc d906 a43a 5ece 59bc 6f9e d13b
00000080: 882f 93bb e144 2b3c 4336 00bc 4319 543c
00000090: 7721 25bc 5809 5cbc 26bd 4b3a 9bcf 4b3c
000000a0: 9857 573b 57fa fbbb ed1a bebb eb09 073c
000000b0: c23f 113c bef7 6b3c 7267 cebb 4530 ce3a
000000c0: 4f67 9b3b 16a0 1bbc 4992 0cbc 7c4a a4b8
000000d0: 91cc 51bc 871d 42bc fbc8 16bc f314 0d3b
000000e0: 92e4 aabb 42b9 d23a 2902 cf3b e3e7 363c
000000f0: f843 ce3b c34e 77ba 0d99 1bbc 09c7 2cba
00000100: 8f16 a33b c342 65bc d2c9 803c 64c3 40bc
00000110: 63c2 f43b c3a0 d73a b38e 043c d65e 96bb
00000120: 465b ccbb 02a5 c73b 450f e93b 96b8 50bc
00000130: 2bc1 02bc 3b1e e9ba 4bf6 23bc 84a7 04bc
00000140: f7cb 7db9 143f 0a3c 664f 3dbc 9013 07bb
00000150: f982 59bc 73fc 123b e6db 743c ad1b 4d3a
00000160: f356 24bb d05b 193c b733 243b f507 bb3b
00000170: 4e4c cb38 bdbf 433c 7d08 32bc 4966 3e3c
00000180: de74 673c f7fc 49bc 2f4c c4bb 296e 883b
00000190: 37c5 f0bb e6a6 543b 9280 093c 93d8 f63b
000001a0: 960c 3ebb 8cc0 573b 6df6 2d37 f70e 803c
000001b0: f7dc e73a eda5 48bb 0703 b23b fbee 20bb
000001c0: 79a4 583a c0f0 a5bb f638 81b8 c30a 8fb9
000001d0: 4f07 2e3c 37bf 043c 7a3d 2c3c fdc9 153b
000001e0: e52a 66bc 7cb5 b63b 27bd e43b 859a 2d3c
000001f0: 4a92 143c 7d77 a6bb 974e 6c3b f474 d7bb

conv_layers.1.lin.weight f4 [128, 128]
0.118458234 0.11475259 0.046849 0.09152159 0.013242133 -0.07461532 -0.061946508 0.116228506
-0.038063914 -0.01935503 0.0064754505 0.10650826 -0.0008461431 -0.089097686 0.07293634 -0.028815918
-0.0965743 0.008583608 0.06097555 -0.040069565 -0.11436467 0.10445802 -0.108408876 -0.09728642
-0.11559903 -0.10363778 -0.08301072 0.034808017 -0.13078025 -0.12914193 -0.13539732 -0.066798896
-0.1272006 0.14398563 -0.08671774 0.014920201 0.08953207 0.004120099 -0.09166882 0.15734954
0.03276786 0.0110314 0.07193182 -0.02231109 -0.10530137 0.0053064018 -0.022743063 -0.016582038
0.040901557 0.015080488 -0.032442037 -0.010899917 0.0419893 -0.040506437 -0.077562295 -0.13183305
-0.006477984 -0.05978378 0.011948438 -0.13750775 -0.06040222 -0.024265826 0.09929332 0.0811482
-0.10916442 -0.0704943 0.101750754 0.02445252 0.008412308 0.05493979 0.013452544 0.15638858
-0.11432949 -0.09381959 0.028891755 -0.027338324 0.060481507 0.13804427 0.025094565 -0.10163636
0.1512995 0.12872657 -0.039778873 -0.019549185 0.08318092 0.045001704 -0.15024978 -0.13914037
0.0032260532 -0.06697753 -0.003578717 0.11965518 -0.1015514 0.10327099 -0.024881838 0.031195648
-0.13079667 0.08359997 0.08273148 0.12222208 0.060989916 -0.11368841 -0.09301841 -0.10940559
0.1314458 0.011200743 0.04894166 -0.1091586 -0.12839063 0.11224905 0.073798746 -0.11896566
-0.09518329 -0.054531526 0.029327787 0.13019693 -0.03333601 -0.10771464 -0.0032361974 -0.083601385
-0.080245994 0.098676234 0.01171046 0.06836287 -0.007949651 0.043182503 -0.020905776 -0.14678049
0.02649419 -0.10359645 -0.16449729 0.028208582 -0.10911442 0.10406041 -0.0980698 -0.026718967
0.00738216 0.020647898 0.10946213 -0.04528988 0.113571815 -0.09639496 -0.031161398 -0.0064700306
-0.10085656 -0.010502095 -0.053504925 -0.08860435 -0.083991475 0.06613901 0.06591844 -0.003652071
-0.027797772 -0.006904447 0.086678766 0.07061855 -0.006373692 0.036308307 -0.0875306 0.11408807
-0.13262773 0.049424984 0.02582655 0.06782013 -0.14138894 0.011082548 0.10836423 0.1172133
-0.048923828 0.09785206 -0.06425073 0.10787695 0.12559877 0.005519002 0.09090328 -0.13807952
0.015277072 -0.117801145 -0.07086535 -0.12449945 0.1283162 0.035066355 -0.1328753 0.09113467
-0.10078909 0.12932642 -0.12488157 0.05122522 -0.01890885 0.0523113 -0.12711701 -0.09239718
-0.084073335 -0.045937862 -0.12908411 -0.13948953 0.048341677 0.0774194 -0.07928078 0.05115941
-0.12341744 0.012080567 0.13305074 -0.014433421 0.07378019 -0.03264723 -0.09109987 0.039142903
-0.017270995 -0.0895921 0.04507763 -0.07280799 -0.15047204 0.020774096 0.12701786 0.047789022
-0.053521916 0.08385455 0.115210414 -0.09013392 0.1296131 0.01708655 0.019822253 0.042831417
0.08328642 0.14249727 0.046256203 0.058226906 -0.122883886 0.13733213 -0.08310576 -0.10434639
-0.0014728793 0.10936894 0.1012998 -0.13714348 -0.08205493 0.11887878 -0.037712477 0.11196922
0.059970643 -0.0725101 0.08508109 -0.07086533 -0.12462633 -0.097704366 0.08409 -0.00971535
0.12384726 -0.088618636 0.1054872 -0.05431907 -0.01801715 0.05663863 0.06432147 -0.016191287
00000000: 3b9a f23d 6803 eb3d bde4 3f3d ac6f bb3d
00000010: 88f5 583c ebcf 98bd 9fbb 7dbd 3609 ee3d
00000020: e8e8 1bbd 718e 9ebc 0430 d43b 0121 da3d
00000030: b4cf 5dba d978 b6bd a65f 953d 5c0f ecbc
00000040: bfc8 c5bd 43a2 0c3c 80c1 793d fc1f 24bd
00000050: 0638 eabd 16ee d53d 7905 debd 1a3e c7bd
00000060: 2fbf ecbd 0b40 d4bd 8601 aabd da92 0e3d
00000070: 42eb 05be c83d 04be 98a5 0abe dccd 88bd
00000080: e040 02be f870 133e 1299 b1bd dc73 743c
00000090: 975c b73d e501 873b ddbc bbbd 3d20 213e
000000a0: 9737 063d 0cbd 343c fd50 933d bfc5 b6bc
000000b0: 3fa8 d7bd 53e1 ad3b a94f babc 0ed7 87bc
000000c0: 6488 273d 2714 773c f1e1 04bd 9195 32bc
000000d0: f9fc 2b3d 14ea 25bd fbd8 9ebd 3eff 06be
000000e0: 4545 d4bb d6df 74bd 62c3 433c d5ce 0cbe
000000f0: 5168 77bd 20c9 c6bc 4c5a cb3d 0731 a63d
00000100: 9891 dfbd 515f 90bd b362 d03d a750 c83c
00000110: c7d3 093c 8c08 613d 0f68 5c3c 5424 203e
00000120: 9425 eabd 7c24 c0bd 67ae ec3c 9ff4 dfbc
00000130: 75bb 773d 7a5b 0d3e 1e93 cd3c b926 d0bd
00000140: 42ee 1a3e e6d0 033e 2cef 22bd 9d25 a0bc
00000150: c25a aa3d b553 383d 14db 19be d07a 0ebe
00000160: 316c 533b 842b 89bd e888 6abb c60d f53d
00000170: 2efa cfbd be7f d33d ffd4 cbbc 048e ff3c
00000180: 90ef 05be 7636 ab3d 1f6f a93d 924f fa3d
00000190: 90d0 793d 78d5 e8bd 7080 bebd 0a10 e0bd
000001a0: ba99 063e 5283 373c 0d77 483d 8b8e dfbd
000001b0: d578 03be d4e2 e53d cc23 973d 45a4 f3bd
000001c0: 75ef c2bd 735c 5fbd d440 f03c 5852 053e
000001d0: 578b 08bd 7e99 dcbd 6216 54bb 3437 abbd
000001e0: 0358 a4bd c416 ca3d 3bdd 3f3c d501 8c3d
000001f0: 413f 02bc 23e0 303d 9742 abbc a04d 16be
00000200: 580a d93c 602a d4bd fa71 28be af15 e73c
00000210: 6277 dfbd a01d d53d d2d8 c8bd bce1 dabc
00000220: 0ce6 f13b c825 a93c ae2d e03d e281 39bd
00000230: 5798 e83d b96a c5bd 3046 ffbc 8d02 d4bb
00000240: e28d cebd fb10 2cbc fb27 5bbd 3376 b5bd
00000250: b903 acbd e473 873d 3f00 873d 9657 6fbb
00000260: 27b8 e3bc b33e e2bb a384 b13d 75a0 903d
00000270: 67da d0bb 05b8 143d 3e43 b3bd 02a7 e93d
00000280: 90cf 07be da71 4a3d 3392 d33c 48e5 8a3d
00000290: 43c8 10be 9393 353c 11ee dd3d 870d f03d
000002a0: 5a64 48bd a966 c83d e395 83bd 97ee dc3d
000002b0: f79c 003e bfd8 b43b 802b ba3d b864 0dbe
000002c0: af4c 7a3c ba41 f1bd da21 91bd 91f9 febd
000002d0: 5265 033e bda1 0f3d 7610 08be d0a4 ba3d
000002e0: 836a cebd 256e 043e e9c1 ffbd 89d1 513d
000002f0: bce6 9abc 6044 563d f62a 02be bc3a bdbd
00000300: a42e acbd 5729 3cbd a02e 04be 58d6 0ebe
00000310: ec01 463d 108e 9e3d f65d a2bd 888c 513d
00000320: 48c2 fcbd 92ed 453c 743e 083e 287a 6cbc
00000330: 111a 973d 1ab9 05bd 9292 babd 4f54 203d
00000340: e77b 8dbc 107c b7bd 52a3 383d 5b1c 95bd
00000350: 5815 1abe 702e aa3c f810 023e 6cbe 433d
00000360: cc39 5bbd efbb ab3d 70f3 eb3d 2298 b8bd
00000370: 4cb9 043e 18f9 8b3c 4762 a23c ff6f 2f3d
00000380: 1292 aa3d ceea 113e 2577 3d3d 567f 6e3d
00000390: 8caa fbbd cba0 0c3e 5a33 aabd 8fb3 d5bd
000003a0: a10d c1ba d3fc df3d 4576 cf3d 576f 0cbe
000003b0: 6a0c a8bd b876 f33d 6678 1abd 1e50 e53d
000003c0: c7a3 753d 2d80 94bd ff3e ae3d d821 91bd
000003d0: 173c ffbd 3a19 c8bd 6137 ac3d 222d 1fbc
000003e0: a2a3 fd3d b07d b5bd ac09 d83d ac7d 5ebd
000003f0: b498 93bc e8fd 673d faba 833d 97a3 84bc
