mine/ProG-main/Experiment/pre_trained_model/PubMed/GraphCL.GCN.128hidden_dim.pth (torch, 325088 bytes, 4 tensors)

conv_layers.0.bias f4 [128]
00000000: e500 cb39 d3cd 6bbc 0192 1bbd e3eb 9f3b
00000010: 059c a23b bd4a ae3c 41c5 453b 1676 983b
00000020: aabe 013b 07e1 10bd db81 c33b d703 afbb
00000030: 2495 d33a cc60 a63c 3ba0 283c 9df2 663c
00000040: 321c a8ba 4224 0b3c 0062 bbbc 0e2d 56bc
00000050: c011 14bd bc7a 7abc 63e3 35bb 5e90 a73b
00000060: 0859 0abb 4f9d efba b28e 9c3b 4c3c a83c
00000070: 2a81 3bbc 4ea9 283c 2f5b 7039 14dd fa3b
00000080: 18cc 5bbc a908 25bc d475 79bc c4d5 35bb
00000090: 639f 143d dcde c83b 3269 553b 8b3d 73bb
000000a0: 84ee 943c df86 23bb d442 6d39 b7f0 073a
000000b0: ef19 243c ad65 8f3b 6693 be3b 7f56 23bc
000000c0: d1d5 c7bc e9a0 b3ba ca2f 01bd f5cb 92bc
000000d0: 75ef 8a3b 4b0c 6fbb afd9 21ba 7e90 b5bc
000000e0: 3dd5 b13c 2cec 4abd 35b6 073c 1b54 fe3c
000000f0: 7cf5 28bc 3ae1 67bc ec54 6ebc 58a4 7bbd
00000100: fe47 b2ba d559 f8bc 49e5 2c3c cda8 d3bc
00000110: f5c0 553b f76c a0bc 91cf 1abd 5bcf ebbc
00000120: 2fb2 df3c 4a5b d7b9 72d3 93bd 3dfd 2eba
00000130: fbeb b1bc e73e 403c f69c d73b 60f6 cf3b
00000140: d8db 0cbc ead1 b6bb ff64 b4bc c0b2 ec3b
00000150: e270 ff3c 161d e43b dd77 80bc 9040 a03a
00000160: 88ae 1e3c b025 e33c 8c43 d63c b96e adbc
00000170: 1b8b 04bd 8492 033a d75d 5abd 180f 683b
00000180: b586 43bb 9e69 87bb 3c1e 0fbd 38f7 a5bc
00000190: 6cd2 bd3b 3fce 16bd 6ba2 dc3b 410a 91bd
000001a0: 44ed e0bc 4794 6bbd 5ef1 10bc 1a75 073b
000001b0: ee67 39bb 7deb 3fbc c7a8 f6bc 3d25 3d3b
000001c0: c08a 42bd 48cf a8bd 2cd4 2bba 60d6 aabc
000001d0: 5add 8abd c0f6 c33c c220 4bbd 9ee2 28bd
000001e0: 55c1 9c3c 128d e5bc 56a7 9e3a 335b 193b
000001f0: dd87 11bb 4a0d 5cbc 4d65 35bd 79e9 6c3c
0.00038719844 -0.014392334 -0.037981037 0.004880415 0.0049624466 0.021275872 0.0030177387 0.004652749
0.0019797483 -0.035370853 0.0059664077 -0.005341034 0.001614247 0.020309828 0.010292108 0.014095929
-0.0012825786 0.008492531 -0.022873878 -0.013072265 -0.03614974 -0.015288051 -0.0027753941 0.0051136455
-0.0021110196 -0.0018281135 0.004777753 0.020536564 -0.011444369 0.010294272 0.00022922152 0.007655749
-0.013415359 -0.0100728655 -0.015225846 -0.0027745822 0.036284816 0.0061300825 0.0032563922 -0.003711554
0.01818014 -0.0024952216 0.00022626977 0.00051857106 0.010015949 0.0043761344 0.005815911 -0.009969353
-0.024393948 -0.0013704571 -0.031539716 -0.01791952 0.0042399713 -0.0036475833 -0.00061741 -0.022163626
0.021708125 -0.049541637 0.008283188 0.031045964 -0.010312434 -0.014152819 -0.014546614 -0.061436027
-0.0013601778 -0.030316273 0.010552713 -0.025837326 0.0032616232 -0.019583208 -0.037795607 -0.028785398
0.027306644 -0.0004107601 -0.07218064 -0.00066753087 -0.02171897 0.011733747 0.0065799905 0.006346509
-0.008597337 -0.005579223 -0.022020815 0.007223457 0.031181756 0.006961475 -0.015682155 0.0012226272
0.009685166 0.027727932 0.026155256 -0.02117096 -0.032359224 0.0005019086 -0.05331215 0.0035409387
-0.002983493 -0.0041324636 -0.034940943 -0.020259485 0.0057929065 -0.036817785 0.006733229 -0.07082034
-0.027456887 -0.057514455 -0.008846609 0.0020669163 -0.0028290707 -0.01171386 -0.030109776 0.0028861307
-0.047495604 -0.08242661 -0.00065547484 -0.020854175 -0.06780501 0.02392137 -0.049591787 -0.041231744
0.019135157 -0.02802137 0.0012104313 0.0023400306 -0.0022206225 -0.013430903 -0.04428606 0.014459961

conv_layers.0.lin.weight f4 [128, 500]
00000000: 81d4 1d3e 4db8 633d 0f20 933d 1aa8 37bc
00000010: 7d2c 50bd cbcd 933d d4f1 18bd e19a 77bc
00000020: 7a96 b53d 412f 04be cb49 cb3c 381d 4abd
00000030: 636f e2bd 939b 02bd c569 603c 4d73 80be
00000040: 0bd1 213d a983 9cbc 3589 993d f8a3 fd3c
00000050: b847 113d be48 ef3c 990e 873d b7a7 cf3d
00000060: 417a 5d3d 6b5c 923d 4b52 a0bd 7db5 a03d
00000070: c113 b2bc e502 c1bb 20b6 a83d 2874 2fbe
00000080: fd75 85bc 34bd 09bd 59ae a83d 45c0 ff3d
00000090: 14f9 24bb 3ea5 5dbd 9985 a2bd 4ba3 58bd
000000a0: 3504 40be 6b87 303d f890 5a3b ef29 193c
000000b0: 58aa 94bc a57b d2bc ed6a 0dbe 498a 43bc
000000c0: 443b 953d fb31 bcbc 5e90 fe3d b4c0 943b
000000d0: ae6f 75be 4961 973d fb18 3f3d 7abf 833d
000000e0: 5f52 753c d9b9 03be 7726 eebd 282e 87bd
000000f0: 02c8 163c 9280 5b3d 5221 143c 1d90 0bbe
00000100: d454 d13d faa9 18bd 874d 933c 1478 a33d
00000110: 98fa 233c a6ec b2bd 6483 72bd 4738 463d
00000120: 48d4 66bd 706a c3bd 4b78 89bd 8273 6e3d
00000130: 7289 0e3d 747d 92bd 0630 4a3d 35c2 e9bd
00000140: afc6 11be 5fe1 d6bd 5ccb 893d e335 edbd
00000150: 63d6 b5bd d703 903c 1b32 253a 5d10 53bc
00000160: e7fb 24bc 598d 633e 8ca4 b93d 8ba4 e139
00000170: 57f3 e83d e471 5cbd 984f 67bd eeb8 88bd
00000180: 2292 473d 7306 a1bc 875d c8bb 9eea e6bc
00000190: aa4f e23c 9b89 3bbd 7e9c 663e a179 fa3c
000001a0: 2d7c a43d e3ac 9abc cdc1 083e ac98 133b
000001b0: 1c53 043d 5b63 353e 55ad 11bb ffc2 313d
000001c0: 01e7 bd3d dd44 3c3b 3b2d f9bc cbff be3d
000001d0: 1cf7 8e3d d7d0 443d 4024 553d 1fa9 d9b9
000001e0: 73f0 af3b 31be 4f3e f53c fe3d d50f 393d
000001f0: 316a 72bd 491d 8dbd 4185 c1bd 76fb 0d3d
00000200: 59b9 27be 6c5f 1fbd 1a50 7b3d 5d7d 12bd
00000210: 52ce 153e a5dd fe3b b027 b8bd 0631 8cbd
00000220: 736f 9cbd 8f39 ebbd dbe8 503d 1b05 fb3c
00000230: 68ca adbd c695 9d3c 71ff b43d f137 23bd
00000240: cf0e c3bd 001b e03c f4e8 193e a759 923b
00000250: d8ff 93bd a495 d83d 659d a83d 4c16 49bd
00000260: 4c7b 013c 3bcc ac3d 6c7a 823d c902 9e3d
00000270: dac1 8d3c 2dae f93d 09e1 913e b68b d23c
00000280: bbd7 e2bd c59e 23bd 6e3a 6f3e 01fa c03d
00000290: 0782 a23d b687 a3bd 7241 b73d 64ca 15be
000002a0: 9100 ab3c d336 0e3e 5996 ce3d 1902 793e
000002b0: 5dc2 3cbd 6378 9fbd 893e a63c e8fe 0e3e
000002c0: 448d 023e df5c 05be 7982 333c c20c 7f3d
000002d0: cb79 0fbe 348e b0bc d015 34bd 48e7 7d3d
000002e0: a890 533d 32be d73b 2b60 8e3d e2c4 453d
000002f0: 58a3 57be 79fd 613d 5e35 243d 4ee6 043e
00000300: 99a8 e43d d40e 9dbd 05e2 4e3d d07f dabd
00000310: 3192 01be 9cc7 013c 7260 d33d e030 a73d
00000320: 2ece 8d3d 6369 00be e55b f1bd e617 d83d
00000330: 6d07 803d 5ff0 b73e 5800 093e a7de 5b3d
00000340: d166 4f3d 36f7 833d 5815 bf3d 17e9 503e
00000350: dac0 243e db00 9f3d 4c94 7e3d 7e5b 793d
00000360: 3188 39bd 61b1 b1bd d4e3 6a3c 2aaa 7cbd
00000370: 54ae 94bd 1cc6 823e d4a2 1b3e ae25 a93d
00000380: 8830 81bd efee 8bbd cbd2 9cbd d4a0 e03d
00000390: a038 af3c 4f92 8b3d 5e6b 38bd 64d6 91bb
000003a0: f3fc 84bd d415 a83d 2072 81bd 1cf2 7fbc
000003b0: d76d 9ebc cc5c 733e 0b67 f1bd e718 fbbc
000003c0: 4ed5 183d b0cf d73c 9501 7b3d acc8 13be
000003d0: a58f 05bd 505f 013e 5f4e 33bd 8460 913b
000003e0: 4177 013e dd24 0b3e 1036 d03c 9cdd a2bd
000003f0: 55a4 133e 413a 063e 301c 4c3d 5f15 ba3d
0.15413095 0.055595685 0.07183849 -0.011209512 -0.050823677 0.07216986 -0.03734 -0.01511261
0.08866592 -0.12908651 0.02481546 -0.04934427 -0.110564016 -0.03188665 0.013697092 -0.25087968
0.039506 -0.01910575 0.07496873 0.030961975 0.035468787 0.02920949 0.06594581 0.10139411
0.05407167 0.071465336 -0.07828196 0.07847116 -0.021737935 -0.0058902376 0.082378626 -0.17134154
-0.016291613 -0.033627704 0.08236379 0.124878444 -0.0025172876 -0.054112665 -0.07935638 -0.052890103
-0.18751605 0.043097895 0.0033350568 0.009348377 -0.018147632 -0.025693724 -0.1381032 -0.011934825
0.07286695 -0.022973051 0.124298796 0.0045395736 -0.23968384 0.073916025 0.046654683 0.06433006
0.014973252 -0.12863864 -0.1162843 -0.066006005 0.009202959 0.05358941 0.009041147 -0.13629194
0.10221258 -0.037271477 0.017981304 0.079818875 0.010008477 -0.08736543 -0.059207335 0.048393514
-0.05635479 -0.09541786 -0.06712397 0.058215626 0.034799047 -0.071528345 0.049362205 -0.11413995
-0.14235948 -0.10492205 0.06728241 -0.11582544 -0.08878782 0.017579956 0.0006301717 -0.012882319
-0.010069824 0.22221889 0.09064588 0.00043037938 0.113745384 -0.053819552 -0.05647239 -0.066758975
0.048723347 -0.019656396 -0.006114665 -0.028188046 0.027625877 -0.045785528 0.22520635 0.030575575
0.08031497 -0.018881267 0.13355179 0.002252142 0.03230582 0.17713682 -0.0022228558 0.043398853
0.09272576 0.002872757 -0.030417075 0.093261324 0.06980726 0.048050728 0.052036524 -0.0004151547
0.00536924 0.20287396 0.124139704 0.045181114 -0.059183303 -0.06890351 -0.09449244 0.03466364
-0.16379298 -0.03890936 0.061355688 -0.035764087 0.14629486 0.007777887 -0.08991945 -0.06845288
-0.07638445 -0.11485588 0.05100332 0.030642083 -0.084858716 0.019236457 0.08837784 -0.03984827
-0.09524309 0.027356625 0.15030271 0.004466254 -0.07226533 0.10575417 0.082331456 -0.04909353
0.007902931 0.08437391 0.06371006 0.07715375 0.01730435 0.121914245 0.28492 0.025701385
-0.110763036 -0.039946336 0.23362133 0.094226845 0.07934957 -0.07984869 0.089480296 -0.14627987
0.020874294 0.13888101 0.1008727 0.24317206 -0.046083797 -0.07786634 0.020293491 0.13964427
0.12749201 -0.13023709 0.0109564 0.062268026 -0.14011304 -0.021552183 -0.043966115 0.061988145
0.051651627 0.0065839523 0.06951936 0.048283465 -0.21058404 0.05517337 0.040089957 0.1297848
0.1116497 -0.07668844 0.050508518 -0.106689095 -0.12653424 0.007921126 0.1032113 0.08163619
0.06924091 -0.12540202 -0.117851056 0.10551433 0.06251416 0.35925576 0.13379037 0.053679135
0.050635163 0.06443636 0.09330243 0.20401417 0.16089192 0.07763835 0.062153146 0.06087827
-0.045295898 -0.086764105 0.014336545 -0.06168572 -0.07259813 0.2554177 0.15198833 0.0825914
-0.06308085 -0.06832682 -0.07657393 0.109681755 0.021389306 0.068150155 -0.04502427 -0.004450606
-0.06493559 0.082072884 -0.06320596 -0.015621688 -0.019339485 0.23765868 -0.11787232 -0.030651523
0.0373128 0.02634415 0.061280806 -0.14432019 -0.032607693 0.12634015 -0.043775912 0.0044365544
0.12643148 0.13588281 0.025416404 -0.07952425 0.14418156 0.1310816 0.04983157 0.090861075

conv_layers.1.bias f4 [128]
00000000: c76b 07bc 29e6 8abc 54d8 1abd 127c 183d
00000010: 91cb ad3c e456 9abc 3982 c3bb 95df 4abc
00000020: 2ed8 8a3c 2263 7cbc 8523 fd3c 0373 5b3d
00000030: 8fe7 033d 6fa4 8ebc c68c 293d 0d2e e0bc
00000040: 52bf ba3a bc9d c93c 8350 123c 5078 98b8
00000050: edfb 41bc afb5 37bd 7986 01bd f31b f13c
00000060: dce8 28bd df01 9e3c 8679 c2bb 6ea7 233c
00000070: e996 1bbb 39cb 823c d327 293c e451 8b3c
00000080: 20c9 4abb 5512 893c 1e67 963b c59e 4b3d
00000090: a6bc a53c adda 4c3d 138a 30bc fa0e 44bd
000000a0: a777 13bc bd22 033c ca64 813c 3792 a83b
000000b0: fcc3 e0bc ba24 233d 3cc9 10bc 4880 d1bc
000000c0: b320 dc3c dc13 05bd f54f d53c f3e3 88bb
000000d0: 61a4 8fbc afda 433c 8680 6dbb 0db8 3dbb
000000e0: 6900 08bd 7a4a e23d c937 9b3c bae3 4dbc
000000f0: 95a9 1ebc 0221 263b 2155 62bd 30f6 97bc
00000100: 975b b6bc 6a2f 523d 99a5 49bd 8f0d 7b3b
00000110: e8d5 b9bc 207d 63bc a5f9 f13c f04c cbbc
00000120: f635 e93c 88ce ef3c b791 9fbc 0e80 023d
00000130: c0ac 183d e5f0 053d baaa 8f3c 0984 323b
00000140: befb 48ba 3673 35b9 ece2 e8bb cf2f 943c
00000150: a7f6 42bd ebc8 1bbd f7c2 ae3c 0c44 df3c
00000160: 4623 adbb df0f 563d cf49 7abc 52e9 76bc
00000170: 5d49 623c f10f 7bbc 2d1e e9bb 1339 d03c
00000180: bcec 60bd 3202 9d3c 6c0f 56bc b64b 653b
00000190: fa2d 90bb ea29 0fbc ca02 193d 4116 133c
000001a0: e42e 0a3d 2793 e63c bc8d a23c b0ae f53a
000001b0: 05c2 4cbd a31d 7e3c 86c5 833c 6163 333d
000001c0: e172 53bd f050 9bbc d009 c8bb b4f7 9b3b
000001d0: a9d6 7bbc 1ea3 c63c dc2b 51bb 0dd6 57bd
000001e0: ac84 2a3d e660 5a3c 42ae 9c3c 125c 98bc
000001f0: f263 053d ea64 933d 7de1 373c f539 2ebc
-0.008265442 -0.016955452 -0.037803963 0.037227698 0.021215232 -0.01884026 -0.0059664515 -0.012382408
0.016948786 -0.0154044945 0.030900726 0.05357648 0.032203253 -0.017412392 0.041394018 -0.027365709
0.0014247692 0.024611346 0.008930328 -7.270335e-05 -0.011839849 -0.044851 -0.031622384 0.029432273
-0.041237697 0.019288002 -0.005934897 0.009988649 -0.0023741073 0.015966045 0.010324436 0.017006822
-0.0030942634 0.016732374 0.0045899292 0.04971196 0.020231556 0.050013233 -0.010775107 -0.047865845
-0.009000695 0.008003888 0.01579513 0.0051443833 -0.027437203 0.039829947 -0.0088370405 -0.025573865
0.026871061 -0.032489643 0.026039103 -0.0041775643 -0.017534437 0.011953994 -0.0036239936 -0.0028948814
-0.033203516 0.110493615 0.018947499 -0.012566501 -0.009683986 0.0025349264 -0.055256967 -0.018550009
-0.02226047 0.05131475 -0.04923019 0.0038307642 -0.022685006 -0.013884813 0.029537985 -0.02481696
0.028468113 0.029273286 -0.019478662 0.031860404 0.037274122 0.032700438 0.017537463 0.0027239344
-0.0007666907 -0.00017304425 -0.0071071293 0.018089203 -0.047598507 -0.038033407 0.0213332 0.027254127
-0.005283746 0.05226123 -0.015276386 -0.015070276 0.0138114365 -0.015323625 -0.007114193 0.02541784
-0.054913267 0.019166086 -0.0130652 0.0034987754 -0.004400012 -0.00873802 0.037356175 0.008977474
0.033736125 0.02814634 0.019842975 0.0018744078 -0.04998972 0.015509996 0.016085397 0.043795947
-0.05162323 -0.018959492 -0.0061046854 0.004759753 -0.015371003 0.024247702 -0.0031917011 -0.05269437
0.041630432 0.013328766 0.019126061 -0.01859859 0.03256602 0.07196982 0.011223194 -0.010633935

conv_layers.1.lin.weight f4 [128, 128]
00000000: d8ac 8f3d 4b2a b03d 0cff 153d 0045 ce3c
00000010: 89e5 673d f18b c33c df31 313e 490a a53d
00000020: d6f8 d43d 5c68 82bd f3f5 23bd 186c f03d
00000030: e0b4 9abd da31 3ebd 28cc 023c ec89 503d
00000040: 0ae8 483e ee86 05be c3da 003d cf7e 9c3d
00000050: c122 e6ba 2afb c63d 54af 4d3d 48c8 f93d
00000060: fcac 8c3d b741 e1bc cd0d e93d 2660 b6bd
00000070: 64f9 203d 4abb 57bc 98ba 8ebc 6391 0d3c
00000080: 2f0e 153d 04b2 913c 2ec4 6d3d 2c63 ed3b
00000090: 8b59 b8bd 6ae9 973c 5c28 89bd 8bb8 b33d
000000a0: af3a fb3d 7e08 9fbc 3628 68bd 7ce5 9fbd
000000b0: e823 e5bd 6af0 123c 7bf5 9abd da7c c23c
000000c0: 4181 cb3d 7728 0f3e c5c7 5cbc cc89 0d3d
000000d0: 4899 213e 3628 ea3d 29db ab37 a1bc 083e
000000e0: 4683 e0bd 7d7b 4fbc 8a78 433e a9fb c1bd
000000f0: 142d d83d 1421 d3bc 8041 4f3d 397a 283a
00000100: d7f0 01bd c855 8f3d 2471 0bbe d8a2 b83d
00000110: 4899 3f3c 8dd6 ca3c be46 26bc 6241 43b8
00000120: db92 03be cf7d 003e a04c d03b ef03 3938
00000130: c115 c53c 8953 1bbd c15e 123e 8158 373e
00000140: e9aa 2e3d 48d9 473e b17e 913d 76ed 313d
00000150: 8efd aabd 124b 67bd 7baf 613a 2a33 03be
00000160: 0884 b8bc 8119 44be e5dd 6a3b c427 d8bc
00000170: 8e92 d23d 3760 a1bd f141 1bbb 5d43 533d
00000180: d587 b93d 45b9 1c3e 2520 2bbc e8d7 063d
00000190: f88a 62bd 8a12 ee3d 2644 4c3c f1b9 89bb
000001a0: 2abc b33c f2aa 893c 70b6 1b3d 680d cc3d
000001b0: 4b22 233e 7528 ea3c 5170 fe3c 4c33 233e
000001c0: 837f b0ba ac11 5abc 0f2a ca3d 4370 0c3e
000001d0: cf96 783a 53b1 61be 43e6 1d3c e6cc 203d
000001e0: 7d97 fcbd ffb3 013c ff84 1b3e cc7a edbd
000001f0: 2c46 8d3d ab57 34bd 9e38 9f39 bb37 0cbe
00000200: e62d eebb 1054 08bd 4d1f b83c a196 fa3d
00000210: 93a7 8abd 31af cb3d a740 113e fe6e 5bb9
00000220: 9338 1e3e 12f3 db3b 2aaa ffbc 807f 223e
00000230: 3a5d 38be cc2d 29be f785 94bd f313 bbbd
00000240: 883d 2e3e 1582 0e3c 2816 113d ed22 413d
00000250: 7c8c 49ba d7c7 133d 90cb 663d 135f 8c3d
00000260: 4051 a7bb d5a4 f83c e828 833d 67ae afbd
00000270: 36c4 cabd c3c0 04be 6ad0 183d 41ba 32be
00000280: f163 2539 6463 de3c 1c18 2d3c 5696 053e
00000290: d429 91bd c23f 353e 9b57 113d 2cde e13d
000002a0: d00e 1a3a 0c09 c93d 8f89 a7bc a63c 46be
000002b0: 0326 1cbd 132d 9fbc 3760 ed3c ed19 15bd
000002c0: fe0b 593e 0404 403d 6bd9 21bd 667d 07bd
000002d0: 6d39 993c d30f a5bd 93cc 5eb7 6436 793d
000002e0: 5043 2fbe c52e b1bb 0f4e 573e e6e5 9b3c
000002f0: 252d 8e3d 50e1 87bb 975a a13b b0fc b3ba
00000300: b36a 5cbd 5352 f93c 6594 30be 8937 613c
00000310: 7391 d23c d06b d23d ab3b 4fba f590 12ba
00000320: 116c 8f3b ae4c e03d 3f38 66bb 87ad f5b6
00000330: 1b08 b63d ba76 a03d 19c8 f63c 3444 3a3e
00000340: c4f0 4abd 71d4 1f3e 0720 2f3d 36d4 2e3d
00000350: d6a9 5b3d e7d2 29bd 610d 52b9 f62f 34be
00000360: 91b8 0d3e d8f1 f8bd 34b7 c6bd bc77 103d
00000370: ed0d 383e 0a98 243c 2dfa 183c adf0 043c
00000380: c4e1 3d3e c833 2f3d 563d 55ba f409 363c
00000390: e4cf 39bc ec6e 273d 5cae 66bd fe93 533b
000003a0: 7f45 a03b ed41 063a 0184 6bbd d73a 42bd
000003b0: 4073 a43d 1eb2 b0bb 9a77 45ba 4725 e13d
000003c0: d7c6 87ba 42be e1ba 2db0 133e 3507 45bb
000003d0: 864e cbba 40ac 643c d7c6 8eba 5d8e 91bc
000003e0: 7870 56bd 4723 763d f6a1 703e dbf2 f7bc
000003f0: fb1a 26bd e02e b8ba 7662 4c3a f52f 11be
0.07015389 0.08601817 0.036620185 0.025179386 0.056615386 0.02387044 0.1730418 0.08058602
0.10399024 -0.06367561 -0.040029477 0.11739367 -0.075540304 -0.04643426 0.007983245 0.050912783
0.19619766 -0.13039753 0.031458627 0.07641374 -0.0017557965 0.097158745 0.050216034 0.12196404
0.06868932 -0.027497156 0.113795854 -0.089050576 0.039300337 -0.013167212 -0.01742296 0.00864062
0.03639048 0.01778508 0.05804842 0.007244488 -0.09001454 0.018543918 -0.06697151 0.08775433
0.122670524 -0.01941323 -0.056678973 -0.078074425 -0.11188489 0.008968452 -0.07566353 0.023741174
0.099367626 0.1398028 -0.013475363 0.03455524 0.15781128 0.11433451 2.0486843e-05 0.13353206
-0.109625384 -0.012663719 0.19088951 -0.094718285 0.10555473 -0.025772609 0.050599575 0.0006426904
-0.031723823 0.06998783 -0.13617378 0.09015435 0.01169426 0.024760509 -0.010148702 -4.6552515e-05
-0.1284899 0.12547992 0.0063567907 4.41111e-05 0.024058225 -0.037921462 0.14293958 0.17904855
0.04264346 0.1951648 0.071042426 0.04343935 -0.08349143 -0.056468077 0.00086092175 -0.12812486
-0.022523895 -0.19150354 0.0035837826 -0.02638615 0.10281859 -0.0787968 -0.0023690427 0.051577915
0.09059111 0.1530505 -0.010444676 0.032920748 -0.055308312 0.1162463 0.01246742 -0.004203074
0.02194031 0.016805146 0.038015783 0.099634945 0.1593105 0.028583745 0.031059416 0.15937537
-0.0013465736 -0.013309877 0.09871303 0.137147 0.00094829215 -0.220403 0.009637418 0.039257906
-0.123335816 0.00791645 0.15187453 -0.11595687 0.0689815 -0.04402892 0.00030369026 -0.13693134
-0.007268655 -0.033283293 0.022475863 0.122357614 -0.067702435 0.099455245 0.14184819 -0.00020926815
0.15451269 0.006712326 -0.03120907 0.1586895 -0.18004313 -0.16521376 -0.07252114 -0.091346644
0.1701566 0.008698006 0.03542152 0.04715245 -0.00076884753 0.036079254 0.056346476 0.068540715
-0.0051061213 0.030352036 0.064042866 -0.085781865 -0.099007055 -0.12964158 0.037308134 -0.17453863
0.00015772857 0.027147003 0.01056483 0.1304563 -0.07088056 0.17700103 0.035483938 0.11028704
0.0005876841 0.09816179 -0.020451335 -0.19359073 -0.03812219 -0.019430673 0.028976543 -0.036401678
0.21195981 0.04687883 -0.039513987 -0.033078574 0.01870414 -0.08059659 -1.3279862e-05 0.060842887
-0.17115521 -0.0054071867 0.2102587 0.019030523 0.069422044 -0.0041467324 0.004924129 -0.0013731923
-0.053812694 0.030434763 -0.17244108 0.013746151 0.025704121 0.1027447 -0.00079053146 -0.0005591058
0.004376896 0.109521255 -0.003512874 -7.32177e-06 0.08888265 0.07835145 0.03012471 0.1819008
-0.04954602 0.15608384 0.042755153 0.04268285 0.053628765 -0.041460898 -0.00020032145 -0.1759642
0.13839938 -0.12155503 -0.09702912 0.035270438 0.17974062 0.010046015 0.00933699 0.008114022
0.18543154 0.04277399 -0.0008134445 0.011110771 -0.011341069 0.040877268 -0.056318626 0.0032284255
0.004891097 0.0005121518 -0.057498936 -0.047419395 0.08029795 -0.005392327 -0.00075327756 0.10993438
-0.0010358942 -0.0017222839 0.14422674 -0.003006411 -0.0015511073 0.013957083 -0.0010892999 -0.01776808
-0.052353352 0.060092237 0.23499283 -0.03026717 -0.040553074 -0.0014052056 0.0007796654 -0.1417845
