mine/ProG-main/Experiment/pre_trained_model/Actor/Edgepred_GPPT.GCN.128hidden_dim.pth (torch, 546384 bytes, 4 tensors)

conv_layers.0.bias f4 [128]
000000 77 25 79 bd bc 49 12 be 51 ec 02 be c4 2d de bd
       -0.060826745 -0.1428594 -0.1278546 -0.10848573
000010 89 e5 a8 bd 8f ea 51 be 5b f7 a1 3b e4 dc b0 bd
       -0.08246905 -0.20499633 0.004942817 -0.086358815
000020 d7 f5 17 3d cd 28 dc bd cf 5c 91 be 93 54 13 be
       0.037099686 -0.1074997 -0.2839112 -0.14387731
000030 3a e1 e3 be 0d 32 9c bd 08 32 b2 bd 66 73 60 be
       -0.44507772 -0.07626734 -0.08700949 -0.21919021
000040 d2 8a 5e bd f9 40 f8 3d 02 4e 05 bd c8 87 74 3d
       -0.054331608 0.121217676 -0.032545097 0.059699804
000050 46 16 50 be d2 cf 1a bd 71 ba 0a be 36 a6 c7 bd
       -0.20320997 -0.03779585 -0.13547684 -0.09748499
000060 63 09 89 3d d2 3f ae bd 90 f1 be bd 8a c8 87 be
       0.066912435 -0.085082665 -0.09323418 -0.26520187
000070 48 ec 30 be e8 63 7c be 22 59 b9 bd 6a dd 23 3d
       -0.17277634 -0.24647486 -0.09050204 0.04000608
000080 03 9b 5d be 40 06 bc bd ac d8 1a bd 57 68 e6 be
       -0.21641164 -0.091808796 -0.03780429 -0.4500148
000090 30 0d 2d be b5 70 9e bc c2 81 4b be 15 82 65 be
       -0.16899562 -0.019340852 -0.19873717 -0.22412904
0000a0 8c 72 56 be 72 fa 56 be 6d ab b9 bd 14 d6 69 be
       -0.20942134 -0.20993975 -0.090659 -0.2283557
0000b0 da a6 1f be 1a bf 3a 3d 02 a1 8b bd 1e 28 41 be
       -0.15590993 0.045592405 -0.06817819 -0.1886296
0000c0 6c 71 43 3e 0a 68 18 be 8d 8d f7 bb 15 69 95 bd
       0.19086236 -0.14883438 -0.007554716 -0.072954334
0000d0 d0 45 1d be c1 5a 17 be 29 c0 b2 bd 42 b4 9e 3e
       -0.15358663 -0.14780714 -0.08728058 0.309969
0000e0 73 cd d2 bd 3c 55 84 3e 36 76 71 be 84 2e 02 bd
       -0.102930926 0.2584628 -0.2358025 -0.031782642
0000f0 c3 d4 ad bd 55 f1 0b be d8 50 3a be 17 78 90 bd
       -0.08487847 -0.1366628 -0.18194902 -0.07054155
000100 8d be 4f be ec 81 ca bd 10 5d 05 be c9 ca b2 bd
       -0.20287533 -0.09888062 -0.13023782 -0.087300844
000110 a1 47 a7 bd b1 23 8e bd 51 81 4e bd c3 d4 fb bd
       -0.08167959 -0.06940401 -0.050416294 -0.122964405
000120 a7 eb 63 3c 00 93 c6 bd e3 26 c9 bd 2b 0b ff bc
       0.013911164 -0.09696007 -0.0982187 -0.031133255
000130 05 97 fa bd 90 ea 84 3d c5 e3 10 bd 1f e8 04 be
       -0.12235836 0.06490052 -0.035373468 -0.12979172
000140 8f 15 38 bd bd 3b 70 be a7 7f aa ba c2 5b 8a bd
       -0.044942435 -0.23460288 -0.0013008014 -0.06755783
000150 7c 56 1e be a6 7e be bd f1 2b 94 3d 4f c5 46 be
       -0.15462679 -0.093015 0.07234944 -0.19411205
000160 4f 5a 2c be 16 46 c2 3c 04 ef a7 be cc f7 16 be
       -0.16831325 0.02371506 -0.32799542 -0.14742965
000170 0b e2 1f 3d 8b 64 1e be ef 91 06 be 52 ae a5 bc
       0.03903393 -0.15468042 -0.13141607 -0.020224724
000180 4a 2b 39 3d 28 72 36 be ba 91 f2 bd 03 55 5a be
       0.0452073 -0.17816985 -0.118442014 -0.21321492
000190 84 6c 68 bd fd 50 4f be 90 08 fa bd f9 01 b1 bc
       -0.056744114 -0.20245738 -0.122086644 -0.021607386
0001a0 1f 6e b2 be 69 2f 81 bd 9f 9a 6a be 91 7f 90 be
       -0.3484964 -0.06307871 -0.22910546 -0.28222325
0001b0 b7 c2 2e be 83 a1 fb bd 43 26 21 be 0f ad b8 bd
       -0.17066465 -0.12286665 -0.15737252 -0.09017383
0001c0 5b 66 b5 bd c2 e8 17 bd d4 2e 3c be 68 5a aa bc
       -0.088574134 -0.03708721 -0.18377239 -0.020795062
0001d0 55 ac e4 bc cd 02 4f bd 3a cc b3 bd d1 2c b5 bc
       -0.027914206 -0.05053978 -0.087791875 -0.022116097
0001e0 0a 2f 12 bd 4d 69 53 3c bf 04 98 bd 68 a6 b5 be
       -0.03568939 0.012903524 -0.0742278 -0.3547852
0001f0 eb 25 08 bd 9e c3 d3 bd bb dd 37 be dc bd 03 be
       -0.033239286 -0.103400454 -0.17955677 -0.12865394

conv_layers.0.lin.weight f4 [128, 932]
000000 65 fa 81 b9 a3 cb 51 bc 0a 95 ef 39 95 5c d9 3a
       -0.00024791356 -0.012804898 0.00045696675 0.0016583378
000010 76 3e cb bc b3 7c 74 b8 7f c4 f3 b9 ec 05 d9 3b
       -0.024810057 -5.829027e-05 -0.00046494973 0.0066230204
000020 67 16 85 bc 97 3c cf bb 06 9f 3d 3c 44 b0 22 3c
       -0.016246034 -0.0063243615 0.011573559 0.00992972
000030 76 31 89 bc 4d 68 79 bb 19 a6 5d bb 54 95 9c bc
       -0.016747218 -0.0038056553 -0.0033820926 -0.019114174
000040 ee 07 40 3d 8a 6d 9f bb 2b eb a2 bc 38 4d 9d 39
       0.046882562 -0.004865353 -0.019887527 0.00030002906
000050 f5 2d 1d 3d 26 05 85 bc 90 67 0c bd 51 d2 96 bc
       0.038373906 -0.016237807 -0.034278452 -0.018410834
000060 5f 96 35 bb 3f 2c 54 bc 93 4c 45 3a 37 4e a9 3b
       -0.0027708036 -0.012950002 0.0007526364 0.0051667946
000070 4c 9c ae ba ca 11 e1 3b b8 be e1 bb 07 ff 2b bb
       -0.0013321727 0.0068685757 -0.0068891905 -0.0026244537
000080 8d 0a 89 bc b5 c4 2c 3b 2d af 55 bc 57 ad 8c ba
       -0.016728664 0.0026362364 -0.013042253 -0.0010732812
000090 ef 02 ea 3b 69 76 8a bc bb cb 06 bd 44 d1 61 ba
       0.007141463 -0.016902165 -0.032909136 -0.0008614252
0000a0 c9 5b b3 3b fd e4 60 bd 52 dd 4a bc 88 54 b6 b8
       0.005473588 -0.05490588 -0.012381868 -8.6941815e-05
0000b0 87 18 70 3c 5b e7 26 3c 26 9e 97 3b 14 26 63 bb
       0.014654285 0.010186995 0.004627007 -0.0034660148
0000c0 60 e8 8f bb 64 7d 20 bd d1 5d 61 bc 74 a6 65 3d
       -0.004391715 -0.03918208 -0.013755278 0.056066945
0000d0 e1 2c 96 3c 29 2e 56 3a 77 bc 00 bb b7 82 6a bd
       0.018331947 0.00081703305 -0.0019643584 -0.057253566
0000e0 ec 59 cc 3b 7b e4 6d bc 6d fa b6 bc 7c 27 e9 ba
       0.0062363055 -0.014519806 -0.02233621 -0.0017788257
0000f0 e7 54 16 bd f0 fc 76 3d e0 ec d1 3a e4 08 76 3a
       -0.036702063 0.060299814 0.0016016029 0.000938548
000100 45 85 b8 ba 0d 90 0f 3b 2e 43 44 3b 32 a3 46 3a
       -0.0014077803 0.002190593 0.0029947269 0.00075774186
000110 fc 46 2e 3a ba 0a b2 3a a2 2a 89 b9 17 84 35 bb
       0.0006648151 0.0013583519 -0.0002616244 -0.002769714
000120 c9 8a 86 3a 9c e0 d2 bc ab 7c df 3a 34 d5 8a bc
       0.001026475 -0.025741868 0.0017050704 -0.016947366
000130 35 3f ee 3c b0 af 7a bd 5a 09 17 bc 0d 28 14 3b
       0.029082874 -0.061202705 -0.009218538 0.002260688
000140 e4 a4 7b ba a1 6d 85 bb 07 62 1e bc 63 c9 04 3b
       -0.0009599461 -0.0040719067 -0.009666926 0.0020261637
000150 ff 02 ff ba a2 20 3b 3c 0d 90 71 bc a2 53 8d b9
       -0.0019455849 0.0114213545 -0.014743817 -0.00026955927
000160 d6 f0 4d 3d 23 96 a7 bb f7 81 d6 bc 08 8b 8b bd
       0.050278507 -0.0051143332 -0.026185019 -0.068136275
000170 70 0e 60 bd 98 12 9e 3d c8 2c 20 bc eb 44 ca 3c
       -0.05470127 0.0771839 -0.009776302 0.024691066
000180 11 e0 6d ba 96 1a 7b 3b 33 da f0 39 93 24 cc b9
       -0.0009074221 0.0038315407 0.00045938938 -0.00038937162
000190 d8 ef 0e 3a a1 8f ad bc e1 f7 d9 bc 2d dd cc ba
       0.00054526096 -0.021186652 -0.026607456 -0.001562988
0001a0 46 67 36 bb 69 a3 38 bc 9c 1a 9d 3c 1b bc 0d 3b
       -0.0027832552 -0.011269429 0.019177727 0.0021627012
0001b0 b3 42 80 ba cb 59 35 3b 91 f7 87 39 16 37 95 bd
       -0.0009785503 0.002767193 0.00025933658 -0.072858974
0001c0 0d 3d 8d bc a2 8d 6e b9 06 b4 0a 3b 57 95 21 39
       -0.017241025 -0.00022750211 0.0021164431 0.0001540979
0001d0 67 e5 68 3c cb f5 16 bc d5 dd 48 3b 86 67 b2 3c
       0.01421485 -0.009213875 0.00306498 0.02177788
0001e0 9f 9e 27 3a 48 32 f9 bc 87 ee 5e bc 0c eb 17 bd
       0.0006394181 -0.030419484 -0.013606674 -0.037089393
0001f0 90 2d 14 ba de 52 a1 3a 07 48 a5 3a cc 7d 41 3c
       -0.00056525413 0.0012308022 0.0012609967 0.0118097775
000200 33 80 33 bc 81 c1 6f bc bc b1 67 bb 89 30 45 3a
       -0.010955858 -0.014633537 -0.003535374 0.0007522186
000210 51 51 1e 3d 1d c1 fa bc b4 d3 ae 3c 2b 4f 01 3a
       0.038651768 -0.030609662 0.021341182 0.00049327564
000220 0a e0 42 bb 43 af 2f 3b a6 33 30 bd aa ad 09 3c
       -0.0029735588 0.0026807345 -0.043018006 0.008403221
000230 60 e7 95 bc 80 48 03 bc 53 81 bd bc fe 90 8f ba
       -0.018298805 -0.008012891 -0.023132956 -0.0010953245
000240 6c 68 0e bd 00 71 d2 bb 9c b2 0c 3c f8 9f 00 bc
       -0.034767553 -0.006422162 0.008587506 -0.0078506395
000250 93 b4 ad bc 5d 70 8e 3a 86 fa 39 39 4c 45 9a 3c
       -0.021204269 0.0010867227 0.00017736302 0.018831871
000260 6f 95 c3 39 2d fc cc 3b b2 3d b4 bc cf 60 6e bc
       0.00037304635 0.0062556476 -0.022002075 -0.014549448
000270 a6 26 fd b8 c7 c0 00 3d 01 bf d5 39 2a 1a 87 bc
       -0.00012071179 0.031433847 0.00040768835 -0.016491968
000280 4f ea a1 ba df 60 5e bc 98 76 32 ba 19 0c 71 3b
       -0.0012353155 -0.013572901 -0.0006807833 0.0036780892
000290 61 7c c3 bb ee 12 20 bc 0a 64 92 3a e9 51 f5 3c
       -0.005965755 -0.009770138 0.001116873 0.029946284
0002a0 6f dd a1 bb ce d3 b8 3b df 8a a9 3b 2b ab 5f b8
       -0.004939727 0.0056404835 0.0051740254 -5.3326756e-05
0002b0 01 00 b7 3c 79 00 fb bc 6d cc 43 3c 34 b0 7c bb
       0.022338869 -0.030639874 0.011950594 -0.0038557174
0002c0 f8 6b 4b bd de 22 50 bd 6f 33 8d 3a 92 6a 07 bb
       -0.049663514 -0.050814502 0.0010772775 -0.0020662886
0002d0 42 9d 35 bb 74 6f 5d 3b 42 4c 28 3a 3f b2 df bb
       -0.002771214 0.0033788355 0.00064200547 -0.0068266685
0002e0 3e c7 43 bd c1 07 33 ba 9a 57 20 ba 75 1e 94 3c
       -0.047797434 -0.00068294635 -0.0006116569 0.01808093
0002f0 f2 cb 52 bd 7b d3 ea ba 20 a7 65 ba 65 fa 81 b9
       -0.05146403 -0.0017915809 -0.00087605603 -0.00024791356
000300 8b 50 83 ba de da fd 3b f1 fe ac 3c 5c ba 98 bb
       -0.001001851 0.0077470383 0.02111766 -0.0046608876
000310 ab 09 b0 39 42 64 85 ba 01 1c 21 bb 4b eb 00 bb
       0.0003357654 -0.0010176974 -0.0024583342 -0.0019671496
000320 df ab aa 3a 9e 22 e5 bc a0 73 04 3b d8 8e e9 bb
       0.0013021192 -0.027970608 0.002021052 -0.007127624
000330 37 ef 92 bb 7f ff 73 3c 79 e0 85 bb 61 96 17 3b
       -0.004484083 0.014892458 -0.004085597 0.0023130404
000340 c5 03 1d 39 a7 c1 43 3a cb 33 91 ba a9 dc 2a 3b
       0.00014974091 0.0007467516 -0.0011078058 0.0026071465
000350 10 f8 df bc 5c 17 70 bb a6 74 82 bb c9 c2 df bc
       -0.027339965 -0.0036635017 -0.0039811907 -0.02731456
000360 f0 3d e7 3a f7 6c a6 bb 0d 78 9a 3a 24 d1 85 b9
       0.001764236 -0.0050789076 0.0011785045 -0.0002552356
000370 21 ce 2d 3c 3c 20 80 bb 4f 7b 16 3c 9b 14 12 bb
       0.010608227 -0.0039100926 0.0091846725 -0.0022290114
000380 51 b6 70 b9 1c ba 7c 3a 4d 0b 22 bb 4f 86 b3 bc
       -0.00022956102 0.00096407696 -0.0024725974 -0.02191463
000390 7b be 00 bd e1 1c 1a bd 9c 38 0d ba 37 c9 47 ba
       -0.031431656 -0.037625197 -0.00053871586 -0.0007621231
0003a0 bd 98 86 bb af 8d 4e ba 91 8e dd b8 00 1a 94 bb
       -0.0041075633 -0.0007879389 -0.00010564656 -0.004519701
0003b0 25 41 fc bc 41 0c 02 3d 50 57 b4 3c e6 3a 66 ba
       -0.030792782 0.031749967 0.02201429 -0.000878258
0003c0 85 36 07 3d 1c 9b 2d bd 93 61 69 bc 79 61 2c bc
       0.03301098 -0.042384252 -0.014244455 -0.010521286
0003d0 f3 b9 fd bb 0f 33 e9 b8 38 80 10 3d 29 59 3a ba
       -0.007743114 -0.00011119816 0.03527853 -0.0007108623
0003e0 09 a0 6c 3b 96 49 08 39 63 e9 27 bc 4e d3 31 ba
       0.003610613 0.00012997384 -0.010248515 -0.0006783501
0003f0 46 bc 8e bc e0 3e 15 bc 13 ed 53 3c ea 37 92 3d
       -0.01742376 -0.009109229 0.012934941 0.07139571

conv_layers.1.bias f4 [128]
000000 31 bd de 3d 7f f3 24 be c9 1b d5 3d 90 94 bb bd
       0.10875929 -0.16108511 0.1040569 -0.091591954
000010 09 0d eb 3d b5 1e b3 3d 38 6c 6a bd be dd 49 bd
       0.11477096 0.08746091 -0.05723211 -0.049283735
000020 fe c6 49 3e 58 3d ca 3d 75 8c 72 3d 76 ce 0f 3e
       0.19704816 0.09874982 0.05921598 0.14043602
000030 ed 45 df 3d 6a e3 97 bc 2f dc 34 3d 08 12 08 3e
       0.10902009 -0.018541057 0.044155296 0.13288128
000040 07 2c e8 bc 80 da 8b bd f0 e9 85 bd cc 2f 14 3d
       -0.028341306 -0.06828785 -0.06538761 0.036178395
000050 54 39 61 3d 64 2d c0 3c 0d 13 01 3e 82 f6 e4 3d
       0.054986313 0.023459144 0.12604924 0.1117983
000060 4b 0e 12 bd e2 98 a2 bd ac ea 35 bc 9c ab a1 bc
       -0.035658162 -0.07939316 -0.011103313 -0.01973515
000070 9e 6c 81 3d f8 43 f5 bc 5b e5 5d 3c ab b6 e3 3d
       0.06319545 -0.029939637 0.013543452 0.111188255
000080 bd bf 32 3e c7 08 0e 3e 97 f7 03 3e 7b 34 5a 3d
       0.17455955 0.13870536 0.12887417 0.053272706
000090 78 02 9a 3c 34 b8 46 bd 06 55 0a 3e f7 73 ed bc
       0.018800005 -0.048515514 0.13508996 -0.02898596
0000a0 30 a3 50 3d 9a 37 0c be d3 65 1f be 3d 36 e7 bd
       0.050936878 -0.13693085 -0.15566187 -0.11289642
0000b0 4e 9d 71 3d 9a a0 91 bb 9d 2a 9f bc 44 30 c6 3d
       0.058987908 -0.004444194 -0.0194295 0.09677175
0000c0 29 dc 12 be 5e a8 1d 3e b1 6e c6 bd 16 30 b1 bc
       -0.14341797 0.15396258 -0.096890815 -0.021629374
0000d0 ee 47 84 bd 53 15 31 be b6 56 33 3e 2d a4 b3 3d
       -0.06459032 -0.17293291 0.17513546 0.087715484
0000e0 45 1a 24 3e ea dc fa bd 26 14 b0 3d d1 dc 40 3e
       0.16025646 -0.12249167 0.08597593 0.18834235
0000f0 fd 09 2d 3e ea f9 11 be ab 1e 14 be 00 4e 93 3c
       0.16898341 -0.14255491 -0.14464824 0.01798153
000100 ee 66 f2 3d 76 bc 9c 3d da 93 aa 3d 29 b4 74 bd
       0.118360385 0.076531336 0.08328982 -0.059742127
000110 4e af 70 3d 59 38 bd 3d e7 b9 cf bd 3e f2 19 be
       0.058760934 0.09239263 -0.1014288 -0.15033814
000120 5a 55 87 bd ac 12 06 3e 47 62 12 3e 5e 51 8f 3c
       -0.066080764 0.1309306 0.14295302 0.017494854
000130 bc 9a 02 3e a6 4e 7b 3d 61 9d ea 3d f0 0b 9d 3d
       0.12754339 0.061354302 0.11455799 0.076682925
000140 b0 ab 1e 3e ff 1e 60 bd 9c 02 14 3d f7 c6 02 be
       0.15495181 -0.05471706 0.0361353 -0.12771212
000150 29 e9 e9 3d ee 9b 9a bd 76 56 98 bd 73 b6 1c be
       0.11421425 -0.075492725 -0.07438366 -0.15303974
000160 20 df 30 3e 2a c1 dd bd 56 04 b2 3d d1 33 0d bd
       0.17272615 -0.10827859 0.08692233 -0.034473244
000170 a2 2d ec 3b a5 1a 30 3d 6b 65 05 be f3 85 64 bd
       0.0072075883 0.04299416 -0.13026969 -0.055791806
000180 d9 f6 82 bd 82 ae 1c be cb b2 93 3d fc 24 f4 3d
       -0.06394739 -0.15300944 0.072118364 0.11921117
000190 0f 9d a6 bd 62 f7 80 3d c7 4a a9 bd 7b 4e 31 be
       -0.08135425 0.062971845 -0.08266216 -0.17315094
0001a0 9c cc 3e 3d 08 6a b0 bd f7 d1 35 3d 3b 8d 00 be
       0.04658185 -0.08613974 0.04438969 -0.12553875
0001b0 43 61 48 be 1c 59 f1 bb 3f 7f 09 3e 43 ec 4c bd
       -0.19568352 -0.007365359 0.13427447 -0.050030004
0001c0 8a bc 03 3e f6 0f f2 3d 7d d2 21 3e 93 f4 0f 3e
       0.1286489 0.118194506 0.15802951 0.14058141
0001d0 48 f1 ff bd aa c9 61 bd da 1b 52 bd f1 dc 59 3d
       -0.124971926 -0.055123962 -0.051296093 0.05318922
0001e0 92 05 82 3d a1 f6 b3 bd ae a0 f8 bd 40 45 07 bc
       0.06348719 -0.08787275 -0.12140022 -0.008256257
0001f0 f3 fd 8f 3c ff 63 0d 3e 31 e3 a8 bd 9a e1 66 3d
       0.017577147 0.13807677 -0.08246458 0.056367494

conv_layers.1.lin.weight f4 [128, 128]
000000 1f be 38 bc 70 52 2a 3e 35 ca 5f 3e 47 dc 83 be
       -0.011275797 0.1663301 0.2185448 -0.25753996
000010 3b 1b 9d bb 36 0c 9d bd 10 83 7d 3e 79 1a e7 3b
       -0.004794506 -0.07668345 0.24757028 0.0070527163
000020 82 f5 a7 3e 33 39 13 bb ab c9 e6 3e 26 d5 86 3c
       0.32804495 -0.0022464513 0.45075735 0.016459059
000030 a8 a9 ff 3a d2 ac f1 be 60 7c 8e be b0 f5 a7 be
       0.0019505518 -0.47202164 -0.27829266 -0.32804632
000040 aa ee b4 3e 5e dd 22 be 3b 1c 50 3e 7e da 04 bf
       0.35338336 -0.15904757 0.20323269 -0.5189589
000050 3d 81 17 3e 60 ec 0f bf ad 24 db 3e 46 a2 06 3b
       0.14795394 -0.56220055 0.4280142 0.00205435
000060 f9 53 4a be 80 66 9e 3a 68 49 3a bc 4e d4 cf 3d
       -0.19758596 0.0012084991 -0.0113700405 0.10147916
000070 39 7e 1e bf 92 3f b0 be b2 d8 e7 3d e4 1e e1 be
       -0.6191135 -0.344235 0.11320628 -0.4396888
000080 50 46 2d 3d cd a7 03 be 6e e2 0b 39 25 5a e4 bd
       0.042303383 -0.1285698 0.00013340425 -0.11150006
000090 5d e6 42 3d e1 57 06 ba 31 f4 0c 3f f0 08 32 3d
       0.047582973 -0.00051247893 0.55060107 0.043465555
0000a0 c6 ec 0f 3c a2 e6 16 3d d3 71 4b 3b 9e ea 14 bf
       0.0087844785 0.036841042 0.0031043186 -0.581705
0000b0 cc 96 46 be ef d3 ca be b2 d4 13 3e 7e 10 54 be
       -0.19393462 -0.39614818 0.14436606 -0.20709416
0000c0 ef 1a 76 be 59 b6 02 bf d7 04 e4 be 23 bd c2 3e
       -0.24033712 -0.5105949 -0.44534943 0.38034925
0000d0 1f bb e0 be 59 e1 31 be 6c 3f ec bb ab ea 25 bd
       -0.43892762 -0.1737112 -0.007209709 -0.040507
0000e0 c2 22 57 be b9 20 aa bd 3b 97 ba 3d 45 aa 87 3e
       -0.21009353 -0.083070226 0.09110876 0.26497093
0000f0 37 ec c4 3e d5 8e 06 3f 68 a2 56 be 5e 5c f7 be
       0.38461468 0.52561694 -0.2096039 -0.48312658
000100 e5 ca ea 3e 76 78 4d 3a 6a 8d 90 bd 5c f4 6e 3e
       0.4585792 0.00078380795 -0.070582226 0.23335403
000110 78 e7 32 3a 2f f4 5b 3a bf 26 a9 ba fa 4e a6 be
       0.00068246527 0.0008390573 -0.0012905224 -0.3248213
000120 27 d0 90 3e eb 61 85 be b0 93 10 bd d3 80 d9 3d
       0.28283808 -0.26051268 -0.035297096 0.106202744
000130 90 03 c7 be db df 3e bf 60 36 b7 b9 6a 2c 40 3e
       -0.38869905 -0.74560326 -0.00034944993 0.18766943
000140 17 87 8e 3a a6 e4 47 bc b3 85 b9 3d 9c fb b6 3d
       0.0010874 -0.01220051 0.09058704 0.089347094
000150 f2 03 a0 3d 9e 12 13 be 6e 0f 17 bf 6d 21 00 be
       0.078132525 -0.1436257 -0.5900792 -0.12512751
000160 88 e9 96 bd da b5 b8 3e 65 6e 35 3e 6b bb 0f 3e
       -0.07368761 0.36076242 0.17717893 0.14036338
000170 f4 16 91 3e fa 92 aa be 0f 65 da 3d f0 0f f0 b9
       0.28337824 -0.3331526 0.10663807 -0.00045788242
000180 23 ea 22 be 16 44 08 3f 82 7d 41 3e 34 46 54 3e
       -0.15909629 0.5322889 0.18895534 0.20729905
000190 6f 9f 36 be fb af aa 3e bf f2 04 3f ca ea b5 3d
       -0.17834257 0.33337387 0.519329 0.08882673
0001a0 0c 6c 49 3d df 8c dc 3d a8 4e 1e 3e 35 e3 1e 3e
       0.049175307 0.107690565 0.15459692 0.1551636
0001b0 c2 6f 84 be a6 c0 76 3e 00 7e 43 bd 48 61 f0 ba
       -0.25866514 0.24096927 -0.047727585 -0.0018339539
0001c0 23 67 ff 3e 90 19 9d 3e 6b 04 33 3d 64 40 32 bb
       0.49883375 0.30683565 0.043705385 -0.0027199024
0001d0 4c e9 2c bb b6 5d 32 ba 73 c0 22 3b 91 f8 3e bb
       -0.0026384173 -0.0006804125 0.0024833947 -0.0029139856
0001e0 59 c9 58 39 54 4d 06 be 99 a9 86 bb fc fe fc 3d
       0.00020674373 -0.13115436 -0.004109573 0.12353322
0001f0 88 a6 a1 bd 7e 9e a4 3e e4 7d d8 3c de b3 f0 be
       -0.078930914 0.3215217 0.026427217 -0.47012228
000200 c5 b7 ff 3b f1 97 85 be b6 22 26 3d ab 7b ca 3d
       0.0078038895 -0.26092485 0.040560447 0.09886869
000210 54 84 d2 3a 0c fe 2e be a4 79 cb 3d c3 f2 f0 3b
       0.0016061165 -0.17089099 0.099353105 0.007353158
000220 c1 51 e8 be 03 10 1c 3c 98 c4 cd be 74 07 27 bd
       -0.45374873 0.009525302 -0.40189052 -0.040778592
000230 75 f9 a4 bd 6d 68 71 bc 22 63 1e 3d c5 23 37 be
       -0.08055393 -0.01473437 0.03866876 -0.17884739
000240 b9 4e 7f 3d 6e ae 92 3e 81 1c 50 be 61 41 d0 3e
       0.062330935 0.28648704 -0.20323373 0.4067488
000250 8d 23 eb bd df 9e 3d 3e 46 ab 11 be 58 71 95 bc
       -0.1148139 0.18517636 -0.14225492 -0.018242523
000260 77 a1 cf 3e fc a7 73 bb e6 8d a2 bc b3 4d 13 bf
       0.40552875 -0.0037178984 -0.019843053 -0.57540435
000270 a2 75 6f 3d b1 5d 9f bb a8 16 ad bd 7d 44 b3 3e
       0.058461793 -0.004863464 -0.08451587 0.3501319
000280 d4 87 a5 be 10 64 66 3d 84 02 92 ba 12 55 e7 3d
       -0.3233019 0.05624777 -0.0011139666 0.11295523
000290 b2 cb 36 be 24 27 80 38 1f 3a 05 bf 5d d7 8d be
       -0.17851141 6.110806e-05 -0.5204181 -0.27703372
0002a0 29 00 81 be c8 7c cb be cf f2 dd ba a0 df 4d 3e
       -0.25195435 -0.39743638 -0.0016933325 0.20104837
0002b0 b6 55 a5 3e ec 25 ae 3e 3f f3 95 3e e0 11 bf 3d
       0.32291955 0.34013307 0.29287145 0.09329581
0002c0 a2 c0 9e 3c 9e e4 86 bd b1 50 aa 3e e4 ca 66 3d
       0.019378964 -0.06586574 0.33264688 0.056345835
0002d0 4c a5 a7 3e b9 01 78 3e 74 5f 80 ba 4e 83 1b 3e
       0.327433 0.24219407 -0.0009794072 0.15186808
0002e0 3e 94 7b 3e 6c 16 93 3e 22 41 20 3e b3 0d 94 3c
       0.24568269 0.28728044 0.15649846 0.018072939
0002f0 d7 96 96 3e d2 1c 29 3e f1 ed 34 be 1e 3c 84 3e
       0.29411957 0.165149 -0.17668892 0.25827116
000300 d2 9e c6 be 2e e2 b8 bb d8 50 d3 be fd 27 37 3d
       -0.38793045 -0.005642197 -0.41272616 0.04471587
000310 63 36 12 bb 63 e8 3b ba 17 fb 1a ba d1 ef 4e 3c
       -0.002231025 -0.0007168112 -0.0005912049 0.012630419
000320 0b 2a 04 bf ea 46 1c 3e 88 d6 b8 bd 36 23 38 3e
       -0.5162665 0.15261427 -0.090252936 0.17982182
000330 24 97 23 3e 59 1c 1a 3e ad 5a 3e ba 22 c2 be be
       0.15975624 0.15049876 -0.00072614365 -0.37257487
000340 07 a7 de ba 83 10 eb 3c a6 8c d2 bd ee 8c bf bd
       -0.0016987034 0.028694397 -0.10280733 -0.09353052
000350 56 e5 58 be a6 a1 9e be a3 d8 99 3e 5a 7d 77 bc
       -0.21181235 -0.30982703 0.30048093 -0.01510557
000360 81 e4 71 be 84 86 9a bc 58 ce 53 be 8b 78 73 3e
       -0.23622324 -0.01886297 -0.20684183 0.23776452
000370 46 4e 82 bd 00 69 a1 be f8 c0 50 be cd cf 46 b8
       -0.06362586 -0.3152542 -0.20386112 -4.740041e-05
000380 f7 13 52 be 73 7c 88 be 09 26 d5 be a0 36 46 be
       -0.20515428 -0.26657447 -0.4163058 -0.19356775
000390 78 0a 82 be a4 a9 de be df be 2b 3e 0f b7 c9 3e
       -0.25398612 -0.434888 0.1677203 0.39397475
0003a0 22 ca 40 be bd dc 9b 3e cd 8c 67 be 6d 73 6f be
       -0.18827108 0.30441847 -0.22612305 -0.23383875
0003b0 fd 37 b3 be 9d b7 96 3e cd f8 61 bd ed a5 b8 bb
       -0.35003653 0.2943696 -0.055168916 -0.0056350143
0003c0 2f 92 df be e6 15 83 3e 73 66 ec be 71 34 ca 3c
       -0.43666217 0.25602645 -0.46171913 0.02468321
0003d0 e5 9d fe 3a fd 5f a7 b8 71 ad e4 bb 0e d5 a1 b9
       0.0019425718 -7.98106e-05 -0.0069786836 -0.0003086705
0003e0 34 94 46 ba 21 17 2d bd 47 7d 2e bb 03 7d 56 3c
       -0.00075751846 -0.042258386 -0.0026624964 0.013091329
0003f0 04 ab 2a bc 6c 7b a3 3d 54 43 6f be 6d 56 90 be
       -0.01041675 0.07982525 -0.23365527 -0.28190938
