Experiment/pre_trained_model/COX2/Edgepred_GPPT.GCN.128hidden_dim.pth (torch, 87120 bytes, 4 tensors)

conv_layers.0.bias f4 [128]
00000000: 10d2 afbd 11d1 4dba 536f 2ebe ec50 82bd
00000010: bcc2 95be af50 47be 478e b33d 6c17 c0bd
00000020: 47cd 4bbe 2cc3 28b9 e31a 86be 4784 94bc
00000030: 92ac 053e 9579 b3be a529 7bbd 270d 98b9
00000040: 0402 dcbc d413 11bd d9f1 d3bd 602b d3bd
00000050: 6025 babe b8bc 8fbe fd83 4bbe d23c 98bb
00000060: 7ef9 80be 9def b9bc 67f4 12bd 49d3 91bd
00000070: 1950 a0bc 1075 373e 7b85 83be 4e4e cbba
00000080: 8521 93be d92d 47be d2ec fb3d 7caa e73a
00000090: b9a9 19bb b85c 393e 9729 03be a837 d2bd
000000a0: 5627 65bb 0588 463d 9f39 d3be 4332 53be
000000b0: 2c0f c7be 288e 22bc 598d 61bb 8d0f ecbd
000000c0: d873 5bbb bc22 fcbd b485 f4ba 1601 1ebc
000000d0: 8457 afbc d0f4 83be 1e6f 06bd 9a5c 84be
000000e0: 77a4 3b3d 43b5 11bc 1f66 e5be 32cd adbe
000000f0: e855 58bd cd09 cdbd 87de 0bbb 0395 41bb
00000100: a945 aabe b5af ecbe 7ccc 143c d753 e8bd
00000110: bfb9 2ebd 71a0 b3be f241 c2be 19e0 afbe
00000120: 77f7 37bb 8841 52bd 4f33 453d 1a00 7fbc
00000130: e385 a6be cb01 5fbd ed5d a5be 0529 c8bb
00000140: 24a3 a9be ef43 9cbc 5ef4 3abe e66c aebd
00000150: fbbc bfbd 6da2 36bc 4ff0 13ba dee0 a4be
00000160: 0153 0cbd 2c69 86bd 6d92 acbe a58a 09bd
00000170: c567 38bb 5908 95be eea5 5f3e ecbb 06bd
00000180: 747e 3dba fa11 02bc a897 0cbd 9b8e ff3d
00000190: 88cd d8bc 3603 b2bd cd75 6f3d 9e28 c4be
000001a0: 205e dbbd ee71 bdbc 758c 35bd 02f2 cfbd
000001b0: ee44 1abb 6835 78bb 72aa 58bb eef2 9fbe
000001c0: a845 443d 422b aabd 32d0 cabd 2aef 90be
000001d0: 1ff8 61ba 8d8c 043d 3429 cfbb 2085 583e
000001e0: 4ab6 03bc 6dd6 bfbe e19e afbd fc76 c3bd
000001f0: b01c bfbc a3af c7bc b145 9fbd 308e 96bc
-0.08584988 -0.0007851283 -0.17034654 -0.06363091 -0.29250133 -0.19464372 0.087673716 -0.09379467
-0.19902526 -0.00016094436 -0.26192388 -0.018129481 0.13054112 -0.35053697 -0.061319012 -0.00029001498
-0.02685643 -0.0354193 -0.10348863 -0.103110075 -0.3635664 -0.28073668 -0.19874568 -0.004645922
-0.25190347 -0.022697264 -0.03587761 -0.071203776 -0.019569444 0.1791575 -0.25687775 -0.0015511008
-0.2873651 -0.19451083 0.12301029 0.001767471 -0.002344711 0.18101776 -0.12808834 -0.10264522
-0.0034966073 0.048469562 -0.412549 -0.20624642 -0.38878763 -0.009921588 -0.0034416525 -0.115264036
-0.0033485796 -0.123113126 -0.0018655569 -0.009643814 -0.021404035 -0.25772715 -0.032820813 -0.258519
0.045811143 -0.008893314 -0.44804475 -0.33945614 -0.0528163 -0.10011635 -0.0021342353 -0.002953828
-0.3325627 -0.46227804 0.009081956 -0.11344116 -0.04265761 -0.35083345 -0.37940937 -0.3435066
-0.0028071085 -0.051332027 0.048144635 -0.015563989 -0.32524022 -0.05444507 -0.32298222 -0.0061084055
-0.3313228 -0.019075362 -0.18257281 -0.085168645 -0.09362217 -0.011147124 -0.0005643414 -0.3220281
-0.034258846 -0.06563029 -0.33705464 -0.033579487 -0.0028138023 -0.2910793 0.21840641 -0.03289406
-0.0007228621 -0.007938856 -0.03432432 0.12478372 -0.026465192 -0.08692019 0.058461953 -0.38312238
-0.10711312 -0.023125615 -0.044323403 -0.10153581 -0.002353962 -0.003787363 -0.0033060578 -0.31240028
0.047917992 -0.08309032 -0.09902991 -0.28307468 -0.0008620042 0.032360602 -0.0063220505 0.21144533
-0.008039067 -0.3746828 -0.085752256 -0.09544179 -0.023329109 -0.024375742 -0.077769645 -0.018378347

conv_layers.0.lin.weight f4 [128, 35]
00000000: bcbb 19be b814 0100 7a15 0180 0413 0100
00000010: a613 0100 4e54 963e 0537 663e 3c05 073e
00000020: 1b20 78bd a915 0100 ccdc 0000 d214 0100
00000030: fb16 0100 4f1f 0100 9d14 0180 e58f 22bf
00000040: 1328 eb3c 3715 0180 373e 0100 c613 0100
00000050: 4413 0180 0d12 0180 1413 0100 4924 0180
00000060: 6756 0100 d21e 0100 3318 0180 251d 0180
00000070: 5613 0180 471c 0100 0d27 0180 2c43 0180
00000080: 4f23 0100 ed13 0100 8ccb 423d a9bb c039
00000090: 8e11 0180 af12 0180 ea11 0100 c614 0100
000000a0: 8d3d bd39 0f60 c938 c3dc f738 0472 0739
000000b0: 9a1c 0180 c816 0100 4a65 0280 b417 0180
000000c0: 0118 0180 7d18 0180 8cd6 aa38 5f25 04b8
000000d0: 3137 0100 4112 0100 fa2a 0180 fb1a 0180
000000e0: 7619 0180 7614 0180 8516 0180 2d1b 0100
000000f0: 8215 0100 e111 0180 4144 0100 6525 0100
00000100: 4215 0100 4b16 0180 1e59 0100 5515 0100
00000110: 0621 0100 5aca 72b5 0307 5c3e 5214 0180
00000120: 5756 0180 5f17 0100 ef22 0180 0de7 ff3e
00000130: 5d73 2ebf 9822 39bf c6f2 adbe 5d13 0180
00000140: 5f13 0100 4313 0100 4626 0180 5716 0180
00000150: db13 0180 3e91 8a3e 17ef 00bf be16 0180
00000160: e214 0100 3f17 0100 f714 0100 ab12 0100
00000170: df1c 0100 e21b 0180 2017 0180 4a16 0100
00000180: 8314 0100 421c 0100 7611 0180 d713 0180
00000190: a112 0100 7e41 0180 d914 0180 cc2d 0100
000001a0: 794d 69be 9306 dfbd f714 0100 d72f 0180
000001b0: de33 0180 a01b 0100 1a01 8e3e 0484 46be
000001c0: 8750 8ebe 2f54 b3bd bc1c 0180 8215 0100
000001d0: 9f17 0100 8614 0100 8918 0100 8311 0100
000001e0: f217 73bd 07a9 b2bd 393d 0180 c312 0100
000001f0: a811 0100 0c1d 0100 3512 0180 121e 0180
00000200: 982a 0100 f514 0100 e615 0100 7c15 0180
00000210: 7f1c 0100 bc13 0180 fe13 0180 b74c 0100
00000220: 6517 0100 1513 0100 6241 0100 5c6b a8bd
00000230: 69f2 773e f414 0100 0218 0100 ab11 0180
00000240: 6a5a 0180 434b eb3e c7fe 84be d9e3 6bbe
00000250: 5a0a 40be be1d 0180 0b14 0100 0712 0100
00000260: fd4f 0100 ce1b 0100 7d14 0180 7953 733d
00000270: 7e5d 38be 2a15 0100 3c14 0180 6e17 0180
00000280: bb5b 0180 2e17 0100 b417 0100 5012 0100
00000290: 7b1c 0180 2815 0100 2017 0180 3614 0180
000002a0: b911 0100 e714 0180 f4ea 0080 5e14 0100
000002b0: 3e18 0100 a314 0180 b274 13be 4e22 773e
000002c0: 3816 0180 0f48 0100 df11 0100 a558 0100
000002d0: 6fe8 0c3f e5ed 39bf 6365 45bf 4c5b c5be
000002e0: d241 0100 7a15 0180 5e17 0180 0321 0180
000002f0: 4014 0180 d912 0100 0d55 8b3e 6c46 0cbf
00000300: d118 0100 5f18 0100 461e 0180 8318 0180
00000310: 5c12 0100 e11a 0180 4013 0180 981a 0100
00000320: 1719 0180 7d11 0100 fa13 0180 9611 0180
00000330: 8111 0180 fc12 0100 5d13 0100 2714 0180
00000340: 6315 0100 650d 81be 32fa efbe d229 0180
00000350: 9b1a 0180 e211 0100 8f1e 0180 4ea3 ae3e
00000360: 6ca3 d13e 2751 d83d 21a4 b03c 6e3f 0100
00000370: 9117 0100 9e41 0180 a815 0180 7116 0180
00000380: 1612 0100 6831 c6bf 7dfc 073e 0e14 0100
00000390: 911f 0100 0427 0100 2217 0100 b016 0100
000003a0: 2815 0180 e915 0180 d754 0100 a219 0100
000003b0: 9b11 0180 dd11 0100 5b20 0180 c211 0180
000003c0: 3914 0180 cf3d 0100 ec15 0100 fd15 0180
000003d0: 0d13 423e e6e5 103f e336 0100 d825 0180
000003e0: c211 0100 d019 0180 5d7e 12be 43cd 503f
000003f0: b93f 3c3d fec4 083f 3415 0180 0312 0180
-0.15013021 9.9268e-41 -9.954e-41 9.8657e-41 9.8884e-41 0.29361194 0.22481926 0.1318559
-0.060577493 9.9606e-41 7.9207e-41 9.9304e-41 1.0008e-40 1.03067e-40 -9.923e-41 -0.63500816
0.028705632 -9.9446e-41 1.14154e-40 9.8929e-41 -9.8747e-41 -9.8311e-41 9.868e-41 -1.04852e-40
1.22831e-40 1.02892e-40 -1.00517e-40 -1.0229e-40 -9.8772e-41 1.0198e-40 -1.05844e-40 -1.15932e-40
1.04502e-40 9.8984e-41 0.0475574 0.00036760911 -9.8133e-41 -9.8538e-41 9.8262e-41 9.9288e-41
0.00036094748 9.602319e-05 0.00011818998 0.00012917077 -1.02096e-40 1.00008e-40 -2.20007e-40 -1.00339e-40
-1.00446e-40 -1.0062e-40 8.146194e-05 -3.1506057e-05 1.11634e-40 9.8384e-41 -1.07253e-40 -1.01514e-40
-1.00969e-40 -9.9175e-41 -9.9914e-41 1.01584e-40 9.9551e-41 -9.8249e-41 1.1632e-40 1.0525e-40
9.9461e-41 -9.9833e-41 1.23805e-40 9.9488e-41 1.03682e-40 -9.0446486e-07 0.2148705 -9.9125e-41
-1.22808e-40 1.0022e-40 -1.04367e-40 0.49980965 -0.6814478 -0.7231841 -0.33974284 -9.8782e-41
9.8785e-41 9.8745e-41 -1.05565e-40 -9.985e-41 -9.8958e-41 0.27063936 -0.5036482 -9.9994e-41
9.9327e-41 1.00175e-40 9.9356e-41 9.8532e-41 1.02192e-40 -1.01838e-40 -1.00131e-40 9.9831e-41
9.9194e-41 1.01972e-40 -9.81e-41 -9.8953e-41 9.8518e-41 -1.1533e-40 -9.9314e-41 1.08264e-40
-0.2278346 -0.10889926 9.9356e-41 -1.08997e-40 -1.10442e-40 1.01745e-40 0.27735215 -0.19386297
-0.27795812 -0.08756291 -1.02143e-40 9.9551e-41 1.00309e-40 9.9198e-41 1.00637e-40 9.8118e-41
-0.059349008 -0.08723646 -1.13798e-40 9.8566e-41 9.817e-41 1.02256e-40 -9.8367e-41 -1.02623e-40
1.07115e-40 9.9353e-41 9.9691e-41 -9.9543e-41 1.02058e-40 -9.8915e-41 -9.9007e-41 1.19356e-40
1.00228e-40 9.8681e-41 1.1529e-40 -0.08223602 0.24213566 9.9352e-41 1.00448e-40 -9.8174e-41
-1.2427e-40 0.45955858 -0.2597563 -0.23036136 -0.18753949 -1.02505e-40 9.9026e-41 9.8302e-41
1.2053e-40 1.0181e-40 -9.9185e-41 0.059405778 -0.18004414 9.9428e-41 -9.9094e-41 -1.0024e-40
-1.24742e-40 1.00151e-40 1.00339e-40 9.8405e-41 -1.02052e-40 9.9425e-41 -1.00131e-40 -9.9086e-41
9.8193e-41 -9.9334e-41 -8.4285e-41 9.9142e-41 1.00532e-40 -9.9239e-41 -0.14399984 0.2413418
-9.9806e-41 1.17685e-40 9.8246e-41 1.23635e-40 0.55042166 -0.72628623 -0.7710783 -0.38546216
1.15447e-40 -9.954e-41 -1.00218e-40 -1.03678e-40 -9.91e-41 9.8597e-41 0.27213326 -0.54794955
1.00738e-40 1.00578e-40 -1.02696e-40 -1.00629e-40 9.8422e-41 -1.01478e-40 -9.8741e-41 1.01376e-40
-1.00836e-40 9.8109e-41 -9.9002e-41 -9.8144e-41 -9.8115e-41 9.8646e-41 9.8782e-41 -9.9065e-41
9.9508e-41 -0.25205532 -0.4687057 -1.06838e-40 -1.0138e-40 9.825e-41 -1.02798e-40 0.34108967
0.40944993 0.105623536 0.021562638 1.1459e-40 1.0029e-40 -1.15375e-40 -9.9604e-41 -9.9886e-41
9.8324e-41 -1.5483828 0.1327991 9.903e-41 1.0316e-40 1.05832e-40 1.00134e-40 9.9974e-41
-9.9425e-41 -9.9695e-41 1.2227e-40 1.01031e-40 -9.8151e-41 9.8244e-41 -1.03442e-40 -9.8206e-41
-9.909e-41 1.14008e-40 9.97e-41 -9.9723e-41 0.1895258 0.566008 1.11525e-40 -1.05411e-40
9.8206e-41 -1.01095e-40 -0.14306016 0.81563205 0.04595921 0.53425586 -9.9442e-41 -9.8297e-41

conv_layers.1.bias f4 [128]
00000000: 204f ae3d e450 3abd 5054 a63d 551f 17bd
00000010: c386 e73a 3f80 ccbd 5aa2 4d3c 0b1f 5e3d
00000020: b694 86bd cc15 7f3d 9861 8c3d 60b1 c63d
00000030: 1176 843d 4a94 bbbd 4983 94bd 2fd8 debc
00000040: c6a8 953d 28c8 39bc 41f6 0d3c b94a bfbd
00000050: bd27 aab9 ea79 883d 0a4c 48bd ed8f 70bd
00000060: ecdb 183d 9af6 8bbc 320f 8f3d 032a 703d
00000070: 4de7 113d d52d 783c 5e62 bbbd dd3a cb3c
00000080: 63b2 733c 382f 493d 29bc a23d 9cfb b2bd
00000090: 2462 ca3d b8dd 85bd 73d6 44bd 9b3e 7e3c
000000a0: b792 543d 40ed 52bd edbb 75bd 19ad 50bd
000000b0: 1c77 bbbd 111b 973d 1ec6 07bd 9187 afbd
000000c0: f7f5 0cbd bf84 c53d d956 3d3d bcdc 3cbc
000000d0: 00dd 5dbd cf46 a33d f294 bb3d 33b0 aabd
000000e0: 833e 8dbd 21dc cc3d c03c cbbd dd01 443a
000000f0: c06a ab3d c46c ca3d 6a0b 073b 0bd7 c83b
00000100: dcc6 e9bc 75ee 92bd 6519 a3bd 8707 123d
00000110: 74b5 a73d eb77 5abd 472d 8a3d 869a 903c
00000120: e99f 173d c915 4fbd 7039 893d f83d e4bc
00000130: 40bf 7cbd a2bd 47bd a193 babd fcb3 b2bd
00000140: e9f3 43bd cdbc ca3d 2dee 813c 787b 373d
00000150: c400 a13d 7e6e 81bd c1e4 86bd 8dd5 b5bd
00000160: d57a b5bd db6d f0bc 5fc8 093d a12c e1bc
00000170: 0911 583d 45a8 87bd d9d6 76bd 552f c03d
00000180: bbcc 223d 5a8a a93d ab76 5cbd 19ad 533d
00000190: 624a a3bd 5e17 8cbd 5086 0cbd 650e 623d
000001a0: 0705 6e3c 9145 c3bd 3a88 4abd 5c8c ab3d
000001b0: 1fdf b13d 9577 a0bd 53f0 a1bd 9ed2 9e3c
000001c0: 457c 97bd 518b 94b9 bc74 b7bc 2313 313d
000001d0: f40e 1f3d cba7 b73d 7f0e 903c dfa0 b7bd
000001e0: 18a2 b1bd 578d 93bd e19d 61bd d193 7f3d
000001f0: 3794 543d 617e 3c3d 812c 7f3d ec1b 8ebd
0.08511186 -0.0454873 0.0812155 -0.036895115 0.0017664063 -0.099853985 0.012550915 0.054228824
-0.06571333 0.062276646 0.06854552 0.097018 0.06467832 -0.09159143 -0.07251603 -0.027202694
0.073075816 -0.011339225 0.008664669 -0.09340424 -0.00032454534 0.06663878 -0.04890064 -0.05873101
0.03731911 -0.017085362 0.0698532 0.058633815 0.035620976 0.015147646 -0.091496214 0.024808342
0.014874074 0.049117297 0.07946045 -0.08739397 0.09882 -0.0653643 -0.048056077 0.015517856
0.05189773 -0.05149579 -0.059993673 -0.05094633 -0.09153578 0.073782094 -0.033147924 -0.08570779
-0.034414258 0.0964446 0.046225403 -0.011527237 -0.05416584 0.0797249 0.091592684 -0.083343886
-0.06896689 0.10002924 -0.099236965 0.00074770843 0.0836997 0.09884027 0.0020606169 0.0061291507
-0.028537206 -0.07174388 -0.07963828 0.03565171 0.08188906 -0.05333702 0.06746917 0.017651808
0.037017737 -0.050557885 0.067004085 -0.02786158 -0.061705828 -0.048764832 -0.09110189 -0.087257355
-0.047840033 0.09899292 0.015860641 0.044795483 0.07861474 -0.06319903 -0.065866 -0.08878622
-0.08861319 -0.029349258 0.033638354 -0.027487101 0.05275062 -0.06623892 -0.06026349 0.09384028
0.039746027 0.082783416 -0.053824108 0.05167875 -0.07973172 -0.068403944 -0.034307778 0.05518951
0.014527566 -0.09534753 -0.049446322 0.08376381 0.08685135 -0.078353085 -0.07907166 0.01938754
-0.073967494 -0.0002833256 -0.02239453 0.04323114 0.03883262 0.08967551 0.017585037 -0.089662306
-0.08673495 -0.07204693 -0.055082206 0.062396828 0.05189916 0.04601896 0.0622983 -0.069389194

conv_layers.1.lin.weight f4 [128, 128]
00000000: 8f5e 8c3d 9d27 1037 2fd7 05bd e205 993c
00000010: 3da7 a1bd 96f8 1bbd b10a 1d3e a6aa e1bd
00000020: 7a25 273d 1639 5037 2400 b6bd 9361 2bb9
00000030: ead4 183e 4cce eb3d 4015 c73d 34e0 e137
00000040: ada1 ec3d c6db 85ba 87e0 1abd 534d 833d
00000050: be12 10be b24b 96bd 1941 12bd c6c7 99b8
00000060: fe42 82bd 9238 c3b9 1468 03ba 34df cf3d
00000070: d84c 8bb9 be2f 253e e459 06be 3d7e b837
00000080: 4738 9cbd 282b fbbc 2086 ea3d d98f 4e3e
00000090: cb1b 1736 cae1 7c3e f7fb 85bd 4e8f 423d
000000a0: 0e58 95b6 2c69 c53d be06 243e 3270 0abd
000000b0: 0927 0e3e 2c27 963a 45f1 5ab8 cd16 47be
000000c0: d3ff a7b7 ae03 f13c 7d8d 3938 3b9d ac38
000000d0: 2e16 94b9 8ef9 79bd 8f90 53bc 5778 7abd
000000e0: 0250 16be e0bc c93d 4b75 38be f10f 04be
000000f0: 5985 1fba 1e04 ccbd eba8 c3b7 7a74 77b8
00000100: 203e a9bd ea55 44be 2e33 883d 17db 9e3d
00000110: 0e77 73bb 93f5 07be 111e f8bd 8632 123b
00000120: ed55 8237 e0a4 f83d 419a 69be 8771 9d38
00000130: 37b8 d23d 936f 45bc 5f9f bebd 02f2 c8b7
00000140: 3e9f c5bd 0618 b1b9 2843 03bd 2554 653d
00000150: 689b 3a3d d559 e1b8 75b2 f036 143d bebd
00000160: dbe9 b1b7 e5c4 f13c 3483 cebd 2c10 3cba
00000170: 9bfb e6bd 88ba cfbd 7e5a ca3b d198 c83d
00000180: a3f5 d437 a3ae 00b7 a06f 7dba c8af 813e
00000190: b7ef 27be 95ba c53d 99b1 67be 421a 17be
000001a0: 305e c33b 9b88 a6b9 c167 823a 6afd b6bd
000001b0: bb16 6db8 82d1 f636 0ebb 0539 5ac9 b3bd
000001c0: f42b fcbd cac9 003d 78b8 72bd 6987 bdbd
000001d0: 3a68 1a38 8994 0cbe d21d aeb8 6f19 84be
000001e0: 7e9a 903d bf3d 023e af00 0c3d 4690 b7bd
000001f0: b0b5 43ba d940 cab9 e07f 033d 56f1 4db9
00000200: a1a5 6fbd 57b4 0238 73ed dc3d 7cf3 2e3c
00000210: 78d7 9f3d a118 f53d 0664 21be 80b5 023c
00000220: d0aa 2abd 57cb 5035 6c65 233d 6560 9b3a
00000230: 23f2 1bbe c601 dfbd 05d0 42bd c212 3eb7
00000240: 404b d9bd e7b7 343b 31e2 96bc 5bee 053d
00000250: 2ec1 833d 35ea 943d 04c9 cf3d 95fd 5139
00000260: 8010 803d c93f 9a3a d388 663a 7866 b5bd
00000270: c8f6 873a c46f 23be 4797 3cbc 43f4 df38
00000280: 2d3d 9b3d e6a5 843c 000f e9bd 2013 42be
00000290: 101b b938 0565 63bd 7867 7939 49ac 1dbd
000002a0: b3a1 2339 d613 2abd fd5d 23be 8cdb e63c
000002b0: 6435 04be 25e0 0dbc 404a 9639 c133 163e
000002c0: ec81 4339 d593 b7bc 4892 6438 f642 533a
000002d0: 254b 993a d874 723d 3134 e63b 673e 723d
000002e0: b702 0d3d 69ba b7bd 65ef a73d 9659 7b3d
000002f0: 78e2 a93a ac54 773c f16e 0839 0d4d 6c39
00000300: 2891 243d 13bf ac3d b4a3 7abd af9a 4ebd
00000310: 6f61 843b 2b2c 7b3d 64c9 fd3d f259 d4bb
00000320: 627c df38 5ed4 79bd fd1c 1f3e 6cf1 953a
00000330: 938a c8bd 545c acbb 293b c03d 8976 eb39
00000340: 371e c83d 50f7 cb39 f4de 853c 9b36 ea3c
00000350: b066 ce3c 1bb2 413a ca1e 4137 9b02 c03d
00000360: 1b2c d03a 89bb 8e3c fdd5 d13d 8e32 d93a
00000370: 0760 703c a1bd 393d 95b4 a83d f094 b93c
00000380: d303 cfb5 9d4e c039 4d2b 073b bf97 83be
00000390: 76d4 353d fd0e 64bd c588 113e 3422 893d
000003a0: cbaa 19bb 2172 973a 7a21 8b3b a879 393c
000003b0: 0aad d139 b354 4239 b960 1f39 f5f2 b43d
000003c0: 66f2 013d 3557 9e3c a3bf 9cbb 116d 2c3d
000003d0: 5679 2236 a4a6 fa3c 318d f739 b81a 133e
000003e0: f62a e4bb 3c92 f4bd b6f6 a83c 7d30 7a3d
000003f0: e655 083b 41f7 c13a c005 a03c 6dc3 bf39
0.06853973 8.592292e-06 -0.03267592 0.018679563 -0.07893226 -0.038078867 0.1533611 -0.11018877
0.040807225 1.24110575e-05 -0.088867456 -0.0001634418 0.1492497 0.115139574 0.0972085 2.6926493e-05
0.11554275 -0.0010212592 -0.037811782 0.06411233 -0.1406965 -0.073386565 -0.035706613 -7.332819e-05
-0.06360434 -0.00037235447 -0.0005012762 0.101499945 -0.000265694 0.16131493 -0.13120228 2.1993294e-05
-0.076279216 -0.030660227 0.114513636 0.20172061 2.251693e-06 0.24695507 -0.06542199 0.047499947
-4.450797e-06 0.096392006 0.16018197 -0.033798404 0.13882078 0.0011455766 -5.219995e-05 -0.19442292
-2.0027079e-05 0.0294207 4.423921e-05 8.2308856e-05 -0.00028245285 -0.06102901 -0.012912883 -0.06114992
-0.14678958 0.09850478 -0.18013494 -0.12896706 -0.0006085239 -0.09961723 -2.332447e-05 -5.8997866e-05
-0.082638025 -0.19173399 0.06650387 0.07756632 -0.003714982 -0.13277273 -0.1211511 0.0022307946
1.553722e-05 0.121408224 -0.2281275 7.5074895e-05 0.102890424 -0.012050527 -0.093077414 -2.3954552e-05
-0.09649514 -0.0003377797 -0.032046467 0.05598845 0.045558363 -0.000107455686 7.1733325e-06 -0.092889935
-2.1208942e-05 0.029512832 -0.10083619 -0.00071740407 -0.11278459 -0.10143 0.0061753383 0.097947724
2.5386753e-05 -7.670055e-06 -0.00096678175 0.25329423 -0.16400038 0.09654728 -0.22626342 -0.1475611
0.0059621558 -0.00031763766 0.0009949134 -0.08935054 -5.6526373e-05 7.355761e-06 0.00012753552 -0.08778639
-0.12313071 0.03144244 -0.059257954 -0.09254343 3.681353e-05 -0.13728537 -8.302521e-05 -0.25800654
0.07060717 0.12718867 0.03418034 -0.08963065 -0.0007465733 -0.00038576758 0.032104373 -0.00019640228
-0.058507565 3.116237e-05 0.10787477 0.010678168 0.07804769 0.11967588 -0.15760812 0.007977843
-0.041666806 7.7781937e-07 0.039891645 0.0011854289 -0.15229087 -0.1088901 -0.047561664 -1.132925e-05
-0.10610056 0.0027575435 -0.018418403 0.032698017 0.064333305 0.07271234 0.101457626 0.0002002626
0.06253147 0.0011768277 0.0008794192 -0.08857435 0.0010373229 -0.15960604 -0.011510677 0.00010678966
0.07580028 0.016192388 -0.11379814 -0.18952608 8.826528e-05 -0.05551626 0.00023785036 -0.038494382
0.00015605129 -0.041522823 -0.15953822 0.02818086 -0.12910992 -0.008659397 0.0002866555 0.1466818
0.00018645049 -0.022409359 5.449567e-05 0.0008058989 0.0011695368 0.059193462 0.0070252647 0.059141543
0.034426417 -0.08971102 0.08199958 0.061364733 0.001296117 0.015095871 0.000130113 0.00022535418
0.040177494 0.08434882 -0.061191276 -0.050440487 0.0040399353 0.06132142 0.12391928 -0.006480449
0.00010656637 -0.060993545 0.15538402 0.0011439747 -0.09792056 -0.00526003 0.09386284 0.00044911008
0.09771388 0.0003890344 0.016341664 0.028590491 0.02519545 0.00073889055 1.1510865e-05 0.09375497
0.0015882285 0.017423408 0.10245893 0.0016570853 0.014671332 0.04534686 0.08237568 0.022654027
-1.5423815e-06 0.00036679665 0.0020625175 -0.2570171 0.04439207 -0.055678356 0.1421233 0.06695977
-0.0023447748 0.0011554399 0.004245934 0.011320509 0.0003999251 0.00018532835 0.00015199454 0.08835403
0.03172531 0.019328693 -0.004783587 0.0420962 2.4210508e-06 0.030597039 0.00047216707 0.14365661
-0.006963129 -0.119419545 0.020625453 0.0610814 0.0020803153 0.0014798419 0.019533992 0.00036575962
