mine/ProG-main/Experiment/pre_trained_model/Texas/GraphCL.GCN.128hidden_dim.pth (torch, 941088 bytes, 4 tensors)

conv_layers.0.bias f4 [128]
-0.024729243 0.0077720527 -0.009097007 -0.008907741 0.01003106 0.006062702 -0.009059015 -0.0033445738
-0.017127458 -0.0047591534 0.003438489 -0.025737872 0.014570183 0.021861656 -0.018148858 0.0011275524
0.020318046 0.028262464 -0.008469979 -5.308295e-07 -0.034623597 -0.019992225 0.003471878 0.015122297
-0.034743465 0.0063146325 -0.026907664 0.014637826 -0.03407281 -0.013016776 -0.010145797 0.0023824272
-0.016584419 -0.02782339 0.043871578 -0.04056635 0.007043291 0.026384756 -0.015203913 -0.0027735126
0.013753604 0.00835116 -0.036215354 0.01679345 0.003165913 -0.01284735 0.022530828 -0.003658665
0.0024081287 0.013518651 -0.033996 -0.00033550352 0.0042592115 -0.049934253 0.00010384377 -0.021015199
0.009421115 0.006054641 -0.035506602 0.0069824136 -0.041602813 0.023784755 -0.026506964 -0.042343564
-1.8479732e-05 -0.013935055 -0.042289473 -0.00828254 0.029295227 0.03761799 -0.015596102 -0.03282455
-0.003563742 0.0037410622 -0.021832187 -0.028996326 0.010776376 0.0058493605 0.025603255 0.028345726
-0.036520146 -0.03917092 -0.0073433165 -0.006203405 -0.04191219 0.031889923 -0.035026677 -0.019665161
-0.0066520893 -0.014536473 0.023521591 -0.018827328 -0.0029469547 0.012276997 0.03126344 -0.017673478
-3.207806e-05 -0.028486598 -0.0077534635 -0.04300724 0.018682992 -0.0009938151 -0.03268541 0.002698786
-0.012550079 -0.012690334 -0.04357519 0.0027262222 -0.013939937 -0.006283866 -0.0051109693 -0.029344354
-0.048324615 0.0017663545 -0.029702822 -0.015425496 -0.04725245 -0.018278787 0.0074633416 0.035442725
0.0076711643 0.029197855 0.027976828 0.0067876284 -0.03594761 -0.018098556 0.032929342 0.017219214
00000000: fb94 cabc b4ac fe3b 9d0b 15bc c6f1 11bc
00000010: 5159 243c a1a9 c63b 436c 14bc a330 5bbb
00000020: e24e 8cbc acf2 9bbb 4658 613b 3bd8 d2bc
00000030: c7b7 6e3c 3717 b33c eaac 94bc 61ca 933a
00000040: 0872 a63c af86 e73c abc5 0abc 537e 0eb5
00000050: 79d1 0dbd bcc6 a3bc 7288 633b 83c3 773c
00000060: 2a4f 0ebd faea ce3b 766d dcbc 7ed3 6f3c
00000070: ee8f 0bbd 5144 55bc 8f3a 26bc 7f22 1c3b
00000080: 0cdc 87bc e1ed e3bc afb2 333d e728 26bd
00000090: 68cb e63b d824 d83c d519 79bc d2c3 35bb
000000a0: cc56 613c 4ed3 083c 8d56 14bd 6b92 893c
000000b0: 357b 4f3b b17d 52bc 9292 b83c 37c6 6fbb
000000c0: b2d1 1d3b 557d 5d3c 643f 0bbd 85e6 afb9
000000d0: db90 8b3b dc87 4cbd b3c6 d938 1128 acbc
000000e0: 055b 1a3c 0366 c63b 5f6f 11bd bbcc e43b
000000f0: b667 2abd 3fd8 c23c 2225 d9bc 7270 2dbd
00000100: ec04 9bb7 db4f 64bc ba37 2dbd 7eb3 07bc
00000110: 8bfc ef3c 5215 1a3d cb86 7fbc 0973 06bd
00000120: ab8d 69bb 9c2c 753b 6ad9 b2bc b489 edbc
00000130: 668f 303c feab bf3b ebbd d13c 4c35 e83c
00000140: 2696 15bd b071 20bd 34a0 f0bb ef45 cbbb
00000150: 1eac 2bbd 029f 023d 2278 0fbd d518 a1bc
00000160: c5f9 d9bb 632a 6ebc 5ab0 c03c c53b 9abc
00000170: b221 41bb 7525 493c 180e 003d f8c7 90bc
00000180: 8e8b 06b8 ba5c e9bc c410 febb 5c28 30bd
00000190: 130d 993c e742 82ba 23e1 05bd 1ede 303b
000001a0: d99e 4dbc 1eeb 4fbc e67b 32bd 6baa 323b
000001b0: 5564 64bc e3e8 cdbb eb79 a7bb 9263 f0bc
000001c0: 08f0 45bd 0685 e73a 5553 f3bc 38bb 7cbc
000001d0: c98b 41bd 65bd 95bc 0c8f f43b 642c 113d
000001e0: 645e fb3b 5730 ef3c a92f e53c c16a de3b
000001f0: cd3d 13bd 6c43 94bc ebe0 063d 4f0f 8d3c

conv_layers.0.lin.weight f4 [128, 1703]
-0.000103758015 -3.3805614e-17 -0.00040134313 0.001143328 0.0014975219 0.0022418138 0.0014591676 4.990972e-05
-0.0016614819 4.2292904e-17 -1.9346387e-05 0.029809535 -0.00023873764 -0.007876105 6.8981596e-16 0.042597566
-5.721962e-17 -0.004136329 0.017541472 0.0023622324 0.0022955905 0.029252434 -0.00010467945 0.00069672114
0.0038185127 5.3114556e-05 -0.00057532365 -0.00069800176 0.006957409 -1.2781768e-05 -0.0023197536 2.761403e-06
-5.4967442e-17 0.0022001334 -4.7617254e-05 0.0060478183 1.5190278e-05 6.7260194e-06 0.013416685 -3.2270505e-16
0.001434069 0.00037060367 0.029986652 1.2979292e-16 2.4079683e-16 0.012109647 0.028191479 2.3926845e-05
0.011467301 -5.651725e-16 0.001319768 1.0044961e-16 4.1559586e-05 -3.548135e-05 -1.1035225e-05 -0.0006153181
-0.00032219544 -0.018108217 -1.0759281e-16 0.00013128233 -6.8110676e-16 2.4566869e-17 0.007165901 -0.00030983385
0.00010145271 -0.00020047929 0.002959432 -5.489649e-16 0.002246275 2.2415462e-16 0.007785974 -9.7759956e-05
7.1074026e-16 -0.0010808696 -2.0949563e-16 0.00020556731 -1.6426262e-05 -0.0041512977 0.0101403175 -0.00029146008
0.009575235 0.01197794 1.7563846e-07 -0.00045901706 -0.00028000306 7.961113e-16 -7.563212e-05 -0.00026106555
1.1483931e-16 -1.1957307e-16 -0.0046402765 -0.011470692 -0.00014570181 0.0065992665 -5.207794e-16 0.033671297
-0.0034751703 2.4459284e-06 -0.00037585452 -0.0021616225 -0.00022688862 -1.1831834e-16 0.002034403 -1.10343717e-16
1.2729967e-05 -0.0039726757 -0.00010682832 -4.5897216e-16 2.3954935e-05 0.0006626005 1.1329247e-05 9.713992e-17
0.014233128 -0.00029904957 0.013471439 0.019903326 0.026127612 0.010900343 0.0011414854 0.0037581534
0.0070552784 -0.0013565676 -0.0005270567 3.1474328e-16 0.00015761096 0.0011451042 0.0045596804 1.7764732e-07
0.011020386 -0.0003627507 -0.00095266243 0.00823228 -0.0028772084 0.0013832499 -0.005235522 0.012707367
0.0008691918 -3.9657607e-05 0.008608391 -0.0014248565 3.8490666e-17 0.0012474952 -0.059929963 0.002068688
-0.007237487 -7.947972e-05 0.01236299 -1.8135413e-05 -5.3152366e-06 -0.039634362 -0.0005305502 -0.046900082
-0.009144494 0.01580894 0.062049005 -3.1200175e-16 1.1283162e-05 -0.00050417724 1.6671875e-05 2.6781604e-16
0.0012539863 -3.136966e-05 -1.4642968e-05 0.0005611724 1.4826736e-06 -2.4218112e-16 -0.0043946123 0.010971125
-2.7152716e-16 3.8511478e-16 0.0011912127 0.0024276644 -0.00039002558 -0.0026537287 8.3906325e-06 2.0885966e-16
6.520228e-16 1.3945664e-05 -0.005246796 8.7643525e-17 -5.902203e-16 0.015120547 -5.6957528e-05 -2.0649761e-06
0.016680999 -0.0025907822 -0.000573486 0.0061594937 -7.7281373e-07 4.919701e-16 0.00071702903 -1.814122e-05
2.5229178e-16 7.821499e-17 0.0040601674 0.00451068 0.0062627327 1.6612201e-16 0.012933369 -9.775705e-17
4.6886784e-16 -0.020576868 4.2036178e-16 0.017259022 -2.308905e-05 -6.670263e-05 -0.00022114791 -0.00045847514
3.0144455e-16 -2.130633e-06 -0.002302222 3.1916283e-05 -3.7083476e-16 0.012827026 3.8230164e-06 4.0922114e-06
1.8354245e-07 -5.210051e-06 0.0011450141 0.014138583 -0.0002084017 -0.0030598724 -0.00012414863 -0.0005689575
5.5174863e-16 -0.0006032857 -0.027302938 -0.013008797 -0.020590333 0.00032120725 0.028674917 -2.1913599e-16
-0.00024868938 -3.134272e-05 1.8502547e-07 0.008826159 -0.001180166 -0.0007527656 0.008160665 -0.0005931325
2.421486e-06 -2.1179428e-06 0.00038766148 -0.0032242504 -0.00019728346 2.1723574e-06 -0.0067013465 -1.9065028e-17
-0.0005106985 0.00019450928 -0.0057709613 0.0013565702 -0.017210832 0.00093285437 4.2190443e-17 -0.0005189042
00000000: a998 d9b8 a0e6 1ba4 5d6b d2b9 b9db 953a
00000010: 7f48 c43a 65eb 123b 8a41 bf3a 2756 5138
00000020: 15c6 d9ba a60a 4324 0d4a a2b7 2033 f43c
00000030: a655 7ab9 c70a 01bc 6fd3 4626 c97a 2e3d
00000040: 81f0 83a4 0b8a 87bb 22b3 8f3c afcf 1a3b
00000050: 9e71 163b cda2 ef3c 5a87 dbb8 2aa4 363a
00000060: 0340 7a3b 52c7 5e38 51d1 16ba 1bfa 36ba
00000070: fafa e33b 4771 56b7 0207 18bb 8b50 3936
00000080: 1a7e 7da4 1d30 103b a3b8 47b8 c72c c63b
00000090: bfd9 7e37 11b0 e136 a8d1 5b3c dc06 baa5
000000a0: 5ff7 bb3a 954d c239 91a6 f53c 1ca4 1525
000000b0: 57cf 8a25 8a67 463c d1f1 e63c 82b6 c837
000000c0: 59e1 3b3c 5fe6 22a6 11fc ac3a fc9e e724
000000d0: 4450 2e38 cfd1 14b8 ee23 39b7 4c4d 21ba
000000e0: 57ec a8b9 af57 94bc 9617 f8a4 d5a8 0939
000000f0: cf50 44a6 e196 e223 efcf ea3b 3271 a2b9
00000100: 02c3 d438 c037 52b9 08f3 413b 763a 1ea6
00000110: 3e36 133b 6237 8125 7c21 ff3b 7a04 cdb8
00000120: 60db 4c26 f7ab 8dba 3288 71a5 8e8d 5739
00000130: 21cb 89b7 9c07 88bb 9323 263c 1ccf 98b9
00000140: 72e1 1c3c 1f3f 443c 2297 3c34 3aa8 f0b9
00000150: 60cd 92b9 a576 6526 af9c 9eb8 a0df 88b9
00000160: 9566 0425 bedb 09a5 760d 98bb 92ef 3bbc
00000170: 88c7 18b9 a93e d83b bd1a 16a6 eaea 093d
00000180: afbf 63bb bb24 2436 570e c5b9 02aa 0dbb
00000190: f3e8 6db9 6969 08a5 9e53 053b 6f6f fea4
000001a0: cb92 5537 382d 82bb 0509 e0b8 2b4a 04a6
000001b0: d5f2 c837 5eb2 2d3a bf12 3e37 4afd df24
000001c0: 1132 693c c1c9 9cb9 4fb7 5c3c 4d0c a33c
000001d0: 9309 d63c 5a97 323c e59d 953a 5a4b 763b
000001e0: f72f e73b dbce b1ba 2d2a 0aba e96f b525
000001f0: 5f44 2539 5217 963a 5f69 953b 53bf 3e34
00000200: d98e 343c 932f beb9 18bc 79ba afe0 063c
00000210: 8c8f 3cbb 2a4e b53a be8e abbb 8f32 503c
00000220: 79da 633a 0856 26b8 350a 0d3c 40c2 baba
00000230: c281 3124 fe82 a33a 1f79 75bd d392 073b
00000240: 7128 edbb 5aae a6b8 238e 4a3c 8121 98b7
00000250: 8959 b2b6 a457 22bd 9f14 0bba 4d1a 40bd
00000260: cad2 15bc c081 813c 1927 7e3d 55db b3a5
00000270: d04c 3d37 c32a 04ba 94da 8b37 ac62 9a25
00000280: cc5c a43a ea92 03b8 12ab 75b7 a41b 133a
00000290: 4700 c735 a09b 8ba5 ae00 90bb 3cc0 333c
000002a0: 5686 9ca5 e900 de25 7722 9c3a 7319 1f3b
000002b0: 597c ccb9 2eea 2dbb 7ec5 0c37 7ecc 7025
000002c0: caee 3b26 2cf8 6937 51ed abbb 9b17 ca24
000002d0: 921e 2aa6 2cbc 773c aee5 6eb8 0594 0ab6
000002e0: 97a6 883c 1dca 29bb fe55 16ba 94d5 c93b
000002f0: 5b73 4fb5 fccc 0d26 01f7 3b3a f92d 98b7
00000300: b26f 9125 fb59 b424 270b 853b 54ce 933b
00000310: 9c37 cd3b 9086 3f25 7be6 533c 9469 e1a4
00000320: 5724 0726 d290 a8bc 7352 f225 cb62 8d3c
00000330: 5baf c1b7 b4e2 8bb8 f1e3 67b9 7e5f f0b9
00000340: 5dc5 ad25 fffb 0eb6 e0e0 16bb d9dd 0538
00000350: 8dc5 d5a5 7228 523c 7647 8036 d44f 8936
00000360: c413 4534 ffd1 aeb6 4c14 963a 84a5 673c
00000370: 6886 5ab9 2488 48bb e52d 02b9 1726 15ba
00000380: dd07 1f26 d125 1eba 69aa dfbc d922 55bc
00000390: 0fad a8bc b567 a839 a9e7 ea3c 87a5 7ca5
000003a0: 8662 82b9 fd75 03b8 6aab 4634 989b 103c
000003b0: cdaf 9aba 3f55 45ba 4fb4 053c 737c 1bba
000003c0: d080 2236 fb21 0eb6 0b3f cb39 f24d 53bb
000003d0: e0dd 4eb9 d1c8 1136 f896 dbbb 06d8 afa3
000003e0: 65e0 05ba 30f5 4b39 551a bdbb f1ce b13a
000003f0: bbfd 8cbc cc8a 743a af91 4224 1207 08ba

conv_layers.1.bias f4 [128]
-0.0065771695 0.020152854 0.009404914 0.028639205 0.040476933 -0.012863854 -0.010944085 0.029206473
0.013230446 -0.038410474 -0.02996112 0.0084541375 0.022279898 -0.041988898 -0.020565862 -0.044584148
-0.03742584 0.0097229965 0.022223076 0.03647817 0.05185117 -0.050025403 0.052939616 -0.014675783
0.011711126 -0.026536386 0.0036527775 0.026928078 -0.031707488 0.01931959 -0.0047910507 -0.02377493
0.013929345 0.0068014627 0.021869933 -0.04954594 -0.04094848 -0.048795808 -0.034397755 -0.024677968
0.049656186 0.028609399 0.0418723 0.0282937 -0.024990028 0.013123668 -0.040103186 0.01513679
0.0044609206 0.010533231 -0.0110785505 -0.028136287 -0.03529209 -0.042334307 -0.018267935 0.0028653028
-0.0002566528 0.0043909256 0.021428278 -0.053588323 0.055620093 0.015605218 -0.03278369 -0.0028599438
0.014868325 -0.041076023 -0.047065254 -0.03122333 0.068670556 -0.03363306 -0.011746046 0.035794806
0.011314631 -0.021972286 -0.030208217 -0.0502267 -0.03588995 -0.05102321 -0.017945675 -0.031781312
-0.0073525566 -0.054476365 -0.013403638 -0.03203565 0.02497588 -0.015787913 -0.030936388 -0.030922674
-0.038015172 0.03789668 0.026083656 0.04982342 -0.012462893 -0.028159201 0.038034644 -0.019912062
0.04791893 -0.017718537 0.038368173 -0.0097722495 -0.016528478 -0.027652172 -0.048831455 0.031094959
0.021637555 0.026724044 -0.06570392 -0.035192512 0.044495415 0.00079319614 -0.01975037 -0.0164798
0.014661669 -0.006122133 0.03403807 0.012774639 0.0021105339 -0.07377918 0.022338076 -0.019814681
-0.04912387 0.021455413 -0.0048756483 0.019892931 0.026007213 -0.0079748025 -0.020185454 0.0014649447
00000000: 4c85 d7bb 9917 a53c 1217 1a3c c49c ea3c
00000010: 24cb 253d eac2 52bc d24e 33bc 6a42 ef3c
00000020: 83c4 583c 4d54 1dbd 0671 f5bc 3983 0a3c
00000030: 5584 b63c 8dfc 2bbd bd79 a8bc de9d 36bd
00000040: d64b 19bd 344d 1f3c 2b0d b63c 226a 153d
00000050: e461 543d 70e7 4cbd 36d7 583d b272 70bc
00000060: 06e0 3f3c d662 d9bc 7063 6f3b 4698 dc3c
00000070: b6df 01bd 1e44 9e3c 3ffe 9cbb a4c3 c2bc
00000080: e837 643c cede de3b 9328 b33c aff0 4abd
00000090: 98b9 27bd 1dde 47bd a9e4 0cbd 7329 cabc
000000a0: 4964 4b3d 425e ea3c 4a82 2b3d 31c8 e73c
000000b0: e3b7 ccbc a704 573c 3d43 24bd 4d00 783c
000000c0: ea2c 923b 9393 2c3c cf82 35bc 127e e6bc
000000d0: 708e 10bd bd66 2dbd a3a6 95bc cec7 3b3b
000000e0: 5b8f 86b9 c1e1 8f3b 5b8a af3c 6e7f 5bbd
000000f0: e5d1 633d 07ad 7f3c 3148 06bd e56d 3bbb
00000100: 469a 733c 553f 28bd 7fc7 40bd 12c8 ffbc
00000110: 26a3 8c3d d2c2 09bd 7d72 40bc 939d 123d
00000120: 0161 393c 39ff b3bc 3977 f7bc 83ba 4dbd
00000130: 5701 13bd b7fd 50bd cf02 93bc 1f2d 02bd
00000140: b7ed f0bb 9c22 5fbd ef9a 5bbc d037 03bd
00000150: 379a cc3c a755 81bc 4f6e fdbc 8c51 fdbc
00000160: ccb5 1bbd 8d39 1b3d 64ad d53c a413 4c3d
00000170: 2931 4cbc 20ae e6bc 37ca 1b3d 9f1e a3bc
00000180: a446 443d 7726 91bc f227 1d3d c91b 20bc
00000190: bb66 87bc cf86 e2bc 7e03 48bd dbba fe3c
000001a0: 3e41 b13c 62ec da3c c78f 86bd 0626 10bd
000001b0: d340 363d 7eee 4f3a 87cb a1bc a500 87bc
000001c0: 7f37 703c 2d9c c8bb 816b 0b3d b84c 513c
000001d0: e250 0a3b 8a19 97bd 57fe b63c 6652 a2bc
000001e0: 1c36 49bd 43c3 af3c e7c3 9fbb 80f6 a23c
000001f0: 140d d53c bfa8 02bc f75b a5bc 6303 c03a

conv_layers.1.lin.weight f4 [128, 128]
0.026746975 0.028829074 0.10011064 0.007383332 0.04958535 0.033154093 0.01582563 -0.057483945
-0.04928192 0.0017314495 0.049305525 -0.00015200757 0.09816985 -0.021887977 0.017080123 0.0040684273
-0.047545187 0.004107132 -6.0019975e-06 -1.5287361e-06 0.00024803588 0.011981673 0.010548398 0.036239725
0.0009293404 0.067854315 -0.013945407 7.482692e-05 0.031391744 0.010321569 -0.0543031 0.093877286
-4.05778e-05 0.0058403914 0.060378674 -0.024018288 -0.09309979 -0.028284164 0.0064391866 -4.644219e-06
-0.020766553 -0.010072603 -0.0001117692 0.105383106 -0.0030162875 0.048332274 0.030289862 -0.033657346
0.07565325 0.058479216 -0.042453058 -0.018250033 0.03563114 0.0071876114 -1.8516701e-05 -5.6311204e-05
0.12575048 0.056058496 -0.011136004 0.047019776 -0.07926949 -0.046307165 -0.06628146 -0.016556071
-0.071973294 -0.021400344 -0.04651487 -1.3161934e-05 0.056563914 0.008447763 0.044040542 0.0071013635
0.02646443 -0.008977822 0.07139831 0.05096979 0.14507793 -0.001958074 0.104718275 -0.05864627
-0.00019143548 -0.0051625683 -0.0006989104 0.00016367214 -5.636034e-05 0.0019828477 0.048361488 -0.054082517
5.7991867e-05 0.012402879 0.00049106276 0.004183696 0.036428392 0.009403907 0.025042482 0.048554037
-5.237907e-05 -0.08634112 0.04274736 0.0038356346 0.05764282 -4.978903e-07 -0.1259465 -0.007148413
-0.026081303 -0.00086184137 0.010629835 0.06322835 0.0013543108 -0.0068347994 0.032851856 2.5638758e-05
-5.9530863e-05 -0.02937582 -6.5202286e-05 -1.0717899e-05 -0.005579205 0.15607746 0.0053059906 0.010524173
-0.027179193 0.042297818 0.062485103 -0.036634076 -0.033379506 0.06897177 0.0059320275 -0.02763559
0.00014632495 -0.024949515 7.3370706e-05 0.0042775036 -0.0015015217 -0.00022626806 -0.0073012956 0.026211904
0.07141711 0.0012775534 -0.01862611 -9.6099364e-05 -0.0037903707 0.0014237378 0.012287273 0.004705328
0.0152328685 -0.042221375 -1.220038e-06 -1.3358926e-05 -0.0009304222 0.007711504 0.010851229 -0.0051898016
0.0024964875 -0.005135308 0.0012359599 -0.026381537 0.0005650878 0.00017358403 -0.018926213 -0.021058211
0.00010996694 -0.0032696188 -0.06911512 0.001196059 -0.04465153 -0.03142746 0.00111558 -1.524314e-05
0.013903476 0.022547815 -4.643674e-05 -0.09391161 -0.017897196 0.00527362 0.02128302 0.05852971
-0.002398883 0.000951288 0.0035146235 -0.04068377 0.00034889116 0.043915205 -5.9345075e-05 0.013751829
0.0007388496 0.011626952 -0.0041941134 -0.032222632 0.008911319 -0.04015186 -0.014182254 0.012058293
-0.04137022 0.0049824254 0.030042693 -8.15644e-06 0.016556362 -0.0053509437 0.02222272 0.06498498
-0.023335926 -0.040207434 0.049456388 -0.000113964714 0.005667104 -0.0032750538 -0.017072259 -0.013962067
-6.3543965e-05 -0.0018815506 -0.008822526 -0.00235079 -0.0058061467 0.0053113587 0.0020936183 -0.0067522964
1.7579296e-05 0.012346517 0.0036085215 -0.0033199408 0.016975159 -0.0038808752 -0.10256646 0.0025586903
0.0017589437 0.040969964 0.05573679 -0.009168962 -0.029102454 -1.2573955e-07 0.011728004 0.0044313082
-0.004572693 -4.6405774e-05 0.0031260618 -0.006953176 0.0039156084 -0.0057177716 0.02590413 -3.244222e-05
0.0002840362 -0.006411669 -4.5072247e-05 -0.00022945537 0.015612984 0.017043464 0.010975988 -0.0036562628
0.0055349693 0.0010930236 0.024744969 0.0015567843 -0.017305592 0.009250084 0.0005853273 0.013340678
00000000: 791c db3c f32a ec3c cf06 cd3d e1ef f13b
00000010: 021a 4b3d 96cc 073d c0a4 813c 4974 6bbd
00000020: d7db 49bd cef1 e23a 97f4 493d 3964 1fb9
00000030: 460d c93d 6a4e b3bc 9deb 8b3c 7150 853b
00000040: bebe 42bd 1f95 863b c464 c9b6 f92e cdb5
00000050: d00a 8239 c74e 443c 30d3 2c3c 1b70 143d
00000060: fa9e 733a 34f7 8a3d 477b 64bc 66ec 9c38
00000070: a194 003d cc1b 293c ed6c 5ebd bc42 c03d
00000080: 1532 2ab8 c160 bf3b a14f 773d 00c2 c4bc
00000090: 1aab bebd 31b4 e7bc d0ff d23b 8ad5 9bb6
000000a0: 9e1e aabc 8f07 25bc a265 eab8 19d3 d73d
000000b0: e8ac 45bb 10f8 453d 7222 f83c 49dc 09bd
000000c0: 17f0 9a3d e787 6f3d 42e3 2dbd 1881 95bc
000000d0: f5f1 113d 0e86 eb3b 5054 9bb7 b22f 6cb8
000000e0: bcc4 003e 989d 653d c973 36bc cf97 403d
000000f0: 0b58 a2bd 95ac 3dbd 93be 87bd 99a0 87bc
00000100: bc66 93bd c64f afbc 6086 3ebd 13d2 5cb7
00000110: 90af 673d 7c68 0a3c db63 343d 8eb2 e83b
00000120: efcb d83c b717 13bc 4739 923d b3c5 503d
00000130: 4f8f 143e 0853 00bb 8976 d63d 1237 70bd
00000140: 12bc 48b9 c32a a9bb 1537 37ba 689f 2b39
00000150: 7464 6cb8 aaf2 013b b216 463d a185 5dbd
00000160: 4b3c 7338 7235 4b3c aaba 003a 6317 893b
00000170: f035 153d d812 1a3c e425 cd3c 99e0 463d
00000180: 99b1 5bb8 9dd3 b0bd db17 2f3d 455f 7b3b
00000190: e11a 6c3d c3a6 05b5 1ff8 00be 3c3d eabb
000001a0: 75a8 d5bc 32ed 61ba c228 2e3c dd7d 813d
000001b0: 2183 b13a 74f6 dfbb ab8f 063d d012 d737
000001c0: c7b0 79b8 8fa5 f0bc 36bd 88b8 07d1 33b7
000001d0: c4d1 b6bb c5d2 1f3e e0dd ad3b 956d 2c3c
000001e0: e6a6 debc 7a40 2d3d 61f0 7f3d 9d0d 16bd
000001f0: f3b8 08bd 1241 8d3d 7461 c23b 0864 e2bc
00000200: ce6e 1939 ed62 ccbc 99de 9938 4d2a 8c3b
00000210: b5ce c4ba 5f42 6db9 b53f efbb 59ba d63c
00000220: 2243 923d 9473 a73a c995 98bc f488 c9b8
00000230: de67 78bb b79c ba3a 8f50 493c 272f 9a3b
00000240: 4893 793c 52f0 2cbd 30c0 a3b5 2620 60b7
00000250: 94e7 73ba c9b0 fc3b 5ac9 313c 360f aabb
00000260: 1c9c 233b 1646 a8bb efff a13a 181e d8bc
00000270: 6622 143a 1c04 3639 250b 9bbc 4582 acbc
00000280: 0d9e e638 1a47 56bb 3a8c 8dbd 15c5 9c3a
00000290: 86e4 36bd 15ba 00bd a738 923a cabc 7fb7
000002a0: 68cb 633c 32b6 b83c 12c5 42b8 bb54 c0bd
000002b0: 249d 92bc 55ce ac3b ba59 ae3c d9bc 6f3d
000002c0: 9436 1dbb db5f 793a 9955 663b 06a4 26bd
000002d0: 61eb b639 6ee0 333d 4ae9 78b8 5a4f 613c
000002e0: 5baf 413a f97e 3e3c c66e 89bb e1fb 03bd
000002f0: c800 123c 4776 24bd af5c 68bc 2690 453c
00000300: d273 29bd 9d43 a33b 181c f63c a5d7 08b7
00000310: 35a1 873c f856 afbb 6c0c b63c d816 853d
00000320: fc2a bfbc 8db0 24bd c892 4a3d 5700 efb8
00000330: 1db3 b93b 49a2 56bb 1fdb 8bbc 27c1 64bc
00000340: e842 85b8 5d9e f6ba 5b8c 10bc b60f 1abb
00000350: 7d41 bebb e80a ae3b 1635 093b 5e42 ddbb
00000360: 4077 9337 0c49 4a3c f27c 6c3b 5d93 59bb
00000370: 7d0f 8b3c 4856 7ebb 5d0e d2bd b3af 273b
00000380: 5b8c e63a 1fd0 273d 434c 643d 6a39 16bc
00000390: 4568 eebc 0603 07b4 d026 403c 8234 913b
000003a0: 87d6 95bb d2a3 42b8 9dde 4c3b 78d7 e3bb
000003b0: 814e 803b 255c bbbb e634 d43c 9212 08b8
000003c0: b2ea 9439 fa18 d2bb f50b 3db8 f599 70b9
000003d0: 9acd 7f3c bc9e 8b3c a1d4 333c e99d 6fbb
000003e0: b05e b53b c943 8f3a f6b5 ca3c 030d cc3a
000003f0: 75c4 8dbc aa8d 173c a670 193a dc92 5a3c
