mine/ProG-main/Experiment/pre_trained_model/Flickr/DGI.GCN.128hidden_dim.pth (torch, 324992 bytes, 4 tensors)

conv_layers.0.bias f4 [128]
0	0xbc09c2d9	-0.008408272
1	0x3ddf0e40	0.1089139
2	0xbe599d57	-0.21251427
3	0xbb886134	-0.004161978
4	0xbb8e274a	-0.0043381797
5	0xbe1d431e	-0.15357634
6	0xbd3f889f	-0.04676115
7	0xbc0bcb5b	-0.00853237
8	0xbd30da4d	-0.043176938
9	0xbbfb7077	-0.007673319
10	0x3c9c8ec5	0.019111047
11	0x3c91e199	0.017807769
12	0x3e1e9910	0.15488076
13	0xbba9ae0b	-0.0051782182
14	0x3da20aba	0.07912202
15	0xbbe41577	-0.0069605666
16	0xbd58bf12	-0.052916594
17	0xbc5b51e4	-0.013386223
18	0xbb975a97	-0.0046189534
19	0xbe0b2b53	-0.13590746
20	0x3d814af6	0.06313126
21	0x3de35564	0.11100271
22	0xbcc24389	-0.023713844
23	0x3c182d1a	0.009288097
24	0xbb38f20d	-0.0028220445
25	0xbe1fba53	-0.15598421
26	0x3c8ed87e	0.017437216
27	0xbb27abc2	-0.0025584553
28	0xbb97f18c	-0.004636949
29	0xbac140ff	-0.0014744102
30	0xbc3399ee	-0.010961993
31	0xbe6b6b99	-0.22990264
32	0xbb0b537f	-0.0021259484
33	0xbba30e76	-0.004976089
34	0xbe338fce	-0.17535326
35	0xbd393679	-0.045217965
36	0xbb944390	-0.0045246556
37	0x3cc3827a	0.023865927
38	0x3e1815f7	0.14852129
39	0x3ccc8c5f	0.024969278
40	0xbe67ffa2	-0.2265611
41	0xbc2048ab	-0.00978295
42	0xbc05872b	-0.008149902
43	0xba1d2659	-0.0005994789
44	0x3cd67b4a	0.026181836
45	0xbd8fa7d5	-0.07014433
46	0xbb10ef65	-0.0022115347
47	0xbcd44c97	-0.025915427
48	0xbbfdb3d4	-0.0077423844
49	0x3e0421ea	0.12903562
50	0x3b8fba68	0.004386235
51	0x3de58396	0.11206739
52	0xbbb433a5	-0.0054993206
53	0x3d3e5556	0.0464681
54	0xbe0eb466	-0.13936004
55	0xbd62c847	-0.05536678
56	0x3c53973b	0.012914474
57	0x3c06c60d	0.00822593
58	0x3cdc2d8d	0.026877189
59	0xbc262c45	-0.010142391
60	0xbbbc432c	-0.005745312
61	0xbc806865	-0.01567478
62	0x3cf4ea77	0.029896958
63	0xbe6745fe	-0.22585294
64	0xbbe1b275	-0.006887729
65	0xba05ed46	-0.0005108904
66	0x3b90d58a	0.004419987
67	0xbdc76e3b	-0.09737822
68	0xbc3cf5e9	-0.011533239
69	0xbd045e53	-0.032316517
70	0xbc4c8b34	-0.0124843605
71	0x3d84ab13	0.06477942
72	0x3d8e9d1b	0.06963559
73	0xbae6a798	-0.0017597554
74	0xbc1547e4	-0.009111378
75	0xbc9450a4	-0.018104859
76	0x3e1ad217	0.15119205
77	0x3d4f82b9	0.050661776
78	0xbb9d8d1e	-0.0048080822
79	0x3e0bc989	0.13651098
80	0x3de1993c	0.11015555
81	0xbba7ded9	-0.005123001
82	0x3d02771c	0.031851873
83	0x3d66d420	0.056354642
84	0x3d5c743a	0.05382178
85	0x3d50932c	0.050921604
86	0x3e23e24b	0.16004293
87	0x3d68d77c	0.056846127
88	0x3d843c78	0.06456846
89	0x3d9c4dfb	0.07632061
90	0xba7d0cdd	-0.0009653101
91	0xbc648872	-0.013948547
92	0x3db04ef6	0.086088106
93	0x3c99c42a	0.018770296
94	0x3d8d472e	0.06898342
95	0x3e088622	0.13332418
96	0x3da86670	0.082226634
97	0xbc39d4de	-0.011342255
98	0xbb80d40f	-0.0039315294
99	0x3dbab21c	0.09116003
100	0xbba9e38e	-0.0051845973
101	0x3dd39976	0.10332005
102	0xbd0b3624	-0.03398718
103	0xbc3af8c8	-0.011411853
104	0xbbb3154f	-0.0054651867
105	0xbc3995a7	-0.011327184
106	0xbc5c3c3d	-0.013442096
107	0x3cd5f9fb	0.026120177
108	0xbbbc41c0	-0.0057451427
109	0xbb6d30ad	-0.0036192343
110	0xbbeb2fcc	-0.0071773287
111	0xbc17c6ab	-0.009263675
112	0xbbdfbdc5	-0.006828042
113	0xbb7fa9f3	-0.003901121
114	0xbb26a96f	-0.002543058
115	0xbc9aab06	-0.018880378
116	0x3cf7b616	0.030238193
117	0x39eb4512	0.00044874154
118	0x3bfa66aa	0.007641633
119	0x3d801231	0.0625347
120	0xbd9069a3	-0.070513986
121	0xbbd6f148	-0.0065595247
122	0xbc6f3931	-0.014601038
123	0xbc1f9e6e	-0.009742362
124	0xbc62067d	-0.013795492
125	0x3d3ff3f5	0.046863515
126	0x3c817668	0.01580353
127	0xbc4faa28	-0.012674846

conv_layers.0.lin.weight f4 [128, 500]
0	0xbda74239	-0.08166928
1	0xbd30e5ed	-0.043188024
2	0x3ca2c03d	0.019867057
3	0x3bff89d1	0.0077984114
4	0x3db2ee96	0.08736913
5	0x3d811795	0.06303326
6	0xbdbd2dd6	-0.09237258
7	0xbd988020	-0.07446313
8	0x3d2b98ba	0.0418937
9	0xbd92cb88	-0.07167727
10	0xbb2bc048	-0.0026207138
11	0x3db737de	0.08946203
12	0xbd7133f1	-0.058887426
13	0x3c02d5d8	0.007985555
14	0xbd3397e6	-0.043846034
15	0xbd00cd65	-0.03144588
16	0x3d0b8db0	0.03407067
17	0x399470d9	0.00028312838
18	0x3d4bfb7a	0.049800374
19	0xbd646748	-0.05576256
20	0xbdad6e57	-0.08468311
21	0x3d65e6e7	0.05612841
22	0x3db6e999	0.08931274
23	0xbc24fe52	-0.0100704
24	0xbd592003	-0.053009044
25	0x3dac7a8f	0.08421814
26	0x3d6f89c2	0.058480985
27	0xbd915f55	-0.07098261
28	0xbd97b05f	-0.07406687
29	0xbdb493f2	-0.08817281
30	0xbda56d6a	-0.0807751
31	0x3d7487db	0.059699874
32	0x3d70251e	0.058629148
33	0x3da61221	0.081089266
34	0x3d5630c8	0.052292615
35	0xbda9fac2	-0.082997814
36	0xbd0d059c	-0.034429178
37	0x3c401aee	0.011725171
38	0xbd021434	-0.03175755
39	0x3d0fe8f8	0.035134286
40	0x3d0cb97a	0.03435657
41	0xbd8e40bc	-0.06945941
42	0x3d99afe9	0.07504255
43	0xbdd31cff	-0.10308265
44	0x3d8574d1	0.065164216
45	0xbdcbd21f	-0.09952187
46	0xbd7f8d4d	-0.062390614
47	0x3d97e3c0	0.07416487
48	0xbd67518f	-0.056474265
49	0x3d26af5d	0.040694583
50	0xbdb219cd	-0.08696327
51	0xbd7ab717	-0.061209764
52	0xbc9f39c4	-0.019436724
53	0xbd9f7925	-0.07786778
54	0xbcb31aec	-0.021863423
55	0xbd448f6c	-0.04798834
56	0xbd9ab701	-0.075544365
57	0x3d58a015	0.05288704
58	0x3b0a19e0	0.0021072552
59	0xbd66febd	-0.05639528
60	0x3da44c90	0.08022416
61	0xbd576c1d	-0.05259334
62	0xbd8023e2	-0.06256844
63	0x3da45dd3	0.08025708
64	0xbd931cb0	-0.07183206
65	0x3d955c0a	0.07292946
66	0xbdc8c573	-0.098032854
67	0xbd0188c7	-0.03162458
68	0xbc698eda	-0.01425525
69	0x3d11ba15	0.035577852
70	0x3d926400	0.0714798
71	0x3d838d8a	0.06423481
72	0x3ce5d447	0.028055323
73	0xbdaad51b	-0.08341428
74	0x3daa1c74	0.08306208
75	0xbd8d073d	-0.06886146
76	0xbd5a535e	-0.05330216
77	0xbbef0c7e	-0.0072951904
78	0x3bd0a134	0.006366873
79	0x3d995662	0.07487179
80	0xbdaa237f	-0.083075516
81	0xbd2a065d	-0.041509975
82	0xbc3673e1	-0.011136026
83	0xbdccf40d	-0.100074865
84	0x3da66324	0.08124378
85	0x3cadd75d	0.021220857
86	0xbd63ba8e	-0.055597834
87	0xbcbf4175	-0.023346642
88	0x3c4d1276	0.012516608
89	0x3db58561	0.08863331
90	0xbd56a038	-0.05239889
91	0x3c60960d	0.01370765
92	0x3d86583b	0.065597974
93	0x3d1a3815	0.03765114
94	0xbdcf0586	-0.101084754
95	0x3cc65df5	0.024214724
96	0x3bb435c9	0.0054995758
97	0xbd6e3e54	-0.05816491
98	0x3d9b849e	0.07593654
99	0xbd897587	-0.0671187
100	0xbdd0b5a6	-0.10190897
101	0xbd1d4175	-0.038392503
102	0xbd48a695	-0.04898699
103	0xbd963313	-0.073339604
104	0x3da5ca40	0.08095217
105	0xbdbf01dd	-0.09326527
106	0x3bc9e4f8	0.0061613284
107	0xbdd89c31	-0.10576666
108	0xbd294dd7	-0.041334
109	0x3bef53b2	0.0073036784
110	0x3d7ce59a	0.061742403
111	0xbd668f86	-0.05628922
112	0x3d225091	0.039627615
113	0xbd026596	-0.03183516
114	0xbd818ef9	-0.06326098
115	0xbd8aac8e	-0.067711934
116	0xbd8a178b	-0.06742772
117	0xb9c6c92c	-0.00037915388
118	0xbb9e0006	-0.00482178
119	0x3d3e957f	0.04652929
120	0xbdc68ad4	-0.09694448
121	0xbd9210e9	-0.071321316
122	0xbd494d99	-0.04914627
123	0x3d90c3f3	0.07068624
124	0xbdb6fad1	-0.08934558
125	0xbc9562d6	-0.018235605
126	0xbdcf8a53	-0.10133805
127	0x3c2bc5af	0.010484143
128	0xbdbe5b77	-0.09294789
129	0x3d92de9b	0.07171365
130	0x3da98e99	0.082791515
131	0xbd15292e	-0.036416225
132	0x3dba455d	0.09095261
133	0xbdadd811	-0.08488477
134	0x3d5469a7	0.05185857
135	0xbdb01e6e	-0.08599554
136	0x3d704d70	0.0586676
137	0x3cb61c18	0.022230193
138	0x3d8accec	0.06777367
139	0xbd3daec7	-0.04630926
140	0x3c268ff0	0.010166153
141	0x3d94347c	0.07236573
142	0xbdbb3ad6	-0.091420814
143	0x3d7540ed	0.05987637
144	0xbd651a58	-0.055933326
145	0xbdba72e6	-0.091039464
146	0xbdcf5ce1	-0.10125137
147	0xbdb58fa2	-0.088652864
148	0x3d7bb981	0.061456207
149	0x3d6cd6b6	0.05782195
150	0x3bcb4041	0.006202728
151	0x3d2b00de	0.041748874
152	0x3d9d6b05	0.07686428
153	0xbcdb4007	-0.026763929
154	0xbc047261	-0.008083911
155	0x3d01cc9c	0.03168927
156	0xbd3acea2	-0.045607217
157	0x3da00f4f	0.0781542
158	0xbd77763e	-0.0604155
159	0x3dadf18a	0.084933355
160	0xbd11b2ae	-0.035570793
161	0x3da9ff6d	0.08300672
162	0xbdbb7424	-0.091530114
163	0x3d425e3b	0.047453146
164	0x3d61aff9	0.05509946
165	0xbcb68b85	-0.022283325
166	0xbd1a78d7	-0.037712898
167	0x3db20c0b	0.08693703
168	0x3d844d60	0.064600706
169	0xbbcc09a5	-0.0062267357
170	0x3d4d05b8	0.050054282
171	0x3d6c36a4	0.057669297
172	0x3c0c73e2	0.0085725505
173	0xbc5e0100	-0.013550043
174	0x3abdf9b4	0.0014493973
175	0xbd540e1f	-0.05177128
176	0xbd17fe4f	-0.037107762
177	0xbd3f0193	-0.04663236
178	0xbcc47fa9	-0.023986654
179	0x3d8a9253	0.067661904
180	0x3c4b0401	0.012391091
181	0x3da32635	0.07966272
182	0x3d637d73	0.05553956
183	0xbd23cf67	-0.039992716
184	0x3b9be75c	0.004757805
185	0xbdb3532a	-0.08756097
186	0xbaee9eb8	-0.0018205261
187	0xbd6e079f	-0.058112737
188	0xbd7f1437	-0.062275138
189	0x3da55387	0.08072572
190	0x3cb565ea	0.022143323
191	0xbd8c39cf	-0.068469636
192	0x3d24938c	0.040179774
193	0x3d12c304	0.035830513
194	0x3cfb433e	0.030671712
195	0x3d9ac85c	0.07557747
196	0x3d9fe4d0	0.078073144
197	0xbd55ddb4	-0.052213386
198	0x3cb493cc	0.022043131
199	0x3d291b8b	0.041286033
200	0x3cb2a990	0.02180937
201	0x3d31d14e	0.0434125
202	0x3d82e61c	0.06391546
203	0xbcae4d12	-0.021276984
204	0xbb4972e6	-0.003073865
205	0x3c03570c	0.008016359
206	0xbdbcc5e9	-0.09217436
207	0x3d078cae	0.033093147
208	0xbce601c8	-0.028077021
209	0xbda3529c	-0.07974741
210	0xbdbfea1e	-0.09370826
211	0xbd99a58e	-0.0750228
212	0xbdccbeb9	-0.09997315
213	0xbd65122f	-0.055925544
214	0x3db5802e	0.08862339
215	0x3dabada8	0.08382732
216	0xbd9a04d6	-0.07520454
217	0x3d90e582	0.07075025
218	0xbd1a8a15	-0.03772934
219	0xbda90ed2	-0.0825478
220	0xbdba2821	-0.09089685
221	0xbd93ea15	-0.07222382
222	0x3d30ff7e	0.043212406
223	0x3d2728b6	0.04081031
224	0x3cfb2884	0.030658968
225	0x3d3f8cd6	0.04676517
226	0xbdbd4687	-0.09241968
227	0xbd577292	-0.052599497
228	0x3d9a5a7a	0.07536788
229	0xbd8f6709	-0.07002074
230	0x3d62205d	0.055206645
231	0x3d7a7447	0.061146047
232	0xbd611479	-0.054951165
233	0xbcc42061	-0.02394122
234	0x3d8cb893	0.06871142
235	0x3d4eee97	0.050520506
236	0x3d641e86	0.055693172
237	0xbd6773d8	-0.05650696
238	0x3c303e77	0.01075708
239	0x3d839b66	0.06426124
240	0x3d9862f2	0.07440747
241	0xbdd483b4	-0.10376683
242	0xbd03af22	-0.03214944
243	0x3d8ba142	0.06817867
244	0x3dabb920	0.08384919
245	0xbb1b3580	-0.0023683012
246	0xbdc038c6	-0.09385829
247	0xbb9f2f5d	-0.004857941
248	0xbdd556c3	-0.10416939
249	0xbc8caf4e	-0.017173436
250	0x3cf9908b	0.030464431
251	0x3c1a9e9c	0.0094372295
252	0xbd5c982c	-0.05385606
253	0x3d9f370a	0.0777417
254	0x3b99da20	0.004695192
255	0xbd14e8cb	-0.03635482

conv_layers.1.bias f4 [128]
0	0xbb687ecf	-0.0035475974
1	0x3d4ce2c1	0.050020937
2	0xbcf1726e	-0.02947351
3	0x3d3fa6ba	0.046789862
4	0x3c6756fb	0.014119859
5	0x3bca01aa	0.006164749
6	0xbb6368d3	-0.0034699931
7	0x3d45666b	0.048193377
8	0xbc39982e	-0.011327786
9	0x3c1ecb9b	0.009692098
10	0x3be93bf2	0.0071177417
11	0x3d2ff7e6	0.042961024
12	0xbb9db3c9	-0.004812692
13	0x3c83d1cb	0.016091248
14	0xbb9b0784	-0.0047311205
15	0xbc553ac6	-0.013014501
16	0xbc3116e9	-0.010808685
17	0x3cc96a53	0.024586832
18	0x3c81bbbd	0.01583659
19	0xbc33b32d	-0.010968012
20	0x3c99f219	0.018792199
21	0x3b806c42	0.0039191553
22	0x3cb1068b	0.021609565
23	0xbc010d56	-0.007876715
24	0x3d068b3a	0.03284762
25	0xbcbb7b47	-0.022885932
26	0xbba16877	-0.0049257833
27	0x3c2b1e09	0.010444173
28	0xbb6cf3f5	-0.0036156152
29	0xbcaa75a6	-0.020808052
30	0x3cbe5a7d	0.023236508
31	0x3c945ab4	0.018109657
32	0xbd041461	-0.032245997
33	0xbcc036d9	-0.023463653
34	0x3ca03336	0.01955567
35	0x3d05a55e	0.03262841
36	0x3ca9b891	0.020717891
37	0xbc23f3a2	-0.010006817
38	0xbcf0b513	-0.029383218
39	0xbbef45da	-0.007302028
40	0x3b407ca3	0.0029371164
41	0x3c48aa7f	0.012247681
42	0x3ca2f9f5	0.01989458
43	0x3cc2c162	0.023773853
44	0x3c624066	0.013809299
45	0x3c01b8e7	0.007917619
46	0xbc6a59e6	-0.01430366
47	0x3d53177d	0.051536072
48	0xbc3b4456	-0.011429867
49	0xbcdc6092	-0.026901517
50	0x3cbe90fb	0.023262491
51	0x3b05bee4	0.002040797
52	0x3c11f059	0.008907401
53	0xbce0879e	-0.027408417
54	0xbc124a9f	-0.008928924
55	0x3d397b69	0.04528371
56	0xbb26895c	-0.0025411462
57	0x3c1b1e88	0.009467728
58	0xbc999eae	-0.018752422
59	0x3c16691e	0.009180335
60	0xbbf7494f	-0.007546581
61	0x3c1f957d	0.009740231
62	0x3b79b69b	0.0038103226
63	0x3c0961e9	0.00838516
64	0xbba84959	-0.005135697
65	0x3b874adb	0.0041287965
66	0xbbd55eb5	-0.006511534
67	0xbc36775c	-0.011136856
68	0x3ca8607f	0.020553825
69	0x3d1f0c89	0.038830314
70	0x3cef9b3f	0.029248832
71	0x3c9785a9	0.018496351
72	0xbbad0e17	-0.0052812207
73	0x3ce818be	0.02833211
74	0xbbb56534	-0.005535746
75	0xbb432722	-0.0029777964
76	0x3cabdfde	0.020980772
77	0x3a10ebf9	0.0005528327
78	0x3a8040e9	0.000978497
79	0xbc883ecd	-0.016631508
80	0x3d036fab	0.032088917
81	0x3c2e27c7	0.010629601
82	0x3cb9605d	0.022628957
83	0xbcdd529e	-0.027016934
84	0x3ca73f74	0.020415999
85	0x3c3fcc9a	0.011706496
86	0xbc8b28fb	-0.016987314
87	0xbc0b7e2d	-0.008513969
88	0x3d1a861a	0.037725545
89	0x3cc5d10a	0.02414753
90	0x3c79d9f3	0.015249717
91	0xbc64f520	-0.013974458
92	0xbc20c4b0	-0.009812519
93	0xbae9c3af	-0.0017834808
94	0x3c863438	0.016382322
95	0xbc2cc1e1	-0.010544271
96	0xbca7c4b6	-0.020479541
97	0xbc87e178	-0.016587004
98	0xbc7bc098	-0.015365742
99	0x3ce094ac	0.027414642
100	0xbb5bcf78	-0.003354041
101	0x3c8bb3f4	0.017053582
102	0xbd2d0fd9	-0.04225144
103	0xbc21bcce	-0.009871675
104	0x3c3c6199	0.0114978785
105	0x3c17f855	0.009275516
106	0x3c331a94	0.01093163
107	0xbc0551c9	-0.008137175
108	0x3d05d42c	0.032673046
109	0x3bfa5ec5	0.007640692
110	0x3ce350d5	0.027748505
111	0xbc92dbe6	-0.017927121
112	0x3cae2efc	0.021262638
113	0x3b7ed263	0.0038882724
114	0x3d2bfc52	0.04198868
115	0x3bd3d0f8	0.00646412
116	0x3c55c6a8	0.013047852
117	0xbc3e371a	-0.011609817
118	0xbc79096f	-0.015200003
119	0x3cb3cdb1	0.021948667
120	0x3c1ec972	0.009691583
121	0x3b39865f	0.0028308851
122	0x3c29b0b9	0.010357075
123	0x3c8b9729	0.017039852
124	0x3be49f2c	0.0069769826
125	0x3b58a775	0.0033058797
126	0xbc5deb7a	-0.0135449115
127	0x3c7169c7	0.014734692

conv_layers.1.lin.weight f4 [128, 128]
0	0xbc8f8196	-0.017517846
1	0x3e1b91c3	0.15192322
2	0xbe488e2d	-0.19585486
3	0xbe10901d	-0.14117475
4	0x3d9054be	0.07047413
5	0xbe30ccc2	-0.17265609
6	0x3d5f5ae6	0.054530047
7	0xbda30303	-0.07959559
8	0xbd8ee640	-0.069775105
9	0xbca0dbef	-0.019636123
10	0x3e074f5e	0.1321387
11	0x3db26ad2	0.087117806
12	0x3e383ea5	0.17992647
13	0x3d8cf327	0.06882315
14	0x3dd73144	0.105074435
15	0x3d378018	0.044799894
16	0x3d96ff7f	0.07372951
17	0xbe074d33	-0.13213043
18	0x3d86c181	0.06579877
19	0xbcf5a76d	-0.029987061
20	0xbdffd1cc	-0.124911875
21	0xbb349e25	-0.0027560082
22	0x3caa1d7b	0.02076601
23	0x3d49d070	0.049271047
24	0x3e14618a	0.14490333
25	0xbe3d23c4	-0.18470675
26	0xbdfe1294	-0.12405887
27	0xbdf384b2	-0.11890544
28	0x3dee86f7	0.11646836
29	0x3db589f0	0.088642
30	0xbd998940	-0.074968815
31	0xbe50a492	-0.20375279
32	0xbe0763ba	-0.13221636
33	0x3e092ca0	0.1339593
34	0xbe52ceca	-0.20586696
35	0x3e0d108c	0.13775843
36	0x3c935a59	0.017987417
37	0xbdb1be12	-0.08678831
38	0x3dce439b	0.100714885
39	0x3df1a485	0.11798958
40	0xbdc3cbe4	-0.095603734
41	0xbda319e8	-0.079639256
42	0x3e0ee7fc	0.13955683
43	0x3dce5271	0.10074318
44	0x3d6441a1	0.05572665
45	0xbca5f277	-0.020257218
46	0xbe0dcdc6	-0.13848028
47	0x3d1035f8	0.03520772
48	0xbe0bbba9	-0.13645805
49	0xbe359d98	-0.17735898
50	0xbcc351d6	-0.023842733
51	0x3ddc144a	0.10746057
52	0x3d475df9	0.048673604
53	0x3d1e1b1a	0.038600065
54	0xbdc68712	-0.09693731
55	0xbe1c0e9f	-0.15239953
56	0x3d060cf1	0.032727186
57	0x3d851a7a	0.06499191
58	0x3d8628ac	0.06550726
59	0xbdbabafa	-0.09117694
60	0x3dbc87ee	0.09205614
61	0xbd574298	-0.052553743
62	0xbe0c8e31	-0.13726117
63	0xbe6ba91a	-0.23013726
64	0x3d83bd35	0.06432573
65	0xbe04616b	-0.12927787
66	0x3dbbd6b6	0.09171812
67	0x3db0a6ef	0.0862559
68	0x3bb1c912	0.005425581
69	0xbdc68d8c	-0.09694967
70	0x3de4180e	0.111374006
71	0xbd82d2df	-0.06387877
72	0xbdee3696	-0.11631505
73	0x3e0b595b	0.13608305
74	0xbc8570a8	-0.01628907
75	0xbe05ad58	-0.13054407
76	0x3e80389a	0.25043184
77	0xbc5fd748	-0.013662167
78	0x3da9943a	0.08280225
79	0x3e920dda	0.28526193
80	0x3e2bd2e3	0.16779666
81	0xbdf80f3c	-0.12112281
82	0xbca3ff6b	-0.020019254
83	0xbd073977	-0.033013787
84	0x3c250105	0.010071044
85	0x3cdf43b5	0.027253965
86	0x3e2a847d	0.16652103
87	0xbde92b1a	-0.11385174
88	0xbd535785	-0.051597137
89	0x3dd8ad3f	0.10579919
90	0xbb4d6b61	-0.003134452
91	0xbd85532c	-0.065100044
92	0x3cdca9cc	0.026936434
93	0xbd1f5044	-0.038894907
94	0xbde311d5	-0.110873856
95	0x3e14f02b	0.14544742
96	0x3d37cbed	0.044872213
97	0x3e12cb80	0.14335442
98	0x3d06b09a	0.032883264
99	0x3ca5846d	0.020204747
100	0x3d055fa0	0.0325619
101	0xbc70f76d	-0.014707428
102	0xbdef955f	-0.11698412
103	0x3dab2f01	0.08358575
104	0x3e17f57e	0.14839742
105	0x3d369dea	0.044584192
106	0x3d338b7f	0.043834206
107	0x3c275fa3	0.010215673
108	0xbe03e9ec	-0.12882203
109	0xbc3ff733	-0.011716652
110	0xbda23ac4	-0.07921365
111	0x3e0aed0d	0.1356699
112	0xbd3fabdb	-0.046794754
113	0xbc971c42	-0.018446092
114	0x3d0e0f92	0.034682818
115	0x3d8966f4	0.0670909
116	0xbd9b9abc	-0.075978726
117	0xbcb7c05d	-0.022430593
118	0x3dc212aa	0.09476216
119	0xbc117324	-0.008877549
120	0x3d2a56a9	0.04158655
121	0xbde31335	-0.11087648
122	0xbdc86ddf	-0.09786581
123	0xbcf7d306	-0.030251991
124	0xbca28e81	-0.019843342
125	0x3df941a0	0.1217072
126	0xbd7a97da	-0.061179973
127	0xbd95c66b	-0.07313236
128	0xbd78ebfb	-0.060771924
129	0x3d3e4276	0.0464501
130	0x3d8fee95	0.07027928
131	0x3c83f452	0.016107712
132	0xbdca595b	-0.098803245
133	0x3d9acec3	0.07558968
134	0xbdcf4a22	-0.101215616
135	0xbe4142d8	-0.18873155
136	0x3d142bd3	0.036174607
137	0x3dbe5eac	0.09295401
138	0xbd8d3872	-0.06895532
139	0xbca9fd3f	-0.02075064
140	0xbe2ab768	-0.16671526
141	0x3d9109bf	0.07081937
142	0xbc1b1fc9	-0.009468027
143	0x3dc17000	0.094451904
144	0x3c4841ab	0.012222688
145	0x3dd6fb20	0.10497117
146	0xbce9b516	-0.028528731
147	0x3e8c9089	0.27454022
148	0xbdfd4793	-0.12367167
149	0xbe4feea0	-0.20305872
150	0x3d00b5ae	0.031423263
151	0xbde1ce19	-0.11025638
152	0xbcc9e85c	-0.02464693
153	0x3ea4a3d3	0.32156238
154	0xbe2afad9	-0.16697253
155	0x3c5621b5	0.01306956
156	0x3d8203ae	0.06348358
157	0xbe3b6791	-0.18301226
158	0xbccd0720	-0.025027812
159	0x3d754052	0.059875794
160	0xbe1e29fe	-0.15445706
161	0x3e16b4f2	0.14717463
162	0x3ebfe33d	0.37478057
163	0x3dc0b761	0.09409977
164	0x3c854827	0.016269756
165	0xbdf85853	-0.121262215
166	0xbe9cf78c	-0.30657613
167	0x3db6448b	0.08899792
168	0x3ea4c0e7	0.32178423
169	0x3e1c583f	0.15268038
170	0xbdc9a01a	-0.0984499
171	0x3dae725f	0.08517908
172	0x3cd9b692	0.026576314
173	0x3e2eddd4	0.17076808
174	0xbe19b120	-0.15008974
175	0x3d270466	0.04077568
176	0xbe218a3c	-0.15775388
177	0x3df24b06	0.11830716
178	0xbdc5be23	-0.09655406
179	0x3c9313e7	0.017953826
180	0x3da1d40b	0.07901772
181	0x3a256993	0.0006309982
182	0x3ddd4b82	0.108054176
183	0xbd96f312	-0.07370581
184	0x3e0a887e	0.1352863
185	0xbdbde5de	-0.09272359
186	0x3d9bcb63	0.07607152
187	0xbd91999c	-0.07109377
188	0x3d2a81a2	0.041627534
189	0x3d3d3595	0.046193678
190	0x3d968cd4	0.073510796
191	0x3eb5ead8	0.35530734
192	0xbd649ea2	-0.055815347
193	0xbe48a428	-0.1959387
194	0x3e03d504	0.12874228
195	0x3e44a353	0.19202928
196	0x3dc05ea9	0.09393055
197	0x3e3874b6	0.18013272
198	0x3e1fd3fc	0.1560821
199	0xbcf54ee5	-0.029944846
200	0xbc551471	-0.013005362
201	0x3df64c6a	0.120262936
202	0x3e0b5e73	0.13610248
203	0x3e2f7b24	0.17136818
204	0xbe072804	-0.13198858
205	0xbdb3d9e0	-0.08781791
206	0x3dc40e39	0.09573025
207	0xbe98316f	-0.29725215
208	0xbb94b614	-0.004538307
209	0xbce8ce28	-0.028418615
210	0xbd36556f	-0.04451507
211	0xbe00073f	-0.12502764
212	0x3d84f293	0.0649158
213	0xbd71c0a5	-0.05902161
214	0xbea8ab1c	-0.32943046
215	0xbd8ee42e	-0.069771156
216	0x3e049d7d	0.12950702
217	0x3dce8979	0.100848146
218	0x3e0999fb	0.13437645
219	0x3d7817e9	0.060569678
220	0xbdfb5bf1	-0.12273396
221	0xbc266576	-0.010156026
222	0xbe213e1f	-0.15746354
223	0xbb5dd165	-0.0033846733
224	0xbe52e100	-0.20593643
225	0xbe41ca4c	-0.18924826
226	0x3b4f4635	0.003162754
227	0x3d9d4085	0.07678322
228	0x3ddbcbf0	0.10732257
229	0x3d8261b5	0.063662924
230	0xbd99d65e	-0.075115904
231	0x3d2be0b3	0.041962337
232	0xbe213f31	-0.15746762
233	0xbc87392e	-0.016506758
234	0xbd516f20	-0.051131368
235	0xbdb76c06	-0.08956151
236	0x3d683652	0.05669243
237	0xbe1cca7c	-0.15311617
238	0xbcb9599c	-0.022625737
239	0x3e1bb387	0.15205203
240	0x3dc0e813	0.09419265
241	0xbe4d6931	-0.20059659
242	0xbdbd5f15	-0.09246651
243	0x3d8f8479	0.07007689
244	0xbd579504	-0.052632347
245	0x3c204fdc	0.009784665
246	0xbe327d46	-0.174306
247	0xbe4c150c	-0.19929904
248	0xbd2f26fe	-0.042761795
249	0xbda8c34f	-0.08240377
250	0x3dbe302f	0.09286534
251	0x3d9a6b7a	0.07540031
252	0x3c7185cb	0.014741371
253	0xbdce6497	-0.1007778
254	0x3d49cea0	0.04926932
255	0xbdef10f7	-0.11673158
