mine/ProG-main/Experiment/pre_trained_model/Flickr/Edgepred_GPPT.GCN.128hidden_dim.pth (torch, 325200 bytes, 4 tensors)

conv_layers.0.bias f4 [128]
00000000: e5ef 6b3d c5b9 9d3e 3c20 76bc 43fa 9c3e
00000010: 1865 8cb9 aa12 93b8 f92f 33bc 7da5 efba
00000020: bd85 02bc 3927 e83e 5f0d d83f c560 15ba
00000030: 5aea 1bbc f939 c3b8 699a 71bb b3e5 c8b8
00000040: bb38 e3ba 8340 8bba 771a 40bb a7ba 91ba
00000050: aad2 ceb9 c841 463f fa94 33bd 821e f8be
00000060: 23a6 f739 856d af3b 1f02 de3e 3c29 93bb
00000070: 946e 4ebb 3403 16bb 0d55 16bf 48a5 0dbc
00000080: 50c6 913a 0739 0039 7519 00bc 4b60 c1ba
00000090: e105 c6ba 99c3 51be 32b7 a2be 9727 afbe
000000a0: a9a8 8dba 0148 d0bb 815c 14bb a3a0 3cbb
000000b0: 25ea 75bb 601d cdbb ab6a 7fba e64e 773f
000000c0: 8e40 0239 8dce d6ba 2d06 a5b9 e7a5 823e
000000d0: 438a 3b3a 0c8c 13bb beb7 77b9 1060 43bc
000000e0: cc0e f7b9 f543 c2ba e5bc 86bb c183 9fbb
000000f0: 5b4d 3ebc cc66 8fbb 03d8 62bc b97b 2fb9
00000100: 2851 d2ba c190 adba d499 1a3f 18f6 65bb
00000110: 5616 91b9 f368 273f 12b2 c63e 285d 07bb
00000120: f5eb 16bc 1cb8 deb9 6933 7339 d144 97ba
00000130: c844 0f3f fe50 fcba 0187 bcbb 88ab edbb
00000140: 8f81 5fbc 4d7b 5bbc dbdb 5ebc 3773 7dba
00000150: ae09 7ebf 9904 0bbb a2b7 76bb 3d43 35c0
00000160: 2184 1aba a51f 48bc c521 0c3f 693c f7ba
00000170: ae79 36b9 8acc 3aba 8f2a bbba 3a5c 3f3e
00000180: 019d 1bba a8ff 5ebb 443a 603f 28d5 fcba
00000190: 745c 5abc 32fd 1cba 9188 23bf 1402 8bba
000001a0: 3c84 44b9 d819 b4be 8011 93ba 9f15 fbba
000001b0: db2e 053f fa6d 95b9 312a f8bb 3f4e 26bb
000001c0: d22f bfbe 27c6 c8b9 1ad2 41ba 9373 8fbc
000001d0: 923d af3d dd9f 363e 6a65 3dbc 4bce 4ebb
000001e0: c7d4 443f 8e6e 41bb 9928 e339 09dc 59bc
000001f0: c5dd 36ba 233c 2dbc 2f02 53bb d728 29ba
0.057601828 0.30805793 -0.015022334 0.30659685 -0.00026778202 -7.012983e-05 -0.010936731 -0.0018283572
-0.007966456 0.45342425 1.687908 -0.0005698319 -0.009516323 -9.309123e-05 -0.0036865717 -9.579528e-05
-0.0017335633 -0.0010624084 -0.002931265 -0.0011118249 -0.0003944834 0.77444124 -0.043843247 -0.48460776
0.00047235293 0.005353632 0.43360993 -0.0044909995 -0.0031499015 -0.0022890093 -0.5872353 -0.008645363
0.0011121724 0.00012228276 -0.007818569 -0.0014753429 -0.0015107953 -0.20484771 -0.31780392 -0.34209892
-0.0010807711 -0.00635624 -0.0022638144 -0.002878227 -0.0037523594 -0.0062596053 -0.0009743373 0.96604764
0.00012421815 -0.0016388461 -0.00031475854 0.25517198 0.00071540865 -0.0022513894 -0.00023624205 -0.011924759
-0.00047122536 -0.0014821278 -0.0041118735 -0.004868001 -0.011615123 -0.004376268 -0.0138454465 -0.00016735391
-0.0016045915 -0.0013241993 0.60390973 -0.003508931 -0.00027673197 0.65394515 0.38807732 -0.002065489
-0.00921153 -0.00042480312 0.00023193438 -0.0011540895 0.55964327 -0.0019250212 -0.0057533984 -0.007253114
-0.013641729 -0.013396096 -0.013602222 -0.00096683524 -0.9923352 -0.0021212457 -0.0037646075 -2.832229
-0.00058943225 -0.012214576 0.5473903 -0.0018862608 -0.00017402202 -0.00071258156 -0.0014279651 0.18687525
-0.0005936176 -0.0034026895 0.87588906 -0.00192896 -0.013327707 -0.0005988657 -0.6388026 -0.0010605478
-0.00018741278 -0.35175967 -0.0011220425 -0.0019156224 0.5202462 -0.00028501434 -0.007573389 -0.0025376228
-0.37341172 -0.00038294608 -0.00073936733 -0.017511165 0.085566655 0.1783442 -0.0115598235 -0.0031556066
0.7688717 -0.0029515359 0.00043327062 -0.013297089 -0.0006975795 -0.01057342 -0.0032197346 -0.0006452924

conv_layers.0.lin.weight f4 [128, 500]
00000000: 46f7 41bd 483d 7ebe 8e71 40be 6679 c1be
00000010: c113 ae3d 5286 a1bd 016d 0fbe 013b fdbc
00000020: a066 9ebe a009 753d f71a b0bd 2ee1 d73c
00000030: 22c1 de3d aad1 e93c 2d56 18be 88a7 313d
00000040: 65c4 cd3d 7240 033e adac 733d 3402 263b
00000050: 5897 853d d25d b23d 1412 d53d 37a8 acbd
00000060: 7eac 083d b39a c63d 2427 a93d 852a c6bd
00000070: dae2 b13c 060a aebd cff3 ad3d 3ca2 d0bc
00000080: c5d4 31bd 5e42 783d c37d fd3d ce3e fcbc
00000090: e02d a33d 2669 4cbe 6eb9 6d3e 360f c43d
000000a0: c004 493e f47b 6d3e 5ac7 33be 7ee9 5fbe
000000b0: 0cdb cabc c565 543d fca6 d63d c442 993c
000000c0: 26c1 193d 6032 0fbe a162 d5bd 4831 443c
000000d0: f908 92bd 2f86 88bd cd71 a33d 56f9 7c3c
000000e0: 0fc6 84bd 307b 6abd cb32 94bd 5139 a5bd
000000f0: b60c efbc 0963 71bd 47a9 2e3e 79ec 30be
00000100: 384b 533d 5aab 1f3e bb0b 503d 81ff 453d
00000110: 6841 dd3d 5dc8 92bc 8fd1 0bbe c07b b73d
00000120: e8d1 47be 4e10 c53d 7c0d eabd f8ba 4fbe
00000130: d68f fd3d e1d0 b8b9 b2ba 813d f498 fc3d
00000140: ad46 a93d 05fb 5a3d f8a2 ae3d 03a0 593c
00000150: ea9b 05be 61bc 7eba 3c1e 78be 5ce1 88bd
00000160: ac32 94bd 8345 d0bd 4970 5abe ba10 3b3e
00000170: 4add 993d 4154 07be 401e 743d 8d80 5bbe
00000180: 4451 063e 51f5 fbbd 5688 16be 8dba fe3d
00000190: 7e69 09be 14c9 2cbe 08ac 64bd 423c 9a3d
000001a0: 3c58 3abd d73a b03d 8832 283c bd0e 09be
000001b0: 246c 3fbb 8edd 1bbe b6a9 b1bb 2116 38be
000001c0: 6b36 a63d 1955 763e 69d8 283e 4b59 663d
000001d0: 5df8 813c 1235 27bc ef5c 5039 62b0 83be
000001e0: 8730 713d bbe0 9fb9 6201 12be d826 d6bc
000001f0: 8f6e fabb f9d0 95bd ec29 87be ef6b cdbd
00000200: b6a9 38be bb09 8ebd 38a1 2d3e 8a6c 373d
00000210: 04e2 f7bc 5aef 0fbd 0289 86be d757 e0bd
00000220: 555d ccbe 6051 893e b484 7d3e e665 093d
00000230: 948f 1cbf 9a7f a0bd f1aa f83c ec7e dfbd
00000240: 535a 853d 4859 24be 20c4 943c 8705 66be
00000250: 0087 073e 4f84 48be 20b1 aabd db00 143d
00000260: 4c85 fd3d 3353 0b3e 9a8b 21bc 248e 17be
00000270: 408b c6bc 35ce ecbd f153 ddbd d407 8fbe
00000280: 7c44 78bc 29f1 693d 2e5c 7cbd d631 233e
00000290: cad3 22be a8fe efbd 32dc 0f3e f20d 1ebe
000002a0: a34d ddbe 720e 6fbe 1a5c 963c 34fb 55be
000002b0: 4b34 17be 6188 7cbc 0560 83bc d5f5 a83d
000002c0: 92a7 21bd 143d acbd e326 c83d 720d 41be
000002d0: f788 a33d 3047 d53d 2f3f 0fbe 962f a3be
000002e0: 8028 fc3c 8f79 43be c65e 48bc 4c29 913e
000002f0: 3ec0 873d 4f0f 553e 31e0 cf3d 86d1 66bd
00000300: 0a92 443d 2a40 4cbe b77b 703e 5368 243c
00000310: b509 63bd df1a e13c 9d28 623c 2958 8b3e
00000320: 5234 1c3e 0ef3 4b3e 5472 10bd f561 1a3e
00000330: f219 753c 85a0 9b3c 6fc5 b43d 78e2 403e
00000340: 33f0 a2bd 832d c73d 2fd0 2c3c e2f6 5a3d
00000350: be11 babd 3a5c 4abe 24cf 05bc 8c08 c3bc
00000360: fab1 0d3e ab2f fabd 788e ea3d 585e e73d
00000370: 0ab4 693d e1a9 803e d1ea 2b3e cecf f13c
00000380: 5fc8 853e fa3d 8ebd 9d04 893e 7758 23be
00000390: 171f b3bd 8338 eebd cb9b d9bd 581f 33bd
000003a0: 60ce 2d3e cdda 963d bb6a 4d3d 5f07 a3bd
000003b0: 5427 0bbd 6811 3d3d 178c 8cbd 14f4 52bc
000003c0: 6185 96bd dd74 3e3d a24b ee3d 0f94 0cbe
000003d0: 8d12 4abd 8c28 0c3c 9a63 ed3d a6f9 fb3b
000003e0: e9ef 303e 8a4b 22be 6ed3 7c3e 35cb 933d
000003f0: 4d10 4f3e 68f8 aa3d 32a0 c9bc 27c3 97bd
-0.04735496 -0.24828064 -0.18793318 -0.37787932 0.084998615 -0.07886948 -0.14006425 -0.030911924
-0.30937672 0.059823632 -0.08598893 0.026352491 0.10876681 0.028542358 -0.14876623 0.04337266
0.10047225 0.12817553 0.05949085 0.0025330903 0.06523007 0.08709301 0.10403839 -0.08430522
0.033367626 0.09697475 0.082594186 -0.09676079 0.021714617 -0.084980056 0.084937684 -0.025467984
-0.043415803 0.060610168 0.12377503 -0.030791666 0.07967734 -0.19961986 0.23215267 0.09573214
0.19630718 0.23191816 -0.17556515 -0.21866414 -0.024762653 0.051854867 0.104810685 0.018708594
0.037537716 -0.1398406 -0.104192026 0.01197464 -0.07130618 -0.066662185 0.0798069 0.015440306
-0.06483089 -0.057246387 -0.072362505 -0.08067573 -0.029180866 -0.058932338 0.17056762 -0.17277707
0.051585406 0.15592709 0.050792437 0.04833937 0.10803491 -0.017917806 -0.13654159 0.0895915
-0.19513667 0.096222505 -0.11428353 -0.20286167 0.1238095 -0.00035250842 0.063344374 0.12333861
0.082654335 0.053462047 0.085271776 0.013282779 -0.13047758 -0.00097174017 -0.24230283 -0.06683609
-0.072362274 -0.10169508 -0.21331896 0.182681 0.07512911 -0.13215734 0.05959916 -0.21435757
0.13116938 -0.1230265 -0.14700446 0.124379255 -0.13419148 -0.1687358 -0.055828124 0.075310245
-0.045494303 0.08604973 0.010265954 -0.13384528 -0.0029208744 -0.15221235 -0.0054218424 -0.17977192
0.08115848 0.240559 0.16488804 0.0562375 0.0158655 -0.010205524 0.00019871046 -0.25720507
0.05888417 -0.0003049428 -0.1425834 -0.026141569 -0.007642574 -0.07315249 -0.2639917 -0.10030352
-0.1803349 -0.0693545 0.16956031 0.044781245 -0.03025914 -0.035140373 -0.26276404 -0.10954254
-0.39914957 0.26819897 0.24757653 0.033544444 -0.6115658 -0.07836838 0.030354949 -0.1091288
0.065113686 -0.16049683 0.018159926 -0.22463046 0.13235092 -0.19581722 -0.08334565 0.03613363
0.1237894 0.13605957 -0.009859944 -0.14800316 -0.024236321 -0.11562768 -0.10807026 -0.2793566
-0.015153047 0.057114754 -0.061611347 0.1593698 -0.15901104 -0.11718494 0.14048842 -0.15435007
-0.43223295 -0.23345354 0.018354464 -0.20896608 -0.14766042 -0.015413375 -0.016036997 0.08250014
-0.039466448 -0.08410087 0.09773042 -0.18852785 0.07985108 0.104139686 -0.13988946 -0.31872243
0.03078103 -0.1908934 -0.012229627 0.2835182 0.06628464 0.20806621 0.10150183 -0.05635216
0.047990836 -0.19946352 0.23484693 0.010034638 -0.05542918 0.027478633 0.013803628 0.27215698
0.15254334 0.19916937 -0.03526528 0.1507643 0.014959799 0.01899744 0.0882672 0.18836391
-0.079559706 0.097254775 0.010547682 0.053458102 -0.09085415 -0.19761744 -0.008167062 -0.023807786
0.13837424 -0.12216123 0.11452955 0.112972915 0.057056464 0.25129607 0.16788794 0.029518034
0.26129434 -0.06945415 0.26761332 -0.15951715 -0.08746164 -0.116318725 -0.10625418 -0.043731064
0.16973257 0.07365952 0.050150614 -0.0796039 -0.033973053 0.046159178 -0.068626575 -0.012875576
-0.07349659 0.04649817 0.116355196 -0.13728355 -0.049334098 0.008554589 0.11591263 0.0076896725
0.17279018 -0.15849128 0.24690029 0.07216493 0.20221062 0.08348161 -0.02461252 -0.07410269

conv_layers.1.bias f4 [128]
00000000: 3726 703e 8c19 00be e81d 0fbd 642e b23b
00000010: ff74 213d bf4d 1abe a07b 723e ea2e d1bc
00000020: f37e 903d 83f1 d9bd d6fe 9cbd 8027 4abe
00000030: b97b 343e 1a30 5dbd e00e a9bc 2a9c 80bd
00000040: 45f4 7fbe dff5 27bc aaf8 a6bd 1870 b4bd
00000050: 6f81 2bbe c542 4f3e ae41 bc3d f1a4 8abe
00000060: b654 dcbd 04f5 04bb bd78 f53c ab19 f13c
00000070: 93c8 1c3b f559 12bd 3f8c d8bd 65e5 7fbd
00000080: fa7f 05bd 6834 113e 9429 0abe 8a03 c3bd
00000090: 040a 54bd 0f46 02be d93c d4bd 4894 b23d
000000a0: fdd0 53be 9c3d 003d e158 ea3d e921 41be
000000b0: 758c 17be 6ead 233d e2f8 83be 3a3c 1e3b
000000c0: e84a 85bd 5d16 8ebe ad8d 55bd 3e17 283e
000000d0: 872b d5bd 175f 043e 445a 923e 503e 123e
000000e0: 48f4 fd3d d9c5 03bd 948d e33d b549 423d
000000f0: eaf6 85be 78a3 bfbd 8608 ac3b 8d6b 273e
00000100: 471a 0a3d 7ea9 c5bc 6b5a 2b3e cb84 62bd
00000110: 62ce 953c 9d5a 27be 77e6 c8bb befc 263e
00000120: b867 b5bd a753 3fbd 78e6 7fbc 8aa5 cdbd
00000130: 09f9 e1bd 104a 4ebe 52be d6bd 09f8 843c
00000140: 7f2b 453e db32 163d 7333 92bd 83e2 29be
00000150: edd3 7a3d 60a8 723c 2b84 91bd 6e65 8939
00000160: 9504 e83c 2433 e7bc c341 14be dbd3 3e3e
00000170: 6572 a53d 3a60 3b3e 20fa 24be 0b0d 383d
00000180: eae4 1c3d e6d1 dabd 4419 423d 9867 d33d
00000190: f2a9 0ebe c74e 36be f74e b2bc 6ceb 063e
000001a0: 9d85 443d 1110 2f3e 9d8a c23d 3cca c43d
000001b0: 0e9d 1b3e c8d0 683c 8100 0a3e c89e 1dbe
000001c0: dd64 3b3e a44c 0bbe 0207 14be 96ab e9bd
000001d0: b6ab 2e3b 3a0a 86bd c5da 10be 5927 05be
000001e0: c816 6bbe 9a2d 2cbe bead a5bd 7a50 203c
000001f0: 9761 8cbe 969d 053e 54ec 103d 862b 8e3d
0.23452078 -0.12509745 -0.03494063 0.005437659 0.039418217 -0.1506872 0.23679972 -0.025535066
0.07055464 -0.10641768 -0.076657936 -0.1974163 0.17625321 -0.05400095 -0.020636976 -0.06279786
-0.24995525 -0.010251491 -0.08152898 -0.08810443 -0.16748594 0.20240314 0.09192215 -0.27078965
-0.10758345 -0.0020287642 0.029964799 0.029431185 0.0023923262 -0.03573032 -0.10573625 -0.062474627
-0.03259275 0.14180148 -0.13492423 -0.095221594 -0.051767364 -0.12722038 -0.10363168 0.08719689
-0.20685191 0.031308755 0.114427336 -0.18860592 -0.14799674 0.039960317 -0.2577582 0.0024144785
-0.06508428 -0.27751437 -0.052137066 0.16415116 -0.10408693 0.12926899 0.28584492 0.14281583
0.124001086 -0.032171104 0.11110988 0.047433574 -0.26164943 -0.09357351 0.0052500395 0.16349621
0.033716466 -0.024128672 0.1673371 -0.055302422 0.018286888 -0.1634316 -0.006130989 0.16307351
-0.088576734 -0.046710636 -0.015618913 -0.1004134 -0.11033828 -0.2014544 -0.104855195 0.016231554
0.19254874 0.036669593 -0.071387194 -0.16590314 0.061237264 0.014810652 -0.07105287 0.00026206247
0.028322497 -0.028222628 -0.14478211 0.18635504 0.0807846 0.18298426 -0.1611104 0.044934314
0.038304247 -0.10684566 0.047387376 0.10322493 -0.13932016 -0.17803489 -0.021766169 0.13175744
0.047978986 0.17095973 0.09499095 0.09608886 0.1519663 0.014209934 0.13476755 -0.15392601
0.18300195 -0.13603455 -0.14455798 -0.114096805 0.002665264 -0.06544919 -0.14145954 -0.13003291
-0.22957909 -0.1681427 -0.08089779 0.009784812 -0.27418205 0.13048396 0.03538163 0.06941895

conv_layers.1.lin.weight f4 [128, 128]
00000000: 3be6 f13d 0061 a93d 97ef 953c fbc3 f6bd
00000010: 5bfa d63b 1261 863a 45e8 ecbb 8831 9ab9
00000020: 66d7 923a 5548 dfbc 2363 343e 953a af39
00000030: 4293 bc3b a73a 66bc 69b0 bc3a 70e6 7bb9
00000040: c49e dbba 237c 03ba 13e6 c43a 5a3d 6139
00000050: e7f9 4eba e15f e3bc 453c 263d 4ff8 0f3e
00000060: 5d47 17ba 3a6f 6fbb 7fc3 4d3d 723f 98bb
00000070: ba36 293a af09 0e3c 12a2 f43d 684f 98bb
00000080: 7de5 a33c 208a 423b 6a8f f1ba b126 a13b
00000090: 7b1d 723b 15e4 163e 2b0c 333e 837b ed3d
000000a0: b19e b939 851e f13b f6fd bdbc c187 573c
000000b0: d078 29bc 362d 423b 6c53 453c aecb 0ebd
000000c0: 3472 06ba 2c76 f839 c1f7 f439 e306 7e3d
000000d0: 3a60 163c f76e 9c3b db4a bdba 997d 32bb
000000e0: a30c 1b3b 9d61 c73b 7b45 823c 3ad0 cebb
000000f0: 22b2 153e 1033 42bb 4632 1cbc be0a 29b8
00000100: 96cc 263c ffad b7ba cec8 51bd d2eb 653b
00000110: 726d 723a 8e90 853d e0ad abbd 6d29 99ba
00000120: 5edd b3bd de49 6f3a e8bf e23b 99de 173c
00000130: 019b 1abd 36b7 6f3c 7c3e ccbc 4933 c43c
00000140: 7239 dabb 7119 f9bc a5fd 253c e95f 773c
00000150: 82c5 803d 4fe6 f83a 30be 863c dc30 613e
00000160: 8798 4c3c 3732 5739 7a28 7abc 431f aa3c
00000170: 34a0 abbb e0cf 6138 cb07 3d3b 0913 d2bd
00000180: c5eb 4bba 950c 2d3b f1af 0bbe e532 e3b7
00000190: d683 813c 1265 b13a 0973 a13d dffb afb8
000001a0: 0ed9 eb3a 3529 033c 9e06 9bb9 820c dcbb
000001b0: 1fad 373d 8d4f 3538 4c4e ddbb 2d90 6cbb
000001c0: d049 103d 61ac 4f38 d2a2 20ba 6117 a7bc
000001d0: eec8 12bd 79e2 90bd 3208 a13c d585 a03b
000001e0: 62c2 d7bd f08b d33b a86f 19bc 1bbd 64bb
000001f0: 2ecc 443a 5d2c 03bd 83f5 8c3a 25a8 e63a
00000200: 97eb 07bd 08d8 5fba a305 06bd c844 f83d
00000210: e440 85bb c6cb 1ebb 7ed4 d43b 4972 72ba
00000220: 3283 55bc 5dd5 0c3e 5573 8bbd ef2b e8b9
00000230: ee60 bcbb 55f9 a43c 2a61 063a ed54 15b9
00000240: a330 783b 3b4c f639 1a4d a73b dd3e c338
00000250: 2d72 76ba 1e39 233c ade4 92bd 459b 8ebd
00000260: a6e9 fcbb 44d9 3ebc 9c22 293d 2984 39bc
00000270: 0a36 123b 399e dd3a 8b5c 10be 00cf 103d
00000280: 1490 17b8 9a56 853a 1f67 1e39 930b a1bb
00000290: febe 4a3b e746 46be 99d9 7ebe d3a5 81bc
000002a0: ac81 dcb7 8478 773a 6e87 9e3c 277d 3dbb
000002b0: f075 a1bc 4818 02bc e492 65bc f5b3 d53d
000002c0: cc86 b7bb c10d 02ba 461d 83ba d96c d5bd
000002d0: 0e4b 03bc c106 97bb 13bb e4bb f0cd af3a
000002e0: 2a6f 17bc 9231 64bb 7fba bebc 6d35 3a3c
000002f0: 218c 133d 52e3 2bbc c2e8 863c 0f3d 5eb9
00000300: 47be 38bc 2d39 063a 136f 153e e93c d8bb
00000310: c8a8 a039 196f a63d 2282 673e 2ca1 453c
00000320: 5d6c a6bd 9f84 02bb 993c 3cbc b632 e1bb
00000330: 7797 c9bb daf0 42bc 71f7 b93c 545c 98bc
00000340: bc7e 5fbc 1d43 883c 7271 8c3b 530b 5fbc
00000350: 021f 0e3c 8f1d 103b 80be ccbc 067f 4f3d
00000360: fcd5 d2bc f8da 79bc e10c c2bd dd88 5cbc
00000370: 2a78 873b d0d0 0eb8 07c7 e4bb 6969 5d3d
00000380: 4856 033a f4be f2ba a953 3d3e 458a 98bb
00000390: 9f69 f93b 79fe a5bb 44c5 173d 1591 0e3a
000003a0: dfeb a0bb 4206 14be d6b2 4dbc ef78 ee3b
000003b0: a0e0 c4bd 2736 9338 b908 2ebc 530c f13b
000003c0: 2700 ffbd cb10 c9b9 0acc c73a d3b8 123d
000003d0: 2176 fb3a c0e9 683d 5ee1 f5bc 3e65 963b
000003e0: cb81 db3d d429 f03a b82d 3fbc 3f90 863c
000003f0: 1364 8b3a 0e9a d63c fb61 a6bc bd8d aaba
0.11811491 0.082704544 0.018302722 -0.12049099 0.0065606064 0.0010252318 -0.007229837 -0.00029410073
0.001120311 -0.02725617 0.17615943 0.00033422248 0.005754859 -0.01405207 0.0014395836 -0.0002402307
-0.001675569 -0.0005015751 0.0015022181 0.00021480527 -0.0007895515 -0.02775568 0.04058482 0.14059566
-0.0005770827 -0.0036534802 0.050235268 -0.004646235 0.0006454993 0.008669301 0.11944975 -0.004648138
0.02000689 0.002968438 -0.0018429582 0.0049179425 0.0036943841 0.14735444 0.1748511 0.115958236
0.00035404184 0.0073583745 -0.023192387 0.013154925 -0.010343745 0.0029628999 0.012043815 -0.034862213
-0.0005128712 0.0004739029 0.00046723898 0.062018286 0.009178216 0.00477397 -0.0014441864 -0.0027235507
0.0023658655 0.0060846345 0.015902271 -0.0063114436 0.14618734 -0.0029632486 -0.0095334705 -4.0302744e-05
0.010180613 -0.0014013647 -0.051216893 0.0035083187 0.0009247876 0.06521712 -0.083827734 -0.001168532
-0.08782457 0.00091281335 0.0069198497 0.00926938 -0.03774548 0.014631083 -0.024932139 0.023950236
-0.00665968 -0.03040764 0.010131274 0.01509855 0.062876716 0.0018989536 0.01644811 0.21991295
0.012487537 0.00020522704 -0.015268439 0.02076686 -0.0052376036 5.383778e-05 0.0028843756 -0.10257537
-0.0007778968 0.0026405205 -0.13641335 -2.7084208e-05 0.015809935 0.001353415 0.07883269 -8.391565e-05
0.0017993764 0.00800543 -0.00029568834 -0.0067153582 0.044842836 4.322785e-05 -0.0067537185 -0.0036096678
0.035226643 4.9513186e-05 -0.0006127778 -0.02039689 -0.035836153 -0.07074446 0.019657228 0.0048987665
-0.105351225 0.006455891 -0.009365 -0.0034902755 0.0007507232 -0.03202473 0.001075432 0.0017597718
-0.03318366 -0.0008538966 -0.03272022 0.12122494 -0.0040665735 -0.0024230345 0.0064950576 -0.0009248597
-0.013031768 0.13753267 -0.06809107 -0.0004428322 -0.0057488596 0.020138422 0.0005126173 -0.00014241385
0.0037870787 0.00046977572 0.005105627 9.310034e-05 -0.0009401169 0.009962348 -0.07172523 -0.06963209
-0.0077182828 -0.01164848 0.04129277 -0.011323013 0.0022310042 0.0016908116 -0.14097802 0.03535366
-3.613539e-05 0.0010172904 0.0001510647 -0.00491471 0.0030936594 -0.19362985 -0.24887694 -0.015826141
-2.6286427e-05 0.00094402605 0.019351687 -0.0028913708 -0.019709557 -0.007940359 -0.014012072 0.10434715
-0.005600786 -0.0004961156 -0.0010003231 -0.10421152 -0.0080135 -0.0046089594 -0.006980309 0.0013412815
-0.009242812 -0.0034819585 -0.023282288 0.011365277 0.03602231 -0.010491209 0.01646841 -0.00021194316
-0.011275834 0.0005120214 0.14593153 -0.006599058 0.0003064333 0.08126659 0.22608235 0.012062352
-0.081261374 -0.0019915474 -0.011489057 -0.0068725003 -0.006152089 -0.011898244 0.022700997 -0.018598713
-0.013641056 0.016633565 0.0042859847 -0.01361354 0.008674385 0.0021990275 -0.024993181 0.05065825
-0.025736801 -0.01524996 -0.09475113 -0.013460365 0.0041341977 -3.404991e-05 -0.0069817337 0.054055605
0.00050101103 -0.0018520043 0.18488945 -0.004655155 0.007611468 -0.005065736 0.03705336 0.0005438489
-0.0049109305 -0.14455512 -0.012554845 0.0072776 -0.09613156 7.019593e-05 -0.010622197 0.0073562055
-0.12451201 -0.0003835022 0.0015243303 0.035820793 0.0019184985 0.056863546 -0.03001469 0.0045897057
0.107181154 0.0018323013 -0.011668615 0.016426204 0.0010634683 0.026196506 -0.020310393 -0.0013012212
