mine/ProG-main/Experiment/pre_trained_model/Flickr/GraphMAE.GCN.128hidden_dim.pth (torch, 325160 bytes, 4 tensors)

conv_layers.0.bias f4 [128]
0.0055187163 -0.008087184 -0.0071874163 -0.0029310153 -0.008808698 -0.006486168 -0.009492874 -0.0023770537
-0.007810407 -0.01016583 0.0017473324 -0.005717123 0.032708906 -0.0021659876 -0.0063298508 0.0052600806
-0.002692881 -0.005865641 0.0039408756 0.007439054 0.0031341494 0.0025760373 -0.005273976 -0.005859172
-0.0064471075 0.014402744 0.0055462494 -0.00425244 0.0037089847 -0.010511388 -0.005489642 -0.009070639
-0.0061652577 0.01571341 -0.0063165934 -0.008931268 -0.0073471623 -0.0034586932 0.005302809 0.0046398793
0.010972794 0.00370725 0.0015387448 0.0010244938 0.0018547853 0.0017983243 -0.005681812 0.010308845
0.0035550566 -0.006509703 0.002267239 -0.008126571 0.00081060437 -0.0045267446 -0.009012383 0.0005666386
-0.0016805175 0.0027227413 0.0033228456 -0.005911504 0.0005148054 -0.004477369 -0.0063816826 -0.00027827427
-0.009476728 0.006192968 0.00327138 -0.0081873 -0.0074000605 0.009758724 0.009566664 0.013239242
-0.0026448003 -0.004385805 -0.0061960234 -0.009515355 -0.004352681 0.0075352793 -0.0073998603 -0.0064443382
-0.008902066 -0.007523869 -0.005715794 -0.007998199 -0.005542865 0.014196065 0.008471072 -0.0013924624
0.0034082762 0.007968038 -0.00054463267 -0.005565524 0.004284367 0.0021110063 -0.006780487 0.001624761
0.002999006 0.0068291 -0.006722708 0.0016596456 -0.008078457 0.0023366916 -0.0010125298 0.0032532807
0.010905699 -0.004769221 -0.0062550674 -0.006734697 0.0033912433 0.0064889053 -0.009465557 0.0038004487
0.008336594 -0.0022926931 0.004033105 -0.0070205173 0.0020782896 -0.007895091 -0.0010080241 -0.0016128583
0.006426016 -0.0064463434 0.008132064 -0.004261097 -0.008069138 0.0034542163 -0.006146438 0.008300962
00000000: 59d6 b43b 1c80 04bc 6b84 ebbb 4716 40bb
00000010: 5b52 10bc ec89 d4bb 0088 1bbc 58c8 1bbb
00000020: 71ee ffbb 958e 26bc bf06 e53a b456 bbbb
00000030: c6f9 053d 3ef3 0dbb a36a cfbb c15c ac3b
00000040: 0c7b 30bb 9034 c0bb 7622 813b 4fc3 f33b
00000050: 4d66 4d3b bcd2 283b 51d1 acbb 4cfe bfbb
00000060: 4242 d3bb 7df9 6b3c 50bd b53b 0d58 8bbb
00000070: 7012 733b f537 2cbc 74e2 b3bb 049d 14bc
00000080: ee05 cabb 69b9 803c 6dfb cebb 7454 12bc
00000090: 77c0 f0bb 3eab 62bb 30c3 ad3b 210a 983b
000000a0: 3cc7 333c 56f5 723b b5af c93a 4f48 863a
000000b0: 441c f33a c0b5 eb3a 7e2e babb 6ee6 283c
000000c0: f4fb 683b 594f d5bb f595 143b 4f25 05bc
000000d0: bd7e 543a 1655 94bb ada8 13bc 798a 143a
000000e0: cf44 dcba 0570 323b 19c4 593b 4ab5 c1bb
000000f0: 01f4 063a e5b6 92bb 6f1d d1bb 57e5 91b9
00000100: 4744 1bbc 62ee ca3b a664 563b 0624 06bc
00000110: 357c f2bb 0ee3 1f3c 7fbd 1c3c 68e9 583c
00000120: 6354 2dbb cdb6 8fbb 0308 cbbb 4be6 1bbc
00000130: efa0 8ebb 81ea f63b 877a f2bb 072b d3bb
00000140: f9d9 11bc ca8a f6bb 8e4b bbbb e10a 03bc
00000150: eca0 b5bb 9d96 683c 40ca 0a3c 4983 b6ba
00000160: 635d 5f3b 608c 023c aec5 0eba 005f b6bb
00000170: e063 8c3b cf58 0a3b d92e debb eff5 d43a
00000180: f98a 443b a5c6 df3b 2a4a dcbb 7788 d93a
00000190: 815b 04bc 2e23 193b ddb6 84ba fe34 553b
000001a0: d1ad 323c 2047 9cbb 4ff7 ccbb bcae dcbb
000001b0: 9f3f 5e3b e2a0 d43b 6c15 1bbc f310 793b
000001c0: 3696 083c 0241 16bb 2328 843b 5e0c e6bb
000001d0: ea33 083b 695a 01bc ad1f 84ba 8b66 d3ba
000001e0: 5491 d23b d93b d3bb 593c 053c aca0 8bbb
000001f0: 6b34 04bc 2260 623b 0f68 c9bb c200 083c

conv_layers.0.lin.weight f4 [128, 500]
0.06692701 -0.054237492 -0.08143054 0.016261227 -0.0071034334 0.037152477 0.02909215 0.0367049
0.025358846 0.08612501 -0.034129445 -0.06321965 -0.054611407 0.029953564 0.052995894 -0.04530981
0.090484165 0.015191874 0.045340773 -0.04140911 0.031837244 0.07176277 0.012360104 0.014265064
0.020958582 0.008431333 0.06791802 0.0914888 0.07895845 -0.048359502 0.08538887 0.05459328
0.021322027 0.00086512096 0.08598282 0.068644054 0.022339487 -0.055460326 -0.07002612 0.061377853
-0.083231956 -0.04190731 -0.040045682 0.002770139 0.011536445 -0.072065175 -0.035956793 0.069996715
0.003915326 -0.0018035478 0.049988344 0.08856989 -0.0033230619 -0.010162883 0.042319644 0.08780851
-0.020393362 -0.07226898 0.0021584122 -0.08095696 -0.06623397 -0.0030721582 -0.031298686 0.04502089
0.0017654863 -0.04375888 -0.0023839213 -0.08511306 0.008333211 -0.0473948 0.024850193 0.02894409
-0.08084045 0.0111929625 -0.07416649 0.05844973 0.09295752 -0.044243384 0.060718954 -0.02736511
-0.06289199 0.019791638 0.0405965 -0.07521612 -0.08248269 0.07134337 -0.009166771 0.076200776
-0.0072321403 0.033530127 -0.055197313 0.0344579 0.068465024 0.009955509 0.050008703 0.0009094373
-0.04583493 -0.057723425 0.06683799 0.036553286 -0.041944906 -0.04935149 0.07840312 -0.061078392
0.041024398 0.012743719 0.08659524 0.021582607 -0.03338966 0.038199365 0.03245936 -0.06454624
0.05797359 0.03698642 0.036509566 0.07933128 -0.033221394 0.076150686 0.0143881375 0.091329046
-0.053410772 0.06391408 0.062795594 -0.015613477 0.00048454732 0.05919671 0.06484759 -0.002777084
0.008052576 -0.042308386 0.076286666 -0.024626223 0.022994854 0.09729974 -0.084715836 -0.0121629005
-0.0059336484 -0.068144016 0.07317414 0.04059066 -0.0012152074 -0.016297152 -0.012501238 0.062845655
-0.0725592 0.0026103694 -0.08149159 -0.058750335 0.016245607 0.067329586 0.06329046 -0.019945694
-0.017176865 -0.05541553 0.049006384 -0.038171843 -0.0130125955 -0.010125184 0.08770778 -0.062306352
0.025145402 -0.0551365 0.09105477 0.03916324 0.07434251 0.07948028 -0.039380826 0.028617788
-0.008605715 0.03134672 -0.0820798 -0.08152839 0.009525128 0.073674135 -0.03423011 0.036733918
0.059267655 0.09461669 0.03275387 0.028111067 0.0008038433 0.049427904 0.014668117 0.097049765
0.04641869 -0.07184249 -0.04525941 0.053877905 -0.07981116 -0.079354085 -0.07485318 0.06266964
0.08020151 -0.02050841 0.03260753 -0.07960815 -0.023799937 0.05213278 0.064228244 0.021357428
0.04593695 -0.021892244 -0.03196111 0.03464271 0.016975736 0.08535319 -0.028487064 0.012274436
0.058107328 0.09281988 -0.086589016 0.09613753 -0.026303291 0.049143158 -0.011823581 -0.061121132
-0.052183848 0.004537658 0.050707124 0.050362576 -0.016716102 0.06218886 0.032729957 0.064304106
0.092381515 -0.06480534 0.08180363 0.087406754 -0.027474357 -0.057014376 0.08718019 -0.03563091
0.09430008 0.024501909 -0.01847931 -0.0031286883 -0.023224145 -0.03695107 -0.047504622 0.0054103117
-0.028674072 -0.03552015 0.09476805 0.07330528 -0.027634162 0.09720843 0.020470018 -0.08239423
0.09762907 0.08546515 0.007010075 -0.008212292 0.07288254 0.04069527 -0.023744034 0.079088844
00000000: 0711 893d 2228 5ebd 0ec5 a6bd 4436 853c
00000010: ebc3 e8bb 322d 183d a952 ee3c e157 163d
00000020: 5bbd cf3c 4f62 b03d 51cb 0bbd 4e79 81bd
00000030: 36b0 5fbd 2d61 f53c 3912 593d c896 39bd
00000040: c34f b93d 56e7 783c 3fb7 393d 999c 29bd
00000050: c567 023d 5cf8 923d 0982 4a3c 04b8 693c
00000060: 55b1 ab3c 9323 0a3c 9a18 8b3d 7b5e bb3d
00000070: f8b4 a13d 9d14 46bd 5ce0 ae3d 349d 5f3d
00000080: 88ab ae3c 49c9 623a c317 b03d 4195 8c3d
00000090: 4d01 b73c 5e2a 63bd db69 8fbd 5867 7b3d
000000a0: 8475 aabd 00a7 2bbd f106 24bd 388b 353b
000000b0: 5b03 3d3c e896 93bd 6e47 13bd 705a 8f3d
000000c0: 234c 803b 0665 ecba 94c0 4c3d 2164 b53d
000000d0: bac7 59bb 3982 26bc 5d57 2d3d f3d4 b33d
000000e0: fb0f a7bc c201 94bd 2674 0d3b c3cc a5bd
000000f0: ada5 87bd 4356 49bb 0d33 00bd d367 383d
00000100: e467 e73a 833c 33bd 903b 1cbb c24f aebd
00000110: 0588 083c 0d21 42bd a292 cb3c 281c ed3c
00000120: ae8f a5bd b062 373c 9ae4 97bd fc68 6f3d
00000130: 8360 be3d 8d38 35bd 70b4 783d cc2c e0bc
00000140: 84cd 80bd 1322 a23c 8448 263d e90a 9abd
00000150: afec a8bd 791c 923d 3930 16bc 270f 9c3d
00000160: 97fb ecbb e356 093d 9416 62bd ba23 0d3d
00000170: 6437 8c3d 6e1c 233c edd5 4c3d 4e67 6e3a
00000180: 68bd 3bbd 666f 6cbd 5be2 883d e6b8 153d
00000190: 6cce 2bbd ca24 4abd d191 a03d 562d 7abd
000001a0: 3309 283d 08cb 503c d858 b13d 02ce b03c
000001b0: 99c3 08bd f076 1c3d 1bf4 043d d230 84bd
000001c0: b775 6d3d 137f 173d 0e8b 153d 7078 a23d
000001d0: 2813 08bd e4f4 9b3d 39bc 6b3c b90a bb3d
000001e0: 41c5 5abd 63e5 823d fa9a 803d abcf 7fbc
000001f0: d70a fe39 4078 723d d0ce 843d bdff 35bb
00000200: f4ee 033c 8f4b 2dbd 2f3c 9c3d efbc c9bc
00000210: b45f bc3c 1645 c73d 7f7f adbd e746 47bc
00000220: 0d6f c2bb 178f 8bbd 53dc 953d 6442 263d
00000230: 9847 9fba 9b81 85bc fed1 4cbc 39b5 803d
00000240: eb99 94bd bb12 2b3b 10e5 a6bd 31a4 70bd
00000250: 8215 853c 18e4 893d 6e9e 813d 2765 a3bc
00000260: 7fb6 8cbc 65fb 62bd ebba 483d 145a 1cbd
00000270: c832 55bc 1ae4 25bc 23a0 b33d f234 7fbd
00000280: bbfd cd3c d0d6 61bd ec7a ba3d a269 203d
00000290: e340 983d 8fc6 a23d ca4d 21bd da6f ea3c
000002a0: fcfe 0cbc 6b65 003d 7419 a8bd 5bf8 a6bd
000002b0: 480f 1c3c 77e2 963d df34 0cbd 4e76 163d
000002c0: a4c2 723d 65c6 c13d ec28 063d 2e49 e63c
000002d0: 03b9 523a ea74 4a3d 8b52 703c 07c2 c63d
000002e0: 8621 3e3d 2822 93bd ee61 39bd 14af 5c3d
000002f0: 0974 a3bd 6584 a2bd a04c 99bd f158 803d
00000300: b040 a43d 4101 a8bc 798f 053d 9909 a3bd
00000310: 16f8 c2bc 2f89 553d 198a 833d c6f5 ae3c
00000320: 6228 3c3d 5d57 b3bc a7e9 02bd 84e5 0d3d
00000330: b310 8b3c a7cd ae3d b45d e9bc b71a 493c
00000340: f301 6e3d 5918 be3d 9555 b1bd c1e3 c43d
00000350: 007a d7bc 564a 493d b1b7 41bc 275a 7abd
00000360: bbbe 55bd a2b0 943b 46b2 4f3d fd48 4e3d
00000370: 35f0 88bc bfb9 7e3d d90f 063d dfb1 833d
00000380: 8532 bd3d a9b8 84bd a988 a73d 5002 b33d
00000390: e711 e1bc e887 69bd 878b b23d b8f1 11bd
000003a0: 6620 c13d 3ab8 c83c ec61 97bc ae0a 4dbb
000003b0: 9040 bebc 015a 17bd 3594 42bd fc48 b13b
000003c0: e3e5 eabc 947d 11bd c015 c23d 1421 963d
000003d0: 0a61 e2bc 3715 c73d bdb0 a73c 4ebe a8bd
000003e0: c0f1 c73d 5a08 af3d c5b4 e53b d98c 06bc
000003f0: 7143 953d 15b0 263d d982 c2bc 55f9 a13d

conv_layers.1.bias f4 [128]
-0.006670503 0.0083776135 -0.0080195805 -0.0077928468 0.005696758 0.008062877 -0.012603138 0.0013543013
-0.006290921 -0.0009142726 0.01185275 -0.004526281 -0.001226692 0.0075377934 -0.008027065 -0.0025489784
-0.006687979 0.005918833 -0.0030846342 -0.0008277938 -0.005565661 0.007557795 0.0076445364 -0.007933988
-0.012121419 -0.0028693047 0.0062112287 0.0068340297 0.00069509115 -0.009855816 -0.0021836453 -0.011245765
0.0065423204 -0.005794052 0.0073176417 -0.007884786 -0.006197924 0.0074840677 0.01100316 0.0038967144
-0.011786526 0.0012682887 -0.007059091 0.0013800559 0.011973102 0.006653715 0.007960037 -0.007552065
0.006012441 0.0076786526 -0.008866809 0.00082201516 0.0073767593 -0.0035113364 -0.00621735 -0.0019020035
-0.0074399817 0.0042412328 0.0025300505 -0.0006913333 -0.0048324163 -0.009546454 -0.0012907487 0.009168303
-0.006421624 -0.0035558322 0.008269303 0.004946857 0.0009895483 0.0016366449 0.009265723 0.0065150345
0.011118864 -0.0024035175 -0.007249112 -0.010318872 0.006174058 -0.008772208 -0.006214374 -0.011822071
-0.009448887 0.010649592 -0.0063184216 0.0062124613 -0.0023162994 0.0024607272 0.0065560206 -0.0051622894
0.01168808 -0.0036241005 -0.008875657 0.009279021 -0.00178492 0.0022400536 0.010709377 0.009455837
0.006084214 0.009645877 -0.011185196 0.0066824364 -0.004412538 0.0053157634 -0.00215765 -0.008828078
0.010630718 -0.0077032167 -0.0030489734 -0.0068617035 -0.0039899927 0.005372344 -0.008728152 0.0076532047
0.006077288 -0.009661114 0.0069493935 0.007869967 -0.008440159 0.0031236396 0.0021535985 0.006823036
-0.006381393 0.00861675 0.0074248677 0.0052604154 -0.0056628957 -0.00843147 0.010135103 -0.00536084
00000000: 3c94 dabb 4242 093c 8f64 03bc 235b ffbb
00000010: dfab ba3b 281a 043c 647d 4ebc d082 b13a
00000020: 1224 cebb ccab 6fba 0932 423c 3251 94bb
00000030: f4c8 a0ba 98ff f63b f383 03bc c30c 27bb
00000040: d626 dbbb c5f2 c13b 9327 4abb 4d00 59ba
00000050: 2660 b6bb 61a7 f73b 057f fa3b 8ffd 01bc
00000060: eb98 46bc f20a 3cbb 9087 cb3b ffef df3b
00000070: c736 363a 4a7a 21bc 7d1b 0fbb 2840 38bc
00000080: f660 d63b 08dc bdbb d4c8 ef3b 312f 01bc
00000090: f417 cbbb e93c f53b 9946 343c 0560 7f3b
000000a0: 461c 41bc b53c a63a f24f e7bb fee2 b43a
000000b0: d42a 443c 6807 da3b d16a 023c 5077 f7bb
000000c0: 0304 c53b 359d fb3b 1846 11bc 817c 573a
000000d0: beb8 f13b 731e 66bb e9ba cbbb a64c f9ba
000000e0: 17cb f3bb 0afa 8a3b 34cf 253b 983a 35ba
000000f0: 3f59 9ebb bb68 1cbc 572e a9ba a636 163c
00000100: 7d6c d2bb f708 69bb f87b 073c 3f19 a23b
00000110: bbb3 813a b184 d63a 42cf 173c 127c d53b
00000120: e52b 363c 5584 1dbb f589 edbb 7c10 29bc
00000130: c14f ca3b 4fb9 0fbc f3a1 cbbb 5cb1 41bc
00000140: 81cf 1abc a07b 2e3c c30a cfbb e791 cb3b
00000150: 0ecd 17bb 2744 213b e3d3 d63b 6c28 a9bb
00000160: 5c7f 3f3c 5182 6dbb 346b 11bc 0907 183c
00000170: faf3 e9ba ddcd 123b 6276 2f3c a8ec 1a3c
00000180: 165e c73b be09 1e3c 1d42 37bc 57f8 da3b
00000190: 0d97 90bb db2f ae3b 5c67 0dbb a5a3 10bc
000001a0: 772c 2e3c 446b fcbb 49d1 47bb 24d8 e0bb
000001b0: 7cbe 82bb 7d0a b03b 8600 0fbc bcc7 fa3b
000001c0: fd23 c73b a649 1ebc bdb7 e33b 09f1 003c
000001d0: 9848 0abc fab5 4c3b 6323 0d3b c693 df3b
000001e0: 011b d1bb 452d 0d3c 4e4c f33b 905f ac3b
000001f0: d08f b9bb 2624 0abc b40d 263c fca9 afbb

conv_layers.1.lin.weight f4 [128, 128]
-0.05396384 0.087403946 0.011615472 -0.0752234 0.10131246 0.07745559 0.06828659 -0.1339945
-0.018924449 -0.12161181 0.007842586 -0.08775016 -0.0423001 0.025953423 -0.023461295 -0.06844111
0.10198739 -0.11083311 -0.049744185 0.0746647 -0.04727934 0.037469123 0.121454574 0.115406655
-0.009910012 -0.023699328 -0.035407312 -0.12683432 -0.012391567 0.091413945 -0.10834558 0.047000136
-0.13877131 -0.10455024 0.09930474 -0.06751521 0.07172629 -0.043493677 -0.0017119122 0.015247199
0.07662073 -0.09925151 -0.123274855 -0.09494044 -0.08732253 0.081404425 0.033339947 -0.00082251534
-0.03925685 0.024041444 -0.08376791 -0.058793817 0.050071955 0.050518014 -0.017748201 0.08076227
-0.0060338224 -0.067288324 0.070384175 -0.0900816 0.099879354 -0.012976927 0.05799754 0.045073055
-0.12814951 -0.02633948 -0.120151915 -0.0045549553 -0.11949209 0.07875592 -0.12738962 -0.06656185
-0.038857743 0.06552554 -0.026730748 -0.084728494 0.039231505 -0.14397442 0.013840243 0.11456823
-0.051311437 0.0900205 -0.13464922 -0.09428482 -0.052532136 -0.051640764 -0.103669755 -0.095060654
-0.12557563 -0.12893245 0.053333584 0.015207384 -0.062295515 -0.11142152 -0.029783504 -0.09291804
0.10254599 0.115459345 -0.039703228 0.06784491 -0.09332409 -0.025848532 0.09160257 -0.11744192
0.097144 0.0377322 0.032830697 0.13630132 0.14015575 -0.040259056 0.04340731 0.06445911
0.0031657007 -0.08832919 0.01770082 0.08764156 -0.021595119 -0.1345147 0.06713248 0.0073215025
-0.06351259 0.09115547 -0.025387824 -0.07748267 0.021261984 0.087079376 -0.0028582988 -0.10619712
-0.13705565 -0.07038331 -0.04377433 -0.017857507 0.033503734 0.11594808 0.023780204 0.01641712
0.1467832 0.0025864863 -0.041417785 -0.025686646 -0.089575864 -0.1295066 -0.059591368 -0.074048206
0.14336014 0.05570685 0.1430398 0.0636136 -0.08962347 0.067540795 0.07685068 -0.020972261
-0.07591873 0.15096211 0.062348127 -0.13204733 -0.122946925 -0.09052249 -0.070551015 -0.10974222
-0.09062144 0.047673706 -0.010010437 0.037613153 -0.063416764 0.12816478 0.039432537 0.101300105
0.083806604 0.13684697 0.045925293 -0.11742758 0.10216255 -0.052837647 -0.035413112 0.018688962
0.12934059 -0.0072173947 -0.1317685 -0.114813246 0.032343086 -0.122364886 -0.12795113 0.104437016
-0.08993348 0.031227509 0.046108972 -0.029717347 0.121715225 -0.0027248145 -0.063274644 0.06626222
-0.121855654 0.067112155 -0.08684987 -0.111917414 0.03775482 0.123139694 -0.14042857 0.0022758166
0.024928594 0.07980735 0.032029875 -0.119324036 0.098794356 -0.03445023 -0.06595805 0.09505999
-0.102316365 0.046336446 0.11679379 -0.14154635 -0.00733487 -0.07035278 0.08871645 -0.06170304
0.057222832 0.022549504 -0.031088298 0.13523972 0.08547843 0.050343193 -0.021414645 0.013583297
0.13836773 -0.09446773 -0.12229502 -0.12126082 -0.090125695 0.021304633 0.046538066 0.0062594074
0.15577158 0.0260197 -0.05883265 -0.12697911 -0.07263502 0.01977744 -0.005433932 0.12049913
-0.117086925 -0.11081936 0.099303134 -0.06757814 0.11460134 0.01358534 -0.03330787 -0.09915578
0.10264839 0.10878144 0.15261033 0.090023205 -0.11551449 -0.0060276566 0.0064134216 -0.11427846
00000000: 3009 5dbd d700 b33d d24e 3e3c ba0e 9abd
00000010: e87c cf3d 09a1 9e3d d7d9 8b3d db35 09be
00000020: 7207 9bbc 9d0f f9bd 317e 003c 5bb6 b3bd
00000030: df42 2dbd 469c d43c e731 c0bc da2a 8cbd
00000040: c4de d03d 78fc e2bd 8fc0 4bbd cee9 983d
00000050: fba7 41bd 3979 193d 2dbd f83d 535a ec3d
00000060: 9a5d 22bc 1825 c2bc 4207 11bd dbe0 01be
00000070: 0006 4bbc 3c37 bb3d 4ae4 ddbd 3783 403d
00000080: 111a 0ebe 701e d6bd 4960 cb3d 6a45 8abd
00000090: 3ce5 923d 6d26 32bd 3e62 e0ba 63cf 793c
000000a0: 54eb 9c3d 6044 cbbd 8777 fcbd 2270 c2bd
000000b0: 28d6 b2bd 5db7 a63d 788f 083d 129e 57ba
000000c0: cacb 20bd 90f2 c43c 838e abbd c9d1 70bd
000000d0: 4018 4d3d faeb 4e3d ad64 91bc b066 a53d
000000e0: 5fb7 c5bb 76ce 89bd 9425 903d b47c b8bd
000000f0: 8c8d cc3d 2d9d 54bc d48e 6d3d 869e 383d
00000100: a039 03be e5c5 d7bc 3512 f6bd bc41 95bb
00000110: 45b8 f4bd c94a a13d 6d72 02be 9451 88bd
00000120: 4c29 1fbd 4132 863d 71fa dabc 2286 adbd
00000130: 37b1 203d 086e 13be 30c2 623c c0a2 ea3d
00000140: f12b 52bd ab5c b83d 7ce1 09be 6618 c1bd
00000150: f02b 57bd 4485 53bd cf50 d4bd 29af c2bd
00000160: e696 00be de06 04be 5174 5a3d 6428 793c
00000170: 9529 7fbd f730 e4bd 89fc f3bc d04b bebd
00000180: a203 d23d f375 ec3d da9f 22bd 46f2 8a3d
00000190: b320 bfbd 4dc0 d3bc 219a bb3d 6485 f0bd
000001a0: 6ff3 c63d 148d 1a3d 7b79 063d 9392 0b3e
000001b0: fd84 0f3e aee6 24bd ddcb 313d 2303 843d
000001c0: a577 4f3b efe5 b4bd 4f01 913c 6b7d b33d
000001d0: 3fe8 b0bc 39be 09be c17c 893d 37e9 ef3b
000001e0: e412 82bd b8af ba3d 20fa cfbc 3caf 9ebd
000001f0: 9d2d ae3c ac56 b23d 4c52 3bbb e07d d9bd
00000200: 5158 0cbe 2025 90bd b64c 33bd e849 92bc
00000210: 363b 093d 3076 ed3d b4ce c23c 327d 863c
00000220: 564e 163e 0a82 293b b2a5 29bd cd6c d2bc
00000230: 8d73 b7bd 619d 04be 1416 74bd 96a6 97bd
00000240: 00cd 123e de2c 643d 0679 123e d947 823d
00000250: 838c b7bd d452 8a3d e463 9d3d 05ce abbc
00000260: 477b 9bbd d095 1a3e c060 7f3d 6a37 07be
00000270: 99cb fbbd db63 b9bd 0d7d 90bd 87c0 e0bd
00000280: bc97 b9bd 8145 433d d102 24bc 4010 1a3d
00000290: a6e0 81bd a13d 033e 0384 213d 6e76 cf3d
000002a0: cca2 ab3d 9d21 0c3e 291c 3c3d df7d f0bd
000002b0: 993a d13d 4a6c 58bd 570d 11bd 9819 993c
000002c0: dc71 043e e57f ecbb 52ee 06be 3523 ebbd
000002d0: 2f7a 043d 719a fabd 9f05 03be 13e3 d53d
000002e0: 0b2f b8bd d5d0 ff3c c3dc 3c3d cb71 f3bc
000002f0: d545 f93d cd92 32bb 2396 81bd 7db4 873d
00000300: 758f f9bd 1972 893d 58de b1bd f534 e5bd
00000310: cca4 1a3d aa30 fc3d 82cc 0fbe de25 153b
00000320: 0d37 cc3c 0972 a33d c231 033d 2960 f4bd
00000330: b254 ca3d af1b 0dbd 0415 87bd d0ae c23d
00000340: 3e8b d1bd 49cb 3d3d 9531 ef3d 87f1 10be
00000350: 5959 f0bb 1e15 90bd f8b0 b53d 54bc 7cbd
00000360: 7d62 6a3d bdb9 b83c e3ac febc 487c 0a3e
00000370: 510f af3d aa34 4e3d c46d afbc 7a8c 5e3c
00000380: 45b0 0d3e 4c78 c1bd d075 fabd 9857 f8bd
00000390: d293 b8bd 0e87 ae3c b39e 3e3d b71b cd3b
000003a0: 9682 1f3e 4427 d53c 81fa 70bd d006 02be
000003b0: abc1 94bd 4c04 a23c 200f b2bb 3fc8 f63d
000003c0: 45cb efbd 43f5 e2bd 715f cb3d 6866 8abd
000003d0: 1bb4 ea3d 0c95 5e3c d56d 08bd 3012 cbbd
000003e0: 5239 d23d cec8 de3d e245 1c3e 165e b83d
000003f0: dc92 ecbd a683 c5bb ae27 d23b d30a eabd
