mine/ProG-main/Experiment/pre_trained_model/Flickr/SimGRACE.GCN.128hidden_dim.pth (torch, 325160 bytes, 4 tensors)

conv_layers.0.bias f4 [128]
-0.021661146 -0.08541042 -0.006548916 -0.07796093 -0.046087902 -0.0069532054 -0.013506766 -0.021979952
-0.00060365634 -0.05000859 -0.18651354 -0.009639675 -0.24137796 -0.07144642 -0.24169087 -0.05677421
0.001248044 -0.14966705 -0.026830912 -0.1449821 -0.19239275 -0.25478247 -7.497191e-05 -0.07621079
-0.120127946 -0.031090328 -0.038706556 -0.039049044 -0.010158598 -0.12679318 -0.17873901 -0.04808911
-0.00049507944 -0.009858284 -0.05181722 -0.033709258 -0.017492762 -0.05396996 -0.012780514 -0.019990524
-0.026166793 -0.23770747 -0.09101886 -0.00042428263 -0.08766387 -0.26650262 -0.039652552 -0.15915447
-0.012900247 -0.3060888 -0.048104014 -0.03767252 0.008529505 -0.037508518 -0.052186448 0.22730055
-0.0022460872 -0.019638687 0.34387615 -0.026166508 -0.0421371 -0.0065917852 0.00477467 -0.0073034805
-0.035180803 0.058813695 -0.16945033 -0.0026715987 -0.019649656 -0.065839514 -0.05528762 -0.04659275
-0.19818448 -0.036404695 -0.015822832 -0.08474017 -0.23127273 -0.06795665 -0.2534259 -0.103204094
-0.037322044 0.019224288 -0.00977435 -0.017548509 -0.04141926 -0.048206512 -0.038326636 -0.22919492
-0.013698953 -0.011222521 -0.040264994 -0.24679796 -0.22180267 -0.01977782 -0.10518103 -0.011188251
0.18700744 -0.07517716 -0.011024138 -0.18131189 -0.048159145 -0.008888049 0.0503229 -0.18330015
-0.022913361 -0.18697974 -0.20005804 -0.01540565 -0.031044815 -0.075518936 -0.04149782 -0.052746024
-0.15725848 -0.00072435115 -0.0734592 -0.16497456 -0.22640872 -0.023719562 -0.02185204 -0.20344412
-0.20867185 -0.022296837 0.06202479 -0.01474862 -0.067546554 -0.06163158 -0.07899058 -0.06323518
00000000: b772 b1bc a9eb aebd 4a98 d6bb fba9 9fbd
00000010: abc6 3cbd b7d7 e3bb 7c4b 5dbc 4d0f b4bc
00000020: b13e 1eba cfd5 4cbd 68fd 3ebe baef 1dbc
00000030: c92b 77be 8052 92bd d07d 77be 138c 68bd
00000040: 6895 a33a 5242 19be 80cc dbbc 3076 14be
00000050: 9b02 45be d972 82be 3d3a 9db8 6714 9cbd
00000060: a405 f6bd 25b1 febc c48a 1ebd e4f1 1fbd
00000070: 4070 26bc 12d6 01be 5c07 37be 16f9 44bd
00000080: 38c8 01ba a484 21bc 4b3e 54bd b812 0abd
00000090: fb4c 8fbc 9b0f 5dbd 5c65 51bc 2bc3 a3bc
000000a0: be5b d6bc 9669 73be 1968 babd 4072 deb9
000000b0: 1d89 b3bd 0873 88be b76a 22bd 64f9 22be
000000c0: 8f5b 53bc acb7 9cbe b708 45bd 804e 1abd
000000d0: 56bf 0b3c 88a2 19bd 75c1 55bd 7ac1 683e
000000e0: 1733 13bb 50e1 a0bc 8910 b03e 255b d6bc
000000f0: f497 2cbd e7ff d7bb d674 9c3b 0952 efbb
00000100: bf19 10bd a1e6 703d 6384 2dbe fd15 2fbb
00000110: 51f8 a0bc ded6 86bd 4575 62bd 0ad8 3ebd
00000120: dff0 4abe 171d 15bd e29e 81bc 418c adbd
00000130: c2d2 6cbe db2c 8bbd 0ac1 81be ab5c d3bd
00000140: 00df 18bd 417c 9d3c 9824 20bc e4c1 8fbc
00000150: 3ea7 29bd 3174 45bd 64fc 1cbd 13b2 6abe
00000160: 9371 60bc aade 37bc e8ec 24bd 9bb8 7cbe
00000170: 3d20 63be 1805 a2bc 2769 d7bd ed4e 37bc
00000180: e17e 3f3e 7cf6 99bd 969e 34bc d3a9 39be
00000190: 8642 45bd 2e9f 11bc 631f 4e3d 09b3 3bbe
000001a0: cdb4 bbbc 9e77 3fbe 04dc 4cbe fb67 7cbc
000001b0: b251 febc aca9 9abd 9ef9 29bd 370c 58bd
000001c0: 5e08 21be 62e2 3dba c771 96bd 17ef 28be
000001d0: b0d7 67be 874f c2bc 0d03 b3bc a853 50be
000001e0: 13ae 55be dba7 b6bc b50d 7e3d 32a4 71bc
000001f0: d955 8abd 6571 7cbd d0c5 a1bd 7281 81bd

conv_layers.0.lin.weight f4 [128, 500]
-0.09811836 0.0598348 -0.11605402 0.07045338 -0.018235607 -0.075050645 -0.11729754 0.109676346
-0.0008983467 -0.08630654 -0.1017709 -0.10848207 0.04000033 0.031498175 -0.03597588 -0.024953512
-0.11850766 -0.17139032 -0.16334818 0.00950666 -0.057259772 -0.112761945 0.025297245 -0.0050435285
-0.12468756 -0.10369063 0.2724758 0.5966069 -0.022562794 0.124144495 -0.042450976 0.4043575
0.0806382 0.050472397 -0.017030999 -0.14970645 -0.13074502 -0.097785294 0.26757425 -0.07853368
-0.2327852 -0.16115895 -0.1654319 -0.12239065 0.1023964 -0.10650562 -0.065418124 0.04598825
0.9874141 1.4273833 -0.22997375 -0.030071167 0.008162665 -0.1214588 0.009668096 0.07152426
0.018981468 -0.14607286 -0.14890234 -0.0943943 -0.17950739 0.028511686 -0.009768213 0.0012344926
-0.008340651 -0.093625836 -0.08425667 -0.12323278 -0.041567735 -0.14476754 0.10676976 -0.18496338
-0.09435438 -0.07622466 -0.13668473 0.09935055 -0.092468284 -0.06844963 -0.14681107 0.007931185
-0.08231345 -0.047355212 0.17660339 -0.14829051 -0.11318152 -0.0022359379 -0.06558823 -0.10030395
-0.07309251 -0.08381818 -0.14348136 -0.07791021 -0.17841096 -0.14668967 0.05240345 0.06996167
0.19337836 0.0041661873 0.051259056 0.002706925 -0.1309209 -0.2099455 -0.14010875 -0.007604636
-0.066688955 -0.030032791 -0.034925655 0.24481454 -0.07393395 -0.16143389 -0.090358704 -0.016835393
-0.046577632 -0.1611016 -0.01765744 -0.043596204 -0.019947704 0.07601958 0.014519173 -0.107401215
0.08487317 -0.032437768 -0.15674599 0.018692046 -0.0009593532 -0.066298075 -0.066514246 0.17531326
-0.20264766 -0.00022042335 0.04969791 -0.09200807 0.017002596 -0.1501673 -0.0631419 -0.13092127
-0.04495369 -0.034311242 -0.07569968 -0.07075933 -0.108564705 -0.03498268 0.018501649 -0.04614483
-0.095728986 -0.11866283 0.0902678 -0.0824968 -0.026400909 -0.049382403 0.11792229 0.23566398
0.022727834 -0.3687106 -0.07123824 -0.11245625 -0.05183962 0.01863252 -0.030207224 -0.19978063
0.13628854 -0.23399957 -0.1124956 0.6891389 -0.11088723 0.08474671 -0.07109823 -0.16682357
-0.03185347 -0.1347127 -0.04286517 -0.15770462 -0.043355584 -0.096092336 -0.091013804 -0.097042605
-0.02831551 -0.05336934 -0.11122874 -0.08637534 -0.14123207 -0.036434207 0.016365664 -0.08427876
-0.045651264 -0.20955214 -0.31126204 0.69321144 -0.08811339 -0.048402295 -0.063658096 -0.12709168
-0.08808336 -0.07705573 -0.15780517 -0.0649365 -0.12190203 -0.021097796 0.32515547 -0.0049137087
-0.030236501 -0.05063195 -0.02558972 -0.037527177 0.5913563 0.20962222 -0.060960438 -0.042840134
-0.09698439 0.030989852 -0.024992125 -0.078299165 0.011606063 -0.05326523 0.04915562 -0.071945354
-0.20053159 -0.29253808 0.03152008 -0.07534148 -0.017131858 0.07979501 -0.10139384 -0.124694884
-0.014383574 -0.08945106 0.45916295 -0.122695856 -0.13607854 -0.0126393065 -0.09129956 -0.0538661
0.18438356 -0.05063899 0.051228065 -0.069493085 -0.13186541 -0.30409664 -0.09454769 -0.16225183
0.017061636 -0.20509014 0.12318222 -0.070780315 -0.05345315 0.16063626 -0.20658194 -0.10333926
-0.091193795 0.28765994 -0.101385675 -0.0015923488 0.023070704 -0.18141356 -0.22403094 -0.11466496
00000000: 47f2 c8bd 5615 753d bbad edbd dd49 903d
00000010: d762 95bc 27b4 99bd b139 f0bd fe9d e03d
00000020: 077f 6bba 7cc1 b0bd 436d d0bd d92b debd
00000030: 63d7 233d 3b04 013d 725b 13bd 4f6b ccbc
00000040: 25b4 f2bd f280 2fbe bf44 27be d2c1 1b3c
00000050: 3989 6abd bcef e6bd 2b3c cf3c 2f44 a5bb
00000060: 315c ffbd c15b d4bd f381 8b3e 3bbb 183f
00000070: 9cd5 b8bc 783f fe3d 13e1 2dbd f207 cf3e
00000080: a425 a53d 25bc 4e3d 9884 8bbc a64c 19be
00000090: 06e2 05be a843 c8bd 7eff 883e 44d6 a0bd
000000a0: 3e5f 6ebe da06 25be fb66 29be f3a7 fabd
000000b0: 34b5 d13d 9e1f dabd f0f9 85bd 2d5e 3c3d
000000c0: 2cc7 7c3f 7fb4 b63f 3d7e 6bbe cf57 f6bc
000000d0: b3bc 053c 64bf f8bd ef66 1e3c 507b 923d
000000e0: 067f 9b3c 2094 15be db79 18be cc51 c1bd
000000f0: c9d0 37be 5791 e93c db0a 20bc b3ce a13a
00000100: 3aa7 08bc e7be bfbd c38e acbd 7861 fcbd
00000110: ee42 2abd f13d 14be 1baa da3d 0a67 3dbe
00000120: df3c c1bd ad1b 9cbd 15f7 0bbe 4d78 cb3d
00000130: 0360 bdbd 522f 8cbd a455 16be cdf1 013c
00000140: f493 a8bd 8af7 41bd 85d7 343e 78d9 17be
00000150: b6cb e7bd d088 12bb 1f53 86bd 286c cdbd
00000160: 87b1 95bd dea8 abbd c7ec 12be 638f 9fbd
00000170: 5db1 36be d135 16be 00a5 563d 1048 8f3d
00000180: fa04 463e 8384 883b 04f5 513d aa66 313b
00000190: 2110 06be f4fb 56be ab78 0fbe 4f30 f9bb
000001a0: 3894 88bd 5407 f6bc 340e 0fbd aab0 7a3e
000001b0: af6a 97bd ed4e 25be fc0d b9bd 61ea 89bc
000001c0: 30c8 3ebd d1f7 24be 56a6 90bc ef91 32bd
000001d0: 5e69 a3bc 27b0 9b3d d3e1 6d3c 2bf5 dbbd
000001e0: fcd1 ad3d 77dd 04bd 0582 20be 1020 993c
000001f0: 1a7d 7bba 49c7 87bd 9f38 88bd 5285 333e
00000200: de82 4fbe 7121 67b9 0990 4b3d ba6e bcbd
00000210: 0749 8b3c 75c5 19be 8a50 81bd 3a10 06be
00000220: 5c21 38bd f289 0cbd 6f08 9bbd 45ea 90bd
00000230: 2c57 debd 004a 0fbd c590 973c 5c02 3dbd
00000240: 8f0d c4bd 7f05 f3bd 53de b83d 15f4 a8bd
00000250: b846 d8bc 3445 4abd 3e81 f13d e651 713e
00000260: b92f ba3c a3c7 bcbe 5be5 91bd 764f e6bd
00000270: c855 54bd 3aa3 983c 2475 f7bc 4b93 4cbe
00000280: 398f 0b3e 959d 6fbe 1864 e6bd 686b 303f
00000290: d818 e3bd af8f ad3d f39b 91bd ccd3 2abe
000002a0: c978 02bd 20f2 09be 6393 2fbd 527d 21be
000002b0: a095 31bd 0fcc c4bd 7265 babd 46be c6bd
000002c0: eef5 e7bc cf99 5abd e5cb e3bd 8ee5 b0bd
000002d0: 249f 10be 093c 15bd 4911 863c 589a acbd
000002e0: d2fc 3abd d694 56be bd5d 9fbe 4e76 313f
000002f0: cb74 b4bd 7c41 46bd 2d5f 82bd 5224 02be
00000300: 0c65 b4bd 65cf 9dbd ae97 21be 6dfd 84bd
00000310: c6a7 f9bd 49d5 acbc c77a a63e 2d03 a1bb
00000320: 8ab2 f7bc 7363 4fbd 88a1 d1bc 19b6 19bd
00000330: 2063 173f 35a7 563e a7b1 79bd 2379 2fbd
00000340: c09f c6bd 6ede fd3c 49bc ccbc 505b a0bd
00000350: 5b27 3e3c a42c 5abd 6757 493d 1658 93bd
00000360: 2758 4dbe 8dc7 95be 331b 013d a24c 9abd
00000370: 1c58 8cbc 916b a33d 93a7 cfbd 0860 ffbd
00000380: 15a9 6bbc 1e32 b7bd 6817 eb3e f747 fbbd
00000390: 2c58 0bbe 1815 4fbc 44fb babd b3a2 5cbd
000003a0: 0bcf 3c3e d46a 4fbd 85d4 513d 6452 8ebd
000003b0: ba07 07be 8eb2 9bbe 38a2 c1bd 5825 26be
000003c0: d8c4 8b3c 2603 52be f646 fc3d 45f5 90bd
000003d0: b1f1 5abd d57d 243e 378a 53be 89a3 d3bd
000003e0: d0c3 babd 2a48 933e 4ba3 cfbd 5cb6 d0ba
000003f0: c6fe bc3c 7ac4 39be 5e68 65be 76d5 eabd

conv_layers.1.bias f4 [128]
-0.1362431 -0.44476786 0.089529864 0.08852952 0.099939965 -0.5268641 0.094128884 0.2624544
-0.17722818 -0.21871696 0.14603764 -0.31976998 -0.16347782 0.16207021 0.34244636 -0.1373972
-0.038940933 0.14566095 0.14600113 0.48375666 -0.057343274 -0.6782725 -0.2022429 -0.26554087
-0.07896781 -0.1184911 -0.2622948 -0.18903305 0.112527154 0.032294977 0.46038002 0.15002753
-0.10762811 -0.08413176 -0.104299925 0.11039751 0.24695374 -0.22257973 -0.33204892 -0.37245995
-0.026471755 -0.1784758 -0.4333998 -0.36765045 -0.03707548 0.09936371 -0.027467892 -0.09570558
-0.18992136 -0.14121063 -0.6756615 0.20764028 0.22496791 -0.19222613 -0.15197247 0.11644778
0.2116099 0.18909506 0.2247359 -0.20765404 0.25186408 -0.27160975 0.17024039 0.044689674
0.03642506 -0.15686426 -0.37675366 0.14520252 0.0015261212 0.13897038 -0.13341367 -0.3760826
0.061886225 0.27354223 0.1481482 -0.11188533 0.25886476 0.07157839 0.17850733 -0.05205108
-0.16352344 0.4240321 -0.6404126 -0.03018471 0.05833027 0.46764168 0.39716738 -0.036389634
-0.07064092 -0.19786632 0.3374378 -0.5561889 0.13224587 0.09309369 0.19567822 -0.19588594
-0.03756987 0.033013802 -0.08791711 0.13879786 -0.12262268 -0.34545684 -0.014348899 -0.35703072
-0.18625675 -0.09524744 -0.6134377 0.0831366 -0.103116594 0.091158606 0.15792693 -0.18373965
-0.16272324 -0.06213429 0.3146716 -0.079507954 0.021142105 0.19234523 -0.13919254 -0.020363513
0.03443542 -0.014380535 0.1138897 -0.25149918 -0.13399717 -0.055713557 0.017470898 0.29030913
00000000: 5083 0bbe 9db8 e3be 6f5b b73d f74e b53d
00000010: 53ad cc3d 91e0 06bf a5c6 c03d 6c60 863e
00000020: 4e7b 35be 57f7 5fbe e48a 153e e4b8 a3be
00000030: bb66 27be bcf5 253e 2155 af3e dab1 0cbe
00000040: 8780 1fbd 2528 153e 5281 153e f4ae f73e
00000050: c8e0 6abd 44a3 2dbf c318 4fbe f9f4 87be
00000060: e0b9 a1bd 76ab f2bd 814b 86be e191 41be
00000070: a374 e63d bd47 043d eeb6 eb3e d1a0 193e
00000080: 206c dcbd 464d acbd 339b d5bd 1718 e23d
00000090: 71e1 7c3e f1eb 63be 5102 aabe 12b3 bebe
000000a0: 4bdb d8bc 5cc2 36be 94e6 ddbe ae3c bcbe
000000b0: 75dc 17bd 337f cb3d 5804 e1bc 4a01 c4bd
000000c0: bf7a 42be 8599 10be 27f8 2cbf a79f 543e
000000d0: fd5d 663e edd6 44be ac9e 1bbe 2c7c ee3d
000000e0: 44b0 583e 23a2 413e 2b21 663e 43a3 54be
000000f0: 54f4 803e 6f10 8bbe 7f53 2e3e 850c 373d
00000100: 7232 153d 06a1 20be dbe5 c0be f8af 143e
00000110: 2108 c83a 404e 0e3e 989d 08be e68d c0be
00000120: 697c 7d3d ba0d 8c3e 29b4 173e 2324 e5bd
00000130: ec89 843e b197 923d a0ca 363e 8333 55bd
00000140: b072 27be bc1a d93e 15f2 23bf ed45 f7bc
00000150: b9eb 6e3d bb6e ef3e 8659 cb3e 4c0d 15bd
00000160: 30ac 90bd 789d 4abe a6c4 ac3e 6562 0ebf
00000170: 766b 073e e8a7 be3d df5f 483e 5396 48be
00000180: dde2 19bd 7b39 073d e30d b4bd 0721 0e3e
00000190: 9a21 fbbd b8df b0be a517 6bbc bbcc b6be
000001a0: 17ba 3ebe 1711 c3bd 410a 1dbf 8643 aa3d
000001b0: cb2e d3bd 5db1 ba3d 99b7 213e 3f26 3cbe
000001c0: eca0 26be 8680 7ebd a31c a13e 11d5 a2bd
000001d0: 3532 ad3c 26f6 443e 7d88 0ebe 62d1 a6bc
000001e0: 280c 0d3d 569c 6bbc 013f e93d 80c4 80be
000001f0: 8e36 09be e633 64bd 211f 8f3c 66a3 943e

conv_layers.1.lin.weight f4 [128, 128]
-0.843 -0.020245207 -0.05292208 -0.40383545 -0.25138587 -0.06392854 -0.38011056 -0.17112875
-0.0931058 0.035529632 0.0707505 0.027763711 -0.21877082 -0.34147522 -0.2339164 -0.5390144
-0.010417859 -0.2433723 0.07999019 -0.0008422445 -0.29861036 -0.0416514 -0.11841026 0.1876296
-0.21949126 0.03643339 -0.33642948 -1.3130814 -0.059684064 -0.06226293 -0.0154535035 -0.3178084
0.026972782 0.03382217 -0.33817095 -0.8151429 -0.050729606 -0.43002787 -0.3776372 0.05894225
-0.18620372 -0.37742844 -0.24491434 -0.054127414 0.3052457 -0.18917513 0.030566676 0.020212842
-0.06224693 -0.61056745 -0.21936184 -0.22718415 -0.79179496 0.2683801 -0.11205282 0.03651189
0.019197041 0.09458032 0.06499821 -0.07664199 -0.26909998 -0.14079753 0.038956285 -0.03231475
0.20023243 -0.58128875 -0.026781278 0.06304962 -0.13932389 -0.4214882 -0.12328332 -0.2861948
-0.055224344 0.16976465 -0.21154952 -0.3880964 -0.2899624 -0.10940187 -0.28253615 -0.057608712
-0.07593214 -1.2624646 -0.019334696 -0.13275582 -0.15031503 -0.2050915 -0.041418087 -0.27398887
-0.11425946 0.042192996 -0.546315 -0.19377887 -0.33479935 -0.16589221 0.38584346 0.03648134
-1.4811944 -0.07890582 0.20347251 -0.044626847 -0.008860324 0.035299007 -0.13447721 -0.4592446
-0.1225499 0.23033135 -0.33510363 0.034343086 -0.0005258485 0.049351137 0.06958767 -0.12772118
-0.041717798 -0.08736794 -0.69252014 -0.11078987 -0.39543045 -0.027133347 -0.15184082 -0.39654082
-0.28187215 -0.14113571 -0.93434864 -0.023243504 -0.01957166 -0.3100463 -0.65408236 -0.09923544
-0.08972777 -0.23509371 0.14079237 -0.3716227 -0.16391124 0.062108904 -0.13464054 -0.06893325
0.09084405 0.1573643 0.4961465 -0.086558215 -0.16927698 -0.036626253 -0.17325321 -0.22176428
0.0183708 -0.11137312 0.018244138 0.13939951 -0.19533813 -0.09269364 0.023455083 0.0071901474
0.34200603 0.12306557 -0.08438872 -0.28564605 -0.06093947 -0.21890458 0.028272962 -0.2745483
0.023019027 -0.029062327 -0.21059486 0.0019768793 0.10070446 -0.052032497 0.054445956 -0.37635654
-0.03629153 -0.097595744 -0.08475572 0.0663799 -0.06618179 -0.16585867 -0.21327025 0.00689246
0.11279802 -0.38094172 0.10326779 1.6397722e-05 -0.18003166 0.13700505 0.16618869 -0.6191837
-0.05384076 -0.13046232 -0.71664137 0.2451185 -0.3218609 -0.112952694 0.05830217 0.02352577
0.1409971 -0.2686073 0.12749581 -0.009175615 0.05377889 -0.092704274 0.09517696 -0.11343063
-0.09708409 -0.23310845 -0.07730806 -0.49071205 -0.16476102 -0.0741564 -0.18631916 0.08842137
0.16419019 -0.37558264 -0.011032379 -0.058026675 0.2916171 0.24465925 0.051462363 -0.18723008
0.06898024 0.118988805 0.020644654 -0.025222858 -0.15535124 0.16173287 -0.10760266 -0.15254858
-0.29272577 -0.10534312 -0.12598589 -0.10832293 -0.055584706 0.17198993 -0.30887347 -0.15445781
-0.09972768 -0.25845346 -0.13308352 -0.02754692 0.14712463 0.38694972 -0.18833949 0.00448307
-0.16164818 -0.015093289 -0.02815834 -0.19678323 -0.20491585 0.12379106 -0.028143259 0.425592
-0.14975752 0.045735642 -0.25151476 0.038946785 -0.31313726 -0.10878347 -0.06308579 -0.10056714
00000000: d9ce 57bf 47d9 a5bc d3c4 58bd 85c3 cebe
00000010: a6b5 80be f7ec 82bd da9d c2be 603c 2fbe
00000020: 41ae bebd 8587 113d a3e5 903d b970 e33c
00000030: 7505 60be d7d5 aebe c887 6fbe d9fc 09bf
00000040: abaf 2abc 9736 79be e6d1 a33d 12ca 5cba
00000050: 75e3 98be a99a 2abd 1481 f2bd f921 403e
00000060: 51c2 60be 2e3b 153d 7c40 acbe 0d13 a8bf
00000070: 4777 74bd 6a07 7fbd b130 7dbc c8b7 a2be
00000080: 06f6 dc3c 1e89 0a3d be24 adbe 35ad 50bf
00000090: d9c9 4fbd 9d2c dcbe aa59 c1be 6e6d 713d
000000a0: 30ac 3ebe 4d3e c1be d3ca 7abe b5b4 5dbd
000000b0: 2a49 9c3e 20b7 41be f766 fa3c 6795 a53c
000000c0: a3f6 7ebd 264e 1cbf 64a0 60be f6a2 68be
000000d0: 13b3 4abf 1e69 893e f37b e5bd 7e8d 153d
000000e0: 1d43 9d3c 54b3 c13d c81d 853d 7af6 9cbd
000000f0: 79c7 89be 3a2d 10be a090 1f3d 795c 04bd
00000100: bb09 4d3e 57cf 14bf 6964 dbbc 2920 813d
00000110: ecaa 0ebe 4dcd d7be f77b fcbd 2088 92be
00000120: ec32 62bd c9d6 2d3e 70a0 58be 92b4 c6be
00000130: f475 94be 160e e0bd 94a8 90be 1df7 6bbd
00000140: 4f82 9bbd 7198 a1bf cc63 9ebc 24f1 07be
00000150: 2fec 19be 8203 52be 03a6 29bd 4548 8cbe
00000160: dd00 eabd 90d2 2c3d 4ddb 0bbf f86d 46be
00000170: d26a abbe a6df 29be 468d c53e 756d 153d
00000180: c797 bdbf 6099 a1bd 195b 503e a4ca 36bd
00000190: e42a 11bc b195 103d 65b4 09be 1c22 ebbe
000001a0: 71fb fabd fbdb 6b3e b492 abbe 56ab 0c3d
000001b0: 18d9 09ba 6b24 4a3d fb83 8e3d 57c9 02be
000001c0: 48e0 2abd f6ed b2bd 0049 31bf cde5 e2bd
000001d0: dc75 cabe c146 debc 297c 1bbe 6607 cbbe
000001e0: 8c51 90be e185 10be 7931 6fbf 2969 bebc
000001f0: bf54 a0bc 63be 9ebe f171 27bf f33b cbbd
00000200: 31c3 b7bd 68bc 70be e02b 103e 5545 bebe
00000210: 59d8 27be e865 7e3d 36df 09be e02c 8dbd
00000220: 720c ba3d 1b24 213e ea06 fe3e 6f45 b1bd
00000230: f256 2dbe 6905 16bd 4a69 31be 2d16 63be
00000240: 5c7e 963c 9717 e4bd bb74 953c bfbe 0e3e
00000250: b806 48be 2ad6 bdbd e024 c03c 549b eb3b
00000260: 6a1b af3e cd09 fc3d fed3 acbd 3340 92be
00000270: aa9b 79bd 8628 60be b39c e73c 9891 8cbe
00000280: 6692 bc3c 1e14 eebc 2ea6 57be 888e 013b
00000290: 243e ce3d 0720 55bd b902 5f3d ceb1 c0be
000002a0: 6da6 14bd 47e0 c7bd 6894 adbd 2ff2 873d
000002b0: 518a 87bd dbd6 29be 8463 5abe 25da e13b
000002c0: a602 e73d cb0a c3be 107e d33d d78d 8937
000002d0: 385a 38be 0d4b 0c3e 5e2d 2a3e d382 1ebf
000002e0: 2188 5cbd ea97 05be cf75 37bf 5800 7b3e
000002f0: f4ca a4be be53 e7bd 42ce 6e3d 1eb9 c03c
00000300: 8b61 103e e586 89be 438e 023e 5255 16bc
00000310: 4147 5c3d bddb bdbd 23ec c23d 514e e8bd
00000320: 06d4 c6bd fbb3 6ebe b053 9ebd 9c3e fbbe
00000330: 1db7 28be 50df 97bd 73ca 3ebe 4316 b53d
00000340: 7921 283e 5e4c c0be 27c1 34bc 61ad 6dbd
00000350: d64e 953e f487 7a3e 33ca 523d 3eb9 3fbe
00000360: 8345 8d3d 67b0 f33d fa1e a93c 2ba0 cebc
00000370: 6514 1fbe 4d9d 253e c95e dcbd b235 1cbe
00000380: 27e0 95be 22be d7bd 7202 01be 6ad8 ddbd
00000390: caac 63bd 211e 303e aa24 9ebe 302a 1ebe
000003a0: 073e ccbd 0354 84be 0c47 08be 14aa e1bc
000003b0: d7a7 163e 461e c63e 11dc 40be b8e6 923b
000003c0: 1a87 25be d849 77bc 52ac e6bc 8b81 49be
000003d0: 76d5 51be 2b86 fd3d b18c e6bc 32e7 d93e
000003e0: 095a 19be 4c55 3b3d 8bc6 80be aa86 1f3d
000003f0: 8753 a0be dec9 debd 1f33 81bd 25f6 cdbd
