Experiment/pre_trained_model/PubMed/Edgepred_Gprompt.GCN.128hidden_dim.pth (torch, 325224 bytes, 4 tensors)

conv_layers.0.bias f4 [128]
000000 89 3f af bb b5 5f 0a bd 28 c2 4a bc 9b b3 e0 ba
       -0.00534815 -0.03378268 -0.012375392 -0.001714337
000010 6e ce 5a bc 56 1b 81 b6 99 b5 c7 bc 32 1f 12 b6
       -0.013354881 -3.847682e-06 -0.024378585 -2.1773853e-06
000020 3e b4 bf bb 6d 0a 97 b6 69 b7 02 bd ea b3 d5 bc
       -0.005850344 -4.5013644e-06 -0.031913195 -0.026086766
000030 cd 5f ad bc 44 14 80 bc 67 9c 66 bc a4 05 cc bc
       -0.021163845 -0.015634663 -0.014075375 -0.024905033
000040 90 a7 27 bb a5 29 9d bb 78 6e 80 b9 28 f0 95 bc
       -0.0025582053 -0.004796224 -0.00024496368 -0.018302992
000050 40 e8 80 bb 85 0d b9 bb 9a ff b6 bc e3 01 be ba
       -0.0039339364 -0.0056473636 -0.022338677 -0.0014496412
000060 66 24 94 bb 09 d1 c1 bc 82 3e 80 bc 10 ba c2 bc
       -0.0045209406 -0.023659246 -0.015654806 -0.023770362
000070 73 1e 6c bb 60 e9 cd bc d5 c5 00 b7 16 81 42 bb
       -0.0036028891 -0.025135696 -7.675456e-06 -0.0029678992
000080 02 2c 28 ba 9d 60 fa bb 9d 62 8e bc 77 c4 75 bc
       -0.0006415249 -0.0076409117 -0.017381007 -0.015000454
000090 25 bf ae b9 ab f3 c5 bc 7a 72 bc bc 54 5c 8c bc
       -0.0003333028 -0.024164042 -0.023003805 -0.01713387
0000a0 14 fd 76 bc b2 30 02 ba 1b 45 af bc 54 fd 34 bc
       -0.015074987 -0.00049663626 -0.021395257 -0.011046726
0000b0 f8 05 3d b6 fa ad 1e bc 69 d8 b9 bc 58 e8 3f bb
       -2.816667e-06 -0.009685034 -0.0226862 -0.0029282775
0000c0 fd 5d ab bb 16 3b a8 bb 91 1d ef bb e9 26 4d bc
       -0.00522971 -0.0051339967 -0.0072972258 -0.012521484
0000d0 f8 e3 76 bc db 32 94 bc 2f a0 37 b6 93 ba 7d bb
       -0.015069 -0.018090656 -2.7362364e-06 -0.0038715943
0000e0 5a 9c a1 bc f8 5d 30 ba 4b c2 c6 bb 05 4c f0 b9
       -0.019727875 -0.00067278696 -0.006065642 -0.00045833006
0000f0 26 de 4a ba 73 ba a0 b9 26 bb 44 bc 9c 02 01 bd
       -0.0007738791 -0.00030656494 -0.01200751 -0.03149663
000100 13 76 4f bc 4e d2 3b b9 0b 40 ac b6 cb eb 68 bc
       -0.012662428 -0.00017912054 -5.133455e-06 -0.014216374
000110 64 0c c6 b7 a9 0d ae b6 43 47 00 bd 8e fc a1 b7
       -2.360921e-05 -5.1871943e-06 -0.03131796 -1.93103e-05
000120 ce b7 14 b9 22 56 e3 b9 8e b8 27 b9 12 13 28 bc
       -0.00014182852 -0.00043360988 -0.00015995113 -0.010258453
000130 b1 17 08 bc 68 8f ca b6 4a 41 1c bd 3e c1 6d ba
       -0.00830643 -6.036764e-06 -0.038148202 -0.0009069628
000140 9b c0 a1 b9 f0 0f c3 bb f9 98 cb bc f8 48 6d ba
       -0.00030851815 -0.0059528276 -0.024853216 -0.0009051706
000150 26 2a 01 bb da ef 77 bc ce f4 53 bc 4a b6 80 bc
       -0.001970896 -0.015132869 -0.012936784 -0.015711922
000160 b3 37 cb bb 4c d6 29 bb a5 45 b5 bc b4 1f 2c bd
       -0.006201708 -0.0025915084 -0.022127936 -0.042022422
000170 06 ed 25 ba 7c bb df bc 56 90 01 b6 28 b1 1b bc
       -0.000632957 -0.02731108 -1.9306513e-06 -0.009502687
000180 41 fb 37 bd db 74 e7 bc 40 9b 35 bc 22 0f 13 bc
       -0.04491735 -0.028253963 -0.011084378 -0.008975776
000190 3b 59 35 bc 99 7e 5c bc 38 67 97 bc 3f b3 1c bc
       -0.0110686375 -0.013457918 -0.018481836 -0.00956422
0001a0 10 e8 31 bc a3 dc 1f bc 8d 6f cc bc 87 be 81 bc
       -0.010858551 -0.009757194 -0.024955535 -0.01583792
0001b0 b2 b0 9d bc 40 e7 b6 b9 9f 94 80 bb 69 32 9a bc
       -0.019249294 -0.0003488604 -0.003923967 -0.018822866
0001c0 98 98 89 bb 93 ad 74 bc 5d 32 d1 bc cf 9d 85 bc
       -0.004199099 -0.014933961 -0.02553671 -0.0163106
0001d0 66 62 fc bc 7e 20 b9 bc 82 7a 1f bd 36 33 7f bc
       -0.030808639 -0.022598501 -0.038935192 -0.0155761745
0001e0 0a e8 43 bc fb 23 18 bb f2 a9 16 bb 9c 90 48 bc
       -0.011957178 -0.0023214805 -0.002298948 -0.012241509
0001f0 69 40 fa bc 78 c6 04 bd 39 52 b8 bc 27 85 0f bd
       -0.030548291 -0.032415837 -0.022500144 -0.035039093

conv_layers.0.lin.weight f4 [128, 500]
000000 11 d9 a7 3a 19 5d 24 39 1f d4 03 3a 6c da 73 39
       0.001280578 0.0001567494 0.0005028862 0.00023255654
000010 49 5b bf 38 6f 85 3b 39 4d d1 5f 39 de 4b cc 39
       9.124593e-05 0.00017883418 0.00021344908 0.00038966438
000020 fd b1 f5 39 a3 43 16 39 66 08 8e 39 74 c6 8f 39
       0.00046862653 0.00014330311 0.00027090608 0.00027422945
000030 24 08 76 39 7c 9a d7 39 31 61 a2 39 7d 63 50 3a
       0.00023463421 0.00041123095 0.0003097146 0.0007949395
000040 82 4d 49 3a be 99 0b 3a c5 b0 f8 39 05 e6 a4 38
       0.0007679091 0.00053253386 0.0004743395 7.862974e-05
000050 14 df c1 39 46 c4 bb 39 d4 69 ca 39 4d 82 bb 39
       0.00036978035 0.00035813655 0.0003860729 0.000357645
000060 f7 b4 79 39 7f 67 9e 39 41 1d 23 3a d6 63 b8 39
       0.00023813905 0.0003021322 0.0006222316 0.00035169598
000070 f7 b5 7d 39 a3 5b 30 3a b7 56 7c 38 0a fa b4 39
       0.00024195747 0.0006727522 6.016224e-05 0.0003451857
000080 a4 7c 3a 3a dc 25 35 3a 1a 38 b3 39 e9 52 d9 39
       0.000711391 0.00069102435 0.0003418334 0.00041451238
000090 ff 8e 94 39 d0 20 dd 39 7b 9b 24 3a b6 eb 3d b8
       0.000283353 0.00042176852 0.0006279272 -4.5280634e-05
0000a0 70 27 30 39 f7 4c da 39 56 93 9e 39 88 ae e3 39
       0.0001679936 0.00041637543 0.00030245882 0.0004342685
0000b0 9e a9 b3 39 11 b8 ce 38 32 ce c4 39 d1 a2 7f 39
       0.00034267915 9.8571305e-05 0.0003753766 0.00024379349
0000c0 4f a1 ac 39 ae 0a 45 3a 4b a0 a8 b8 f0 35 8d b7
       0.0003292658 0.0007516545 -8.040721e-05 -1.6833626e-05
0000d0 63 79 07 3a 81 17 3d 3a 56 6e 3a 3a 0b 37 aa 39
       0.00051679293 0.000721328 0.0007111778 0.00032465937
0000e0 02 58 37 3a c4 70 a3 39 5d ad 16 39 46 7c 15 39
       0.000699401 0.000311738 0.00014369698 0.00014256043
0000f0 21 52 29 3a 25 54 51 39 14 13 98 39 55 5f 72 39
       0.00064590765 0.0001996314 0.00029005914 0.00023114432
000100 04 00 39 39 bd 78 e5 39 b8 cf e4 38 28 62 57 3a
       0.0001764298 0.0004376824 0.00010910578 0.00082162255
000110 3a 58 91 39 df f9 85 39 b1 bb 6d 3a 69 99 fe 39
       0.0002772229 0.00025553905 0.0009068801 0.00048560955
000120 de b5 c4 39 f4 ec 09 b8 3a 77 b2 39 f3 e4 07 39
       0.00037519535 -3.2884025e-05 0.00034039636 0.00012959894
000130 63 b8 7e 39 02 1d 89 39 b0 e3 9a 39 c3 89 8c 39
       0.00024292017 0.0002615229 0.0002954281 0.0002680552
000140 82 8c a1 39 78 31 96 39 e9 3e d8 38 d6 36 c5 39
       0.00030813 0.00028647087 0.000103114005 0.00037615624
000150 1a d1 1e 39 ab 64 2b 39 45 88 08 3a c5 ae 71 39
       0.0001514595 0.00016345333 0.0005208294 0.00023048658
000160 36 ce 98 39 ee 74 a2 3a 68 72 db 39 0c 4f 05 39
       0.00029145338 0.0012394467 0.00041856174 0.00012713316
000170 3c 33 04 39 89 99 ca 39 6e fc 18 39 30 67 dd 39
       0.00012607587 0.00038642835 0.00014589887 0.00042229285
000180 68 6b 33 39 59 43 4b 39 c3 98 84 39 39 5d 99 39
       0.00017110782 0.00019384678 0.00025290818 0.0002925189
000190 8f 83 80 39 47 9f 86 39 aa 22 6a 3a d1 2f 7d 39
       0.0002451208 0.00025677143 0.0008931557 0.00024145773
0001a0 44 48 a2 39 7b fd a2 39 cf 60 a2 39 71 0c 7e 39
       0.0003095289 0.00031087906 0.00030971176 0.00024227962
0001b0 f1 39 19 39 94 40 89 39 a7 d8 ca 39 85 82 00 39
       0.00014612802 0.0002617879 0.0003868986 0.00012255654
0001c0 19 e3 b3 39 e4 db a7 39 be cc 99 39 ad b8 e1 39
       0.00034310741 0.00032016553 0.0002933498 0.00043052938
0001d0 da 1d 74 39 c8 76 65 39 4a aa 5c 38 43 06 ef 37
       0.00023280774 0.00021883391 5.261068e-05 2.8493936e-05
0001e0 5a b6 7f 39 d3 f2 98 39 9c ac b2 39 91 bd 83 3a
       0.00024386626 0.00029172617 0.0003407941 0.0010051002
0001f0 57 79 22 39 69 c7 02 3a 2e 46 12 3a 07 d5 e2 39
       0.00015494727 0.0004988821 0.00055799156 0.00043264797
000200 49 1d 85 39 64 53 c4 39 ab e8 a0 39 99 6f 9c 39
       0.00025389556 0.00037446164 0.0003069093 0.00029837785
000210 35 1d aa 39 79 81 4b 39 f3 a9 8f 39 62 37 1b 3a
       0.00032446688 0.00019407821 0.00027401707 0.00059210334
000220 e8 a4 95 38 09 3e 60 39 6b d2 df 39 2e c9 6c 3a
       7.13559e-05 0.00021385415 0.00042690648 0.00090326637
000230 b3 4f f3 38 7c ef 74 39 e0 1f a3 38 0d 43 9d 36
       0.00011601988 0.00023358868 7.778383e-05 4.6867704e-06
000240 bb d4 14 39 39 fa 8f 39 af eb 21 3a 5e b6 9e 39
       0.00014193628 0.00027461516 0.0006176782 0.00030271983
000250 b4 2a 86 39 a6 b7 ad 3a 9a 05 b6 38 c9 bf 35 39
       0.00025590288 0.0013253584 8.67948e-05 0.0001733295
000260 0f 2c 10 39 93 96 41 39 30 d6 96 38 9e 2d a9 39
       0.00013749323 0.00018462008 7.192453e-05 0.0003226818
000270 87 5f 2a 39 af 1e 30 39 5e ff e8 39 0d cd 2d 3a
       0.0001624805 0.00016796098 0.00044440752 0.0006629981
000280 3a df 9b 38 6e d3 89 b8 cf 87 ec 3a fa 36 c9 38
       7.432555e-05 -6.572051e-05 0.0018045845 9.594667e-05
000290 6b 55 f8 38 68 d3 28 39 6d 62 9a 39 61 b2 66 38
       0.00011841472 0.00016100483 0.00029446502 5.50024e-05
0002a0 4f 7a ec b8 4c ab fa 39 65 c7 7b 39 43 dd 93 39
       -0.00011276139 0.00047811342 0.00024011506 0.00028202878
0002b0 64 36 06 39 a3 3f a6 39 6b fd 8d 39 82 84 b7 39
       0.00012799498 0.000317094 0.00027082427 0.00035003206
0002c0 db ac e0 39 17 94 45 b8 85 34 48 39 93 a2 c2 39
       0.00042853397 -4.710638e-05 0.00019093051 0.0003712369
0002d0 5b 07 0b 39 c4 e9 3b 39 87 95 53 39 be 2d 02 3a
       0.00013258813 0.00017920794 0.00020178231 0.00049659226
0002e0 b1 a8 b9 39 48 62 cc 38 43 3f 06 39 be 10 ae 39
       0.00035411635 9.745784e-05 0.00012802803 0.0003320034
0002f0 26 1b 39 39 25 51 a5 39 ee 55 9e 39 a7 b6 cd 39
       0.00017653088 0.0003153171 0.0003020013 0.00039236734
000300 84 36 10 3a 46 4f fc 39 bc 0a f8 b7 ea 8f 91 37
       0.00055012875 0.0004812425 -2.9568902e-05 1.7352362e-05
000310 59 b7 68 3a 1c da f3 38 e5 e9 96 38 b3 e6 1a 39
       0.00088774186 0.00011627769 7.1961236e-05 0.00014772527
000320 ed 66 d9 38 e1 ad 24 3a 1d 6c 60 3a ca 48 42 3a
       0.00010366538 0.00062820135 0.0008561032 0.0007411359
000330 32 f6 e0 39 0a fd 71 3a dd a9 5e 39 2d 7d de 39
       0.0004290804 0.0009231126 0.00021234849 0.00042436403
000340 67 77 21 39 87 d8 ec 38 b1 c4 b0 39 d1 96 11 39
       0.00015398637 0.00011293688 0.00033715882 0.00013884461
000350 58 db 88 39 87 8a a4 39 2c 77 dc 38 52 6c 94 39
       0.00026103365 0.00031383728 0.00010512615 0.00028309465
000360 f1 5c 93 39 86 5d 3e 39 cd e2 88 39 2b 41 9b 39
       0.00028107272 0.00018154652 0.0002610892 0.00029612458
000370 88 0d da 38 a5 cd 80 39 87 6e 61 39 26 2f 4c 39
       0.000103975704 0.0002456728 0.00021498847 0.0001947252
000380 81 b2 1e 39 73 f2 3c 38 af 9d 10 39 74 92 9b 39
       0.00015134552 4.504849e-05 0.00013791652 0.0002967302
000390 41 57 4a 39 71 1c 0b 3a 5e 62 9e 39 48 8a 11 3a
       0.00019296726 0.00053066673 0.00030209398 0.00055519165
0003a0 50 76 cb 39 96 90 6a 39 e4 fe 72 39 e7 2d 66 39
       0.00038807327 0.00022369841 0.00023173873 0.00021951609
0003b0 a0 0e 0c 3a 00 1f 07 3a 5e 9e 5f 39 60 07 81 b7
       0.00053427555 0.00051544607 0.00021325934 -1.5381433e-05
0003c0 0b 3e c0 39 97 48 6b 39 8d 90 2f 39 28 80 31 39
       0.0003666732 0.00022438388 0.0001674315 0.00016927777
0003d0 00 cb cd 38 25 0b c3 39 38 26 dc 37 09 36 cc 39
       9.8129734e-05 0.00037201602 2.624384e-05 0.0003895017
0003e0 b9 11 86 39 58 36 25 39 17 8e 54 39 91 ed d0 39
       0.00025571676 0.00015755871 0.00020270828 0.00039849852
0003f0 2d f0 af 39 2c 75 3e 39 30 45 f4 39 e6 88 02 b8
       0.00033557546 0.00018163462 0.00046590855 -3.1121912e-05

conv_layers.1.bias f4 [128]
000000 12 dc 84 3c 40 c9 d7 3b 4d d7 73 3c 26 75 79 bc
       0.016218219 0.00658527 0.014882875 -0.015225684
000010 5f 06 6e 3c 08 c0 6b 3c 69 0e 7b 3c 10 33 25 bc
       0.014527886 0.014389046 0.01532326 -0.010082975
000020 2a d5 18 3c b4 19 5d 3c 41 b2 4e 3c 18 8e 6d bc
       0.009328166 0.013494898 0.012615741 -0.01449921
000030 bf 88 69 bc 66 0a 67 bc 36 32 1a 3c 2c f5 75 bc
       -0.014253794 -0.0141016 0.009411385 -0.015012067
000040 b7 1f 07 bc 55 8d d9 bb 5a 6c 3e bc 93 5f 96 3c
       -0.0082473075 -0.0066391625 -0.011622513 0.01835612
000050 57 ef 0f bc 62 54 e7 3b 6b b7 7d bc 24 f1 88 3b
       -0.00878509 0.0070596198 -0.015485625 0.004179137
000060 d5 f2 76 bc 06 2e a6 ba 34 62 7f 3c 45 27 93 3c
       -0.015072544 -0.0012678511 0.015587378 0.017963061
000070 df c3 5c bb 9a c8 ef bb 35 02 fe bb ad cc da bb
       -0.0033686084 -0.0073176147 -0.007751728 -0.0066772313
000080 d9 69 2f bc 41 8b 33 bc 0c 35 66 3c 08 d7 f5 3b
       -0.010706388 -0.010958494 0.014050733 0.0075024404
000090 f0 e8 4a bc 3d ae 27 bc e2 1e 00 bc b3 b0 e3 3b
       -0.012384638 -0.010234413 -0.007819863 0.0069485544
0000a0 42 7c 84 3c de 51 00 3c 78 62 59 3c 27 12 a1 3c
       0.016172532 0.007832019 0.013268106 0.019661976
0000b0 8a dd 5a bc ff 58 66 3c 69 0e 4d bb d9 4a 4f 3c
       -0.013358483 0.014059304 -0.0031289107 0.012652122
0000c0 e9 b0 2e 3c dc 22 6e bc 30 e9 82 3c 84 b9 62 bc
       0.010662296 -0.014534678 0.015980333 -0.013838176
0000d0 ef e9 74 3c f5 7a 57 3b 3a ae 31 bc 13 6d 25 bc
       0.014948352 0.0032879685 -0.0108447615 -0.010096806
0000e0 34 a1 31 3c 79 43 f1 3b 80 b2 d1 bb e3 cc 8a 3c
       0.0108416565 0.0073627797 -0.0063994527 0.0169434
0000f0 6e da 8b bc e8 8e 3b 3c 6b fc 99 3c 54 21 68 3c
       -0.017071929 0.011447646 0.01879712 0.014168102
000100 7d 8f 4a bc 06 d6 9d bc 73 77 33 bc ea 71 03 3c
       -0.012363312 -0.019267093 -0.010953772 0.008022765
000110 f0 5a 5e bc 44 0a 86 3c 6e 59 6e 3c 57 62 4a 3c
       -0.013571486 0.016362317 0.014547689 0.012352548
000120 46 04 7d bc 11 cf 7d 3c 19 61 c9 3b f0 45 c8 bb
       -0.015442913 0.015491263 0.006145608 -0.006111853
000130 fd 1f 96 3c 06 6d 83 bc 40 92 2d bc d4 ab 40 bc
       0.0183258 -0.016043197 -0.010593951 -0.011759717
000140 88 2c 58 bc 51 2f a6 bc bd ce 99 3c d9 2a 6e bb
       -0.013194211 -0.020286234 0.018775338 -0.0036341457
000150 60 86 a0 3c 74 a1 13 3c 7b 20 46 bc d8 25 7b bc
       0.019595325 0.009010661 -0.012092705 -0.015328847
000160 5d 3e 9a bc 86 7d 85 bc 30 9f 9b 3c 81 bb 88 bc
       -0.018828565 -0.016295206 0.018996805 -0.016690971
000170 9c f1 5c 3c 9d af 8f 3c d9 74 32 bc 83 e3 47 3c
       0.013485339 0.017539794 -0.010892116 0.012200239
000180 9d 52 68 3c f9 aa f6 bb ad ff 98 bc 75 08 5e bc
       0.014179853 -0.0075277057 -0.018676603 -0.013551821
000190 9a de 9d bc f6 a6 29 bc 15 a3 2d 3c 7f 48 63 bc
       -0.019271184 -0.010354748 0.010597964 -0.013872265
0001a0 89 6f 96 3c 6b 6a be 3b 39 f3 32 3c d7 bf 5f 3c
       0.018363731 0.005811026 0.010922247 0.013656578
0001b0 fa d9 65 3b f9 43 2e 3c 92 c6 34 bc cd da f0 3b
       0.003507255 0.010636323 -0.011033671 0.007350302
0001c0 d7 50 85 bc 2f 4f 8e bc 5e 5d 29 3c c8 9c 8f bc
       -0.016273899 -0.017371742 0.010337202 -0.017530814
0001d0 29 cf 4b 3c f9 77 6e 3a d8 65 3b 3c 49 7b 52 bc
       0.012439528 0.0009096857 0.011437856 -0.012846776
0001e0 88 b4 c1 3b 74 00 83 3c cb 77 8f 3c c1 28 6d 3c
       0.0059114136 0.015991427 0.017513176 0.0144750485
0001f0 01 65 5c 39 7b 5e 47 bc 12 ec 69 bc 20 3e 82 3c
       0.00021018462 -0.012168522 -0.014277475 0.015898764

conv_layers.1.lin.weight f4 [128, 128]
000000 6b e4 03 b9 0a f4 c8 bb 99 00 a9 3b dc a8 2d b8
       -0.00012578226 -0.0061326073 0.005157542 -4.1403677e-05
000010 1c 6c 10 3d 28 3d 1a 35 8d 11 aa ba 1a bb 2d 34
       0.03525935 5.7458465e-07 -0.0012975201 1.6179948e-07
000020 c8 26 a6 b9 e9 94 e8 34 7c c0 bd bc 62 18 32 bc
       -0.00031690882 4.3321714e-07 -0.023163073 -0.010870071
000030 67 36 74 bb 48 1e 11 ba 09 e6 21 ba 30 9e 89 ba
       -0.0037263872 -0.00055358233 -0.00061759405 -0.0010499414
000040 50 09 11 b9 f2 22 05 b9 60 09 2e 37 4c fe 43 bb
       -0.00013831747 -0.00012696887 1.0373391e-05 -0.0029906211
000050 d4 cf cf 36 ae d2 84 b9 7c 38 99 ba 55 7e 04 39
       6.193275e-06 -0.0002533397 -0.0011689807 0.00012635563
000060 c1 21 7b b8 28 0c 03 3b 3c 16 2c 3a 75 6f 5d bb
       -5.98745e-05 0.001999626 0.00065645925 -0.0033788357
000070 66 19 77 b9 47 7d 09 bb 3b af e0 b6 88 5e c0 b8
       -0.00023565217 -0.0020979212 -6.6961197e-06 -9.172881e-05
000080 87 e9 7c 37 35 eb 15 bb 9d 92 3e ba e0 3c 29 ba
       1.5074743e-05 -0.002287579 -0.0007269772 -0.00064559095
000090 da af 48 3e 2a 8f 9b 3c 69 ad b0 bb 1d e7 33 ba
       0.19598332 0.018989164 -0.005391766 -0.00068627467
0000a0 26 58 9f ba 69 7e e1 b4 32 23 17 bc f9 48 cb b9
       -0.0012157008 -4.200149e-07 -0.0092247 -0.00038773546
0000b0 63 2a 89 34 c4 cd b1 b9 bd 0d c9 ba 6f a2 13 b9
       2.554908e-07 -0.00033913378 -0.0015339177 -0.00014079524
0000c0 e9 47 9d b9 b6 d2 74 b9 75 a1 e3 b9 3c 05 3c 3c
       -0.0002999895 -0.00023348149 -0.0004341711 0.011475857
0000d0 65 47 52 ba 2c 40 8f 3c 3a b3 67 34 fb 20 60 bb
       -0.0008021503 0.017486654 2.1578754e-07 -0.0034199345
0000e0 01 fb 34 bb 5a 7e 9b b7 e7 4c 6e 3e 37 bc f3 b6
       -0.002761543 -1.8536277e-05 0.23271523 -7.2638754e-06
0000f0 06 ba 5c 38 a9 92 7f 37 cd 39 29 ba ed 93 a4 3c
       5.2625335e-05 1.5233331e-05 -0.00064554514 0.020090068
000100 0e bc 00 3c ad 54 c6 b5 5f bf 86 35 31 04 04 3d
       0.007857336 -1.4776793e-06 1.0039474e-06 0.03223056
000110 88 07 66 36 dc 83 e0 35 a2 28 d4 bb 2a 13 61 36
       3.4277055e-06 1.6727677e-06 -0.0064745704 3.3538768e-06
000120 0a ed 40 b7 b5 f7 60 37 7f 93 ce b6 f7 76 28 3b
       -1.1499282e-05 1.3409114e-05 -6.156449e-06 0.0025705674
000130 7a 53 6f be 18 fe 12 35 15 dd 61 bc fc b7 e2 b7
       -0.23371688 5.4758993e-07 -0.01378562 -2.7026974e-05
000140 92 81 c3 35 63 45 94 b9 6f 59 11 3c 31 79 f9 b6
       1.4566342e-06 -0.00028280457 0.00887142 -7.434887e-06
000150 3c f6 2f b8 1e 86 b3 39 cf ec 0e ba d0 b3 3b ba
       -4.1952575e-05 0.00034241466 -0.00054521573 -0.0007160278
000160 01 b0 09 be 21 bb df b8 12 c3 e8 ba bd 55 8e bc
       -0.13446046 -0.00010668324 -0.0017758331 -0.017374868
000170 1b a7 1b 38 ff df c6 3b 5a a3 26 34 da 09 ab b9
       3.711051e-05 0.006069183 1.5519382e-07 -0.00032623002
000180 cb 62 05 bd e3 8b 83 bb 79 12 10 3c c6 29 cb 3d
       -0.03256492 -0.0040144785 0.008793467 0.09920077
000190 5e 8d 93 b9 30 89 0b bd a5 80 fa bd a4 5b c7 b9
       -0.00028143352 -0.03406638 -0.12231568 -0.00038024515
0001a0 67 a8 f5 ba ba 59 d5 b9 56 79 0f 3a 0c 97 24 bb
       -0.0018742204 -0.00040693377 0.00054730976 -0.0025114445
0001b0 a3 82 e8 ba 0e 4a f5 b6 5e 67 a2 bd 48 29 8d ba
       -0.0017739128 -7.31019e-06 -0.07929872 -0.0010769749
0001c0 ed ff d9 b8 13 cc 4f ba a3 05 bb 3c 46 3f fe 3c
       -0.00010395036 -0.0007926833 0.022829836 0.03103603
0001d0 bc f5 8e 3b ff 83 0e bc 25 e7 b1 bc e7 65 77 3b
       0.00436279 -0.0086984625 -0.021716664 0.0037749948
0001e0 33 ea 90 be ce a0 2e 38 ef 82 11 39 5f ac f5 b9
       -0.2830368 4.1634594e-05 0.00013877054 -0.00046858468
0001f0 8c bf 85 bc 39 b1 01 3d 4b c3 2a 3b de be d5 3b
       -0.016326688 0.031663153 0.0026056345 0.0065229973
000200 a6 ae 77 39 4a 4e 17 3c 4f 21 3d bc 92 09 30 38
       0.00023620817 0.009234974 -0.011543586 4.1970583e-05
000210 e4 11 c7 b8 38 25 33 b4 01 8a c9 b8 59 4c 66 b4
       -9.492392e-05 -1.6684214e-07 -9.610132e-05 -2.1448194e-07
000220 fa 6f 88 39 d6 39 0c b5 38 fe fa 3c a5 70 cc 3b
       0.0002602337 -5.2238227e-07 0.0306388 0.006239014
000230 1f 22 a5 ba 83 d3 8e 3a bc db 99 3a 62 7c 7c bb
       -0.001259867 0.0010896776 0.001173846 -0.0038526286
000240 f9 ae 86 38 72 4e 93 38 63 c5 ce b6 4a fb b3 ba
       6.422209e-05 7.024118e-05 -6.1622573e-06 -0.0013731506
000250 66 5c 22 39 ce 48 18 39 52 21 bf 3a a3 e9 1c b8
       0.00015483945 0.00014522971 0.0014582074 -3.741089e-05
000260 f7 4f 2d 39 8e 2f 62 3a ba 00 9c bb 86 d8 fd 3c
       0.00016528355 0.0008628302 -0.004760829 0.030987035
000270 8e cb 89 38 e6 77 25 bb 4b 39 9c b5 75 e0 f6 38
       6.570584e-05 -0.0025248467 -1.163958e-06 0.000117720025
000280 9e a8 c9 b7 91 2d d1 3b c9 6c b5 3a 2f dd 80 3a
       -2.4039586e-05 0.0063836058 0.0013841625 0.0009831543
000290 1e fc 93 be 16 2d 87 bc 25 39 18 bb 59 51 af 3a
       -0.28903288 -0.01650099 -0.002322742 0.0013375684
0002a0 e3 68 c4 3a 1f 5f 41 38 35 b5 e9 3c cf 91 be 3a
       0.0014984872 4.6103374e-05 0.028528789 0.0014539304
0002b0 ca a7 88 b4 74 0e 2c 3a 59 4b 8e ba 50 ce 45 38
       -2.5454057e-07 0.0006563433 -0.0010856196 4.7160604e-05
0002c0 e3 9f 2f 39 9a 80 7b 39 a7 4e f8 38 60 1f bc bb
       0.00016748863 0.00023985133 0.00011840212 -0.005741045
0002d0 db 90 0f 3b 2e 67 19 bc 0a 41 eb b4 62 17 cd 3b
       0.002190641 -0.009362979 -4.3819483e-07 0.006258891
0002e0 70 6c 5e bb 07 dd ee 34 37 11 ea 3d 4c 04 96 b8
       -0.0033939146 4.4491773e-07 0.11429065 -7.153358e-05
0002f0 04 dd 71 38 09 67 37 39 79 70 5b 39 18 4b e0 bb
       5.7664714e-05 0.00017490624 0.00020927367 -0.0068448894
000300 b4 bd e3 3b 54 ff 14 36 e6 94 f4 33 7c 19 98 bb
       0.0069501046 2.220234e-06 1.138922e-07 -0.00464171
000310 a0 1e 11 b6 b3 0a ca 35 69 de 19 3c 4b d7 74 b5
       -2.162451e-06 1.5053287e-06 0.009391406 -9.1210376e-07
000320 c5 e3 95 b8 a6 67 11 37 cf 80 2c b4 0f b3 aa 3a
       -7.147299e-05 8.666806e-06 -1.6065609e-07 0.0013023334
000330 c1 6d cf 3d ba ca fb b4 e7 87 96 3b e2 cc 24 38
       0.10128356 -4.6899896e-07 0.0045938375 3.929146e-05
000340 58 10 21 b8 08 1c a5 39 89 b7 d5 3a 1c 37 a8 36
       -3.8400613e-05 0.00031492137 0.0016305308 5.0132057e-06
000350 95 25 a1 38 eb 23 74 3b 85 8c 1b 3a 5b fc 82 3a
       7.6840784e-05 0.0037252854 0.000593372 0.0009993421
000360 2a c3 a4 3e b0 c8 16 b9 3d 15 69 3c 47 14 92 3b
       0.32180148 -0.00014379877 0.014226255 0.0044579837
000370 c8 bc 76 b8 75 bb 8a 3b 3f a0 b1 b4 12 5e 13 3a
       -5.8826787e-05 0.0042337724 -3.3085414e-07 0.00056216225
000380 9d 1f d4 3b 57 03 c4 bc d4 50 d8 3b 13 50 51 3e
       0.006473495 -0.023927374 0.0066014323 0.20440702
000390 8e c8 9c bb f5 bd 24 3c f4 34 3b be 04 06 20 39
       -0.00478465 0.010055055 -0.18281919 0.0001526103
0003a0 11 d6 c3 bb 63 48 32 3a c5 65 48 bb 25 69 ac bb
       -0.0059764464 0.00068009476 -0.0030578237 -0.0052615576
0003b0 eb 37 f2 3a ea bc 52 b8 1c 0e f6 3c d8 9c 93 3a
       0.00184798 -5.024384e-05 0.030036025 0.0011261953
0003c0 89 80 29 39 1b c7 d9 38 2c 6b ad 3c be 50 6f be
       0.00016164979 0.000103844526 0.021169268 -0.23370644
0003d0 3d c0 00 3d 4b 9f 11 3d c2 1b b9 3c 3a bb c9 3b
       0.031433333 0.035552304 0.022596244 0.0061563523
0003e0 e9 5b db 3d 43 d7 17 b9 bb 4d 03 3a 9b 07 02 3b
       0.1071089 -0.00014480673 0.0005008836 0.001984096
0003f0 1c 04 93 3c 3b ab 51 3c 49 84 bc bc 82 2c 43 3c
       0.017946295 0.012797172 -0.023012297 0.011912467
