mine/ProG-main/Experiment/pre_trained_model/DD/GraphMAE.GCN.128hidden_dim.pth (torch, 114664 bytes, 4 tensors)

conv_layers.0.bias f4 [128]
000000 79 c0 9f b9 3c d1 63 bb 6b c3 2d 3c 1a 19 40 3c
       -0.00030470247 -0.0034762165 0.010605673 0.011724735
000010 bf 35 40 3c 80 15 24 3a 3d bd b0 bb 5c dd b4 bb
       0.011731564 0.0006259307 -0.0053936527 -0.005519552
000020 77 50 0c 3c 31 69 e1 3c 4f 42 52 bc 87 e7 ac ba
       0.008564106 0.02751598 -0.012833192 -0.0013191559
000030 7c 83 57 bb d1 d9 a3 3b 81 a6 2e ba 20 c3 24 bc
       -0.0032884767 0.005000331 -0.0006662384 -0.010056287
000040 40 35 fa 3b a1 94 0e 3b 98 b7 10 3b a9 28 15 3b
       0.0076357424 0.002175607 0.0022082087 0.002275983
000050 72 9f 56 bc df 2a 24 3c ec fd 7a bb ce f9 40 3c
       -0.013099538 0.010019987 -0.0038298322 0.011778308
000060 a8 37 21 3b 1e aa 2d 3c a5 a5 04 3c 20 1a 7d 3b
       0.0024599824 0.010599641 0.008096133 0.0038620308
000070 47 57 73 ba 18 f3 2f 3b f1 d6 82 3b a4 5b 8c bb
       -0.00092827197 0.0026847776 0.003992908 -0.0042833854
000080 f1 e8 19 3c 4f ea 5c 3a 8f eb 77 3b 8d ae e7 bb
       0.009393916 0.00084272487 0.0037829613 -0.0070703686
000090 56 c2 01 3a 90 22 97 3c 98 53 6b 3c ca 26 a1 bb
       0.0004949918 0.018449098 0.014363192 -0.004917954
0000a0 d7 ed 02 3c 6e 61 d3 3a d5 6c d6 ba a7 9d c9 bb
       0.007991276 0.0016127059 -0.0016359339 -0.006152827
0000b0 90 40 0d 3c 22 4c 6a 3a 12 3a 92 3a cb 1e 3a bc
       0.00862135 0.0008937736 0.0011156222 -0.011359881
0000c0 7a 27 a6 bb 6c 4f cc 3b bf 17 a2 3c 30 49 3c 3c
       -0.005070624 0.0062350538 0.019786714 0.011492059
0000d0 74 7d 13 3c d6 93 80 bb fe d6 5a 3c 1f 38 8d bb
       0.009002078 -0.0039238734 0.013356922 -0.0043096687
0000e0 52 76 db bb 01 fa 54 3c 7c 7c 11 3d 1c 4e 9b 3a
       -0.0066974545 0.012999059 0.03551911 0.001184884
0000f0 6e 0a ef 38 c3 b9 ee bb 1d 03 21 3c 01 2d 19 3c
       0.00011398351 -0.007285328 0.009827402 0.009349109
000100 de 1c c2 ba d0 88 0c bb 37 54 57 bc 90 5f 98 bb
       -0.0014809628 -0.0021443851 -0.013142637 -0.004650064
000110 de c2 c4 ba e4 63 85 bb a1 81 98 3b 0f d1 28 3c
       -0.0015011688 -0.004070746 0.004654125 0.01030375
000120 21 72 ef bb ee 23 97 bc cc 98 08 3c 66 68 d7 ba
       -0.0073073064 -0.01844975 0.008337211 -0.0016434311
000130 d1 f0 ca bb e0 1a 48 bb 1b d9 5e 3a c7 3e 37 3c
       -0.0061932583 -0.0030533597 0.0008500979 0.011184401
000140 f0 11 3f 3c a6 55 d1 3b d0 50 e3 3b e9 0f 24 3b
       0.0116619915 0.006388384 0.006937124 0.0025033897
000150 96 91 00 3d ee 55 10 3b ad 90 a8 bb c6 6f 95 bc
       0.03138884 0.0022023874 -0.0051442 -0.018241774
000160 4c bd e7 ba 83 df 6d bc c7 4c 63 bb d2 3a 99 3c
       -0.0017680316 -0.014518621 -0.0034683214 0.018704806
000170 6e 2a e8 3b 12 02 f9 3b d9 da a4 bb b8 a2 2f bc
       0.007085136 0.0075991238 -0.0050309715 -0.0107199475
000180 ad e7 bc bb cb 70 17 3a 97 28 5e bc 0b ac ed 3c
       -0.0057649226 0.00057770003 -0.013559482 0.0290127
000190 9e 9d c6 3b 1c 15 9b 3c cd d5 26 bc ea d7 93 3b
       0.00606127 0.018930964 -0.01018281 0.004511823
0001a0 65 cf 80 3c b2 82 c7 ba 28 d4 6b bc a9 1d a2 bb
       0.015723893 -0.0015221445 -0.014393844 -0.0049473834
0001b0 33 5e 99 bb 27 3a a2 3a a9 f3 d9 ba a3 39 89 ba
       -0.004680419 0.001237695 -0.0016628403 -0.0010469448
0001c0 25 d7 76 bb 4a f2 7d 3b ce 5b c8 bb 98 84 4a bc
       -0.0037664857 0.0038749152 -0.0061144596 -0.012360714
0001d0 fc b3 cc bb 3a 36 13 3b 91 5c 80 3b eb e9 4f 3c
       -0.0062470417 0.0022462741 0.003917285 0.012690048
0001e0 ec e0 6e b8 da ed fa 3b 63 e0 ad 3a 68 d2 82 3b
       -5.6953097e-05 0.0076577486 0.0013265725 0.0039923675
0001f0 a0 19 77 bb 35 cb 27 3c 50 57 71 bb 83 a5 ad 3c
       -0.0037704483 0.010241319 -0.0036825724 0.021197086

conv_layers.0.lin.weight f4 [128, 89]
000000 ac 99 2b 3d bc 42 a8 3d 1d 34 bd 3d d3 83 25 bd
       0.0418946 0.082158536 0.092384554 -0.04040892
000010 c0 75 b9 bc 07 b5 8a bd 4c 27 b6 3d f3 80 4b bd
       -0.022639155 -0.067728095 0.08894214 -0.049683522
000020 88 32 2c bd 50 49 11 3d 9b 22 fb 3c 43 48 aa bd
       -0.042040378 0.035470307 0.03065615 -0.08314564
000030 d9 87 1d 3d 88 c2 08 3d 02 8a 6f 3d f9 9f b9 bd
       0.038459633 0.033388644 0.058481224 -0.090637155
000040 77 b1 86 bd b6 52 73 3d 8c ea 8f bd 88 19 8d bd
       -0.065768175 0.05940505 -0.07027158 -0.06889635
000050 ff 37 9f b9 62 5a e4 37 09 e8 38 bc 68 a7 1d 37
       -0.00030368564 2.7221806e-05 -0.01128579 9.3969065e-06
000060 64 45 0e b6 29 a9 d8 32 32 89 19 b9 8b 50 cb 35
       -2.120004e-06 2.5222635e-08 -0.00014642326 1.514812e-06
000070 4a f2 bd b8 1e 34 a1 38 17 9d 8d 3b 15 6a aa b7
       -9.057352e-05 7.686786e-05 0.004321705 -2.0314978e-05
000080 5f aa 2e b8 58 5c c8 b9 e3 29 c4 34 0d 49 f1 34
       -4.1643503e-05 -0.00038215774 3.6538322e-07 4.49429e-07
000090 1b 7c 62 37 39 ec 45 39 7e e9 5f ba 36 80 02 b9
       1.3499545e-05 0.00018875384 -0.0008541568 -0.00012445528
0000a0 b2 ec 30 b7 4d 25 8b 0e af f5 2c 3b cb c8 3d 3a
       -1.0545527e-05 3.4302065e-30 0.0026391556 0.00072396983
0000b0 48 17 cf b7 9a 98 ef b6 52 09 db 36 26 3b 01 06
       -2.4687164e-05 -7.14052e-06 6.5277936e-06 2.430566e-35
0000c0 b1 f5 7f bb 4d bf 63 34 0b 38 d8 37 4d db f4 07
       -0.0039056356 2.1210617e-07 2.5775304e-05 3.6841933e-34
0000d0 0f 49 7f 30 f1 a8 5f bb e8 7b 06 3c 1a cc ab bb
       9.287228e-10 -0.0034127797 0.0082082525 -0.0052428367
0000e0 c3 ec 2d b6 07 1c 7d 3a 57 3c b3 39 bb 53 94 96
       -2.5916822e-06 0.00096553605 0.00034186497 -2.396353e-25
0000f0 c1 b5 59 96 e9 b9 a1 39 82 df bf 38 75 a8 7e ba
       -1.7586472e-25 0.00030846827 9.149221e-05 -0.0009714433
000100 80 fb e6 bb 53 00 01 b9 51 bb d1 ba 34 4a 2f ba
       -0.007049024 -0.0001230252 -0.0016001259 -0.00066867773
000110 e4 82 63 b7 eb fa 53 37 f4 b2 24 b9 61 42 0a b7
       -1.356073e-05 1.2635001e-05 -0.00015706924 -8.240896e-06
000120 4b e5 68 85 b8 01 11 3b 46 d6 26 b8 32 33 43 b9
       -1.0950702e-35 0.0022126269 -3.9777042e-05 -0.00018615721
000130 bc 02 1b b9 71 c2 78 b9 17 57 aa b4 ab 07 18 39
       -0.0001478297 -0.00023723558 -3.1728334e-07 0.00014498706
000140 db f4 76 38 83 2b 09 ba 20 7e da b9 a6 a5 ff ba
       5.887901e-05 -0.0005232619 -0.0004167417 -0.0019504323
000150 24 81 fc 35 99 01 2c 38 fa c5 11 02 ba 16 c9 39
       1.8813048e-06 4.1009484e-05 1.0709734e-37 0.0003835464
000160 09 a4 38 3b 08 bb 05 3d 52 80 79 3d de 7f 7b 3d
       0.0028173944 0.03264907 0.06091339 0.06140124
000170 7e 25 cc 3d 3a a7 de bc 9b b8 24 bd 56 24 0a 3e
       0.099680886 -0.02717935 -0.040215116 0.13490424
000180 45 4c e1 3d ec c9 3a bd e2 06 02 3e d6 f0 00 bd
       0.110008754 -0.045602724 0.12697938 -0.03147968
000190 5a 03 57 bd 94 34 a0 bc 8c a8 60 bd 77 68 1f 3d
       -0.05249343 -0.019556321 -0.05484824 0.038917985
0001a0 fc 9a 89 bc fe 79 1f bd 4e 35 14 bd a1 74 50 3d
       -0.016797535 -0.0389347 -0.036183648 0.050892476
0001b0 66 44 9b bc c4 8b 40 ba e8 44 2c 39 a5 10 0a bc
       -0.018953513 -0.00073450455 0.00016428868 -0.00842682
0001c0 52 d7 49 3a 82 02 ba b3 e3 39 ae b0 eb 82 11 ba
       0.0007699627 -8.661756e-08 -1.2676619e-09 -0.00055508193
0001d0 c9 58 91 b5 94 5e 86 38 a1 82 2a b8 ca 6e 01 3b
       -1.0829182e-06 6.4072345e-05 -4.0652816e-05 0.0019749873
0001e0 c4 bf 2b ba 6e 38 38 b7 ec 1c 18 bb f2 ec 7d b4
       -0.00065517076 -1.0980393e-05 -0.0023210598 -2.3648661e-07
0001f0 ae 3a a0 38 7d ee 1e b7 b3 f6 4b bb 22 4a bf ba
       7.6403245e-05 -9.473061e-06 -0.0031122386 -0.0014594237
000200 99 58 d4 b8 ee c3 9e b9 87 4e 5f 0d e1 af 2f 3b
       -0.0001012545 -0.00030282087 6.8811704e-31 0.0026807713
000210 ba 24 f1 39 c1 f7 05 37 5b cc ac 37 9c d5 af b6
       0.00045994465 7.9851025e-06 2.0599158e-05 -5.240274e-06
000220 45 30 b2 14 b4 05 07 b8 de 9c 48 34 0b ee d5 b9
       1.7992446e-26 -3.219182e-05 1.868352e-07 -0.00040803882
000230 88 a2 9c 05 04 37 51 37 58 d5 6a bb 2e 68 2e 3d
       1.4729874e-35 1.247018e-05 -0.003583273 0.042579822
000240 0f 9d 3a bb 4d 70 3b b8 c2 70 86 b9 ae 56 be 39
       -0.0028474962 -4.4688863e-05 -0.00025642483 0.00036304205
000250 02 ad df 98 c2 04 9d 14 9e 9e 12 3a f1 9d 56 b8
       -5.7818842e-24 1.5854825e-26 0.0005593094 -5.116867e-05
000260 c5 69 87 ba c9 f2 4d 3b 6b 88 24 36 ed 5e 81 ba
       -0.0010331204 0.0031425229 2.451731e-06 -0.0009870209
000270 c8 f1 87 b9 2f 58 d2 38 d7 b2 9a b9 1e 1f ef b7
       -0.00025929348 0.00010030006 -0.00029506415 -2.850551e-05
000280 98 8d 21 b9 1d e8 5a 89 ea 7d 12 3a 97 6d 80 b6
       -0.00015406904 -2.6349935e-33 0.00055882207 -3.827455e-06
000290 dc 2b 8c b9 eb fa 19 ba 2f 1c 42 37 e2 1a 34 35
       -0.0002673556 -0.00058738765 1.1569863e-05 6.7094345e-07
0002a0 56 ff ec b9 c8 7f 84 b7 66 8f 7a ba 0b 87 d5 b9
       -0.00045203668 -1.5795129e-05 -0.0009558111 -0.0004072714
0002b0 7a 40 37 ba 70 a2 af b7 3f a9 a0 37 21 bf 8c 08
       -0.0006990504 -2.0937267e-05 1.9152298e-05 8.470878e-34
0002c0 8f c6 14 39 3c 26 e8 b9 9b a6 eb 3d c9 0a 93 3d
       0.00014188349 -0.00044278975 0.11506387 0.071797915
0002d0 4e 14 e6 ba 4b 98 a7 3c de 23 50 3d 02 47 b8 3c
       -0.0017553659 0.020458361 0.050815456 0.022494797
0002e0 b3 77 87 3c 1d 72 15 38 95 49 cd 3d 74 7e 1a bd
       0.01653657 3.5630645e-05 0.100238 -0.03771825
0002f0 88 c1 15 3d 5d fd 4d bd 5c 4e 24 3d d3 d5 87 3d
       0.03656152 -0.050290454 0.04011379 0.066325806
000300 aa f9 91 3d b8 1e cc bc a8 79 3b bd 44 53 80 3c
       0.07127698 -0.024916992 -0.045770317 0.015664704
000310 f1 40 8a 3d 48 aa 06 bc 98 df 98 3a 7b 4f da ba
       0.06750668 -0.008219309 0.0011663316 -0.0016655767
000320 c7 c0 33 3c 1a 70 aa 39 62 8d 05 b7 85 5d 64 b3
       0.010971255 0.0003250845 -7.960336e-06 -5.3170442e-08
000330 8e 1e e2 3a 0f 4d d0 b8 05 f5 71 38 93 a8 de b8
       0.0017251538 -9.932566e-05 5.768707e-05 -0.00010617184
000340 3f 30 79 bb 3f cf 6e 39 d7 40 1b b8 16 79 25 3b
       -0.0038023142 0.00022774654 -3.7015267e-05 0.0025249175
000350 b2 4c a5 38 a1 b0 bf 38 b0 41 b4 b6 bf 9e d9 3a
       7.882099e-05 9.1404894e-05 -5.372065e-06 0.0016603096
000360 15 67 86 3b 84 3c 20 39 91 95 c2 3a 9f c6 10 14
       0.004101644 0.00015281333 0.00148456 7.309313e-27
000370 f9 6e a5 bb 06 16 8f bb 81 e1 2a ba f3 9b 9a ba
       -0.0050486294 -0.004366639 -0.0006518588 -0.0011795744
000380 d8 a8 6c b6 06 93 cf 85 5e ac d0 3b 4f 4b a1 34
       -3.526502e-06 -1.9520194e-35 0.006368204 3.004338e-07
000390 94 12 55 b7 20 7a ce 86 6b 3f 83 36 a1 46 cd 3b
       -1.2700115e-05 -7.7668034e-35 3.911487e-06 0.006264523
0003a0 fc eb 2d bd 64 6d 7f 3b eb 32 6f 37 41 5d 28 3b
       -0.04246138 0.0038975114 1.4257365e-05 0.002569035
0003b0 00 eb 51 ba a2 36 81 96 fb 50 a7 84 7f ef 41 bb
       -0.0008007735 -2.0875552e-25 -3.933588e-36 -0.0029592214
0003c0 17 34 71 3a 65 c6 e1 39 f6 bf 91 3a 33 05 af 3a
       0.00092011824 0.0004306316 0.0011119831 0.001335299
0003d0 db a9 2a ba 84 52 73 3a 80 be c0 38 d0 98 2f 3a
       -0.0006510296 0.000928201 9.190757e-05 0.0006698491
0003e0 0a 27 ee 39 21 39 1f bc cf 84 81 8f 0b 79 a6 39
       0.00045423984 -0.00971821 -1.2771538e-29 0.0003175217
0003f0 ae ea f6 38 1e e5 b8 3a 34 ca 7f 3a fa 51 18 bb
       0.000117739066 0.0014106368 0.00097576086 -0.0023242221

conv_layers.1.bias f4 [128]
000000 c5 73 9b ba ab 66 36 3c 38 ea 89 bb 27 ad ff 3b
       -0.0011860064 0.011132876 -0.0042088293 0.007802624
000010 69 13 55 3b 41 af 42 3c ff 59 36 bb 02 b1 b2 3b
       0.003251279 0.011882604 -0.0027824638 0.00545323
000020 14 f3 ec bb 72 ea e2 bb 84 b2 5e 3c 7b 5c c0 3c
       -0.0072311256 -0.0069249207 0.013592366 0.023481598
000030 c9 39 87 bc 36 f6 43 3b 4d de 4c bc 85 c3 9f 3c
       -0.016507046 0.0029901392 -0.0125041725 0.01950241
000040 15 de 3c 3c 50 05 49 3c e4 e1 2b 3c 88 c9 06 bc
       0.011527558 0.012269333 0.010490868 -0.00822676
000050 68 b8 6b 3a 3a 5d 67 3c b4 3f ab bb 86 c0 58 bc
       0.0008992017 0.014121348 -0.0052261 -0.013229495
000060 b3 71 1d bc c9 45 37 3c 50 d2 17 3d 1b 53 43 3b
       -0.009609628 0.011186072 0.037065804 0.0029804173
000070 2c 7a 89 bb c5 84 03 3c f7 90 22 3c c1 fe ac bc
       -0.004195472 0.00802726 0.009922258 -0.02111757
000080 f0 45 fc 3b 45 3f d6 ba ac 4e ee bc 97 7e 88 bb
       0.007698767 -0.001634576 -0.029090248 -0.0041654813
000090 ab e5 e7 bc 6f 58 81 bc 35 4f 50 3c 58 bb 0b bd
       -0.028307756 -0.015789239 0.012714197 -0.03411421
0000a0 a6 3b b5 bc bc 27 ac bb ae f7 28 bc d9 ef 6c bc
       -0.02212317 -0.00525376 -0.010312958 -0.014461481
0000b0 7d 83 c1 3b 56 a1 ab ba 55 03 f7 3c 96 03 19 bc
       0.005905567 -0.0013094347 0.030152956 -0.009339234
0000c0 ca ab fb bb d4 90 80 3c 87 78 81 bc 58 00 40 bc
       -0.007680391 0.01569406 -0.015804542 -0.011718832
0000d0 1a 40 27 bc 9f c7 1e 3c 2c 8e c2 bb cc 16 10 bb
       -0.010208154 0.009691148 -0.0059373584 -0.0021986244
0000e0 38 e3 ff bb e0 fa 4d bc 3f e8 44 3c 45 1f 82 bc
       -0.007809069 -0.01257202 0.012018262 -0.015884051
0000f0 de a2 d2 3b a1 42 69 bc 31 bb 8b bb c5 0b a7 bc
       0.0064281067 -0.014237077 -0.0042642583 -0.020391354
000100 32 bc 0b 3c 81 27 bb 3b 4f dc 50 3c 06 0d b2 3a
       0.008528756 0.0057114963 0.012747838 0.0013584204
000110 00 32 63 bc 25 15 03 3c fc 46 05 3b fc 68 93 bc
       -0.013866901 0.008000647 0.00203365 -0.017994396
000120 19 13 da 3b c8 4b 6c bc 86 ba 09 bc c1 fe 02 3c
       0.0066551086 -0.0144223645 -0.008406287 0.007995308
000130 a5 ed 41 3a 28 e0 44 ba 7c 62 f2 bb 15 e4 e1 3a
       0.00073977775 -0.00075102085 -0.007396994 0.0017234111
000140 3a 57 95 3b 59 07 14 bc d8 45 5a bb 2d 68 61 3b
       0.0045575174 -0.009034955 -0.003330579 0.003439437
000150 b5 bb 74 bc a3 53 44 bc 39 ed 64 3b ae da b5 b9
       -0.014937331 -0.011982831 0.0034931435 -0.0003468594
000160 ed 43 a7 bb 24 da 50 bc 50 0b 11 bc 22 47 16 3c
       -0.005104533 -0.012747321 -0.008852795 0.009172233
000170 f4 94 71 3c 85 02 5e 3b 98 71 4f bc 9c bb 3e ba
       0.014744986 0.0033876013 -0.01266136 -0.0007275881
000180 3c 10 9b 3c a8 ea 2e bc 3d 90 d4 3a 6e 72 06 3c
       0.01892864 -0.010676064 0.0016217303 0.008205993
000190 c1 a3 99 bc d3 50 8f b9 d0 e3 a1 3b 43 59 97 3a
       -0.018754842 -0.00027335304 0.0049404874 0.0011546988
0001a0 79 8b a1 bb b4 73 86 bc 60 bd b8 3b 40 aa cd bb
       -0.0049299565 -0.016412593 0.0056378096 -0.006276399
0001b0 ef 6c 20 bc 3e a6 e6 3b b6 4e 71 bb d9 c4 8f 3c
       -0.009791597 0.0070388606 -0.0036820597 0.017549919
0001c0 77 79 3d 3c b6 c1 a8 bb 20 15 25 3c c2 57 43 bc
       0.011564604 -0.0051500453 0.010075837 -0.011922779
0001d0 d0 db 31 bd 55 84 5a 3b bd ed c8 bc 48 ad 58 bb
       -0.04342252 0.0033343036 -0.024527425 -0.0033062268
0001e0 61 e4 25 bb 86 ab 9b 3c d0 aa b8 bb 0f f5 93 3b
       -0.0025313126 0.019002687 -0.005635597 0.0045152972
0001f0 b8 82 db 3b 28 76 f7 3b b9 83 93 39 1b 3c 2f bc
       0.0066989325 0.007551927 0.00028136166 -0.010695483

conv_layers.1.lin.weight f4 [128, 128]
000000 6d da 2a bc c2 48 ae 3d e4 95 c0 3c 0a 21 4d 3d
       -0.010428053 0.08509971 0.023508973 0.050080337
000010 a9 7c 8a bd 15 f6 99 3c 90 d6 80 bc 84 f6 9e 3c
       -0.06762058 0.018794099 -0.015727311 0.019404657
000020 a0 a0 07 bd 7d c9 98 3d 9a f8 00 bc 85 61 60 bc
       -0.03311217 0.07460306 -0.007871771 -0.0136951255
000030 ce cc 6c bc 59 6c 14 3c 5d 3b 2d bd ba f9 27 bb
       -0.014453126 0.009059035 -0.04229294 -0.0025631026
000040 69 98 a5 bc f8 e4 88 3c a1 74 9c bc 09 b8 14 3d
       -0.020214276 0.016710743 -0.019098582 0.036308322
000050 21 59 72 3d ed 44 a6 3d 3f 21 12 3d f6 5b 8c 3d
       0.05916703 0.08118615 0.035676237 0.06853478
000060 04 10 46 3a f5 3f c0 3b 74 d8 60 bd 56 04 21 3d
       0.0007555487 0.0058669993 -0.054893926 0.039310776
000070 8b 7c f8 b9 76 b8 56 3a 9d c2 29 3c 77 52 9d 3b
       -0.00047395038 0.0008190939 0.010361341 0.0048010903
000080 a8 6a 1c 3d 63 fa 27 bd 4d 4e ab bc 98 5c 2d bb
       0.038187653 -0.04101027 -0.02091136 -0.0026452895
000090 83 45 8a 3c 4a 9f be 3d 54 66 a7 bc c1 7c a3 3c
       0.016878849 0.09307726 -0.020434536 0.019956948
0000a0 1d 9e 5f bd c4 99 48 3c b0 12 4a bc e7 ee e5 bb
       -0.054594148 0.012243692 -0.012333557 -0.007017005
0000b0 89 03 32 3d 89 32 79 bd 4a 32 14 3d 4a 3d 41 bc
       0.043460403 -0.06083921 0.036180772 -0.011794398
0000c0 0d 3b fc bc e5 8b fc bc 83 cd 0b 3c 7d 2a 51 bd
       -0.030789876 -0.030828426 0.0085328845 -0.05106591
0000d0 e7 e5 b9 bc c0 31 35 bd 46 96 a1 3d 2a ef 9a bb
       -0.022692634 -0.0442369 0.078899905 -0.0047282176
0000e0 cf ca 3c 3c 36 ca a1 3c 12 dc 01 3e f4 07 73 3d
       0.011522963 0.019749742 0.12681606 0.059333757
0000f0 7a 8d b7 bc a4 34 41 bb e2 9d 04 bd f0 aa 22 3d
       -0.022406328 -0.002948084 -0.03237713 0.0397138
000100 f2 16 05 bd 78 fc 71 bc f2 84 b8 bc 45 b9 0c 3d
       -0.032492585 -0.014769666 -0.02252433 0.034356374
000110 16 c4 c9 3b 30 6b 0b bb d2 9b ba 3c da 2e 91 bd
       0.0061574085 -0.0021273606 0.022779379 -0.07089014
000120 78 94 7f bc 34 37 09 bc 30 ae 83 bd 14 81 d1 bc
       -0.015599363 -0.008374978 -0.06429708 -0.025574245
000130 21 d3 39 3d 5e 71 1c bd 09 3c 36 bb 56 48 a1 3c
       0.045367364 -0.038194053 -0.002780678 0.019687813
000140 15 63 80 3c ac 94 74 bb b0 dd 3b 3d 2b 93 4f 3c
       0.015672246 -0.003732006 0.045865715 0.012669365
000150 0b 4b 5e bc 58 ce 5e 3c d4 1c 0a ba 5e 23 6a 3b
       -0.013567696 0.013599001 -0.0005268578 0.0035726647
000160 97 7c 39 bd b5 80 07 bd 9f 96 05 bd 1e 98 b9 3d
       -0.045284834 -0.03308173 -0.032614347 0.09062217
000170 db 5c 0a 3d b2 37 24 3c b8 94 87 bc a3 57 3b bc
       0.03377996 0.010023044 -0.016550407 -0.011434468
000180 85 4c 9f 3c 85 58 7f bc 8c 97 f4 bb b4 4b fc 3d
       0.019445667 -0.01558507 -0.007464355 0.12319127
000190 1c f7 aa 3b c3 9b fc 3b 99 dc 4b 3b b4 ee 19 bb
       0.005217446 0.007708998 0.0031106828 -0.0023488225
0001a0 f9 d9 af bc e0 83 84 3c 97 42 35 3a 8f 0f 02 3a
       -0.021466242 0.016176164 0.0006914525 0.0004961425
0001b0 3c ae 27 bd b3 d0 80 bd 53 fc df 3c 4c e9 75 3c
       -0.040937647 -0.06289806 0.027341997 0.015009236
0001c0 59 d2 05 3d 3f 3f 03 bc 94 58 3a bc ae 5b 2b 3c
       0.032671306 -0.0080106845 -0.011373658 0.01045887
0001d0 0a 0a 3d bb 7e 66 85 3c 97 3d a7 bc ca 80 25 bb
       -0.0028845095 0.016284224 -0.02041511 -0.0025253766
0001e0 1c 1c 49 bc c5 f6 9e bd 77 7c 9a bc 39 2a a4 3d
       -0.012274768 -0.07761911 -0.018858178 0.08015866
0001f0 7f e7 13 3b 2a fc 49 3c 06 1e 92 3b f4 04 1f 3d
       0.0022568402 0.012328187 0.0044591455 0.038823083
000200 82 fa 92 3a c1 c7 e4 3c d2 d7 dc 3b 75 be a9 bb
       0.0011213573 0.027927281 0.006739595 -0.005180175
000210 13 de 8b 3d d9 e4 b0 3d 22 75 6f 3d a8 83 7a 3c
       0.06829467 0.08637399 0.058461316 0.015290178
000220 2a aa c1 3d 9b 45 15 3d 48 53 34 bc 48 c7 8f 3d
       0.09456284 0.036443334 -0.011006184 0.07020432
000230 02 05 50 bd 90 ba 6a bd 97 31 be 3c 7d 3f 07 3d
       -0.050786026 -0.057306826 0.023217006 0.03301953
000240 9d 4a 22 3d e2 e7 89 3d de 3b 2b 3d 4c e7 b0 bb
       0.039621938 0.06733681 0.04180514 -0.0053986665
000250 0e 30 a0 bd bf 69 81 bd 57 2d 22 bd 20 58 a6 3d
       -0.07821666 -0.063189976 -0.03959402 0.08122277
000260 4a ce 37 bc da 94 bf 3d da 4e d0 3d 01 c2 e4 bc
       -0.011218617 0.09354563 0.1017129 -0.02792454
000270 a6 bd 09 b9 11 d3 d6 3c 57 9b 46 3d 7b 8a 02 3d
       -0.00013135988 0.026223691 0.048487987 0.031870347
000280 12 a5 c9 bd 2a 52 c5 3d f3 0c df 3d d6 a5 49 3d
       -0.09845938 0.09634812 0.10891142 0.04923042
000290 89 05 44 3b 6c fb 40 bd b5 b2 ef 3c bc e0 24 bd
       0.0029910526 -0.047114775 0.029260019 -0.040253386
0002a0 06 7c c3 3d bf 5a 62 bc 39 ad 00 3d 1d 10 af 3d
       0.0954514 -0.013815581 0.031415198 0.08547995
0002b0 fa f6 cc bc 93 f2 7b bc ff f9 8a bd 22 37 77 bc
       -0.025020111 -0.015377658 -0.06785964 -0.015088828
0002c0 43 70 30 bc c7 69 36 bc 42 83 93 3a d0 8a 8f 3d
       -0.010768953 -0.011133618 0.0011254328 0.07008898
0002d0 2d 5b d8 3d a5 0e 69 bd 09 58 04 bd 90 1a ef 3b
       0.105642654 -0.05689873 -0.03231052 0.0072968677
0002e0 7e 4d 45 bc 07 79 c4 3d d0 bc 88 3b ab 47 b2 3d
       -0.012042401 0.09593397 0.004172899 0.08705076
0002f0 20 87 a2 3d ee 26 8e bb f7 89 14 3d 7c 33 4d 3d
       0.07935929 -0.004338137 0.036264386 0.050097927
000300 2d dc 63 3d d3 2a 2b bb c1 43 db b9 8b 16 67 bd
       0.055629898 -0.0026118055 -0.00041821416 -0.056417983
000310 f9 df 80 bc 91 da dc 3d 87 24 9c 3d 55 a5 af 3d
       -0.015731798 0.10783876 0.076241545 0.085764565
000320 66 d0 b5 3c 65 d1 b2 bc d4 7b 70 bd 6a 7b 31 3d
       0.022194099 -0.021828363 -0.05871184 0.043330587
000330 ab 6f b2 bc 48 5f 8c bd 96 db 76 3d 0a bf 58 bc
       -0.021781763 -0.06854111 0.060268007 -0.013229141
000340 4f 87 0a 3e 43 f6 56 bc 59 51 28 3d d1 bc 77 3b
       0.13528179 -0.013120237 0.041093204 0.0037801752
000350 aa 76 9f 3d d5 b0 8c bc 55 a1 2f 3c 9a 6e 15 bd
       0.07786305 -0.017174164 0.010719617 -0.03648243
000360 0a b4 95 3d 87 f9 0b bc 2d 5c 68 bd 2f a4 d3 3c
       0.0730973 -0.008543379 -0.05672853 0.025835125
000370 ee 74 15 bd 38 7e 31 b9 ae 5e 1a bc d2 be 8f 3d
       -0.036488466 -0.00016927056 -0.009421987 0.07018818
000380 3b c3 90 bd 6b 27 41 bd 1d df f0 3a 77 4a c7 3c
       -0.07068487 -0.047156733 0.001837704 0.0243275
000390 5e f9 9a 3d 03 a4 92 3d 17 eb 0b bd 6d 36 15 bb
       0.07567094 0.07160189 -0.034159746 -0.0022768036
0003a0 fe 69 68 3d c2 81 a2 3d 07 20 bd 38 ba 00 6f bc
       0.056741707 0.079349056 9.018188e-05 -0.014587576
0003b0 a3 98 40 bc 2d 75 b6 bd 9b 9f b6 3d 2f 18 97 3d
       -0.011755141 -0.08909068 0.08917161 0.073776595
0003c0 b8 5f 5f bd d1 dd 0b 3d 88 58 54 3d 0a fd 44 3d
       -0.054534644 0.034147087 0.051842242 0.04809288
0003d0 94 07 01 bd 2e 68 09 3d a8 11 b8 bc e6 e1 4b bd
       -0.031501368 0.03354662 -0.022469357 -0.04977598
0003e0 6c e3 ca 3c ec fb c4 bc 55 d9 5d 3d cf 6c 2c bd
       0.024766646 -0.024045907 0.054162342 -0.042095955
0003f0 f2 d7 42 bd 8a ce c8 3d 5e 56 07 bb 12 f1 7f bd
       -0.047569223 0.09805019 -0.0020650844 -0.062485762
