Experiment/pre_trained_model/Actor/SimGRACE.GCN.128hidden_dim.pth (torch, 546344 bytes, 4 tensors)

conv_layers.0.bias f4 [128]
000000 30 b7 1c 3c df 45 12 bc c7 dc 10 3d 41 8b 0a bb
       0.00956516 -0.008927791 0.0353668 -0.002114013
000010 70 4b c0 3c a5 79 3c 3c 7c 66 76 b9 74 04 2f bd
       0.023473471 0.011503612 -0.00023498567 -0.042728856
000020 3a 49 93 3d 18 57 0e bb 9c e4 59 3b 00 0c 5f 3d
       0.07191701 -0.0021719392 0.0033247834 0.054454803
000030 ef c7 9c 3c 01 a3 ea 3c b8 6a 35 3c 6f 3a a8 3c
       0.019138305 0.02864218 0.011072807 0.020535676
000040 dc 04 4d bd 1a 08 f7 3c f0 88 de 3c a4 8e 04 3c
       -0.050053462 0.03015523 0.027164906 0.008090649
000050 ad f0 37 3d fa 83 5a 3d 3e d5 da 3b 74 79 a8 bc
       0.04490726 0.05334852 0.0066782525 -0.020565726
000060 95 70 9f ba 51 db cb 3a 67 b5 0c 3d be bb 01 3d
       -0.0012164289 0.0015553032 0.034352686 0.031673186
000070 4f ae f3 3d 71 e8 e2 3b dd 2b 61 bd 43 67 c5 3c
       0.11898481 0.006924682 -0.054973472 0.02409709
000080 0c b3 e3 3c 74 07 ce 3d 9a 8a e4 3c bf 96 2d 3d
       0.027795337 0.10060015 0.027898122 0.04238009
000090 af 9f e1 3d 8c bc 8e 3d e7 e6 67 3c db 24 52 3d
       0.11016785 0.06969556 0.0141541725 0.05130468
0000a0 87 30 0c bb 79 28 1b 3c cb 9a 7d bc 84 55 d0 bc
       -0.002139123 0.009470099 -0.0154788 -0.025431402
0000b0 c2 54 a5 3c 6a 2a 1c bd e7 21 90 3d c5 3c 43 3c
       0.020182017 -0.038126387 0.07037716 0.011916344
0000c0 b8 9e 5d 3c 3e b8 1a 3d bb 6d 12 3d 42 81 39 3d
       0.013526611 0.037773363 0.03574918 0.045289285
0000d0 1a 00 95 3b 93 a7 10 3d 4c e9 49 3d b5 2f 94 3d
       0.0045471312 0.03531606 0.049294755 0.07235662
0000e0 03 19 9a 3d 7c b0 65 3c a9 bb 20 3d 1d 86 ed 3c
       0.07524302 0.014019128 0.039241467 0.028994614
0000f0 e2 ab 70 3d 36 d8 66 3d 81 1b 27 3d a2 cd 31 3c
       0.05875767 0.05635854 0.040797714 0.010852249
000100 b6 77 51 3d 53 87 35 ba d4 dc 02 bc 29 bd a5 3c
       0.051139556 -0.0006924767 -0.00798722 0.0202318
000110 29 e4 ae 3c 41 ec 27 3d 62 a6 8e 3d 89 ad ce 3c
       0.02134903 0.040996794 0.06965329 0.025229232
000120 f0 03 73 3d a9 a4 9b 3a 9c 24 29 3d c2 34 98 3d
       0.059329927 0.0011874634 0.04129468 0.07431938
000130 98 1b a8 bc 3c 77 01 bd ef 75 8a 3d d0 8e 11 3d
       -0.02052097 -0.03160785 0.06760775 0.035536587
000140 ce 86 fb 3c 62 89 83 bc b1 4f 27 3d 85 9f 38 3d
       0.030703928 -0.01605672 0.040847484 0.045074005
000150 76 fc 5c bd 5d e4 bc ba bd ff 60 3d 6f 29 f9 3b
       -0.053951703 -0.0014411319 0.05493139 0.007603816
000160 78 70 1b bd 16 46 c8 3d 58 fa 07 3d 7a 27 a8 bc
       -0.037949055 0.09778993 0.03319773 -0.020526636
000170 ec c5 80 3d 1a 12 75 bb 3f 94 16 3b 38 35 05 3d
       0.062877506 -0.0037394823 0.0022976545 0.032521456
000180 2d 12 a0 3c 9b 2a b2 3d 24 e5 49 3d fd 46 d4 3a
       0.019539917 0.086995326 0.04929079 0.0016195473
000190 70 d1 02 3d d5 cd 0f 3d 82 78 99 3d c7 cd 10 3c
       0.031938016 0.035108406 0.07493688 0.008838124
0001a0 e2 b0 44 3d 50 3a 1e bd 2c 4f 72 3d e7 35 a5 b9
       0.04802025 -0.03862983 0.059157535 -0.00031511413
0001b0 18 c2 ff bb 7a 1c eb ba 05 f1 1b 3d d9 e3 18 bd
       -0.00780512 -0.0017937564 0.03807165 -0.037326667
0001c0 d4 ca 89 3c a9 53 8e 3c 06 a9 65 bc 10 d3 87 3d
       0.016820349 0.017373877 -0.014017349 0.06632054
0001d0 34 23 05 3d 00 27 84 3c 73 4b 37 3c cc cc 84 3a
       0.032504275 0.016131878 0.011187422 0.0010131835
0001e0 4c 9b 4c 3c 5e 47 4a 3d c4 bf 49 3d 72 3a b6 3c
       0.012488198 0.049384467 0.049255148 0.022244666
0001f0 11 2d 31 3c 83 3c b3 3c c9 ce 1e bb 87 ae 64 3c
       0.010813967 0.02187944 -0.002423214 0.013957626

conv_layers.0.lin.weight f4 [128, 932]
000000 28 70 00 3b ee 6c b4 3c 9f 6a 47 bd 48 96 74 bd
       0.00195981 0.022024598 -0.048685666 -0.059713632
000010 95 e2 91 bd 3e b7 e0 bc 20 3e c5 3b 7b 5d cd bb
       -0.07123295 -0.027431127 0.006019369 -0.0062672473
000020 03 9c d2 3c 45 b3 19 bd 34 45 05 3d 64 77 61 3d
       0.025709158 -0.03752448 0.0325367 0.0550455
000030 af 34 f3 bb e6 ca 80 bd 28 53 18 bd 11 5c 0b bd
       -0.007422052 -0.062887 -0.03718868 -0.03402335
000040 13 f2 18 bc bc 1f 89 3c d6 85 c7 3d f5 28 21 3c
       -0.009335059 0.016738765 0.09742324 0.009836425
000050 93 f6 ce 3c f6 d0 9f bd ed 57 89 bc 05 43 64 bb
       0.02526406 -0.07803528 -0.01676556 -0.0034829986
000060 41 07 78 bc 9d 55 15 3d 34 22 c0 3a 2e 68 74 bc
       -0.015138448 0.0364586 0.0014658631 -0.0149174165
000070 5e 31 45 3b 29 c8 39 bc f0 2b f0 bb 57 58 2c bd
       0.003008924 -0.011339226 -0.0073294565 -0.042076435
000080 f6 57 62 3b 8c 46 e7 3b ff fe 54 bd 76 f2 ab bc
       0.0034537292 0.0070579704 -0.052000996 -0.020989638
000090 99 af 26 3c ea 57 f1 bb 4c 11 38 3b be 05 bf 3a
       0.010173702 -0.0073652165 0.0028086482 0.0014573855
0000a0 f6 e0 03 3c e1 db 1b 3c 49 d9 0b 3b 5c bc 2b bc
       0.00804924 0.009512872 0.002133923 -0.01048192
0000b0 41 78 06 3b 30 ce 85 3c ac c9 56 3c 8b ba 03 bd
       0.0020518454 0.01633367 0.013109606 -0.032160323
0000c0 a2 29 4c 3c 7a dd 41 bd 98 3d f2 3b 1a da dd 3c
       0.012461098 -0.047330357 0.0073925965 0.027081538
0000d0 89 ce db bc d6 c7 e5 3b a9 98 c2 bc 16 6e 85 bd
       -0.026831882 0.0070123477 -0.023754435 -0.06515138
0000e0 db 36 9a 39 58 f1 5e 3d ef 5f ae 3b 03 f7 b2 3b
       0.0002941404 0.054429382 0.005321495 0.005461575
0000f0 14 0a 1d bd 16 3d 08 be 57 e3 05 3c b7 6b 2e bb
       -0.03833969 -0.13304552 0.008171878 -0.0026614496
000100 6c 15 5f bc 61 d9 df 3a 73 8a e7 bc 0d b7 8b bc
       -0.013615947 0.0017078334 -0.02826426 -0.017055059
000110 ed f2 94 ba 8e df 2f 3a 55 19 c9 3c 3b 03 1c bc
       -0.0011363901 0.00067090325 0.024548212 -0.009522255
000120 4b 49 c4 3b 2a b9 ab 3b be 06 b0 bc c9 d8 5a 3c
       0.0059901825 0.005240579 -0.02148759 0.01335735
000130 d9 f0 d5 bb 0d 02 e3 3d d6 08 17 3a 4f 6e 90 bc
       -0.0065289554 0.110843755 0.00057615095 -0.017630724
000140 2a b3 d3 bc 56 de 7e bc e7 82 d7 bd 55 9d ad bc
       -0.025842268 -0.015555939 -0.105230145 -0.021193186
000150 b0 55 a5 bb b5 3b 28 bd a5 1b 08 3b c5 45 5d bc
       -0.005045615 -0.041072566 0.002076843 -0.013505404
000160 9a 21 46 3b d8 68 51 bc b8 9f 21 3c f1 06 ad bd
       0.003023243 -0.012781344 0.00986474 -0.084485896
000170 f4 cc 2e be a8 6c be bc a0 c6 6b 3d 35 04 38 bc
       -0.17070371 -0.02324517 0.05756247 -0.011231472
000180 ba 07 b5 bc 4c 73 e7 bc 14 e2 1c 3c c5 a7 a1 3c
       -0.02209841 -0.02825322 0.009575386 0.019733319
000190 df 19 c0 bc 8d 71 9b 3b 85 64 c3 b8 84 00 66 ba
       -0.023449836 0.004743761 -9.317048e-05 -0.00087738805
0001a0 47 92 03 bc 94 da 4c 3b 05 40 12 bd 59 81 63 bb
       -0.008030481 0.0031258212 -0.035705585 -0.0034714548
0001b0 d2 bb fb bb c9 f6 0d 3d 80 ff 9c 3b bc 45 07 3c
       -0.007682302 0.03465918 0.0047912 0.008256372
0001c0 c6 ae 0c bc 2f 14 ed 3c 7d 9e b3 bb 50 43 d1 3b
       -0.008586591 0.028940288 -0.0054815398 0.006386198
0001d0 79 80 32 bc 12 7c db bb d1 6e e7 3b 92 17 5c 3c
       -0.010894888 -0.00669814 0.007062771 0.013433354
0001e0 11 05 7e bd 41 91 a4 3c af 56 f5 3c db a3 4d 3d
       -0.06201655 0.020088794 0.02994856 0.050205093
0001f0 38 6d eb 3b 88 4c b5 ba 30 5e 43 bc 87 5d 43 3c
       0.0071846507 -0.0013832012 -0.0119243115 0.011924154
000200 65 0b 24 bc ac c6 d5 3c d8 a8 17 bb f4 b7 cc ba
       -0.010012482 0.02609571 -0.002314141 -0.0015618787
000210 7b 3c 77 3d 27 13 64 3d 96 b0 18 bd 57 17 04 3b
       0.060360413 0.055682328 -0.03727778 0.0020155513
000220 b9 68 d4 bb 28 31 8d 3a ec 92 97 bd 0a 69 82 3d
       -0.0064822105 0.0010772096 -0.0740107 0.06367691
000230 0d 7f 09 bd c8 70 53 bc bf 8a 8a 3d c7 2b 78 bc
       -0.03356843 -0.012905307 0.06764745 -0.015147156
000240 32 82 a4 3d d3 e5 06 bc 59 17 21 ba 5e 1f 4b bb
       0.08032645 -0.008233505 -0.00061451417 -0.0030994038
000250 14 a8 0c bd 52 82 92 bb 91 04 a1 3b 78 76 c6 3b
       -0.03433998 -0.004471102 0.0049138744 0.006056603
000260 24 4e b2 3c 1e 18 8b 3b ef 61 5c 3d 6a b3 49 bc
       0.021765776 0.0042448184 0.053804334 -0.012310842
000270 36 13 df ba 1c 7b 8f 3c bd e1 f4 bc 68 40 94 bb
       -0.0017019275 0.017514758 -0.029892797 -0.0045242794
000280 29 d3 8b 3c e9 7d 5f 3c 47 3b d7 bb 18 b8 d5 3c
       0.017068462 0.013640859 -0.0065683457 0.02608876
000290 3d b8 25 39 00 9a 8a bd 75 46 32 b9 ca 35 23 3c
       0.0001580426 -0.067676544 -0.0001700165 0.009961555
0002a0 23 37 09 3d e8 1f 17 bd 8c 54 05 bc 61 18 95 3b
       0.033499848 -0.036895663 -0.008137833 0.0045500253
0002b0 12 00 74 bc 6c 20 2d 3d 2e 63 15 bd 14 eb ab bc
       -0.014892595 0.042267248 -0.03647154 -0.020986117
0002c0 d3 cf af 3d e7 63 76 3d ef a1 b4 3c ed 8e 95 3d
       0.08584561 0.060153868 0.022049872 0.073026516
0002d0 38 d2 81 3c f1 34 23 3d 00 21 88 bc eb a8 fc ba
       0.01584731 0.03984541 -0.016617298 -0.0019276416
0002e0 b7 6e 5a 3d 54 b7 24 3c a4 af ad bc 2e 19 14 bc
       0.053328242 0.010053474 -0.021201916 -0.009039206
0002f0 c8 f9 ab bd 3d 13 12 bb fe 60 89 bb 46 74 00 3b
       -0.08397251 -0.00222893 -0.0041924706 0.0019600554
000300 50 db e4 39 cd 15 2c 3c 9f ae 8e 3b 16 27 8d ba
       0.0004365095 0.010503245 0.0043543126 -0.0010769095
000310 04 81 de bb fb 16 a7 3c 08 2a 1c 3c 6e 42 3a 3d
       -0.006790282 0.0203967 0.009531505 0.04547351
000320 4c 14 0d 3b d1 ce 61 bd a5 59 c4 3a af bd 0c bc
       0.002152699 -0.055128876 0.001498033 -0.008590146
000330 1a ec b1 bc 4b c5 f3 3c a0 79 61 bc 71 e2 2d 3c
       -0.021719027 0.029757163 -0.013761908 0.01061307
000340 5d b0 de 3d 75 b9 ac 3c 8c 1f 6a 3c 07 9d f7 3b
       0.108734824 0.021084527 0.014289748 0.007556561
000350 d0 43 e2 3b f3 d1 0c 3d 35 13 2c 3d 59 ef 0b 3a
       0.0069050565 0.03437991 0.042010505 0.0005338095
000360 26 33 be b9 00 2d 03 3d 35 62 9f 3b bc 41 87 3c
       -0.00036277733 0.032025337 0.004864002 0.016510837
000370 c0 07 89 3b 33 9d 8b bc 42 43 53 bb 65 b0 33 3d
       0.004181832 -0.017042732 -0.0032236134 0.043869395
000380 78 49 45 bc ca c0 5b bd e3 d3 a8 3c d5 ec 32 bc
       -0.012041442 -0.053650655 0.020608848 -0.010920723
000390 5b ae 3c 3d 6a 53 80 bc a5 4d eb 3b ec 23 e0 ba
       0.046064716 -0.015664775 0.007180887 -0.0017100549
0003a0 57 69 0a bd 6b 1a 32 3c b4 36 a1 3c 8f a2 84 3d
       -0.033791866 0.010870556 0.019679405 0.06476318
0003b0 42 32 0c 3d 22 83 e8 bc 1e 25 8c 3b 80 22 bf 3c
       0.034227617 -0.028382841 0.0042768857 0.02333188
0003c0 49 e2 ef 3c 9a 4f 1c 3c c0 ea 66 3c e7 53 a6 3a
       0.029282706 0.009540463 0.014094055 0.00126898
0003d0 72 fb 7d ba 41 8b 2b bc 7d f5 0b 3a d1 e4 23 bc
       -0.00096886524 -0.010470212 0.000533901 -0.010003285
0003e0 d5 fa b4 3b 92 51 a7 3b 6c b1 2c bd c7 9d a8 3b
       0.0055230656 0.0051061595 -0.04216139 0.0051457617
0003f0 5c 5c 33 3d a7 96 80 3c 79 5c 8b 3c 65 21 01 3e
       0.043789253 0.015696837 0.017011868 0.12610395

conv_layers.1.bias f4 [128]
000000 66 16 a8 3d aa 31 59 bd ea 3e b6 bc 79 31 32 bc
       0.08207397 -0.05302588 -0.022246797 -0.010876053
000010 3f 8f 23 3e 68 93 bd ba 63 2f 1e 3c f2 24 b3 3d
       0.15972613 -0.0014463486 0.009654853 0.08747281
000020 6e e2 85 bd c5 48 e1 bd f9 23 b6 3d b9 c2 fb 3c
       -0.06537329 -0.11000208 0.0889358 0.0307325
000030 4e d8 df 3c af 3e 79 be 33 67 81 bd b6 3d 6d bd
       0.027324822 -0.24340318 -0.06318512 -0.05792018
000040 ae a7 97 bd 6d 9d 2a 3b 16 56 5b bc 0a 17 91 bd
       -0.07405029 0.0026033774 -0.013387224 -0.070844725
000050 6e c4 c6 bc 1b 58 f6 bc bf 8e dc 3b 3b 97 0c bd
       -0.024263587 -0.030071309 0.006730884 -0.034323912
000060 34 d1 41 bd dc 83 47 bb c7 be 4f 3c c0 06 80 bd
       -0.047318652 -0.0030443585 0.012679762 -0.062512875
000070 18 64 6a 3d 2b a5 11 3e 8d 0e 8d 3d 97 a6 af bc
       0.057224363 0.14223163 0.06887541 -0.02144174
000080 37 14 05 bd 21 42 a5 bd bc 11 be 3b f7 59 cb bc
       -0.03248998 -0.08069254 0.005800454 -0.024823172
000090 fd 1a c5 bb e4 be 60 bd ce 99 93 3c 6b c8 f5 bd
       -0.00601518 -0.054869547 0.018017676 -0.12001117
0000a0 9d c8 14 bd 2e fd 30 3d 0c e6 64 bd 0c b2 26 3d
       -0.036324132 0.0432102 -0.055883452 0.040697142
0000b0 74 5c 8e bd ad 1e 48 3c cc e5 57 bd 11 97 c4 bd
       -0.06951228 0.012214345 -0.052709386 -0.09599126
0000c0 63 17 14 3e 03 e8 fa bd aa ab 8c 3d 21 16 28 bc
       0.14462046 -0.12251284 0.0686868 -0.010259182
0000d0 93 bb af bd 99 38 08 3e 6d 64 4b 3c a6 aa 02 bd
       -0.08580699 0.1330284 0.01241408 -0.031901024
0000e0 c2 59 86 3c 0b 16 07 bb 2e 2f 98 bd a7 79 b5 3d
       0.016400222 -0.0020612504 -0.07430874 0.08861094
0000f0 9e 4a db 3d 2f 8f b3 3b 65 f9 27 3c f7 3f 07 bd
       0.107075915 0.0054797153 0.010252331 -0.033019986
000100 9d 88 af bd 78 7b 61 3d 67 14 b8 bd 15 80 f4 bc
       -0.08570979 0.05504939 -0.089882664 -0.02984623
000110 19 36 40 3c d7 4b e6 bd 27 1b a3 3d 6f b3 c2 bd
       0.011731648 -0.11244934 0.07964163 -0.095068805
000120 b4 2d d9 bc 9f 6f 8c 3d 3a e8 8d 3d 40 af 8a bc
       -0.02651105 0.068572275 0.06929059 -0.016929269
000130 a9 eb 9a bd b7 45 82 3d be e7 71 3c 88 5d d4 3c
       -0.0756448 0.06360953 0.014764724 0.025923505
000140 59 88 24 be d2 25 78 bc ed 86 e5 bd 19 a5 d4 3b
       -0.16067638 -0.015145736 -0.11207376 0.0064894077
000150 8d d8 22 3d e1 0e 8b bb 86 42 42 3d 37 1d 02 be
       0.0397573 -0.004243717 0.047426723 -0.12706457
000160 d4 06 c7 bb cc a1 55 bd 96 55 5b bd a8 74 4f bd
       -0.006073812 -0.052156255 -0.053548418 -0.05064836
000170 ef 7e 9c 3d 7f a1 fd 3c 52 ba 8a 3d d0 2c a5 3d
       0.07641398 0.030960796 0.06773819 0.08065188
000180 f1 6d c1 bc 55 8e 30 bd 14 a7 b5 3c 58 f8 fd 3b
       -0.023611994 -0.04310449 0.022174396 0.007750552
000190 88 20 d1 3c 32 a7 17 be 8c 19 f1 3d c1 af f4 bc
       0.025528207 -0.14809874 0.11772451 -0.029868962
0001a0 68 8a b0 3c fe 10 87 3b 8a 96 2e 3d 53 44 b2 3c
       0.021550372 0.0041218987 0.042624034 0.021761095
0001b0 d9 88 13 3d 42 dc 0d 3d d1 56 8e bc 59 d0 1b 3d
       0.03601918 0.034633882 -0.017375382 0.038040493
0001c0 61 53 c3 3d 4f ec 17 3d b3 64 06 3d d4 72 02 3e
       0.09537388 0.037090596 0.032810878 0.12739116
0001d0 b2 bd ba bc 2b 6c 97 bc 61 c9 b7 3c 27 64 b4 3d
       -0.022795532 -0.018484196 0.022434892 0.08808165
0001e0 56 fb 85 3d 73 c6 e7 bc 56 90 4e 3d d5 1c 59 bd
       0.06542079 -0.02829287 0.05043062 -0.053006012
0001f0 24 34 98 3d a9 ef 49 3d ca 1c 44 bd 95 53 74 3c
       0.0743182 0.049300823 -0.047879018 0.014912506

conv_layers.1.lin.weight f4 [128, 128]
000000 35 21 b9 3c b7 fa e2 3c fc 7d 45 3d 17 e2 2e 3e
       0.022598842 0.02770744 0.04821585 0.17078434
000010 07 ac bf bd dc 2a 9a bd 8a 9d 07 3b c6 39 a9 3d
       -0.093589835 -0.07527706 0.0020693266 0.082629725
000020 ca 45 25 3d 00 3e 9f bd 25 af 04 3e b6 5b eb 3c
       0.04034976 -0.077754974 0.12957437 0.028730255
000030 07 0a 1b bd 43 09 9e ba f3 0f 81 3d 2f 76 8a bd
       -0.03785136 -0.0012057204 0.0630187 -0.06760823
000040 0f 54 ec 3c b0 3a d2 bc 86 fd a1 3c 79 17 f9 bb
       0.028848676 -0.02566275 0.01977421 -0.007601675
000050 ee 22 70 3d 22 c2 57 3d 1d 9d 15 be e7 fb 2c 3d
       0.05862706 0.052675374 -0.14610715 0.04223242
000060 09 d1 be 3c 76 17 a4 bd 99 ca 72 3e c5 23 12 bd
       0.023293035 -0.08012287 0.23710097 -0.035678644
000070 4c 6d 4b 3d 39 9a 41 bd fe 18 20 3d 80 30 06 3c
       0.04966478 -0.04726622 0.039086334 0.008190274
000080 6b 37 68 3d 80 f1 55 3d ef 83 20 bd 3a 76 02 3e
       0.056693476 0.052232265 -0.03918832 0.12740412
000090 13 91 dc 3c 45 55 02 3e d7 fe a7 bd 54 2c 98 3d
       0.026924646 0.1272784 -0.08202904 0.0743033
0000a0 7d f1 18 be a3 fa 88 3d 0c 10 5b 3d a9 e9 05 be
       -0.1493587 0.0668843 0.0534821 -0.13077416
0000b0 ed 38 c5 3d 26 23 c3 bd c0 66 7d 3e d0 af cd bc
       0.09629998 -0.095281884 0.24746227 -0.025108248
0000c0 03 65 38 3c ad cd 90 3d 03 61 26 3e c7 2e 9d 3d
       0.011254552 0.070704795 0.16247945 0.07674938
0000d0 5f e6 02 be 64 2c 7d 3c 13 80 da 3d 96 2d 96 3c
       -0.12783192 0.015452478 0.106689595 0.018332284
0000e0 92 a8 ed 3c 0a ae 4d bc 6f 9d 3c 3e 7e a6 8a 3d
       0.029011045 -0.012553701 0.18419431 0.06770037
0000f0 6f 2a 07 3e 81 5b a4 3d 10 42 e2 3d ca 72 11 be
       0.13199781 0.080252655 0.11047757 -0.14203945
000100 8a 68 00 3e ae 87 2b bc d5 e8 9c 3b a0 85 42 3e
       0.12539878 -0.01046936 0.004788498 0.18996286
000110 cd 1d 04 3e 1d fb b6 bd 6d 11 3a 3e 95 0e 04 3d
       0.12901993 -0.08934615 0.1817071 0.03224047
000120 c1 d3 ba ba 63 42 56 bc ed cc 0e bb 98 20 7d 3d
       -0.0014253781 -0.013077351 -0.0021789626 0.061798662
000130 a9 83 c4 3d 8a 25 b3 3c 70 70 3f 3c 9d be 07 3c
       0.09595425 0.021868486 0.011684522 0.008285192
000140 72 19 c5 3d 96 85 42 bd 1f 6d d5 3c 2e 81 08 3d
       0.09623994 -0.04749068 0.02605301 0.03332632
000150 82 b3 f4 3b f3 52 6f bc 1b ca 2a 3c bf d8 8e bd
       0.007467688 -0.014607179 0.010424162 -0.06974935
000160 8a 01 97 3d 19 28 e7 3d a6 8c 11 3e a4 54 a6 3d
       0.073733404 0.11286945 0.1421381 0.08121613
000170 06 cc 18 3e 84 9d 3a 3e 9d f9 29 bc 29 7a 28 3e
       0.14921579 0.1822415 -0.010374454 0.1645285
000180 ab 94 c8 bc 21 e8 c2 3d a7 1e b8 3c da 58 ab bd
       -0.024484953 0.09516931 0.022475554 -0.083665565
000190 ae af 1b bd 94 91 e0 3c 2d 22 2d 3e 7f 17 8b 3b
       -0.038009338 0.027413167 0.16907568 0.0042447443
0001a0 5d 3f 0b 3b 50 c3 2f bc 7d 5b 6f 3e d0 71 30 3d
       0.0021247484 -0.0107277185 0.23374744 0.04307729
0001b0 44 08 7f bd fc 5b e2 3d 70 6d 2d 3d 70 0b 68 3d
       -0.062263742 0.11052701 0.042340696 0.056651533
0001c0 49 16 b9 3c 86 75 55 3d 59 94 cc bd 9c 4d 1c 3e
       0.022593634 0.052114032 -0.099892326 0.1526398
0001d0 07 75 92 bd 2b 85 2c 3e d2 32 f4 bd ae 10 bd bd
       -0.071512274 0.16847675 -0.11923756 -0.09231697
0001e0 79 bc 5d bd 3a 0e de 3d 53 b0 13 3e 2c 4c 0b be
       -0.05413482 0.10842557 0.14422731 -0.13603276
0001f0 a5 ba 82 3d e7 7f 8d bc ee a5 d0 bd 51 f9 3d bd
       0.06383256 -0.017272903 -0.101878986 -0.046380345
000200 c3 4f 29 3d fc 6d eb 3d 52 ab 2b bd 94 dd 26 3e
       0.041335832 0.11495587 -0.04191143 0.16295463
000210 ba 05 f2 bc 86 21 05 3d de 34 53 3e fb 8f 50 3d
       -0.029543746 0.032502674 0.20625636 0.05091856
000220 03 9b 93 bd 36 0b 9c bc 5a c9 91 bd 5f 0f 3a be
       -0.072073005 -0.019048315 -0.07118483 -0.18169926
000230 43 8f 19 bd c9 dd 16 be 1a dd 12 3e 1e e3 10 3c
       -0.03749014 -0.14733042 0.14342156 0.008843211
000240 0f 43 68 bd 79 8c 03 be 45 9a 5d be 94 07 2d be
       -0.056704577 -0.12846555 -0.2164088 -0.16897422
000250 d1 d6 c3 bd e5 d0 68 3e 4c e2 8f bc db c2 a1 3d
       -0.09562457 0.22735937 -0.017563961 0.07898494
000260 f7 4f ac 3a 8b a6 05 3e 90 d3 91 3e f4 db 54 be
       0.001314639 0.13051812 0.28481722 -0.2078703
000270 0f 1a 86 be 13 ca 27 be 98 5b 97 3d 7c 9b ca bd
       -0.26191756 -0.16385679 0.07390517 -0.098929375
000280 46 97 15 3d af 8e 68 bd 59 11 82 bc 8a c5 45 3e
       0.03652122 -0.0567767 -0.015877413 0.19313636
000290 d6 f9 5e be 4b b0 63 3d ca 43 8f 3c 25 0e cc bd
       -0.21774992 0.055588048 0.017488379 -0.09963635
0002a0 30 58 4a 3d 9d 6d 0f bd 66 e7 cd 3d c6 3d 10 3c
       0.04940051 -0.035016645 0.100539014 0.00880379
0002b0 9f d4 e3 3d 87 65 5d 3d 07 46 bc 3d 09 a9 08 be
       0.11124539 0.054051902 0.09193044 -0.13345732
0002c0 4f 78 b6 3c 53 c0 fc 3d 0f 2c 43 3e fe aa 34 bc
       0.022274164 0.123413704 0.19059776 -0.011027096
0002d0 60 a3 82 3a 89 5c aa bd 22 bd fe bd d3 64 62 bd
       0.0009966902 -0.08318431 -0.12438418 -0.055271935
0002e0 71 f2 5d 3d 71 7d db 3c 54 39 8d 3c 75 2d 89 bd
       0.05418629 0.026793214 0.01723925 -0.06698123
0002f0 c6 5c 98 bd bf 6f 46 bd 04 e4 76 3e ef d2 3b bd
       -0.0743957 -0.048446413 0.24110419 -0.04585546
000300 6d a4 4e 3e c2 f9 69 bd 67 5c 1c bc f9 3f 52 3e
       0.20179911 -0.057122953 -0.009543515 0.20532216
000310 7b 20 4b 3d 1b b2 88 be e4 e9 d6 bb b7 50 97 bd
       0.049591523 -0.26698384 -0.0065586437 -0.07388442
000320 0a 9c 6a bd 54 45 26 3e fc 78 05 be 1f 8c 1c bd
       -0.057277717 0.16237384 -0.13034433 -0.038219567
000330 81 d6 89 3c 0c fb aa 3c 64 e4 02 3d 62 5b b3 3b
       0.016825916 0.020871662 0.03195609 0.00547354
000340 6b 0d 27 3e 2d b2 54 bd 22 ed 01 3d ef df 96 3d
       0.16313712 -0.051927734 0.031720288 0.07366931
000350 f6 ef 89 bd 29 c1 0b 3e 74 e2 82 3d 44 7e df bd
       -0.06735222 0.13647904 0.06390849 -0.10912755
000360 e5 b2 88 3d 10 b4 3b be 94 17 95 3d 14 ce c1 b9
       0.066747464 -0.18330407 0.07279888 -0.0003696537
000370 bc 4a 56 3c a9 4a c0 3d d3 d0 c0 bd a0 21 b8 3d
       0.0130793415 0.0938924 -0.0941483 0.089907885
000380 5d 30 78 bd c3 4c 2d bc 8b f4 94 bd ad bf a6 3d
       -0.060592998 -0.010577383 -0.07273205 0.08142028
000390 a5 12 b4 bc ed 32 44 be 97 44 9c 3d 99 f5 ce 39
       -0.021981547 -0.19160052 0.0763027 0.00039474366
0003a0 af 92 e5 bd 6f 07 7d 3c 53 3e d6 3d 2a 0a 56 bc
       -0.11209618 0.015443667 0.10461106 -0.013063947
0003b0 37 e8 ce bb 8d 51 cd 3b 19 5e 4d bd 7e 87 6a 3d
       -0.0063143033 0.006265825 -0.050138567 0.05725812
0003c0 6f a6 9b 3d f2 38 fa bd 95 26 02 3d 98 6f a3 bb
       0.07600104 -0.12217893 0.031775076 -0.0049876682
0003d0 27 65 f2 bd d5 3a e9 3d 01 c3 dc 3d fe 85 a2 3c
       -0.118356995 0.113881744 0.107793815 0.019839283
0003e0 00 84 fe 3c 6d 8d c5 3d e3 01 be bd ba 61 eb bd
       0.031068802 0.096461155 -0.092777036 -0.11493249
0003f0 b7 a5 3b bd 9d 43 4a 3d db bf b4 bd 00 eb 0a be
       -0.045812335 0.049380887 -0.08825656 -0.13566208
