mine/ProG-main/Experiment/pre_trained_model/ogbn-arxiv/DGI.GCN.128hidden_dim.pth (torch, 134528 bytes, 4 tensors)

conv_layers.0.bias f4 [128]
00000000: 7138 76bd fe1c 1f3d 42d2 fcbd ddc6 36bd
00000010: e760 2ebd f4ef 51bd da3d 5f3d cfbd 0fbc
00000020: e45f f63d e413 00be 13e4 a13d c0c2 f53d
00000030: 3934 b9bd 41bf 843d 6250 423e 7a24 663d
00000040: 26e7 b9bc fcaa 943d 1232 57bc ec05 b5bd
00000050: f890 363e d8b5 68bd 183a 45bd 8739 1ebd
00000060: c65d ae3d d249 1fbd 789a 7e3b e5b4 b73d
00000070: d66a 53bd fc35 0d3e 13d1 723c 4876 3a3e
00000080: affa e03c b079 6bbd 4d5c 9539 569c 0b3d
00000090: 9c39 9abd c877 c13b c2d6 133c 56a9 2d3e
000000a0: 278a d1bc c06c a0bd 8f72 bd3d 0b34 93bd
000000b0: bfc6 7fbd 8ee3 2fbd 2d62 ebbc 1d06 a1bd
000000c0: d313 e53c 54f3 b43d dbd7 243e 2760 f83d
000000d0: e15f 0a3e a09a 1c3e 6ad5 f73d 6391 383e
000000e0: 43d1 49bd 1f47 abbd d4f8 73bd e033 2bbd
000000f0: c569 f53d 7993 a3bd bf20 e1bd eb9b 093e
00000100: 4c8a f03b c985 dbbc c1ab aabd dd14 bbbc
00000110: a1dd 893d e0bb 293e 0fd0 04be dcb8 933d
00000120: 8a8d 63bd 4ad8 21bd f2a2 3ebd c8e1 1c3d
00000130: d25f b43d 8d4b 6bbd b869 5ebd cacb 58bb
00000140: eb64 64bc 2304 b53d c355 023e a9e2 52bd
00000150: e0d8 0abd b16a d13d 022d 433e e147 80bc
00000160: 1f8b 56bd 5021 4b3d 3262 263d eadf 70bd
00000170: fb90 b03d a14b 843d a602 8dbc 9297 dcbc
00000180: 4155 40bd a7ba 8fbd fb6f fdbc c9c5 173e
00000190: 5230 8bbd 057d 0abd 1176 a93d 396f 753d
000001a0: 50ab 9ebc ca1b 253e 9d0f 8bbd e814 90bd
000001b0: f9ae 503e 82b7 88ba afce ec3d 3191 a43d
000001c0: fd36 d43b b0df 4f3d 278f 763d 1121 303e
000001d0: 304c 0c3d c89a 863d 940b 263e ed56 973d
000001e0: cf49 3d3d e132 b7bd 9dc6 b83c bfb0 cd3d
000001f0: a9d7 3eba 0142 49bd 2b7f 1d3e 6d2e 1a3e
-0.06011242 0.03884601 -0.12344791 -0.044623245 -0.042572882 -0.051254228 0.054502346 -0.008773281
0.120300084 -0.12507588 0.0790483 0.12000036 -0.09043164 0.06481791 0.18975976 0.05618713
-0.022693228 0.07259175 -0.013134496 -0.0883902 0.17828739 -0.056814045 -0.048151106 -0.03862908
0.085139796 -0.03888876 0.0038849395 0.0897005 -0.05161556 0.13790125 0.014820355 0.18209183
0.027463285 -0.057489097 0.00028488264 0.03408464 -0.07530519 0.0059041716 0.00902337 0.16959128
-0.025578571 -0.078332424 0.09250366 -0.07187661 -0.0624454 -0.042941622 -0.028733337 -0.07862494
0.027963554 0.08835474 0.16097967 0.121277146 0.13513137 0.1529336 0.121012524 0.1802421
-0.049271833 -0.08363175 -0.059563473 -0.04179752 0.119830646 -0.079871126 -0.10992574 0.13438384
0.007340705 -0.026797192 -0.08333541 -0.022837097 0.067317255 0.16575575 -0.12969993 0.072129935
-0.055554904 -0.03951291 -0.046542116 0.03830126 0.08807339 -0.057445098 -0.05430004 -0.0033080452
-0.013940076 0.0883868 0.12728028 -0.05148569 -0.033898234 0.10225428 0.19060138 -0.015659275
-0.05237877 0.049592316 0.04062099 -0.05880729 0.08621403 0.064597376 -0.017213177 -0.026927743
-0.046956304 -0.07018023 -0.030937186 0.14821543 -0.06796326 -0.033810634 0.082744725 0.059920523
-0.019368798 0.16123882 -0.06790087 -0.070352376 0.20379247 -0.0010430666 0.11562859 0.080355056
0.0064762817 0.050750434 0.060195114 0.17200114 0.034252346 0.06572491 0.16215354 0.07389627
0.046212967 -0.08945251 0.022555644 0.10043477 -0.00072800607 -0.04913521 0.15380542 0.15056773

conv_layers.0.lin.weight f4 [128, 128]
00000000: 25f2 15bd 898f 2a3e a862 513d c838 153e
00000010: 220e 2ebc 106a 173e 70c0 ea3d e9b8 4abe
00000020: 6402 123e 80ac 54bd b60d 85be d8bb b7bc
00000030: 2b43 2a3d 5bee f5bb 7684 2e3e 759c 623e
00000040: 7968 b1be c3c0 ae3d 8a18 a33d 5675 45bd
00000050: b920 1abe e08a 423c 69ae 9639 a03c 913c
00000060: 538b 22be a0a5 953d 989c db3a f644 dc3d
00000070: 2d5f 5dbe 8d24 49be f714 a1bd e20b 3dbe
00000080: d977 4cbc a4af 0bbe 49ae 6dbd b92d fd3c
00000090: 67d5 f83d be0b abbc 23bc 53be c067 353d
000000a0: a442 a8bd 08bf 213e e721 a4bd 8f6a 28be
000000b0: 80ec e93d 78e3 a83d 717f b13d 4c66 333e
000000c0: 8568 153d 7334 143e a4d1 213d e846 11bc
000000d0: dc3d 18be ef37 563e 0f48 c6bd 9579 31be
000000e0: fbc5 e33d 7c8c f8bd 7b10 5b3e fb05 b53e
000000f0: 7b8a 94bd b3a3 2f3d 5046 02bc 1009 5abe
00000100: 8faa 95bc a9e9 23bd 0231 46bd ca6e ccbe
00000110: e5bc 00be 65a9 29be c240 cd3d 6459 a0bd
00000120: 6d09 e0bd 443f a13d 8d83 273c 4a2b f93d
00000130: 2202 f4bd 7af7 013e 1c84 193d 49dd 043d
00000140: 9869 abbd 412d 973c 1cb8 9c3d 1d3c 82ba
00000150: 8c7a 573d 4670 893d 9e5c 9cbd 9bb9 433c
00000160: 1dfa f83d 6b57 dfbd 266b af3d 6e33 e9bd
00000170: c43b efbd 76dc 3f3d 05b8 0f3d 98c8 bcbc
00000180: 8f9a 983c e43f 6a3d 4ab8 9a3a c981 5abc
00000190: 4736 febd 730b a2bc 472e 1bbe 369e 173e
000001a0: 06af 92bd ca54 70bc f08c 8dbd c84f 833d
000001b0: 6f8c 623b 5f60 bdbd 0d88 ff3c dbc6 1bbc
000001c0: e0cb 37be 58f7 d33d 42db dabd f419 aebc
000001d0: a59d 483d 0c74 7ebe eba9 1a3e d1bd 24be
000001e0: bc39 94bc fa02 a3bd 78ff ebbd 6f14 fbbc
000001f0: fd31 36be 6bb6 b3bd 410f 5abd e6f6 123d
00000200: b265 c4bc 4123 9abd e6f7 fdbd 7acc f1bb
00000210: fe67 45bd f42e d2bd 544c 6fbb 022d 86bd
00000220: f447 e2bc cca6 15be 262a 113e 9cc1 02bd
00000230: 7b46 073e 3e3e aa3d 2d5c ce3c c1af 843d
00000240: 5e60 54be e0fc 243e a7c8 a4bd 1317 bcbd
00000250: 0f71 c5bd 64ef aa3c 21cd 443c 1bfe 023b
00000260: 3fee fb3d 18da fb3d 7c0b 153d 2f38 bcbd
00000270: 8144 f23d 4393 f6bd e2f0 e3bd 9573 3d3c
00000280: 2ac8 76bd e317 3b3e a6ac a6bd 2e58 983d
00000290: 50dc 043e 3d3d ea3d 5e1e 0e3e 59a7 d2bb
000002a0: 0518 29bd 4230 3e3d 0657 f4bc 858c 56bd
000002b0: 027a 213e 103d 353e 2be6 223e d2a5 143d
000002c0: 3f7b b33d df18 283d 29e9 183d c36b 10be
000002d0: fe49 1dbe 4068 d0bc ad93 0abd f075 a6bd
000002e0: 9a35 0cbe 85a6 f8bd 45c3 5ebc c29f ddbc
000002f0: caad a63d 08b4 20bc 57b3 e03d 288d cd3d
00000300: 6462 8f3c 144a c2bb e278 c23c 6a8a cc3d
00000310: 0c22 8f3d 33a5 20bd 4cda d03b 4ea4 23be
00000320: b985 953d 3304 863d 1ece 143e 4859 29be
00000330: d36d 2f3d df0f 073e 8775 1dbc 7d6e 39bd
00000340: 0f53 273c ba08 073e d20e da3d a63a d2bd
00000350: b40d 07be 1446 133d 4021 9f3d b4f1 2f3e
00000360: 52a7 323e 0635 f5ba a841 f7bd 4e3c b13d
00000370: e57f 7cbd 7464 dd3d a903 183d c918 1bbd
00000380: 78d2 ddbc dc78 293e 4705 b73c 65a0 0d3c
00000390: e6cc ff3c 78c8 1a3e f828 fc3d d6a5 7cbc
000003a0: 42b5 ea3d 9d21 043e 08e9 81bd f495 cabd
000003b0: 1b5c c73d 29f0 7f3d 54e1 9fbd 437d d73d
000003c0: 60f2 e2bd 5475 1e3e 3992 a6bc 43b1 f7b9
000003d0: 66a9 b03b 6a3e 993d c073 163e 9e42 cd3d
000003e0: 2617 d6bd 1f98 bd3d 70b3 e63d d350 9d3d
000003f0: d7f9 b13c 804f 9e3c 6637 79bc bd8d 03b9
-0.03660788 0.16656317 0.051119477 0.14572442 -0.010623487 0.14786553 0.11462486 -0.197971
0.14258724 -0.05192232 -0.25987023 -0.022428438 0.041567963 -0.007505221 0.17042717 0.22129996
-0.3465002 0.0853286 0.07963665 -0.048207603 -0.15051545 0.011873931 0.00028740175 0.017729104
-0.1587346 0.07306981 0.0016755043 0.10755341 -0.21618338 -0.1964285 -0.07865327 -0.18461564
-0.012479746 -0.1364122 -0.05802754 0.030905591 0.12150078 -0.020879623 -0.20677237 0.044288397
-0.08215836 0.15795529 -0.08014279 -0.16446899 0.11422062 0.08246511 0.08666886 0.17519492
0.03647663 0.14473133 0.03950657 -0.008867003 -0.14867347 0.20919774 -0.09681713 -0.17331536
0.11121746 -0.1213617 0.21393006 0.35356125 -0.072529756 0.042880725 -0.007951334 -0.2129252
-0.018269805 -0.040017758 -0.04838658 -0.39928275 -0.12572058 -0.16568525 0.10022117 -0.0782955
-0.10939298 0.07873395 0.010224235 0.1216646 -0.11914469 0.12692061 0.037479505 0.032437596
-0.0836975 0.018454196 0.076523036 -0.0009936128 0.052607104 0.067108676 -0.07634853 0.011946107
0.1215708 -0.109053455 0.08565359 -0.113867626 -0.11681321 0.046841107 0.035087604 -0.02304487
0.018628387 0.057189837 0.001180419 -0.013336607 -0.12412696 -0.01978085 -0.15154372 0.14806446
-0.07162289 -0.014668653 -0.06911647 0.064117014 0.0034568568 -0.09246897 0.031192804 -0.00950786
-0.17948866 0.103499115 -0.10686351 -0.02125261 0.048978467 -0.24848956 0.15103881 -0.16088034
-0.018093936 -0.07959552 -0.11523336 -0.030649392 -0.17792507 -0.08775028 -0.053237204 0.035879992
-0.023974273 -0.075262554 -0.124007985 -0.007379112 -0.048194878 -0.10262862 -0.0036514 -0.06551553
-0.0276222 -0.14614409 0.14176235 -0.03192292 0.1321048 0.08312653 0.025190437 0.06478835
-0.20739886 0.16112089 -0.08046084 -0.091840886 -0.09640705 0.020866103 0.012011797 0.0019987884
0.12301301 0.122974575 0.036387905 -0.09190404 0.11829472 -0.12039807 -0.11129929 0.011563201
-0.060249485 0.18270831 -0.08138399 0.07438694 0.12974668 0.114374615 0.13878772 -0.006428641
-0.041282672 0.04643274 -0.029826652 -0.052380104 0.15769199 0.17699075 0.15908115 0.03629095
0.08763742 0.041039344 0.037331734 -0.14103608 -0.15360257 -0.025440335 -0.03383224 -0.081279635
-0.13692322 -0.12141136 -0.013596361 -0.027053718 0.081386164 -0.009808548 0.10971706 0.10036689
0.017502971 -0.005929241 0.023739282 0.09987338 0.06988916 -0.039220046 0.0063736793 -0.15980646
0.07300896 0.0654377 0.14531752 -0.16537964 0.042829346 0.13189648 -0.00961054 -0.045271385
0.010212674 0.13186923 0.10647358 -0.102650926 -0.13188821 0.035955504 0.07770014 0.17182046
0.1744664 -0.0018707819 -0.1207307 0.0865408 -0.061645407 0.108101755 0.037112866 -0.037865434
-0.027077898 0.1655001 0.022341384 0.008644198 0.031225633 0.15115535 0.12312502 -0.015420398
0.114603534 0.12903447 -0.06343275 -0.098918825 0.097343646 0.062484894 -0.0780665 0.10521939
-0.110813856 0.15474445 -0.020333396 -0.00047243582 0.0053912876 0.07482608 0.14692593 0.10022472
-0.10453634 0.092575304 0.11264694 0.076814316 0.021725578 0.019325018 -0.015210962 -0.00012545935

conv_layers.1.bias f4 [128]
00000000: 916c 703b 3358 5c3d 92a2 703a 1f9e 9a3d
00000010: 645b 3c3d c8e2 583c 6b52 8c3d fe84 403c
00000020: 4c19 61bc 362e c03c 181e 853d 5433 743d
00000030: 9ebd d93b 356a 733d ebdb 353d 3d84 4a3c
00000040: c392 673c 1302 983c 343f 0cbc b515 1dbd
00000050: 2daf 403b 29cc e03c 4b94 7d3d 1646 423c
00000060: 51a6 e63d cf69 7abc adc9 b13b 0729 453d
00000070: 8b3a 3dbd 23a7 55bc be71 303d 886a 743c
00000080: a23a ac3d 3331 26bd 87c5 243d 4060 8a3c
00000090: 1a53 1a3d 87e1 72bb 750d db3d c226 8b3d
000000a0: a5b3 693a fb93 6d3d 5f70 143d 6e36 653d
000000b0: 05a5 fe3b 0862 5bba 421f ecbb af0f 963c
000000c0: 7324 b73c 418e a6bc 1c05 a03d eefb 453d
000000d0: cb70 5a3c 9d20 be3b 6c40 bebc 3813 5b3d
000000e0: fc79 a63c 1c94 803c be0d dd3a a52b 763c
000000f0: 4c15 b73d 2a27 1c3d 658b 283d 1b90 363d
00000100: 65ef 97bc 5ab2 c43b e1f4 42bc e12f 323c
00000110: 90fe f63d 6778 153d 31cd 633d 1f39 0f3d
00000120: c31c c03c e383 893d fd6d 8d3c c378 243c
00000130: 5b2c 7d3d ba0c 693d 97f3 92bc 1f20 84bd
00000140: 0c63 ad3b 5a91 0e3d dfcd bc3c 4db5 683a
00000150: 2760 053d 63ee 093d 7a28 cdbc 7e5e 75bc
00000160: 2fa6 ccbb 995d 593c 9b35 a03d 4e54 d9bb
00000170: 5e0b 1a3b 9c36 553c 1238 c63d 8b4d 4a3c
00000180: 23f6 89bb 94e9 f83c 6c00 d2bc 28a9 543d
00000190: c512 a23b a7b2 113d a4c3 973d 87cb 78bb
000001a0: 6fcc 023d f886 a43d d72e 623d 41ff 2abd
000001b0: 7428 e23c f1b5 b73d c4b4 913d a866 a13c
000001c0: f399 3f3d 6257 8b3d 444a 123d 8675 323c
000001d0: 915a 8a3d 263e 163d 6cea 2c3d afa3 0d3e
000001e0: ea29 5cbc b089 423d ecbe e93c 96c7 203d
000001f0: cf4c 433d b746 933d ff9e 2dbd e928 383c
0.0036685804 0.05379505 0.00091794983 0.075496905 0.045985594 0.013237663 0.068516575 0.011750458
-0.013738941 0.023459535 0.064998806 0.059619263 0.0066449186 0.05942746 0.044399183 0.01236063
0.014134112 0.018555677 -0.008559991 -0.03835078 0.0029401288 0.027441101 0.061909 0.01185753
0.11262191 -0.015284016 0.005425653 0.04813483 -0.04619841 -0.013040337 0.043077223 0.014917977
0.08409621 -0.040574264 0.04022744 0.016891599 0.037676908 -0.0037060694 0.10695926 0.06794502
0.0008915014 0.058002453 0.036239978 0.05596011 0.0077711367 -0.0008368795 -0.0072058747 0.018318025
0.022356248 -0.020331504 0.078134745 0.048335962 0.013332556 0.0058022276 -0.023224078 0.053485125
0.020321839 0.015695624 0.0016865057 0.015025054 0.08939609 0.038123287 0.041148562 0.044571023
-0.01854677 0.0060027065 -0.011899204 0.010875673 0.12060273 0.036491778 0.055615608 0.034966584
0.023451215 0.067146085 0.01726436 0.010038557 0.06180988 0.056896903 -0.017938418 -0.06451439
0.0052913483 0.034806587 0.023047386 0.00088771136 0.0325624 0.03367461 -0.025043715 -0.014976142
-0.0062453966 0.013266944 0.078227244 -0.0066323644 0.002350531 0.013013508 0.09678663 0.012347589
-0.00421025 0.030384816 -0.025634967 0.051919132 0.004946085 0.035570767 0.07410362 -0.0037963109
0.031933244 0.08033556 0.05522045 -0.041747335 0.02760718 0.089702494 0.071145564 0.01970227
0.046777677 0.06803776 0.035715356 0.010892278 0.067555554 0.036680363 0.04221575 0.13831972
-0.0134377275 0.04749459 0.028533421 0.03925284 0.047680672 0.07191222 -0.04238796 0.0112402225

conv_layers.1.lin.weight f4 [128, 128]
00000000: bab2 ee3c 8b17 623d 9b87 ba3c 2bcd fcbd
00000010: 4cc4 58be 5c13 70be b15b 773d b7ef 3abd
00000020: d18d 813e 5e76 aabc 1782 c03c 844a a33e
00000030: d9b8 bebc 85ed 7a3e faf6 713e a993 83bd
00000040: 421c 5abd 9fc8 6e3d 640b a2bd d494 31be
00000050: bb50 d43d cfc0 5dbd 5118 8fbc af26 2abe
00000060: 0fd2 41bc 5414 dabd ba08 febb 02d7 bb3d
00000070: 36ad 29be 7188 673e 520b 3f3e e096 a23e
00000080: 4032 10bd 4477 babb 6808 883c 9b60 4d3d
00000090: d059 883d bdca 873d be44 f93c a9c1 613e
000000a0: 13f8 5bbe a72e c1bd fc74 d0bd 04a1 90bd
000000b0: 0ff0 07be 1289 38be 0c03 aebd 12f8 35bd
000000c0: 0a9d 223c e23d e53d a484 c63e 0faa 8c3e
000000d0: fd50 b43e 242a 543e 33d7 0fbc b477 ac3d
000000e0: e142 86bd 5ee7 01bb 138b 15be 4e79 fcbd
000000f0: 4e5f 0c3c 48d7 a63d 2531 54be 1791 343e
00000100: 8ded b6bd f534 f1bd 5f06 20bd 2d9c 09be
00000110: 8fcd b93d b6b6 523e 0607 b13d 5c7b ce3d
00000120: ee0c 43be 7a72 e9bd c50d 7bbe afa6 7a3d
00000130: f718 93bc 8bd3 14be 8c0c 6ebe b9f9 9cbd
00000140: 50be 1bbe a71c 5c3e 1c30 833e 9337 49be
00000150: dd16 c9bd 86e6 933e 4d79 823e fa7e 1cbe
00000160: eaad 2ebe 84d1 b83d eabf c53d 500c 5cbe
00000170: 8d05 9ebc 3741 ddbd 3f2f 66be 47ff 17be
00000180: 2409 2a3c 2c76 37be 24ff 1d3e 577e 373e
00000190: 652a 2ebe 48f4 26be 35a4 79bc 22e1 5d3e
000001a0: 928a 72bd ef98 8c3d 6751 86be 6d94 20be
000001b0: e9b3 833e 313c 313d fbbe 513e 6a81 093e
000001c0: 6017 a9bc 2741 b33d 3ae2 46bd 99f7 343e
000001d0: 2c4d 063e 5b50 8d3d df1b 8d3e db81 be3c
000001e0: 860f c03c e3be abbd a90f 333d 098e 10be
000001f0: b31c f9bd b77a c3bc 3292 893e f194 653e
00000200: 837f eb3d 23a9 453d 36f5 cdbd 1ff0 7f3e
00000210: 382b 123e efa1 3e3e ea95 793d 4405 e83c
00000220: 74a6 4dbe 3d52 633e c4fd 7abe baa1 b1be
00000230: 8099 2f3e 10dc 6ebe 3395 e0be f05c f6bd
00000240: 1c72 983e a6fd adbc 5e45 16be 26c6 033d
00000250: 5aff 03be 2eb9 c63d accd d73d bd25 613e
00000260: a9a3 af3d 7243 9d3e 58cf d1bd ba7c a2be
00000270: 0b7c e83d 0dc5 41be 228c a8bb 4c09 9bbe
00000280: 0218 053e 42df 7a3e 241f 9cbb 8c98 be3d
00000290: 0c10 013e 2424 7f3e 8d48 34bd 2b0a c7be
000002a0: 388c 02bc 9e72 693e b3a1 043e 657f 8e3d
000002b0: 62fe a43e d211 1b3e 7b23 ba3c 2078 2c3d
000002c0: 2faa 6b3d 570f 5dbe 54c0 bcbe 6fdb adbe
000002d0: 99b6 21be e0b4 c6be 1ad4 283e ecf2 5e3c
000002e0: 4f6f 1c3c 321a 6d3d 183e f2bd 7c8f 8dbd
000002f0: de9b 0fbe bc54 143e 9dcd 983e f370 9fbe
00000300: 2389 8b3d 3c96 213e 29eb 383d e321 553e
00000310: 9aa7 093e 8b01 76be fede 093e 27b7 a4ba
00000320: b497 103e f69b 253e da5b 873d af28 71bc
00000330: 8389 073e 45e7 6f3e dc40 843e acb1 c33d
00000340: 2f76 8f3d c5c6 6ebe ec0f 9dbe da5b fd3d
00000350: 8df1 a53d 8cb8 96be 94d7 02bf 4464 6a3d
00000360: b682 d23d c9c1 0b3e 364b c8bc 579a 7d3e
00000370: 92f3 133d b333 cfbd dd92 563e c3a1 db3b
00000380: 26fb 5a3e d931 843e 743d 09be ba75 91be
00000390: 4f12 073e d80b 533e 3cb2 dd3c d294 80be
000003a0: c4c5 dcbd 71f8 10be 2e87 863d 28d0 e33d
000003b0: dfa1 9abe 6171 a83d 62d8 c6be 912d cc3d
000003c0: 1d57 c7bc 3d4b 8a3d 794f cc3d cbac 79be
000003d0: ca66 0fbe b6a8 18be e29a 87be 5982 2f3e
000003e0: 77c2 3fbd f31e ad3d 07b7 15be c197 bcba
000003f0: 9398 803e 6f51 843e fb56 22be d5f9 0fbe
0.029137958 0.055198234 0.02276974 -0.1234382 -0.21168631 -0.23444885 0.060390178 -0.045638766
0.2530351 -0.020808395 0.023499532 0.31892788 -0.023281502 0.24504669 0.2362937 -0.06424648
-0.053249605 0.058296796 -0.07912329 -0.1734193 0.103669606 -0.054138955 -0.01746765 -0.16616319
-0.011829867 -0.106484085 -0.007752505 0.09171869 -0.16569981 0.22610642 0.18656662 0.31755733
-0.035204172 -0.005690487 0.01660557 0.05014096 0.066577554 0.06630466 0.030428287 0.22046532
-0.21481352 -0.09432726 -0.10178563 -0.07061961 -0.13275169 -0.18021038 -0.08496675 -0.04442603
0.009925136 0.11193444 0.38773072 0.27473494 0.3521804 0.207192 -0.008779335 0.08421269
-0.06555725 -0.0019821743 -0.14603834 -0.123278245 0.008567644 0.081465304 -0.20721872 0.17633472
-0.08932028 -0.11777679 -0.039068576 -0.13438483 0.0907241 0.20577511 0.08643918 0.10082123
-0.19047901 -0.11398788 -0.24516971 0.061194118 -0.01795624 -0.14533822 -0.23246974 -0.07664818
-0.15209317 0.21495305 0.25622642 -0.19650106 -0.09818814 0.28886813 0.2548317 -0.15282813
-0.1705853 0.09024337 0.09655745 -0.21489072 -0.019289756 -0.10803454 -0.2247896 -0.14843474
0.010378156 -0.17916173 0.1542936 0.17919289 -0.1700836 -0.16304123 -0.015236904 0.21667913
-0.059214182 0.06865107 -0.2623398 -0.1568162 0.25723198 0.043270294 0.2048301 0.13428274
-0.020641029 0.08752661 -0.04855559 0.17672576 0.13115376 0.06900092 0.27560326 0.02325528
0.023444902 -0.08386018 0.043716107 -0.14116682 -0.12163677 -0.023862226 0.2686935 0.22420098
0.1149893 0.048257004 -0.10056536 0.24993943 0.14274299 0.1861646 0.060933985 0.028322823
-0.20083028 0.2219934 -0.24510866 -0.346937 0.171484 -0.23326135 -0.4386383 -0.12029445
0.2977456 -0.021239113 -0.14674899 0.03217139 -0.12890378 0.09703289 0.10537276 0.21987052
0.085761376 0.3071552 -0.10244626 -0.31735784 0.11351784 -0.18922825 -0.0051436583 -0.3028053
0.1299744 0.24499229 -0.0047644544 0.0930644 0.12603778 0.2491613 -0.044014502 -0.38874945
-0.007968001 0.22797629 0.12952308 0.06957892 0.3222533 0.15143517 0.022721997 0.042106748
0.057535347 -0.21587883 -0.36865485 -0.33956477 -0.15792312 -0.38809872 0.1648716 0.013607722
0.009548022 0.05788631 -0.1182825 -0.06912133 -0.14024302 0.14485449 0.2984437 -0.3114086
0.06813266 0.15779966 0.04514614 0.20813708 0.13442841 -0.24024026 0.13463971 -0.0012566791
0.1412037 0.16172776 0.06609316 -0.014719172 0.1323605 0.23428066 0.25830734 0.095553726
0.070049636 -0.23318012 -0.3067621 0.12371035 0.08102713 -0.29437673 -0.51110196 0.057224527
0.102788374 0.13648142 -0.024449926 0.24765907 0.03612096 -0.10117283 0.20954461 0.006702633
0.21384868 0.2581928 -0.13402349 -0.2841013 0.13190578 0.20609987 0.027062528 -0.2511354
-0.10779908 -0.14157273 0.06568752 0.11123687 -0.30201623 0.0822475 -0.38836962 0.099696286
-0.024333531 0.06752632 0.09976096 -0.24382322 -0.14004055 -0.14908108 -0.26485354 0.17139567
-0.046816316 0.08453169 -0.146206 -0.0014388488 0.25116405 0.2584338 -0.15853493 -0.14060147
