mine/ProG-main/Experiment/pre_trained_model/ogbn-arxiv/SimGRACE.GCN.128hidden_dim.pth (torch, 134632 bytes, 4 tensors)

conv_layers.0.bias f4 [128]
0	0xbcea203c	-0.028579824
1	0x3dbd4e19	0.092434116
2	0x3db1d37b	0.08682915
3	0xbb5e0f27	-0.0033883543
4	0xbdeb4d95	-0.11489407
5	0xbd69fd75	-0.05712648
6	0x3d631040	0.05543542
7	0xb8492cb8	-4.7963782e-05
8	0xbd898e8a	-0.0671664
9	0xbd495c0c	-0.04916005
10	0xbc1de1cb	-0.009636353
11	0xbb375b67	-0.0027978064
12	0xbb8ba298	-0.004261326
13	0xbc0acf7d	-0.008472321
14	0x3988abdc	0.00026067987
15	0xbd6079eb	-0.05480377
16	0x3d9afd06	0.07567792
17	0xbd2a8b0c	-0.04163651
18	0xbd27edba	-0.040998198
19	0xbb8aa6b0	-0.0042312965
20	0xbc9c9fdc	-0.019119196
21	0x39bf3b3d	0.00036474495
22	0x3ca3c71e	0.019992407
23	0x3cf41b9f	0.029798327
24	0xbd9e1681	-0.07719136
25	0x3c6c70e6	0.014431214
26	0xbd04cdb9	-0.032422755
27	0xbd133c91	-0.035946433
28	0xbdc35a6c	-0.09538731
29	0xbd7740a2	-0.060364373
30	0xbe145df4	-0.14488965
31	0xbdd595e5	-0.10428981
32	0x3d9dff93	0.077147625
33	0x3b3ee847	0.0029130147
34	0xbe132252	-0.14368561
35	0xbcc96f3e	-0.024589177
36	0xbd48f907	-0.049065616
37	0xbd323d69	-0.043515597
38	0xbe834a26	-0.25642508
39	0xbd54b4b6	-0.051930152
40	0xbd8f3592	-0.069926396
41	0xbac97de2	-0.0015372599
42	0xbbb05de6	-0.0053822873
43	0x3c8df2bb	0.017327657
44	0xbd1a8a7b	-0.03772972
45	0x3da6221b	0.08111974
46	0xbcf54b7b	-0.029943218
47	0xbe0d31b4	-0.13788491
48	0xbbe91a3d	-0.0071137235
49	0xbcd85e68	-0.026412204
50	0x3da83c74	0.082146555
51	0xbc0f3be6	-0.008742308
52	0xbc577d65	-0.013152455
53	0xbd48a90c	-0.04898934
54	0xbdf8a87b	-0.1214151
55	0xbdb99488	-0.09061533
56	0xbb8f94bb	-0.0043817437
57	0xbcd136d9	-0.025538849
58	0x3d4cabe7	0.049968626
59	0x3d755f63	0.05990542
60	0xbdaa6ced	-0.08321557
61	0x3d9bfc67	0.07616501
62	0x3dc919f6	0.09819405
63	0xbbd95223	-0.006632106
64	0xbd48acdc	-0.048992977
65	0xbc00e66a	-0.007867435
66	0xbbc992e6	-0.006151545
67	0xbd33bc46	-0.043880723
68	0x3dbb0666	0.0913208
69	0xbdac4e1c	-0.08413336
70	0xbc3726af	-0.0111786565
71	0xba7f0f66	-0.00097297726
72	0xbd4e1535	-0.050313193
73	0x392bd9c7	0.00016388959
74	0xbcd74e3a	-0.026282419
75	0xbd36b482	-0.04460574
76	0xbc77d5c8	-0.015126653
77	0xbd8386a6	-0.064221665
78	0x3d55a4b5	0.05215903
79	0xbcf1eecc	-0.029532813
80	0xbd095c3f	-0.03353524
81	0xbddafcaa	-0.10692723
82	0x3b792467	0.0038016082
83	0xbe7efc42	-0.24900916
84	0x3d5013aa	0.050800003
85	0xbcd0a7dd	-0.025470668
86	0xbd1bd3ba	-0.038043715
87	0x3dbc6e1a	0.09200688
88	0x3c192d8e	0.00934924
89	0xbc72d40a	-0.014821062
90	0xbd107d78	-0.035275906
91	0xbbdfd4aa	-0.0068307715
92	0xb9a8178c	-0.00032061
93	0x3d96094e	0.073259935
94	0xbde4758b	-0.11155232
95	0xbdc298da	-0.0950181
96	0xbbb94c95	-0.0056548812
97	0x3d2e62fc	0.042574868
98	0xbc1c19db	-0.009527649
99	0xbc7c8e86	-0.01541484
100	0xbdc8cb53	-0.09804406
101	0xbcc54a76	-0.024083357
102	0x3da590ef	0.080842845
103	0xbc909901	-0.017651083
104	0x3da4874a	0.08033617
105	0xbc445dad	-0.011985225
106	0x3d4d758b	0.050160926
107	0x3d71ca5a	0.059030868
108	0xbdae6588	-0.08515459
109	0xbe071e86	-0.13195238
110	0xbda0386f	-0.07823264
111	0xbdb8b2fa	-0.09018512
112	0x3bbd71c8	0.005781386
113	0xbd54bf05	-0.051939983
114	0xbcbf2d97	-0.023337169
115	0xbbf63bf8	-0.007514473
116	0x3d8bae70	0.06820381
117	0xbdf8d7e3	-0.12150552
118	0xbe0bafe0	-0.1364131
119	0x3d4f0d2b	0.050549667
120	0xbc106512	-0.00881316
121	0x3c3aadd1	0.01139398
122	0xbafe5fe9	-0.0019407246
123	0xbe198248	-0.14991105
124	0xbd292fdb	-0.041305404
125	0xbe3a97f1	-0.18222024
126	0x3d9ed29f	0.077550165
127	0xbd643892	-0.055718012

conv_layers.0.lin.weight f4 [128, 128]
0	0x3dd4e267	0.10394745
1	0x3db40416	0.08789842
2	0xbd8fa203	-0.07013323
3	0xbeabb568	-0.3353684
4	0x3f4a3d36	0.7899965
5	0xbf663694	-0.8992703
6	0xbe37f3be	-0.17964074
7	0x3e3d5dfa	0.1849288
8	0xbf2a5e81	-0.6655045
9	0xbe13aa75	-0.14420493
10	0xbed6066a	-0.4180177
11	0xbd450a0e	-0.048105292
12	0xbe9e63b1	-0.30935434
13	0x3e3d67c1	0.1849661
14	0x3d80525e	0.0626571
15	0x3d9f89c4	0.077899486
16	0x3f0740e0	0.52833366
17	0xbdfdff5d	-0.12402222
18	0x3e020664	0.1269775
19	0xbebe7687	-0.37199804
20	0xbdf7decb	-0.12103041
21	0xbdb72331	-0.08942259
22	0x3d8cf9eb	0.068836056
23	0x3f101b51	0.5629168
24	0x3eb6b9d0	0.3568864
25	0x3aa3d1a8	0.0012498396
26	0x3c9e3687	0.01931311
27	0x3daceb7d	0.08443353
28	0x3f52bb25	0.8231681
29	0xbe9cba10	-0.30610704
30	0x3e88eaf2	0.2674175
31	0x3c89ac58	0.016805813
32	0xbe01a3c0	-0.12660122
33	0xbe58544b	-0.21125905
34	0xbeef7bc1	-0.46774104
35	0xbed24f0e	-0.4107594
36	0xbe6a54ac	-0.22883862
37	0x3ddc19dc	0.1074712
38	0x3c505f09	0.012717971
39	0xbe72340f	-0.23652671
40	0xbf078574	-0.5293801
41	0xbf79754a	-0.97444594
42	0xbe5fd014	-0.2185672
43	0xbe94659f	-0.2898378
44	0xbd15980c	-0.036521956
45	0x3f1ac42c	0.60455585
46	0x3e8169b9	0.25275972
47	0x3dbaab73	0.091147326
48	0x3b179ee3	0.0023135475
49	0x3e0eec44	0.13957316
50	0x3d9f095c	0.07765457
51	0xbd14b1e2	-0.036302455
52	0x3f8dc752	1.1076453
53	0xbf17b4eb	-0.59260434
54	0x3f2b8053	0.6699268
55	0x3ed79180	0.42103195
56	0xbe11cd9d	-0.14238591
57	0x3f47a731	0.7798949
58	0x3f5c131e	0.8596667
59	0xbf8825e6	-1.0636566
60	0x3e370012	0.1787112
61	0x3f15cca9	0.5851541
62	0x3ea67296	0.32509297
63	0x3ecf3d33	0.4047638
64	0x3fbdea44	1.4837117
65	0xbe138af6	-0.14408478
66	0x3cd2e1cc	0.025742434
67	0x3f854c99	1.0414001
68	0xbe04cedf	-0.1296954
69	0x3e1ce527	0.1532179
70	0x3f8657e4	1.0495572
71	0x3f4326d6	0.76231134
72	0x3f0729b1	0.5279799
73	0xbeed9749	-0.46404484
74	0x3f5e4708	0.86827135
75	0xbe91c4c5	-0.28470436
76	0xbeb36e9b	-0.35045323
77	0xbe8fd85c	-0.28094757
78	0x3f6a192e	0.9144467
79	0x3eb52a49	0.35383824
80	0xbe9a8099	-0.30176237
81	0x3e9aa3df	0.3020315
82	0xbe475e0c	-0.1946947
83	0xbebfe322	-0.37477976
84	0x3e1c1825	0.15243585
85	0xbf01d311	-0.50712687
86	0x3e1054ca	0.14094844
87	0xbd4655f9	-0.048421834
88	0x3d8d3022	0.06893946
89	0x3ebd8e2e	0.37022537
90	0x3d2c61da	0.042085506
91	0xbefae065	-0.48999324
92	0xbedb20c2	-0.4279843
93	0x3f28afa7	0.65893024
94	0xbda9ba9d	-0.08287547
95	0x3e4d54b8	0.20051849
96	0x3cb18769	0.021671014
97	0xbe0b59d9	-0.13608493
98	0xbe3c3e49	-0.18383135
99	0xbeb6fd1e	-0.35739988
100	0x3e444179	0.19165601
101	0x3d83a166	0.06427269
102	0xbd20eebb	-0.03929017
103	0xbe8af8a0	-0.2714281
104	0xbecce12f	-0.4001555
105	0x3ed48fd5	0.41515985
106	0x3da9916e	0.08279692
107	0xbdc6a774	-0.09699908
108	0xbf238b5d	-0.63884526
109	0xbd9a029b	-0.07520028
110	0xbea03058	-0.31286883
111	0x3df5d611	0.120037206
112	0x3f09aa82	0.537758
113	0xbd037994	-0.032098368
114	0xbe443c23	-0.19163565
115	0x3e670bd1	0.22563101
116	0xbd8f6c89	-0.07003123
117	0x3f782df3	0.9694511
118	0xbe1690c8	-0.14703667
119	0x3f51532a	0.81767523
120	0xbee59656	-0.4484126
121	0x3ee3d164	0.4449569
122	0x3e1c2351	0.15247847
123	0xbf857a0b	-1.042787
124	0x3da81f7c	0.0820913
125	0x3f223c2d	0.6337307
126	0xbf53324d	-0.8249863
127	0xb998d40a	-0.0002914968
128	0xbd89dbdb	-0.06731387
129	0xbe3d0ad7	-0.18461166
130	0x3d286a78	0.04111716
131	0x3de8c5cc	0.11365852
132	0xbe3b44fc	-0.18288034
133	0xbf147542	-0.5799142
134	0xbe0ebaf5	-0.13938506
135	0xbea8ea5c	-0.32991302
136	0xbd40e65e	-0.047094695
137	0xbf58a9cb	-0.84634084
138	0xbf0ae77b	-0.5425946
139	0x3d9114de	0.07084058
140	0xbe0a21bc	-0.13489431
141	0xbe2f52be	-0.17121407
142	0x3dac58a1	0.08415342
143	0x3f13debc	0.5776174
144	0xbf803e50	-1.0019016
145	0x3daa060a	0.08301933
146	0x3f632302	0.8872529
147	0x3e50e3ba	0.20399371
148	0xbc7dc201	-0.015488149
149	0x3ea045e0	0.3130331
150	0x3d43deec	0.047820017
151	0xbc96a4ac	-0.018389069
152	0x3f1f1e9a	0.6215607
153	0x3e41e6c0	0.1893568
154	0xbeb6f000	-0.3572998
155	0xbdd7d30b	-0.105383
156	0xbcbc08c3	-0.022953397
157	0x3deee24f	0.11664259
158	0x3e74218e	0.23840925
159	0xbd8b0429	-0.06787903
160	0x3daaa18c	0.08331594
161	0xbe227480	-0.15864754
162	0xbebb0af4	-0.36531794
163	0x3e0260e9	0.12732281
164	0xbe04a919	-0.1295513
165	0xbf8ed9f3	-1.1160263
166	0xbd75dffe	-0.06002807
167	0xbe036a44	-0.12833506
168	0xbbb0d0c6	-0.0053959815
169	0xbe94b2e5	-0.29042736
170	0xbead6920	-0.33869267
171	0x3f455ad9	0.7709175
172	0xbec58da7	-0.38584635
173	0x3d8e7c69	0.06957323
174	0xbd0bc594	-0.034123972
175	0x3d3af43b	0.045643073
176	0x3e842af7	0.2581403
177	0xbc804f40	-0.01566279
178	0xbd0243c0	-0.031802893
179	0xbe4127b8	-0.18862808
180	0x3eec615e	0.46168035
181	0xbe1bbb65	-0.15208204
182	0x3f04f7ba	0.519405
183	0x3e87ed5c	0.26548278
184	0x3da59777	0.0808553
185	0x3ec6331f	0.38710877
186	0x3f6db696	0.9285673
187	0xbeaabbb5	-0.33346334
188	0x3d9ba465	0.07599715
189	0xbda3b45f	-0.079933874
190	0x3e0500a5	0.12988527
191	0xbde267ee	-0.11054979
192	0xbf059a30	-0.52188396
193	0x3dcc87b1	0.099868186
194	0x3c8d9fe1	0.01728815
195	0xbf3f37f9	-0.7469478
196	0xbe133eae	-0.14379379
197	0x3f007e47	0.50192684
198	0xbf1947a8	-0.59874964
199	0x3e93ebf9	0.2889097
200	0x3eda2f0c	0.4261402
201	0xbebfefe4	-0.3748771
202	0xbeb31fc6	-0.3498518
203	0xbdd475f9	-0.10374064
204	0x3e2b6af2	0.16740015
205	0xbe50e72f	-0.2040069
206	0xbf4ebbe5	-0.80755454
207	0x3ea3e3b5	0.32009664
208	0xbf17de3a	-0.59323466
209	0xbf62a6cd	-0.8853577
210	0x3e078d41	0.13237478
211	0x3d934134	0.07190171
212	0xbe90914e	-0.2823586
213	0x3ec91ab1	0.39278176
214	0xbde7b746	-0.113142535
215	0x3e23bae8	0.15989268
216	0x3e5324cc	0.20619506
217	0x3dd8f01b	0.105926715
218	0xbccb0aa1	-0.024785342
219	0x3db29725	0.08720235
220	0x3c094662	0.008378597
221	0xbf092532	-0.5357238
222	0x3e7a3e8f	0.24437927
223	0x3e331be3	0.17491107
224	0xbf3e79f9	-0.74404866
225	0x3ea5f4ce	0.32413334
226	0x3f1b4186	0.60646856
227	0x3e736ad8	0.23771226
228	0xbf16d2de	-0.5891551
229	0x3d227fd2	0.03967268
230	0x3c42c5d3	0.011887985
231	0xbc52bea0	-0.012862831
232	0xbe8f0780	-0.2793541
233	0xbe5c2b4f	-0.21500896
234	0xbe160571	-0.14650513
235	0xbe66afcf	-0.22528003
236	0x3cde75e9	0.027155833
237	0xbe8e6c9d	-0.2781724
238	0xbeab9237	-0.3350999
239	0x3e995e80	0.2995491
240	0xbe009cc7	-0.12559806
241	0xbdfa69a1	-0.12227178
242	0x3e10d99b	0.1414551
243	0xbe8f4537	-0.27982494
244	0xbec0e341	-0.3767338
245	0xbe65f98b	-0.22458474
246	0x3f02c9b5	0.5108903
247	0xbf18d2ea	-0.5969683
248	0x3e110671	0.14162613
249	0xbd363639	-0.044485305
250	0xbea1c486	-0.31595248
251	0xbe3957cc	-0.18099898
252	0xbeaf8f48	-0.34289002
253	0x3e312973	0.17300968
254	0x3e2bed13	0.16789655
255	0x3cd5eaa3	0.02611286

conv_layers.1.bias f4 [128]
0	0x3b9bf0d2	0.0047589326
1	0x3c82887a	0.015934218
2	0x3bdd0946	0.0067454902
3	0x3f2ea41e	0.6821917
4	0x3ec83df4	0.39109766
5	0xbd7cc331	-0.061709587
6	0xbf086817	-0.5328383
7	0xbe7f626b	-0.24939887
8	0xbe17056e	-0.14748165
9	0xbd515ebc	-0.051115736
10	0x3e1241be	0.14282891
11	0xbe335c1e	-0.17515609
12	0xbdbd84f3	-0.09253874
13	0xbe02f4cd	-0.12788697
14	0xbde7fd1d	-0.113275744
15	0x3dda72aa	0.10666402
16	0xbe1ac05e	-0.15112445
17	0x3e8aff15	0.27147737
18	0xbe21fe9b	-0.1581978
19	0xbe38be55	-0.18041356
20	0xbe2ea7c0	-0.17056179
21	0x3ce5a6e8	0.028033689
22	0xbab73414	-0.0013977312
23	0x3cb4532c	0.022012316
24	0x3e2c06ea	0.16799513
25	0x3e128647	0.14309035
26	0x3cb4ee30	0.022086233
27	0x3ecd8823	0.40142927
28	0xbd79c29c	-0.06097661
29	0xbdf91522	-0.12162234
30	0x3e712e33	0.2355278
31	0x3e9be7de	0.30450338
32	0x3dd125c3	0.102122806
33	0x3d98e7fe	0.07466124
34	0xbcee870c	-0.02911713
35	0x3eb90918	0.3613975
36	0x3ec49d1f	0.38401124
37	0xbe06e8fe	-0.13174817
38	0xbd9054ab	-0.07047399
39	0xbdc9cee1	-0.09853912
40	0xbd9c2fa2	-0.07626273
41	0x3e3b5895	0.1829551
42	0xbe6fe6cf	-0.2342789
43	0xbdfc8a7b	-0.123311006
44	0xbd3bca39	-0.04584715
45	0xbe9097c6	-0.28240794
46	0xbe0923dc	-0.13392586
47	0xbeecb89a	-0.4623459
48	0xbdc9fe7e	-0.09862994
49	0x3e5af941	0.21384145
50	0x3e41c48c	0.18922633
51	0xbd189baf	-0.037257846
52	0xbe878ca2	-0.26474482
53	0x3c84d756	0.016215961
54	0x3f2163d3	0.63042945
55	0xbe86094a	-0.26178962
56	0xbe879d95	-0.26487413
57	0x3e9c58a6	0.30536383
58	0x3e41a34d	0.1890995
59	0x3e218eef	0.15777181
60	0x3dca1b06	0.098684356
61	0xbc5e36b4	-0.013562847
62	0xbdc67450	-0.096901536
63	0xbe95ec7e	-0.29281992
64	0xbea55793	-0.32293376
65	0xbd3269c7	-0.04355791
66	0xbe820267	-0.25392458
67	0x3de612f4	0.11234084
68	0xbe60b04b	-0.2194225
69	0x3e5250f2	0.2053869
70	0xbe991bb2	-0.29903942
71	0xbdf50663	-0.11964109
72	0xbe52c5c4	-0.20583254
73	0xbee822be	-0.45339006
74	0xbe857933	-0.2606903
75	0x3d1dc603	0.038518917
76	0xbea0a8cd	-0.31378785
77	0x3cab553b	0.020914664
78	0x3e02a8f6	0.12759766
79	0x3d1f3d13	0.038876604
80	0x3e925bb9	0.28585604
81	0x3d70c7b6	0.05878421
82	0x3be16ba0	0.006879285
83	0x3c2727f2	0.010202395
84	0xbe4ab4af	-0.19795488
85	0xbe452bf9	-0.19255055
86	0x3df05ea7	0.117368035
87	0x3e418277	0.18897425
88	0x3d9288a0	0.071549654
89	0x3c8c3775	0.017116288
90	0x3eb18f80	0.34679794
91	0xbdcf3b3d	-0.10118721
92	0xbca0b57a	-0.019617785
93	0x3f08ee89	0.53488976
94	0xbd5001e8	-0.050783068
95	0x3d98594b	0.07438906
96	0x3c36b411	0.01115133
97	0xbdb31e3b	-0.087460004
98	0x3ed8af7f	0.42321393
99	0x3d626510	0.055272162
100	0x3e1505c9	0.14552988
101	0x3e59e455	0.21278508
102	0x3e3d6e45	0.18499096
103	0x38929663	6.989834e-05
104	0xbd88ae7c	-0.06673905
105	0x3e4af5b3	0.1982029
106	0xbbcafa46	-0.0061943857
107	0xbced4f0e	-0.02896836
108	0x3d4c9c13	0.04995353
109	0x3f0cd383	0.5501024
110	0xbd8cc566	-0.06873588
111	0x3c87748d	0.016535068
112	0x3e192328	0.14954817
113	0xbee30e8e	-0.44347042
114	0x3e93ab79	0.2884176
115	0xbdf83841	-0.121201046
116	0x3d26ac44	0.04069163
117	0xbd772d62	-0.060346015
118	0x3eb5d341	0.35512736
119	0x3e25ea60	0.16202688
120	0x3e59f81d	0.21286054
121	0xbe027d30	-0.12743068
122	0xbc90fc9b	-0.017698577
123	0x3d9578a1	0.07298399
124	0x3c10999a	0.008825684
125	0xbd98dfea	-0.07464583
126	0x3e91eb56	0.2849986
127	0xbc5f4a96	-0.0136286225

conv_layers.1.lin.weight f4 [128, 128]
0	0xbf23900b	-0.6389167
1	0x3dbacd73	0.091212176
2	0x3e01f4f6	0.12691101
3	0xb9c26b53	-0.00037082526
4	0xbcc7d3c6	-0.024392974
5	0x3d8a37f4	0.067489535
6	0xbd759e28	-0.059965283
7	0x3d854ac3	0.065084
8	0xbb8356c1	-0.0040081446
9	0xbc0350d2	-0.0080148745
10	0xbb3a403f	-0.0028419641
11	0xb99fdd2f	-0.00030491638
12	0x3bd563e1	0.0065121506
13	0xbb00ff3d	-0.0019683384
14	0xb8a1e099	-7.718913e-05
15	0xbd63cd56	-0.055615745
16	0x3dfd32ff	0.12363242
17	0x3d6162c8	0.055025846
18	0x3a1939a4	0.0005845076
19	0xb9df27c0	-0.0004256349
20	0xbb1fec9c	-0.0024402505
21	0x350f9080	5.3481926e-07
22	0x3eba0905	0.36335006
23	0x3d0b6f8c	0.034041926
24	0x3d33d810	0.043907225
25	0xbcfde90d	-0.030994916
26	0x3bf817a0	0.0075711757
27	0xbb93a3ad	-0.0045055957
28	0xbd2ecf59	-0.04267821
29	0xbd9a71b5	-0.07541219
30	0xbd1baded	-0.038007665
31	0xbcbf2a09	-0.023335474
32	0xbb9072cc	-0.004408216
33	0xba6add24	-0.0008959344
34	0xbe3c7aeb	-0.18406264
35	0x3b79f342	0.0038139378
36	0x3cb1ae6a	0.021689612
37	0xbbab46c8	-0.0052269436
38	0x3d88c4c7	0.06678157
39	0xb9d2cc62	-0.00040206598
40	0x3cf4901c	0.029853873
41	0xb96086d6	-0.00021412535
42	0xbaa4ae86	-0.0012564219
43	0x3d7b306c	0.061325476
44	0xbb8a0bb4	-0.004212821
45	0x3e35eeb3	0.17766838
46	0x3ba2af21	0.0049647246
47	0x3cd249eb	0.025670012
48	0xb9b3d140	-0.00034297444
49	0xb9fe756e	-0.00048534147
50	0x3dd92bd8	0.10604066
51	0x3bc1a617	0.005909692
52	0xb9d96845	-0.00041467152
53	0xbc8c9020	-0.017158568
54	0xbe3b82bf	-0.18311594
55	0xbeae9369	-0.3409684
56	0xbb9b8722	-0.0047463337
57	0xb9d79b03	-0.00041123488
58	0x3e312579	0.17299451
59	0x3d1ba720	0.03800118
60	0xbea1d9e9	-0.31611565
61	0xbd2c5a41	-0.04207826
62	0x3e4ac078	0.19799984
63	0xba5224ab	-0.0008016328
64	0xbdf40d77	-0.11916631
65	0xba4e9079	-0.00078798045
66	0xb9d76f10	-0.00041090744
67	0x3d5884b2	0.052860923
68	0x3d00bf09	0.031432185
69	0xbd0dd5d0	-0.034627736
70	0x3c578b54	0.013155777
71	0xb8f405b8	-0.00011635892
72	0xb9a76380	-0.00031926855
73	0xba1d4c22	-0.00060004194
74	0xbb380a5b	-0.0028082344
75	0x3a0d6739	0.00053941045
76	0x39e54a6d	0.00043733735
77	0xbe89b630	-0.2689681
78	0x3d8f18b9	0.06987137
79	0xbbc14319	-0.0058978912
80	0x3dedade4	0.11605433
81	0xbdffe038	-0.12493938
82	0x3d9ef8e3	0.07762315
83	0x3e29bd70	0.16576171
84	0x3e0e9cf1	0.13927056
85	0x3e6dd9d5	0.23227628
86	0xbb041d70	-0.0020159148
87	0xbe17d617	-0.14827763
88	0x3a85c24d	0.0010205001
89	0xba73f087	-0.0009305556
90	0x3d76d487	0.060261276
91	0xba5145d4	-0.00079831225
92	0xb8155866	-3.5606696e-05
93	0x3bb6b396	0.0055756075
94	0xbe8005fa	-0.2500456
95	0xbea67088	-0.3250773
96	0xbbf3427c	-0.007423697
97	0x3df01b7d	0.11723993
98	0xba0fe2b1	-0.0005488797
99	0xbb8d975f	-0.0043210234
100	0x3d7acd13	0.06123073
101	0xbc18c404	-0.0093240775
102	0x3db86179	0.090029664
103	0xba1ccded	-0.0005981613
104	0x3e45f2e9	0.19330944
105	0x3ca2faa5	0.019894907
106	0x3d7405cf	0.059575852
107	0x3cfbcf8b	0.030738613
108	0x3d997ee1	0.07494903
109	0xbe2ab6c0	-0.16671276
110	0xbe8c33aa	-0.27383167
111	0xbb9e2e0e	-0.0048272675
112	0xba7707fe	-0.0009423493
113	0xbb71723f	-0.0036841778
114	0xba30a6c9	-0.000673872
115	0xbb66dbb4	-0.0035226168
116	0x3ddeb243	0.108738445
117	0xbe895b1b	-0.2682732
118	0x3e3195e5	0.17342336
119	0x3d851d90	0.06499779
120	0xbaad54ba	-0.0013224103
121	0xbdb492a7	-0.08817034
122	0xb9f8c042	-0.0004744549
123	0xbe486f60	-0.19573736
124	0xbca2d1d2	-0.01987544
125	0xbeb97d69	-0.36228493
126	0xbb3d1ebc	-0.002885743
127	0xbe864ab1	-0.2622886
128	0xbf5209c7	-0.8204617
129	0xbe4cce51	-0.20000578
130	0xbe8dd8e9	-0.27704552
131	0xb928c433	-0.00016094818
132	0xbbb7a49f	-0.005604341
133	0x3d3efecf	0.046629723
134	0xbd88b7ed	-0.06675706
135	0x3e8ae3a1	0.27126792
136	0xbb7ef4dd	-0.0038903274
137	0xbc8c23db	-0.017106941
138	0xba1d52e0	-0.0006001424
139	0xb85ec931	-5.31163e-05
140	0x3bbe1611	0.0058009704
141	0xba078ff9	-0.0005171295
142	0xb7ed7e65	-2.8311459e-05
143	0x3c466988	0.012110122
144	0xbdf72bda	-0.12068911
145	0xbe1b934d	-0.1519291
146	0x3abd1306	0.0014425225
147	0xb9af1898	-0.00033396925
148	0xbbc0a099	-0.0058785197
149	0xb811c0cd	-3.4750254e-05
150	0xbe393d11	-0.18089701
151	0x3d2445bb	0.040105563
152	0xbdcd2f56	-0.10018794
153	0x3e57d845	0.21078594
154	0xbaff6f68	-0.0019488158
155	0xbaf6880e	-0.0018808858
156	0xbcf7184f	-0.030162958
157	0x3e235344	0.15949732
158	0x3d855e89	0.06512172
159	0xbd0a5d82	-0.033780582
160	0x3e85c661	0.26127914
161	0xba27579a	-0.0006383598
162	0xbc833df2	-0.016020749
163	0xbb8fb80c	-0.004385954
164	0xbd3dd74f	-0.046347912
165	0x3adeca67	0.0016997576
166	0x3dbb44ca	0.0914398
167	0xbb654aa7	-0.0034987123
168	0xbceee221	-0.029160561
169	0xb8fd9270	-0.00012091256
170	0x3956290d	0.00020423923
171	0x3dab7744	0.083723575
172	0x3aeefa91	0.0018232634
173	0x3e5257a0	0.20541239
174	0xbb92c288	-0.0044787563
175	0xbd1bf20b	-0.038072627
176	0x37d5eefd	2.5502866e-05
177	0x3bc8df15	0.006130109
178	0xbe000dd8	-0.12505281
179	0x3bf9a4bb	0.0076185144
180	0xb99253e6	-0.000279098
181	0xbd6fc731	-0.058539573
182	0xbc1e4723	-0.009660515
183	0x3e1f3622	0.15547994
184	0xbab947df	-0.0014135799
185	0xbb1dc198	-0.002407169
186	0xbe12c556	-0.1433309
187	0x3da9578a	0.0826865
188	0x3d7a6a5e	0.061136596
189	0xbd59d49c	-0.053181276
190	0x3d8e4cd0	0.069482446
191	0x3c074589	0.008256325
192	0xbea2490a	-0.3169635
193	0xb993edc5	-0.00028215177
194	0xb8a6c58b	-7.952292e-05
195	0xbd0b8259	-0.034059856
196	0xbd8b49e8	-0.06801206
197	0xbd4ca827	-0.04996505
198	0xbd45b1ac	-0.048265144
199	0xb78fabad	-1.7126871e-05
200	0xbc977f7d	-0.018493408
201	0x3bd9cafb	0.0066465116
202	0x3b671a31	0.0035263414
203	0x3c860487	0.01635958
204	0xba2b978d	-0.0006545715
205	0x3e8bd37a	0.2730978
206	0x3e2c07f1	0.16799904
207	0x3b13549c	0.002248085
208	0xbe99a343	-0.3000737
209	0xbd9850b2	-0.074372664
210	0xbd6e7eea	-0.058226503
211	0x3d44234e	0.04788523
212	0xbde599c8	-0.11210972
213	0xbe49864c	-0.19680136
214	0xba31b1d9	-0.00067785155
215	0xbde6550a	-0.11246689
216	0x396923ef	0.00022233998
217	0xb8e35e01	-0.00010841713
218	0xbddc5bed	-0.10759721
219	0xb96b1aa6	-0.00022421274
220	0xb72bbd77	-1.02365075e-05
221	0xbd924c70	-0.071434855
222	0x3e7c3c2b	0.24632327
223	0xbc62f27e	-0.01385176
224	0xbb96e15c	-0.0046045016
225	0x3d8d1ad1	0.068898804
226	0xb9b8aa39	-0.0003522204
227	0xba8d43ed	-0.001077769
228	0x3d27fef7	0.041014638
229	0xb9ca6d2e	-0.00038609788
230	0xbe10a51d	-0.14125486
231	0x39b120c3	0.0003378448
232	0x3d1e0fbf	0.038589235
233	0xbb4991c6	-0.0030757054
234	0x3e86310a	0.2620929
235	0xbd78a045	-0.06069972
236	0xbd2a263e	-0.041540377
237	0xbd038b5b	-0.03211532
238	0x3dd1bd6e	0.10241209
239	0xbdc99af5	-0.09844009
240	0xba1ee66e	-0.00060615584
241	0xbcf36e1e	-0.029715594
242	0xbb14c1d2	-0.0022698534
243	0x3b75f835	0.0037531976
244	0x3e90705d	0.28210726
245	0xbd676e20	-0.056501508
246	0xbe6bb052	-0.2301648
247	0xbde1a51d	-0.11017821
248	0x3bbbbbbb	0.0057291663
249	0x3e9e1017	0.3087165
250	0x3bdb2a91	0.006688424
251	0xbd8a5a06	-0.06755452
252	0x3d46cd05	0.048535366
253	0xbda00e29	-0.07815201
254	0xbd81851d	-0.063242175
255	0x3e945512	0.28971153
