mine/ProG-main/Experiment/pre_trained_model/COX2/Edgepred_Gprompt.GCN.128hidden_dim.pth (torch, 87144 bytes, 4 tensors)

conv_layers.0.bias f4 [128]
000000 70 f7 1f bd bc 42 c0 bd ba 69 ab bc 87 47 93 be
       -0.039054334 -0.093877286 -0.020924438 -0.2876551
000010 09 f1 a5 bb f3 01 ef ba c2 eb 6a bc 23 d0 fe bc
       -0.005064134 -0.0018234834 -0.014338436 -0.031105107
000020 a3 3e a1 bd 92 f4 34 3b c6 d0 72 3e f1 e0 0e 3e
       -0.07873275 0.0027611596 0.23712453 0.13952996
000030 5a ff 1a bc 6c 6e bb 3c 01 9e 73 be 8e 2c 56 bc
       -0.009460295 0.022879802 -0.23790742 -0.013072146
000040 ed 4f 2b bb ef 89 27 be 4a a2 1f 3c 2b d8 8e bc
       -0.0026140169 -0.16361211 0.009743283 -0.017437061
000050 8a b9 5f be 2e fe 80 37 68 89 42 3d a0 b2 82 3d
       -0.21848121 1.537715e-05 0.047494322 0.06381726
000060 e8 8a 1f 3d da 2a 93 bc 51 35 2d bd 17 37 1b bd
       0.03895083 -0.01796477 -0.042287175 -0.037894335
000070 ac 87 28 be ae 37 92 be ee be 4d be fd 32 67 3d
       -0.16458005 -0.28558105 -0.20092365 0.05644511
000080 12 49 c6 bd de 0a 80 bc 6a 43 db 3b 2f c0 a6 bc
       -0.09681906 -0.015630182 0.006691386 -0.020355312
000090 53 ca d1 bb 44 88 40 bb 98 2b 44 bb 78 40 d7 bc
       -0.0064022928 -0.0029378096 -0.002993321 -0.026275858
0000a0 60 a5 a4 bc 4c bb 8e bb 35 7a 2c ba b4 8a d3 bc
       -0.020098388 -0.0043558236 -0.00065794896 -0.025822975
0000b0 cc 03 14 3d 42 68 a6 bd 96 d7 07 3e 77 07 57 3d
       0.036136433 -0.08125354 0.13265833 0.052497353
0000c0 bf 99 d5 bb 76 d4 6e bc c6 ac 4c bd 59 55 1c bd
       -0.006518572 -0.014577022 -0.049969457 -0.03816733
0000d0 20 38 4c 3e ff 58 63 bc 29 d6 6b ba a5 d2 af 3c
       0.19943285 -0.013876199 -0.0008996451 0.021462748
0000e0 e6 be 5a 3d 43 14 5b bd 98 87 bb bc 6a 5d b8 bd
       0.05340471 -0.05348612 -0.022891805 -0.09002192
0000f0 f5 24 7d bc 09 68 31 be ad 00 ed bc c6 86 ba bc
       -0.015450706 -0.17324843 -0.028930986 -0.022769343
000100 04 d8 dd bc 6a 56 63 bd 47 0d 39 bc bb 12 1f be
       -0.027080543 -0.055502333 -0.0112946695 -0.15534489
000110 0c eb 57 be 81 1e 43 bc 1a fb 1f bd 54 03 ab 3d
       -0.21085757 -0.011909128 -0.03905783 0.08350244
000120 40 6c 25 be 1c dc 2b bc 70 17 32 bc 56 1f 0a bd
       -0.16154575 -0.01048949 -0.010869846 -0.03372129
000130 5a 73 48 bc c0 ed ad 3b 47 76 3e bc 8f 84 a7 bc
       -0.012234533 0.005307883 -0.011624879 -0.020448951
000140 33 bc d1 3d 86 16 a0 bd a6 8e 60 3e a0 98 95 be
       0.10240974 -0.07816796 0.21929416 -0.29218006
000150 b9 a5 ac 3a 3c 09 8a be 58 0e ca b9 76 b4 1d be
       0.0013171948 -0.2696017 -0.0003853913 -0.15400872
000160 46 56 be bc f6 82 85 3e 41 c7 ea bc bb 7e 88 3e
       -0.023234498 0.26076478 -0.028659465 0.26659188
000170 0b ef 5e bc 3a 42 80 bc 0c 94 0d bc d7 04 bb bc
       -0.013606797 -0.01565658 -0.008641254 -0.022829456
000180 d0 4e ae bc cc 5c e5 3d 7c 38 bb bb 06 e0 00 be
       -0.021277815 0.1119934 -0.0057135206 -0.12585458
000190 98 c4 eb bc ad ec 67 bd 12 4c 9f bc 8c 18 4e 3d
       -0.028780267 -0.056622196 -0.019445453 0.05031638
0001a0 b5 03 be 3d f0 d3 29 bc a8 a2 eb bd b1 8f b1 3c
       0.09278051 -0.010365471 -0.115056336 0.021674963
0001b0 cf f1 a8 bd 49 a2 41 3d 3d 70 02 3e 65 dc 0b bc
       -0.08249246 0.047273908 0.12738128 -0.008536433
0001c0 57 c5 9d bd 7f e2 b8 bc 19 77 81 bc ef 2d 2d bc
       -0.07703655 -0.02256894 -0.01580386 -0.010570033
0001d0 95 09 37 bd ef 4f 7e bc 1e b7 57 3d 67 5a 93 bd
       -0.044686873 -0.015521987 0.05266487 -0.07194977
0001e0 c8 9d 7e be db ec 55 bd c3 d9 a1 bb 4d ca 8f bd
       -0.24864876 -0.052227836 -0.0049392893 -0.07021008
0001f0 e9 c9 5c bd 88 8b ba bd f8 d4 d5 bb bd ca d3 3c
       -0.053903494 -0.09108645 -0.006525632 0.02585351

conv_layers.0.lin.weight f4 [128, 35]
000000 15 37 df bc 41 13 01 00 48 14 01 00 b2 1f 01 80
       -0.027247945 9.8742e-41 9.9111e-41 -1.03206e-40
000010 83 28 01 00 f1 99 27 bd 47 94 6b 3d 83 36 6d bb
       1.06368e-40 -0.040918294 0.057514455 -0.0036195822
000020 43 86 8f bc 5f 4d 01 00 36 15 01 80 a7 1a 01 80
       -0.017520076 1.19591e-40 -9.9445e-41 -1.01397e-40
000030 33 17 01 00 29 53 01 80 38 14 01 80 32 c7 18 bd
       1.00158e-40 -1.21668e-40 -9.9089e-41 -0.037299342
000040 cc a8 8d bc 3a 12 01 00 66 12 01 80 4b 54 01 80
       -0.017292403 9.8374e-41 -9.8436e-41 -1.22074e-40
000050 b4 3c 01 80 76 12 01 80 f4 11 01 00 b1 12 01 80
       -1.13612e-40 -9.8458e-41 9.8276e-41 -9.8541e-41
000060 c1 17 01 80 06 17 01 80 c6 12 01 00 2f 15 01 00
       -1.00357e-40 -1.00095e-40 9.857e-41 9.9435e-41
000070 2c 1c 01 00 c6 1c 01 00 1a 15 01 00 26 1b 01 80
       1.01942e-40 1.02157e-40 9.9405e-41 -1.01575e-40
000080 6a 13 01 80 50 12 01 80 ab 78 4d 3c 66 e0 ef be
       -9.88e-41 -9.8405e-41 0.0125409765 -0.4685089
000090 83 25 01 80 0f 14 01 00 22 38 01 80 1c 13 01 00
       -1.05292e-40 9.9031e-41 -1.11972e-40 9.869e-41
0000a0 6f a1 a5 3e 7c cd 1d bf e5 ef b0 3d 69 0c c3 3c
       0.32349727 -0.6164167 0.08639506 0.023809629
0000b0 80 15 01 00 8a 12 01 00 36 1a 01 80 79 55 01 80
       9.9548e-41 9.8486e-41 -1.01238e-40 -1.22497e-40
0000c0 97 16 01 00 fd 12 01 00 d7 65 d4 be 5e d7 da be
       9.9939e-41 9.8647e-41 -0.41483948 -0.42742437
0000d0 5d 42 01 80 72 2b 01 00 40 16 01 80 35 34 01 00
       -1.15642e-40 1.07421e-40 -9.9817e-41 1.10564e-40
0000e0 46 17 01 00 34 1f 01 80 30 17 01 00 59 14 01 80
       1.00184e-40 -1.03029e-40 1.00154e-40 -9.9135e-41
0000f0 f9 11 01 00 06 16 01 00 19 13 01 80 92 16 01 00
       9.8283e-41 9.9736e-41 -9.8686e-41 9.9932e-41
000100 a0 11 01 80 84 13 01 00 aa 13 01 80 7d 12 01 00
       -9.8158e-41 9.8836e-41 -9.889e-41 9.8468e-41
000110 62 17 01 00 e2 1a e1 bd d2 c6 b9 3c f9 19 01 80
       1.00224e-40 -0.109914556 0.022677813 -1.01153e-40
000120 7a 12 01 80 fe 4f 01 80 63 2e 01 00 c5 16 f0 bb
       -9.8464e-41 -1.20531e-40 1.08476e-40 -0.007326933
000130 41 76 9b 3b fa 62 15 3c 42 db e6 38 14 17 01 00
       0.0047443216 0.009117836 0.000110080946 1.00114e-40
000140 60 21 01 80 db 14 01 80 3e 55 01 80 a4 11 01 80
       -1.03808e-40 -9.9317e-41 -1.22415e-40 -9.8164e-41
000150 98 43 01 80 37 b5 8c bb d9 32 e3 3a 75 16 01 80
       -1.16084e-40 -0.0042940634 0.0017333879 -9.9892e-41
000160 0e 19 01 80 02 2b 01 80 74 23 01 80 27 1b 01 00
       -1.00823e-40 -1.07264e-40 -1.04554e-40 1.01576e-40
000170 1d 1a 01 80 ea 11 01 80 9d 13 01 00 83 15 01 00
       -1.01203e-40 -9.8262e-41 9.8871e-41 9.9552e-41
000180 50 18 01 80 ef 11 01 00 68 16 01 00 fe 20 01 80
       -1.00557e-40 9.8269e-41 9.9873e-41 -1.03671e-40
000190 64 16 01 80 e3 13 01 00 ec 13 01 00 56 18 01 80
       -9.9868e-41 9.897e-41 9.8982e-41 -1.00566e-40
0001a0 30 1a 40 39 de 3e eb 3e d8 14 01 00 2e 15 01 00
       0.00018320302 0.459464 9.9313e-41 9.9433e-41
0001b0 c9 59 01 80 ea 11 01 80 25 a0 28 3e 15 cf cf 3e
       -1.24044e-40 -9.8262e-41 0.1646734 0.4058768
0001c0 e0 73 1b bf 97 a2 db 3c 85 11 01 80 22 4e 01 80
       -0.60723686 0.026810927 -9.812e-41 -1.19864e-40
0001d0 84 15 01 00 1b 4c 01 00 3d 25 01 00 69 26 01 80
       9.9554e-41 1.19137e-40 1.05194e-40 -1.05614e-40
0001e0 69 fc f7 be 07 03 85 bb e1 16 01 80 38 14 01 80
       -0.4843476 -0.004059199 -1.00043e-40 -9.9089e-41
0001f0 16 1c 01 80 b7 12 01 00 48 1d 01 00 b3 16 01 00
       -1.01911e-40 9.8549e-41 1.0234e-40 9.9978e-41
000200 38 14 01 80 51 14 01 80 68 24 01 80 a7 14 01 80
       -9.9089e-41 -9.9124e-41 -1.04896e-40 -9.9244e-41
000210 4d 12 01 00 be 17 01 80 1c 28 01 80 27 14 01 80
       9.84e-41 -1.00353e-40 -1.06224e-40 -9.9065e-41
000220 7a 18 01 00 9e 14 01 00 56 12 01 80 6f 2c d1 3c
       1.00616e-40 9.9232e-41 -9.8413e-41 0.025533883
000230 2d b3 b1 3b a0 22 01 00 57 1c 01 00 dd 1b 01 80
       0.0054229707 1.04257e-40 1.02002e-40 -1.01831e-40
000240 aa 13 01 00 99 eb 2e ba 8f 27 15 b9 58 84 5c b7
       9.889e-41 -0.000667268 -0.00014224484 -1.31438355e-05
000250 9f 80 b9 38 7a 27 01 00 cc 1e 01 80 b8 13 01 80
       8.845445e-05 1.05997e-40 -1.02883e-40 -9.8909e-41
000260 86 15 01 80 c5 19 01 80 63 13 01 00 95 e3 57 b8
       -9.9557e-41 -1.0108e-40 9.879e-41 -5.1471947e-05
000270 0b a2 ce 39 8e 27 01 00 20 36 01 00 53 29 01 00
       0.00039412113 1.06025e-40 1.11252e-40 1.0666e-40
000280 be 11 01 00 58 12 01 80 62 15 01 00 fa 4b 01 80
       9.82e-41 -9.8416e-41 9.9506e-41 -1.19091e-40
000290 6b 30 01 00 97 14 01 80 7c 11 01 80 c3 17 01 80
       1.09205e-40 -9.9222e-41 -9.8108e-41 -1.0036e-40
0002a0 10 16 01 80 d2 16 01 00 a7 15 01 00 0e 18 01 80
       -9.975e-41 1.00022e-40 9.9603e-41 -1.00465e-40
0002b0 34 1c 01 00 aa 2b 01 80 10 83 a7 b7 07 7d 79 be
       1.01953e-40 -1.07499e-40 -1.9968982e-05 -0.243641
0002c0 2c 18 01 00 ed 12 01 80 3e 14 01 00 af 14 01 00
       1.00507e-40 -9.8625e-41 9.9097e-41 9.9255e-41
0002d0 1f 87 a4 3e c9 bf a3 3e 55 33 1b 3e 1c 0d 89 3e
       0.3213434 0.31982258 0.151563 0.26767814
0002e0 6e 16 01 00 fa 1e 01 80 65 18 01 80 2e 15 01 80
       9.9882e-41 -1.02948e-40 -1.00587e-40 -9.9433e-41
0002f0 2c 15 01 00 cb 5d 01 00 73 06 96 bf cb eb ed bd
       9.943e-41 1.25482e-40 -1.1720718 -0.116172396
000300 43 1a 01 80 dd 15 01 80 ce 15 01 80 4c 13 01 80
       -1.01256e-40 -9.9679e-41 -9.9658e-41 -9.8758e-41
000310 92 12 01 00 03 18 01 80 5d 3d 01 00 52 1c 01 80
       9.8497e-41 -1.00449e-40 1.13848e-40 -1.01995e-40
000320 f0 11 01 80 8d 17 01 00 7e 14 01 00 b9 1a 01 00
       -9.827e-41 1.00284e-40 9.9187e-41 1.01422e-40
000330 57 24 01 00 2f 2b 01 80 7a 15 01 00 3f 2a 01 00
       1.04872e-40 -1.07327e-40 9.954e-41 1.0699e-40
000340 5e 16 01 00 4e 96 c2 3e e6 b8 a5 bb d7 1d 01 80
       9.986e-41 0.38005298 -0.005057442 -1.0254e-40
000350 87 11 01 80 a1 15 01 80 be 1a 01 80 83 c8 16 bb
       -9.8123e-41 -9.9594e-41 -1.01429e-40 -0.0023007698
000360 a3 dc 58 bc 26 da 79 3c 68 ba 25 3c 55 14 01 80
       -0.013236198 0.015249765 0.0101152435 -9.9129e-41
000370 ad 1f 01 80 62 50 01 00 b4 11 01 00 7c 16 01 80
       -1.03199e-40 1.20671e-40 9.8186e-41 -9.9901e-41
000380 44 14 01 00 b9 c8 24 3a 57 3b 54 3c 50 25 01 80
       9.9105e-41 0.00062860135 0.012953601 -1.0522e-40
000390 5d 14 01 00 2d 13 00 80 06 23 01 00 d5 11 01 00
       9.914e-41 -6.879e-42 1.044e-40 9.8232e-41
0003a0 ee 20 01 80 44 13 01 80 2d 45 01 00 d5 15 01 00
       -1.03648e-40 -9.8747e-41 1.16651e-40 9.9667e-41
0003b0 49 46 01 00 09 35 01 00 88 18 01 00 9d 47 01 80
       1.17049e-40 1.10861e-40 1.00636e-40 -1.17526e-40
0003c0 75 11 01 80 e5 11 01 00 11 14 01 80 bb 11 01 00
       -9.8098e-41 9.8255e-41 -9.9034e-41 9.8196e-41
0003d0 89 01 30 37 1b b3 72 bf 3f 15 01 00 ca 11 01 00
       1.0490775e-05 -0.94804543 9.9457e-41 9.8217e-41
0003e0 d5 13 01 00 90 11 01 00 0f 3a f4 3e 16 a9 aa bf
       9.895e-41 9.8136e-41 0.47700545 -1.3332851
0003f0 ec a6 bc 3d 9b e6 dc 3e 0f 57 01 00 e5 13 01 00
       0.09211525 0.43144688 1.23066e-40 9.8972e-41

conv_layers.1.bias f4 [128]
000000 f6 66 8b bd ec 56 30 3d 87 f5 e1 bb da 49 ae 3d
       -0.068067476 0.043051645 -0.006895724 0.0851018
000010 e5 ad 9c 3d 9e 69 4b bd 2e ed 67 bd bd 9b b9 bd
       0.07650355 -0.04966127 -0.056622677 -0.09062908
000020 ba b7 75 3c 17 2e b4 bd f4 3d b0 3d bc cf 4c 3d
       0.014997417 -0.087978534 0.086055666 0.0500028
000030 82 ab 33 3d 7e 39 2e 3d c2 3f b4 bb 11 73 06 3c
       0.043864734 0.042535298 -0.0055007646 0.008206145
000040 52 97 51 3c 03 e0 02 3c 22 72 87 3d c4 8e 6e 3c
       0.012792425 0.007987979 0.06613566 0.014560405
000050 df e5 99 bd 13 13 be bd 62 bf a7 3b 8a 16 84 b9
       -0.075145476 -0.09280982 0.00511925 -0.00025193795
000060 e0 be 97 3c df 72 d5 3c a8 fd 8d 3d a7 12 ae bc
       0.018523633 0.026055751 0.06933147 -0.021249129
000070 be 06 89 bb 2f 52 9c 3b 35 ba b0 bd ad 9e a1 37
       -0.004181712 0.0047705392 -0.08629266 1.9266585e-05
000080 d7 8a 2d bd 05 f0 fb bb f7 34 f0 3c 3a 20 90 bd
       -0.042368736 -0.0076885247 0.02932213 -0.07037397
000090 6e 6c 84 bd be d1 a1 3d 9b bf cf 3c e0 a5 9b bd
       -0.06465994 0.07901333 0.02535992 -0.075999975
0000a0 eb 8e 9f 3d 98 52 18 bd b0 c6 56 3b c8 1a 74 3d
       0.07790931 -0.037188143 0.0032772236 0.059595853
0000b0 97 e6 23 3d 96 a5 78 bd 11 29 c0 bc 2e fc aa 3d
       0.04001483 -0.06070479 -0.023457082 0.08348881
0000c0 9e 7b ae bd 26 e3 09 3d b0 c6 b7 3d f8 fd 28 3c
       -0.08519672 0.03366389 0.089734435 0.010314457
0000d0 75 3b b3 bd a5 d3 3d bc d3 5e b8 3d 7e 9b b4 bd
       -0.08751575 -0.0115861045 0.09002461 -0.0881872
0000e0 8b 73 f4 3c bd fe 7d 3d 25 f4 d9 bc fb 3f b9 bd
       0.029840251 0.062010515 -0.026605675 -0.090454064
0000f0 04 04 a9 3d 67 5b b6 bd c0 16 b7 3c 8a 1e bb bd
       0.08252719 -0.08904152 0.022349715 -0.09136684
000100 6b 51 1c bc bf 8a ae bd 88 cf a1 bd d8 f6 ab bd
       -0.009540896 -0.085225575 -0.079009116 -0.08396691
000110 38 f6 4e bb fe c3 ba 3d d9 05 9a bd 2a c5 3e 3b
       -0.0031579863 0.09119414 -0.075206466 0.0029109218
000120 0d 2a b5 3d ac 83 7a 3d cb 0a 00 3d 32 b4 b1 bd
       0.08845911 0.06116073 0.031260293 -0.08676948
000130 1c 67 88 3c b7 60 bc bc 9b e4 84 3c b8 d1 9f bd
       0.016650729 -0.022995336 0.016222289 -0.078036726
000140 15 56 8d 3d 11 bf b2 3d 73 06 65 bd f4 ac 54 3d
       0.069011845 0.08727849 -0.055914354 0.051922753
000150 a1 2a d0 bc ce 4f 76 3d a1 23 b8 3d c2 03 ba 3d
       -0.025410952 0.0601347 0.08991171 0.09082748
000160 19 26 53 3d 1f b0 b7 3d fb 88 54 3d d6 f3 83 3c
       0.051550005 0.08969139 0.051888447 0.016107481
000170 7b e9 34 3d af dd 91 bc ca d9 b5 3d 0c 52 96 3d
       0.044167977 -0.017805902 0.088794306 0.07339868
000180 71 87 35 bd 8a 95 a8 bd 89 19 0f bb e4 cb be bc
       -0.04431862 -0.08231647 -0.0021835288 -0.023290582
000190 65 82 84 bc 6a f1 9e bc 33 c0 bb bc c7 64 74 bc
       -0.016175458 -0.019402225 -0.022918796 -0.014916605
0001a0 85 57 af 3d 4d e7 91 bd 20 29 41 bd 8d 12 b4 bd
       0.08561615 -0.07124195 -0.04715836 -0.08792601
0001b0 89 dd ea bc 3e 54 a7 bd dc a6 ef 3c 23 9a 80 3d
       -0.02867009 -0.08170365 0.02925437 0.06279399
0001c0 d8 b8 f3 ba 10 97 b2 bd 22 57 74 bd 06 da 93 3c
       -0.0018594516 -0.08720219 -0.05965341 0.018048298
0001d0 20 63 b8 bd 0b e2 b5 3d cb 70 84 3d 3e 56 90 bd
       -0.090032816 0.08881005 0.06466826 -0.070476994
0001e0 6a 64 a9 bd f3 3c 69 bd e9 e0 b7 3d 8a c2 2c bd
       -0.082711056 -0.05694289 0.08978445 -0.042177714
0001f0 62 cd 95 bd 9e 23 44 bd cd 27 9d bd 03 7b a6 3d
       -0.07314564 -0.04788553 -0.07673607 0.081289314

conv_layers.1.lin.weight f4 [128, 128]
000000 cf 64 b2 3b d4 08 88 bd b1 c4 ef b9 fc 03 3f bd
       0.005444146 -0.06642309 -0.0004573218 -0.04663466
000010 04 44 b5 b8 5f 7e 93 3c 2f 77 00 ba 94 11 ff bd
       -8.6434215e-05 0.018004594 -0.0004900572 -0.12454525
000020 46 0e 3f 3b 86 76 5e bc ab 57 d6 3c bd 4f b3 3d
       0.0029152795 -0.013578063 0.02616485 0.08755443
000030 df 63 5b ba 84 31 c9 bc 95 9d 13 bd 1b 49 9f b9
       -0.0008369069 -0.024559744 -0.036038954 -0.0003038131
000040 07 84 c6 39 96 1e 6e bb 44 63 f9 3c 8b 59 0e ba
       0.0003786387 -0.0036334149 0.030442841 -0.0005430213
000050 7e 27 0b bd a6 18 a3 bc 46 48 14 bc 7d 47 c1 bb
       -0.03397321 -0.019909214 -0.009050434 -0.0058984146
000060 e2 8f dd 3b 4d 16 fa b9 6e 8f 1a 3b b1 d0 3e ba
       0.006761537 -0.0004770033 0.0023584026 -0.0007279022
000070 f8 0d b7 bb 2b 33 fa bc 74 f8 c1 bc 96 c7 0b 3c
       -0.005586382 -0.030541977 -0.023678042 0.008531472
000080 fe 61 38 ba 32 03 3f bc e9 96 5e ba 7e d6 0e ba
       -0.0007033645 -0.011658477 -0.00084911153 -0.0005448832
000090 57 f1 07 b9 17 c6 fc bc 00 12 e6 37 b2 e7 01 bc
       -0.0001296451 -0.030856175 2.7426518e-05 -0.007928776
0000a0 a7 c0 b0 b9 a0 52 14 b8 45 55 92 bc bd d3 99 b9
       -0.00033712873 -3.53629e-05 -0.017862925 -0.0002934019
0000b0 00 38 87 bc 21 06 7d bc 23 d2 b2 3c 3f 2e 28 bc
       -0.016506195 -0.015443356 0.021828717 -0.010264932
0000c0 20 39 57 39 e4 2d 77 ba 31 30 12 ba e2 e8 11 3c
       0.00020525279 -0.00094291405 -0.0005576639 0.008905621
0000d0 dd 8e 9f bc dd 54 54 bc 37 e9 83 3b 1e 3d de bb
       -0.019477302 -0.012959686 0.004025604 -0.006782188
0000e0 73 43 56 3c cb 49 6d 3a fc e0 31 ba 68 26 d4 3b
       0.013077605 0.00090518285 -0.00067855394 0.006474305
0000f0 c9 ed ee b8 28 d0 cc b9 53 c2 a2 3c 54 ae de b9
       -0.00011393015 -0.00039065 0.019868052 -0.00042473024
000100 c7 a8 28 ba 2b dd 38 3c 0b f6 89 3b 1f a8 b6 ba
       -0.0006433841 0.011283199 0.004210239 -0.0013935602
000110 66 25 ef 3c cb 04 95 b9 f2 96 ee 3c 3c c3 ac 3c
       0.029192638 -0.00028423066 0.02912471 0.021089189
000120 3c 18 c8 bb e2 17 10 bc f2 b5 f6 3a 08 92 23 ba
       -0.0061064046 -0.008794757 0.0018822534 -0.0006239717
000130 a0 b1 e1 b8 23 57 2d bd b6 14 ae b9 dc 2f fb b8
       -0.00010761921 -0.04231943 -0.00033203297 -0.00011977527
000140 3d 30 3c 3c e3 e9 a6 b8 65 8f 2a 3d 40 cc 3c bd
       0.01148611 -7.9590616e-05 0.041640658 -0.046093225
000150 c5 60 c1 3d 0e 96 85 bd 4d 78 a4 3d ee 77 ea 3c
       0.094422854 -0.06522761 0.08030758 0.02862164
000160 de 2d 0c ba d8 f9 bd bc a9 e8 10 ba 24 c9 8e bc
       -0.0005347411 -0.023190424 -0.0005527833 -0.017429896
000170 d6 85 00 ba ac be 1c b9 57 7e e0 b9 a1 8a 67 bc
       -0.00049027556 -0.0001494835 -0.0004281874 -0.014132173
000180 0d 7e e5 b9 3e 95 4f bc 53 3d 3f b8 f0 b6 51 bd
       -0.000437722 -0.012669859 -4.559506e-05 -0.051199853
000190 88 b5 ba 3d 73 3f 13 ba c0 73 d6 b9 d9 df ed 3c
       0.091166556 -0.00056170597 -0.000409035 0.029037403
0001a0 05 e2 95 3c 2a 01 e8 b9 6a e0 00 bc 01 b2 8d bc
       0.018296251 -0.00044251356 -0.0078660045 -0.017296793
0001b0 b7 e4 b1 3b 5e 2e eb 3b bd f3 98 ba f2 28 48 b9
       0.0054288763 0.0071771583 -0.0011669319 -0.0001908874
0001c0 77 d6 8e ba 69 39 81 3b d3 68 a8 b9 71 c0 52 ba
       -0.0010897656 0.0039436114 -0.00032121557 -0.000803954
0001d0 77 10 20 3c 14 18 94 b9 08 a0 4b bd 88 e5 77 ba
       0.0097695505 -0.000282467 -0.049713165 -0.0009456505
0001e0 1e 7c e6 bc 00 e2 dd bb a3 e1 43 b9 5f b6 3b ba
       -0.028135356 -0.006771326 -0.00018680705 -0.00071606593
0001f0 a5 69 76 3c 68 22 96 ba c6 c1 4b b9 f4 ab 14 bc
       0.015039836 -0.0011454346 -0.00019431775 -0.0090742
000200 90 52 c8 bb 64 fc 2d 3e 06 92 11 3a 0e df 74 3d
       -0.006113358 0.1699081 0.000555307 0.059783034
000210 7c d6 0b 39 05 13 30 be 85 2f 4b 3a 4c 0b 98 3e
       0.00013335975 -0.17194755 0.00077509164 0.2969612
000220 c0 cc 28 3c a6 cd 18 bd 42 e4 7a 3c e4 03 33 be
       0.010302722 -0.037305497 0.01531321 -0.17481953
000230 08 a9 3e 3a 51 98 56 3d 4f c6 7e 3d 59 57 c8 39
       0.00072731124 0.052391354 0.06220084 0.00038212052
000240 18 13 dc b9 fc df 2a 3d 0f d2 ac bd e1 cb 38 3a
       -0.00041975896 0.041717514 -0.08438503 0.00070494233
000250 18 15 4c 3d 7b 1f 01 3e e4 be 8e 3d 8b 78 7c 3d
       0.049824804 0.12609665 0.06970003 0.061638396
000260 b1 ae 4f bc 49 e8 12 3a 4a 4e 58 bc 46 45 2a 3a
       -0.012675927 0.0005604071 -0.013202259 0.0006495308
000270 2c 4c 60 3c 77 f7 9c 3d 79 fd 55 3d e6 64 b0 bc
       0.013690036 0.07664388 0.052243683 -0.021532487
000280 39 ee 9d 3a 6e d0 90 bb e3 b1 1c 3d 2c fb 22 3a
       0.0012049145 -0.004419378 0.038255583 0.0006217237
000290 bb 3c 4c 39 47 c5 9a 3d cc cf 6a 37 a3 87 5b bc
       0.0001947758 0.07557159 1.3995868e-05 -0.0133990375
0002a0 c7 22 e8 39 e0 96 e9 38 41 40 e0 3d 2c f0 39 bb
       0.000442764 0.000111384084 0.109497555 -0.0028371913
0002b0 94 ab 62 bd a3 3f e3 3b f1 23 c3 3a 33 b1 97 3d
       -0.05533941 0.0069350763 0.0014888031 0.07406845
0002c0 af 56 5a b9 14 20 4e bb 13 b0 1f 3a 46 26 8d bc
       -0.00020822392 -0.0031452226 0.0006091606 -0.017230164
0002d0 5b a6 d8 bc dc 1f 8c 3c 4d 65 8e bc 82 be 5a 3d
       -0.026446512 0.017105035 -0.017382288 0.05340434
0002e0 37 ce 3b 3c d4 82 e5 3b 1c 72 2f 3a 1d 6d 2d bc
       0.01146274 0.0070041213 0.0006692724 -0.010585097
0002f0 c0 d7 03 bb 1c 05 84 bb 9d 15 e9 bd b1 a5 d4 39
       -0.002011761 -0.0040289294 -0.113810755 0.0004055924
000300 e0 bf 3d 3a 89 3d b9 bd 68 5f 8c 3b 5e 1a c8 39
       0.00072383694 -0.0904494 0.0042838342 0.00038166618
000310 6e a8 e9 b9 13 29 98 39 f4 52 80 3a 93 09 61 bc
       -0.00044566713 0.00029022302 0.0009790347 -0.013735193
000320 0f 33 56 3d f3 60 ae 3c cc 30 b0 bb da f2 03 3b
       0.052294787 0.021286463 -0.005376911 0.0020133764
000330 e0 2c ad 3a 4c 19 fc 3d 93 85 4a ba 26 e9 2d 3b
       0.0013212226 0.123095125 -0.00077255926 0.0026536672
000340 29 9e 85 b9 10 59 fa 39 3b 7c 12 3d 81 98 99 3d
       -0.00025485575 0.00047750073 0.035763007 0.07499791
000350 4e 79 11 be b0 76 da 3d 67 01 66 be 4c fc 75 3c
       -0.1420643 0.10667169 -0.22461472 0.015013766
000360 f3 f9 f1 ba a8 56 aa bc 91 25 3a 3a 08 61 7d bd
       -0.0018461331 -0.020793274 0.0007100935 -0.061860114
000370 03 ac 56 3a 01 2b 42 3a 9f 09 13 3a 8c 66 cc 3d
       0.0008189084 0.0007406921 0.00056090386 0.09980497
000380 70 29 f4 38 4b 97 91 bb 04 d8 e4 38 a6 ce 06 3e
       0.00011642545 -0.0044430844 0.00010912123 0.13164768
000390 37 88 17 be ef c5 32 3a 75 9e 7d bb 30 aa a7 bc
       -0.14798056 0.00068196555 -0.0038699184 -0.020466894
0003a0 00 94 4b bb 78 c7 88 3a c5 77 0f ba 1f 81 a4 3d
       -0.0031063557 0.0010435423 -0.0005472864 0.080324404
0003b0 3f 5b 16 3c 9d bd 01 bd b2 11 8f 3d 89 f4 4a b9
       0.009177028 -0.03167497 0.06985797 -0.00019355318
0003c0 bc 3b 23 3b 04 1d a1 3b 0e 03 32 3a 77 b6 87 bb
       0.002490743 0.004916789 0.00067906163 -0.0041416246
0003d0 59 ee 00 be f6 a3 89 39 89 b8 1c 3e 51 1e 03 3b
       -0.12590922 0.00026252837 0.1530477 0.0020007084
0003e0 1b 0b 5e 3d c3 db ee 3d 8c ce 91 39 f0 7f c0 b8
       0.05420981 0.1166301 0.00027810445 -9.179104e-05
0003f0 d8 14 b3 bd 21 ba b6 3a 44 9d 88 39 8f 98 5d 3d
       -0.0874421 0.0013940969 0.00026057113 0.05410057
