mine/ProG-main/Experiment/pre_trained_model/COX2/MultiGprompt.pth (torch, 225939 bytes, 15 tensors)

dgi.prompt f4 [1, 128]
00000000: 7039 f0bd 78c1 a13d 2497 0b3e 91e3 48be
00000010: fcad 8dbc 1cbb 4f3d 5166 4bbd 5f39 573e
00000020: 612b 47be b354 1d3d 2293 46be d32a d2bd
00000030: 871e 15bd 903e 0abe 373f b0bd bb9c 0cbe
00000040: 2e86 a6bc ba95 223d 78f0 babd d279 333c
00000050: 6ab0 dbbd 562c 9f3c 30b7 ff3d fe8c d53d
00000060: 249b 743d f287 a8bd e8ed b2bc 5e8f f23d
00000070: 85e8 dfbd b089 e6bd 9046 3a3d 2f03 943d
00000080: a35f 0d3e 7c60 5dbc 40f5 a83d 5a5a 3e3e
00000090: 5b4d 2a3d 8a9e 58be b11c 14be 9eb8 ecbd
000000a0: b64c 3dbe c34b ab3c d38a 9c3d ddaf 00be
000000b0: 0cbb 30be 099f 463e 012f afbb 5312 83bd
000000c0: c279 58be 005d 83bd 95fe 5a3e 416f 12be
000000d0: 4ebe b1bc a66d b03d 9a05 16be 70c8 fdbd
000000e0: df10 333d 5fb3 df3d e85d 38be 8a6d 903c
000000f0: 5b7b ae3c 19ce 62bd d195 063e 6740 3dbc
00000100: 4a68 373e ec0a 723d ca70 953d 7a61 343e
00000110: 07e2 abbb b314 ae3c 6c2e a2bc c60e 583c
00000120: 1232 d1ba 8137 e63d 213b 53be bc88 2cbb
00000130: d50a cebb 093c e3bd e12e 54be 4394 073e
00000140: 51e6 d03c 375f 393e 10a5 0ebe 8272 52be
00000150: dde0 c1bd 1ce6 fcbd aaf9 963d 1282 3c3e
00000160: e716 1bbe 5c0a 83bd e0d7 163e 8392 07be
00000170: aa03 473e bdbd 8bbc ed3c 68bd ae76 d33d
00000180: 0670 15bd 7c92 c93d 5fef de3d 0cc7 973d
00000190: 2298 5c3e 9b05 3f3e 351e 87bd aa4b 29bd
000001a0: 64c5 f8bc 5723 39be 9082 473d 5190 c6bc
000001b0: 5f44 06bd 316d 2cbe 82ad a1bc 5bef 903d
000001c0: 7083 703c 91a5 003e 8a8c 933d ac7c 5abe
000001d0: 80f5 f23d e0e3 793d 271a 0d3e a8bc b7ba
000001e0: 8a67 0bbe 6094 b83d a933 2abe 1070 4fbe
000001f0: ffc3 dbbd ad92 be3d 9bad a3bd 421e a53d
-0.11729705 0.07898229 0.13631874 -0.1961806 -0.017294876 0.05071555 -0.049658123 0.21017979
-0.19450141 0.038410854 -0.19392064 -0.10262074 -0.036406066 -0.13500428 -0.08605807 -0.13731663
-0.020327654 0.03969357 -0.09127897 0.010954337 -0.10727008 0.01943032 0.12486112 0.10427283
0.059718266 -0.082290545 -0.021841958 0.11843751 -0.109330215 -0.112567306 0.04547745 0.0722717
0.13806014 -0.013511773 0.08249903 0.18589154 0.04157768 -0.21154228 -0.1446407 -0.115586504
-0.18486294 0.02091015 0.07643666 -0.12567087 -0.17258853 0.19396605 -0.0053461795 -0.063999794
-0.21140197 -0.06414223 0.21386178 -0.14300252 -0.02169719 0.08614664 -0.14650574 -0.12391746
0.04371726 0.10922884 -0.18004572 0.017630357 0.021299055 -0.05537233 0.13143088 -0.011550999
0.17910877 0.059092447 0.072969034 0.1761531 -0.0052454504 0.021250105 -0.019797526 0.013187116
-0.0015960357 0.11241055 -0.20628025 -0.0026326617 -0.0062879124 -0.11095435 -0.20721008 0.13240151
0.025500448 0.18102728 -0.13930154 -0.20551494 -0.094667174 -0.123485774 0.073718384 0.18408993
-0.15145455 -0.0639846 0.14730787 -0.13239484 0.19434991 -0.017058248 -0.05669873 0.10325371
-0.036483787 0.09842393 0.108855 0.07411012 0.21542409 0.18654482 -0.065975584 -0.041331924
-0.03036756 -0.18079887 0.0487085 -0.024238737 -0.032780048 -0.16838528 -0.019736055 0.070769034
0.014679775 0.12563159 0.0720454 -0.21336621 0.11863232 0.061008334 0.13779508 -0.0014018016
-0.13613716 0.09012675 -0.1662127 -0.20257592 -0.10730743 0.0930532 -0.07992097 0.08062412

dgi.disc.f_k.weight f4 [1, 128, 128]
00000000: 5855 86bc cdd4 7ebc 414a 04bc 1729 c93a
00000010: 03d4 b7bb 0a50 04bc 5f82 5b3c 9156 81ba
00000020: 5800 673c 9b9c 47bc 9cfd 08bc e481 343b
00000030: 13db 60bc ab42 613c 6c75 983c 52cd 073c
00000040: 8ddd 25bc 2f23 a3bb 0102 9fbb 0d3f 5fbb
00000050: 617e e5ba 915a 373b 7718 893c 1d38 a33b
00000060: ee33 4f3c d629 9bba ceb0 793c 4df8 17bc
00000070: 4d63 95bc 83cf 7bbb 4903 843c 75fa 3c3b
00000080: d4ed cbbb 688e 42bc f8a3 393b ca14 8b3c
00000090: 4622 83bb 459a bc3a 52a8 6b3c 15a3 5fbc
000000a0: 692a 62bb d9ac 1dbb 8c17 97bb c635 6f3c
000000b0: 072d 3a3c 6e05 9bbc 528f 953b 53dc 5bbc
000000c0: 348a febb b8d2 35bc a526 13bc 8aad 10bc
000000d0: eac4 03bc 0edc 9b3c 9aea 42bb 3172 003c
000000e0: def3 323b 0629 6fbc d24b a5bb 9e32 533c
000000f0: d882 733c ccfa 363c 281f 25bc 8335 e33b
00000100: 86db 193b d5b3 7bbb 9460 61bb a937 bfba
00000110: 811c 90bc 56f1 35bc 0515 9b3c a807 d4ba
00000120: 6b07 093c 6bb3 363c 450d c2bb d52d ec3b
00000130: fe82 ae3a 6405 2abc 6f3f 4fbb bde8 2abc
00000140: dd19 05bb a13b 14bb f7f9 63bc e606 4abb
00000150: d8bf 2fbb 6a9f c4bb 937c 583b b9a5 783c
00000160: 653a b0bb d190 8e3c 027c 4fbc e394 19bc
00000170: ceac 963c e21c 673c 6bd9 54bb 4e32 003b
00000180: 1e40 763c a7ea edbb a7ce 5ebc 42af a13b
00000190: 4dc5 663c 8e20 1a3c 0288 a1bb fbb2 deb9
000001a0: aae5 3a3b 99d3 1a39 e269 b63b f609 1dbc
000001b0: 00db 813c 6d43 3d3c ff5e 9a3c b22b 1bbc
000001c0: 7d3c 6d3c cd07 48b8 ab5f 6e3c b2a5 8fbc
000001d0: 92c4 eb3b 85f8 c83a bb39 303b 720c 903c
000001e0: 249e 3bbc 3e98 36bb cd42 4b3b f813 8d3b
000001f0: 9674 6bba 57ae 8ebc 9ccc 9b3c a4b3 59bc
00000200: e187 933c 1052 893c 1ed1 18bc bd11 51bc
00000210: da01 6ebc a311 853c ce87 1f3c 0661 74bc
00000220: 52c5 84bc 9754 923b 5f54 19bc 4bda 73bc
00000230: ae40 64bc 20a6 84bc d539 773c ed57 3b3b
00000240: e0f5 073c 73f2 5abc cffe 3d3a a491 8ebc
00000250: 9666 efba fe1b 9ab8 a9a1 4c3c 08f4 edbb
00000260: f371 093c b0cc 9e3b 22f9 c3bb 62d0 02bb
00000270: 886f 5d3a c31f f13b d565 42bc 9ea6 15bb
00000280: 3e43 073c b94e 99bc 4268 78bc f8e0 18bc
00000290: 6e74 8cbc 2559 763c 320a 77bc c987 32bb
000002a0: 5b73 1d3c 54c2 3fbc 1e53 563b 6a5b f2bb
000002b0: 0c1e 3cbc 4981 f9bb 3d14 91bc 868c 29bb
000002c0: 7431 01bc 5269 20bc a139 26bc 83b7 1ebc
000002d0: e488 36bc a115 85bb 4a43 7b3b e534 963b
000002e0: 456a 1ebc 8f42 33bb d26e be3a dc0c 05ba
000002f0: 2c6c ae3b 0ec9 b5bb e8f4 23bc 9d46 95bc
00000300: d44e 95bc 7a81 563b 7f3b 903c 9884 43bc
00000310: 2b12 113b 9c92 d83b 117c 893c 46b4 453c
00000320: dff3 9a3b 1ec8 f6ba 842a b0bb ddf1 2fbc
00000330: 0be3 8ab9 3739 283b cf20 7a3c 78de 8a3b
00000340: b482 113c f828 83bc f254 39bc c821 9cbb
00000350: 9ab1 21bc 1030 8fbc 7f1b b8bb 5703 c53b
00000360: bbb1 05bc d2d6 5d3c 18ff 453b a33d a53b
00000370: c7f6 7b3b 5c21 af3a 3d18 9dbb 3186 75bc
00000380: 7432 b9bb d4d8 fdbb fa46 0e3c df98 643a
00000390: 3bc0 7bbc d2d7 1b3c b9d0 1d3b c453 443c
000003a0: eec6 713c 2ce7 39bc 648f f9bb d20a 8d3c
000003b0: e0e9 90bc d93d cebb ca4a 8fbc c436 92bc
000003c0: 4f3b 92bc 7e7d 973b 96bc 42bb 2be1 41bc
000003d0: 98c2 0b3c 875f 813b fdf1 0a3a 422b cb3b
000003e0: 3ceb 71bc b9c4 903c 3164 03bc 9bda 213c
000003f0: a7cc c73b db23 8abc 0cd1 1dbc 3f5c 1cbb
-0.016398117 -0.015553665 -0.008074344 0.0015347329 -0.0056099906 -0.008075723 0.013397782 -0.0009867718
0.014099203 -0.012183334 -0.008361246 0.002754324 -0.013724106 0.013748805 0.018610679 0.008288698
-0.010123623 -0.0049785594 -0.004852534 -0.003406468 -0.0017508977 0.0027977566 0.016735299 0.0049810545
0.012646658 -0.001183803 0.015239907 -0.009275508 -0.018235827 -0.0038423247 0.016114848 0.0028835807
-0.0062234197 -0.011874773 0.0028326493 0.016977686 -0.0040018884 0.0014389238 0.014383392 -0.013649722
-0.0034510142 -0.0024059324 -0.0046109613 0.014600223 0.011363274 -0.018923488 0.0045642043 -0.013419229
-0.00776794 -0.011097603 -0.008981382 -0.008830437 -0.008042553 0.019025829 -0.0029741884 0.007839725
0.0027306 -0.014597183 -0.005044439 0.012890486 0.014862739 0.011168193 -0.010078229 0.0069338693
0.0023476793 -0.0038406749 -0.003438984 -0.0014588732 -0.017591717 -0.011104902 0.018930921 -0.0016176598
0.008363585 0.011151175 -0.005921992 0.007207612 0.0013314185 -0.010377262 -0.0031623503 -0.010431466
-0.0020309605 -0.002261855 -0.013914577 -0.0030826866 -0.0026817229 -0.006000449 0.0033033236 0.01517623
-0.005378055 0.017403038 -0.012663843 -0.009373876 0.018392947 0.014106007 -0.0032478224 0.0019561234
0.015029935 -0.0072606388 -0.013599074 0.0049342224 0.014085126 0.009407176 -0.0049295435 -0.0004247649
0.0028518238 0.00014765411 0.0055668214 -0.009584894 0.015851498 0.01155172 0.018844126 -0.009470867
0.014479754 -4.769098e-05 0.014549176 -0.017535064 0.007195064 0.0015332854 0.0026889879 0.01758406
-0.011451278 -0.002786174 0.0031015158 0.004305359 -0.0008981911 -0.017417116 0.019018464 -0.013287459
0.018009128 0.016762763 -0.009327201 -0.012760577 -0.014526809 0.016243761 0.009736968 -0.01491571
-0.01620737 0.0044656503 -0.009358495 -0.014883588 -0.013931436 -0.016192496 0.015089472 0.0028586343
0.008298367 -0.013363468 0.0007247747 -0.017403431 -0.0018264826 -7.348506e-05 0.012489715 -0.007261757
0.008388984 0.004846178 -0.0059806267 -0.0019960632 0.00084471004 0.0073585226 -0.011865099 -0.0022834907
0.008255778 -0.018714296 -0.015161576 -0.0093309805 -0.017145362 0.015035902 -0.015078114 -0.0027241579
0.009610022 -0.011704046 0.003270335 -0.0073961513 -0.011481773 -0.007614289 -0.017709846 -0.0025871112
-0.007885326 -0.009790735 -0.010145576 -0.009687307 -0.011141036 -0.0040614163 0.0038339668 0.0045839422
-0.009668891 -0.0027352904 0.0014528877 -0.00050754636 0.0053229537 -0.005547649 -0.010007121 -0.018222148
-0.018226065 0.0032730983 0.017606495 -0.011933468 0.0022136073 0.006609274 0.016782792 0.012066906
0.0047287787 -0.001882795 -0.005376162 -0.010738817 -0.0002649057 0.0025668868 0.015266611 0.004237946
0.00888126 -0.016010746 -0.011311756 -0.004764769 -0.009869004 -0.017478973 -0.005618512 0.006012361
-0.00816005 0.013539987 0.0030211862 0.005042748 0.0038446651 0.0013361382 -0.004794149 -0.014985607
-0.0056517664 -0.007746795 0.008683914 0.00087202893 -0.0153656555 0.009511905 0.0024080707 0.011982862
0.014756901 -0.01134662 -0.0076159704 0.017217074 -0.017689645 -0.006293994 -0.017491717 -0.01784838
-0.017850546 0.004623114 -0.0029714457 -0.011833469 0.0085302815 0.0039481553 0.0005300341 0.006200225
-0.014765557 0.01767193 -0.008019493 0.00987878 0.0060973945 -0.0168628 -0.00963236 -0.0023858694

graphcledge.prompt f4 [1, 128]
00000000: eff3 cfbd aafc 8abc 3d5f 26be 55e9 cbbd
00000010: b8b7 0fbe 4b61 8cbd d37a 01be 038f 1d3d
00000020: 357a 163e 747b 923d 537d 30be a144 1abe
00000030: 6124 12be 1d42 f3bd 7f5b 263e 25f9 4bbe
00000040: ecdc 41be 2f20 ff3d 4765 273e 63a5 633d
00000050: 1477 1cbe 93a2 553e 26e6 c1bd ff2f 2b3e
00000060: be16 ea3d a703 8abd 8dfa 1cbd cf5d 8bbd
00000070: 7ad8 04be cb5d ea3d c469 f1bc c43f 103c
00000080: 1f14 b3bd 8c41 09be 924e 31be 8dbf 45bd
00000090: dab0 e4bd 64d8 05be 80c9 0fbe 45c7 aebb
000000a0: 1c38 95bd 010a 1c3d 5076 07be 1d6b 2b3e
000000b0: a1ac 813d 1651 00be e2a2 07bd cc3d d13d
000000c0: 8be1 c33d 07bd ee3c 180e 9ebb 2d86 c7bd
000000d0: 792f 07bd ef2f 4dbb ff2e 0bbd 4c9c 393e
000000e0: 02a0 053e 44cd 0b3e 6037 3abe c5ef f23d
000000f0: b84b f43d 0c01 93bd 0adb ca3d ddd1 1f3e
00000100: beb9 503e 7197 063e 8913 523e 7cfe 4d3d
00000110: 9718 06be 2f5a fc3d 441a 90bd 4971 4cbb
00000120: 2778 d83d aa94 04bd d354 353d 5712 c6bd
00000130: 042f e5bd b0c2 14be d362 ecbd 8773 b03c
00000140: b29e 5f3b 7026 28bd 0c34 81bd 65f7 0f3e
00000150: 2b46 b3bd 0b17 443d e5eb e6bd 3444 5bbe
00000160: b492 b3bd d128 10be 3131 b93d c321 303e
00000170: f909 413e cd9f 48be 0fc1 923d 36b1 8cbd
00000180: d002 1bbd f325 cfbd e39d eabc f6d4 c4bc
00000190: 7917 033d 098b 353d c431 123e 4490 35bd
000001a0: 45ed 2f3e 73a0 b3bd 2b56 98bd 0660 2c3e
000001b0: ad1a d8bd c080 b83d ae93 af3d 45ee 5b3d
000001c0: 344c c93b 603f 233d c8d7 b63d 46d4 243e
000001d0: d795 b63d 0e6b 723d c3e0 eebd 6b47 a6bd
000001e0: f260 a1bd e17e 2b3e 835c c73d bf5b 2f3e
000001f0: 856b 563e 196c 08bd 0cdf 46be 6042 443e
-0.101539485 -0.016966183 -0.16247268 -0.09956614 -0.14034927 -0.06854495 -0.1264451 0.038466465
0.14695056 0.07152453 -0.17235307 -0.15065242 -0.1427169 -0.118778445 0.1624584 -0.1991926
-0.18931931 0.124573104 0.16347228 0.055577647 -0.152798 0.20862798 -0.094677255 0.16717528
0.11430119 -0.06738978 -0.03832488 -0.06805002 -0.12973204 0.11443671 -0.029469378 0.008804265
-0.08744072 -0.1340391 -0.17315128 -0.04827838 -0.11166544 -0.13070828 -0.1404171 -0.0053338134
-0.07286093 0.038095478 -0.13228726 0.16740079 0.063317545 -0.12530932 -0.03311432 0.10216865
0.09564503 0.02914287 -0.0048234574 -0.09742389 -0.033004258 -0.0031309088 -0.033980366 0.18126029
0.1304932 0.13652521 -0.18185186 0.11862139 0.11928505 -0.07177934 0.0990506 0.156074
0.20383355 0.13143708 0.20515265 0.050291523 -0.13095318 0.12321889 -0.0703626 -0.0031195453
0.10569792 -0.03236834 0.044270348 -0.09671467 -0.11190608 -0.14527392 -0.11542287 0.021539463
0.003412169 -0.04105228 -0.06308755 0.14059217 -0.08753618 0.047873538 -0.11275462 -0.21412736
-0.08768216 -0.1407807 0.09042586 0.17200379 0.1885146 -0.19592209 0.07165729 -0.06869738
-0.03784448 -0.1011466 -0.02863974 -0.024027329 0.032004807 0.044322047 0.14276797 -0.044327036
0.17180355 -0.08770838 -0.0743831 0.16833505 -0.10551963 0.09008932 0.085730895 0.05369403
0.0061431173 0.03985536 0.08927876 0.16096601 0.089152984 0.059184127 -0.11663964 -0.08119091
-0.07879819 0.16747619 0.09734442 0.17124842 0.20939453 -0.033306215 -0.19421023 0.19165945

graphcledge.disc.f_k.weight f4 [1, 128, 128]
00000000: ea46 663c 0e70 693c da76 313a e65c 343c
00000010: de4f 9b3b fde8 7f3c 52b2 183c bce1 83bc
00000020: fd58 7fbc 1bca 80bc 3b0f 883c 31e1 1ebc
00000030: d7e8 32bc dfba 183c 6bda 85bc 60cc d93a
00000040: 535b 2a3c 87ef c3bb 40af beba b851 c73b
00000050: d5ba 4cbc a2c4 483b e612 593c b45d 673c
00000060: 0f08 1e3c b33b b93b 0ac4 32bc fdff 833b
00000070: 6d27 23bc 525a 81bc 2ecd d7bb 1b80 adbb
00000080: 4b81 913c aa7a 47bb 00fb 4b3c 802e 94bc
00000090: d0fa 593b 927b 25bc 823d 67bb a905 28bc
000000a0: d6c7 c8bb 1909 86bc 8e43 4abb 9170 11bb
000000b0: 2d28 80bc 033a f93b 1c9a 073c d10f b93a
000000c0: c664 883c 8e26 86bc 9cef 653b 4c4d dd3a
000000d0: 75d1 68bc e8ec 3f3a 65eb c13b dd6d 8fbc
000000e0: 2adf 58bb 7887 a0bb 4a1d b0ba 073a 9b3c
000000f0: 6fe5 fb3b 9576 41bb b69a 46bc 2c9a a6bb
00000100: ab0a 01bc cb91 a2bb d240 e13a 6a84 773b
00000110: 1acd ab3b c5d1 70bc dd9d 303c 7c80 4fbc
00000120: b791 3a3b d231 023c 5be0 953c 5897 6fbc
00000130: c89c 92bc f31a 39bc 3247 3c3b db96 913c
00000140: d05f 13bc 5205 bd39 3b4c 603c 1420 923c
00000150: d2b2 1b3b 47a7 17bb d099 043c 8e63 8c3c
00000160: 1266 e73b ab94 afbb 8e20 103c 6970 98bc
00000170: f5d4 8d3b 7897 8bbb f7f8 793c 18f3 19bc
00000180: 776e 9b3c 5760 963c 0ce1 5a3c bf0f 49bc
00000190: 440f 353c 700c 7bbc 12f4 7fbc 396d 533c
000001a0: 63e3 49bc 5f8e 623c 978c 663c 75b3 8dbc
000001b0: 86dc 58bc 8bce 83bc 9606 6fbb 78a2 5cbc
000001c0: 029b 823a 386b 0dbc 0299 903b f6b8 5c3c
000001d0: 9dd8 643b 798b 573b fab4 2c3c b283 573a
000001e0: 7ebd 36bc fdf0 3abb d5ec 84bc 2002 423c
000001f0: de7a 453c de5f 203c 525d 363c b1e6 90bc
00000200: 7e63 8c3a 2087 193c 8a7b cfbb 78af 163b
00000210: d484 76bc 7625 83bc 0ebf 23bc 41a2 883b
00000220: c8cd 983c 53e8 7d3c 032e ae3b cb2e f83b
00000230: f1f6 833c 5bf5 663c 9878 663c 5e2f ddbb
00000240: 8779 863c 10b3 bbbb bb40 133a e335 c73a
00000250: f9f8 84bc d99f 87bc e3e0 8c3c d322 92bc
00000260: 2b92 12bc 2dcc 34bc 1b2f 9abc 81eb 03bc
00000270: 421f 66bc 3a79 463c 0c64 2c3c f72e 87bc
00000280: 7b0e 49bc abff a73b bd0d 883c 5984 733c
00000290: 4a40 b6bb b10f 58bb 880b 99bc a886 37bc
000002a0: d598 9dbb 52b4 963c 2f8c a93b 8836 80bc
000002b0: 6e87 3ebc f7d5 67bc 5efa 8b3c 8188 37ba
000002c0: 9637 303c 4aa4 21bc 5e46 68bc 601e 5c3c
000002d0: 5079 a4bb 7e43 a33b ff6e 01bc be6f 8e3b
000002e0: e101 4dbc be7f 5e3a 002d fd3b 43d8 06bc
000002f0: 57a2 173c b038 8e3c ff5b d03b 2f87 75bc
00000300: d712 863c 4e53 91bb e23c 1a3c db8c 4f3c
00000310: 1e6b 223b 798f 8abc 341a 1c3c 1131 92bc
00000320: 03fd 68bb 1f0b f43b 3f8d b6bb 7217 033c
00000330: ac56 00bb d380 493c a8ca 32bb cbfd 4e3c
00000340: 7922 60bc ff6e 8c3c 141a 2f3c f584 c4bb
00000350: 9a09 8ebc 7259 a2bb 59df a6ba d29a 883b
00000360: 41c1 843c 0320 26bc 7f5c 9f3a cf7a 07bc
00000370: 2eac 893c 6ee7 f2b9 6d98 d03a 9748 86bc
00000380: 3d01 683b e02e c23b bb8c 67bb 4e04 cfb7
00000390: 1b9e 23bc b654 7bbc 1929 683c d6a3 b1bb
000003a0: 5270 143b dc4a 7d3c d8c1 94bc aee0 79bc
000003b0: 7def 073c 84a5 613c 3af7 853c 84ff bd3b
000003c0: 3a4c 78bc d69c 493c 5872 9bbc 1a8d 143b
000003d0: f2f6 67bc 6a5f 473c eb81 8a3c 5eb3 8f3c
000003e0: 4b37 9038 1c29 63bc ed8b 85bc 408b 6c3c
000003f0: 70eb 0abc 848e cbbb 2238 4c3c b385 5e3c
0.014054993 0.014247907 0.00067697244 0.011008477 0.0047397455 0.015619514 0.009319859 -0.01609885
-0.015585181 -0.015721371 0.016608825 -0.0096972445 -0.010919771 0.009321897 -0.016339501 0.0016616695
0.01039775 -0.0059794816 -0.0014548078 0.0060827397 -0.012495716 0.003063478 0.013249135 0.014121462
0.009645476 0.0056528687 -0.010910997 0.004028319 -0.00995813 -0.015790138 -0.0065857386 -0.0052948124
0.017761847 -0.0030438104 0.01244998 -0.01808858 0.0033261068 -0.010100262 -0.0035284464 -0.010255256
-0.006127338 -0.01636176 -0.003086302 -0.002219234 -0.015644157 0.0076057925 0.008276489 0.0014119094
0.016649615 -0.016375806 0.0035085445 0.0016883998 -0.014210095 0.00073213736 0.005917954 -0.017508442
-0.0033092 -0.0048989616 -0.0013436463 0.018948568 0.0076872627 -0.0029520143 -0.012121847 -0.0050842967
-0.007876079 -0.0049612275 0.0017185456 0.0037768134 0.005242956 -0.01469845 0.010779825 -0.01266491
0.00284682 0.007946448 0.018295458 -0.0146234855 -0.017897025 -0.011297929 0.002872896 0.017772129
-0.008995011 0.00036052853 0.01369005 0.017837562 0.0023757708 -0.0023140477 0.008093312 0.017137315
0.0070617283 -0.005358299 0.008796824 -0.018608289 0.004328365 -0.00426 0.015257112 -0.009396337
0.018973572 0.018356485 0.013359319 -0.012271821 0.011051003 -0.01532279 -0.015622156 0.012904459
-0.01232228 0.013827889 0.014071605 -0.017297486 -0.013236171 -0.016089698 -0.0036472431 -0.01346647
0.0009964409 -0.00863152 0.004412771 0.0134718325 0.003491915 0.0032889529 0.010541195 0.0008221223
-0.011153577 -0.0028524988 -0.016226212 0.011841327 0.01205322 0.0097884815 0.011130648 -0.017688127
0.0010710803 0.009370595 -0.0063318657 0.002299277 -0.015046317 -0.016009074 -0.009994281 0.004169733
0.018652812 0.015497285 0.0053155436 0.0075739375 0.016108962 0.014096583 0.014066838 -0.0067500314
0.01641537 -0.005728133 0.00056172506 0.0015198555 -0.016232 -0.016555713 0.017197078 -0.017838871
-0.008945982 -0.011035007 -0.01882129 -0.008051754 -0.014045538 0.012113864 0.0105219 -0.016501887
-0.012271519 0.0051269135 0.016608113 0.014863097 -0.005561863 -0.0032968337 -0.018682256 -0.011201538
-0.0048094788 0.01839653 0.005174182 -0.015651003 -0.011628969 -0.014150134 0.017087158 -0.00070012367
0.01075544 -0.00986583 -0.014176933 0.013434976 -0.0050193444 0.004982411 -0.007899999 0.004346817
-0.012512655 0.0008487663 0.0077263117 -0.008230272 0.009255013 0.017361015 0.006358623 -0.014985844
0.016366405 -0.0044349795 0.00941393 0.01266786 0.0024783085 -0.016914116 0.009527732 -0.017845662
-0.0035551197 0.007447615 -0.005571037 0.008001195 -0.001958291 0.0122987805 -0.0027281437 0.012633751
-0.013680094 0.01714277 0.01068737 -0.005997295 -0.017338563 -0.0049545104 -0.0012731358 0.0041688466
0.016205432 -0.010139468 0.0012158303 -0.008269026 0.016805734 -0.00046330265 0.0015914567 -0.016392035
0.0035401129 0.005925998 -0.0035331685 -2.4678327e-05 -0.009986426 -0.015340021 0.014169955 -0.005421142
0.0022649956 0.015459742 -0.018158838 -0.015251322 0.008296845 0.013772372 0.016353238 0.005798282
-0.015154893 0.012305459 -0.018975422 0.002266711 -0.014157997 0.012168745 0.016907653 0.017541584
6.876754e-05 -0.013864782 -0.016302073 0.014437497 -0.008478984 -0.0062120575 0.012464555 0.013581681

graphclmask.prompt f4 [1, 128]
00000000: 2915 313e 9805 9abc 3302 ac3d 1b56 31be
00000010: 8c16 b33d a620 0d3e ac42 c73c 3528 6bbd
00000020: 9994 47be 234a f3bd caf6 423e 6839 0f3c
00000030: c957 2c3e d92d 293e a731 36be d720 81bd
00000040: 1768 96bd bb13 023d 0e0f 43be 90b1 153e
00000050: 7183 54bd b016 0c3e 143d d4bd e341 73bd
00000060: 942d 033e ace0 273e 2f14 9e3c 159e adbd
00000070: e18d bd3c cc77 513e 878e 87bd 5f9d 34bd
00000080: 3fe0 d9bd 57aa 4f3e 2f25 103e 36c7 a4bc
00000090: f1ec 57bd 1c60 273c 792e 42be 8f45 553e
000000a0: 640a 113e 7ffa cdbc 578a 5fbd d703 de3d
000000b0: b27e 403e 945e 0b3d b17d 03be b52f 443e
000000c0: 3b6f 36be f1cc 263e f12c c73c 07d8 c83d
000000d0: 149b ca3c 0b13 3b3e 0147 05be e69c 5dbd
000000e0: 1fa4 0e3e fc90 213c 563c 4ebe f9cb 3d3e
000000f0: 022f 343d 2db1 1e3e 37cc 41bd 3ae2 2a3e
00000100: 8457 433e 63ee f1bd dafd 40be 6efa fb39
00000110: 59b3 e93d 36ef 093e e431 1e3c 4102 bfbd
00000120: 1615 39be cc3c c13d 5269 2ebd 8332 073e
00000130: e75b 4d3d fce8 06be 1759 5b3e 6359 8e3d
00000140: d0d4 6dbd c872 8ebd 466f 0cbe 5b4f 863d
00000150: 27cd 493e 0397 393c 93e1 45bd 3e48 abbd
00000160: b2c5 e6bd 50d6 ec3d 585b 53be 9e58 443e
00000170: b744 8a3d 9fe3 1e3e b532 c53d 1176 e5bd
00000180: f4cc cf3d b14c 88bd 5034 59be 12d5 e4bd
00000190: d8da 8dbb 3894 01be 801d 9ebd cc62 e13d
000001a0: 5004 fbbd 5149 44bc 24c6 5ebd 4954 1abd
000001b0: 540c 0c3e f201 e73d 61e0 213e 665f dfbd
000001c0: 89b3 07be 62d5 f13b b78d 283d f6e7 253e
000001d0: 466a 113e 44b6 08be 77bb 29be 56de 30bc
000001e0: 0125 013e 68cd a53c 1bb0 aabd 5798 32bd
000001f0: 0567 02be 0c11 2f3e b4c8 13be e11d 20bd
0.17293228 -0.018801495 0.08398857 -0.17318003 0.08744535 0.13781986 0.024323784 -0.05741139
-0.1949028 -0.11879375 0.19039455 0.008741714 0.16830362 0.16521396 -0.17792378 -0.06305092
-0.07344072 0.031757098 -0.19048712 0.14618516 -0.051883165 0.1368053 -0.10363212 -0.059389006
0.12810355 0.163943 0.019296734 -0.084774174 0.023138942 0.20455855 -0.06618982 -0.044095393
-0.10638475 0.20279823 0.14076684 -0.020114522 -0.0527162 0.010215785 -0.1896304 0.20827316
0.1416412 -0.02514386 -0.05457529 0.10840576 0.1879833 0.034025744 -0.12840916 0.19158824
-0.17815869 0.16289116 0.024313422 0.09806829 0.02473215 0.18268983 -0.13015367 -0.054104708
0.13929795 0.009861227 -0.20140204 0.1853484 0.043990143 0.15497275 -0.047313895 0.16687861
0.19076353 -0.11813047 -0.18846837 0.00048061035 0.11411161 0.13470158 0.00965545 -0.09326602
-0.1807445 0.09435424 -0.04258091 0.13202862 0.050136473 -0.13174814 0.21420704 0.06950643
-0.058064282 -0.069554865 -0.13714322 0.065581046 0.19707166 0.011327508 -0.048310827 -0.083633885
-0.11268176 0.11564314 -0.20640314 0.1917443 0.067513876 0.15516518 0.09628812 -0.1120416
0.101465136 -0.06655253 -0.21211362 -0.111734524 -0.0043290667 -0.12654197 -0.077204704 0.11005172
-0.12256682 -0.011980371 -0.05438818 -0.037678037 0.13676578 0.11279668 0.1580825 -0.10906868
-0.13252081 0.0073801735 0.041150775 0.16201767 0.14200696 -0.13350779 -0.16575418 -0.0107951965
0.12611772 0.020239547 -0.08334371 -0.043602314 -0.12734611 0.17096347 -0.14432031 -0.039090995

graphclmask.disc.f_k.weight f4 [1, 128, 128]
00000000: 3694 1138 e859 43bc c2d1 3dbc cc89 4c3c
00000010: cc61 4bbc 2d1b bebb 8be9 0d3c 95da e23b
00000020: 5428 f2bb ee4b 753c cfe4 c8bb 2476 283a
00000030: 6df3 0ebc f110 c1ba d20a 823b 5343 c73b
00000040: 1134 85bc fe5f 453c 8eab 1fbc 5cac 55bc
00000050: c855 72bc 5047 9c3a e0da 19bb b224 80bc
00000060: ee51 343b 846a 95bc 5af9 473c dfd6 febb
00000070: 20ce 81ba 1815 b3bb e94e 5f3b 7cae 89bc
00000080: 371a bd3a 7126 19bc b889 1b3b a630 eb3b
00000090: 1935 46bc bc9d 05bc 42f3 e33b 5ad3 4e3c
000000a0: 87a1 853b 1a17 acbb 143b 2bbc 87e8 7c3b
000000b0: 5f46 153c 362c f4bb 9ffe 66bc c6b1 833c
000000c0: 932a 34bc 1107 40bc 60bc 603a c61f d73b
000000d0: 48ff 343b fe63 283a 74ee 863c a820 49bc
000000e0: e630 b2ba 25cc de3b fc7a 903b 0fdb 233c
000000f0: 504d 233c a9d5 77bb 1a28 573c 6db5 73bc
00000100: 2782 8e3c 71fe 26bc f3e8 5abc 36c5 1c3c
00000110: 8334 793c 85d6 5f3c bffd 47bc d575 8dbc
00000120: 4dc2 0bba 992d cdbb deda 2fbc 9895 60bc
00000130: d41f 903c 8ccb 8e3c 054e 04bc 9817 e2bb
00000140: 049a 1cbc 08f5 e63b 1f34 233c c3c2 5bbc
00000150: dd86 44bc 32bd 323b 3ef6 783c a226 f5bb
00000160: 7dd3 98bc ef18 babb efa1 0b3c 18a0 0a3c
00000170: 6e8e 623c 004d d6bb a6bb 1abc d5bc 9abc
00000180: f7fa 963c edd9 0fbb 3e00 713c 2037 8bbc
00000190: 9df6 9a3c bd2d 8d3c b6e1 923c 1c80 c6ba
000001a0: 9be9 b9bb 3e62 14bc 2f98 33ba ad8c 13bb
000001b0: 8949 3ebb 35a7 b33b 4c00 363c 7364 88bc
000001c0: b68d 333c 36c3 f23b 776f 643b 7672 493c
000001d0: 95f9 a13a b954 96bc f19e 8b3c 8545 99bb
000001e0: 6016 1ebb 42bb 073c 37ba 75bc 2771 b43b
000001f0: 26a4 1f3c 1241 8ebc d41a 74bb 2c72 783c
00000200: 1add 0fbc 259f 54bc 8cc9 763c c6ad a73b
00000210: 8931 493c 5713 8cbc 8c9d ddbb 1216 65bb
00000220: 3fc4 24bc 0c67 9e3a 0876 f03b 2a11 a5bb
00000230: 7946 fb3b 66d0 92bb 9781 273c c7f7 fc3b
00000240: af89 01bc d423 423c 5bd8 4a3b c0b4 153c
00000250: f58f 003c 60ec 58bc ea55 913a ab08 453c
00000260: 5b8e 923c b3ae aebb 3943 2c3c 69e0 e13a
00000270: 6b90 8b3c 6f97 8b3c 4196 69bc 2714 1c3b
00000280: 0431 0c3c 4823 ed3b 77fc ba3b 8668 143c
00000290: b1d5 dbba 111d 933c 96dc 5abb 4922 973c
000002a0: b5a5 73bc ae98 92bc f3a9 603c dd45 813c
000002b0: e4b4 8e3c 31ea 3e3c 3f9e 643b 1068 a7b9
000002c0: fee6 5fbc f02c ecbb 53d2 92b9 7076 813c
000002d0: 8073 863c 7770 c4ba f8f8 b13b 5771 cc3b
000002e0: 4bcf 24bc 607a 10bc f996 37bc 4960 8e3c
000002f0: d728 873b 0c08 813b 0dfc 253c f475 96bc
00000300: d6ee 873c 515d 403c 1ab1 20bc c6b2 cb3b
00000310: 4f9a 30bc df60 953c 7734 61bc 84cb 893c
00000320: 0484 43bb 81b0 08bc cd72 82bc 53d3 98bc
00000330: d0e5 293a 3b89 86bb 7e98 0dbc b8e9 57bc
00000340: 4d1d 4cbc a034 983b bc11 e1bb 95b9 863c
00000350: e0ff 64bc 5b1b 7e3c 7040 b0ba c672 333c
00000360: 8a48 9abc cce2 833c 83b6 213c 4935 433b
00000370: be89 923c 9078 d73b e91f 603c 4201 303c
00000380: 6fec bd3a ba51 e93a 36f3 f5bb 3c96 7c3c
00000390: bd56 de3b 7700 3f3c 935c 89bc d3f9 1fbc
000003a0: b9f0 503a ff70 903c 98dc 27bc 2778 763c
000003b0: ea28 2a3b 691d a6bb a87f 103c 0f68 5d3b
000003c0: d8c8 0c3c 050a 63bc 8434 8c3c 5381 ffbb
000003d0: 2ab6 d03b bb9f 5ebc a10a 1cbc 2e46 80bc
000003e0: 0d2c 77bc 2f06 833c 1a90 faba b642 3ebb
000003f0: 6526 093b 669b 9fba 739d 983c 8f26 1b3b
3.4708726e-05 -0.011923291 -0.011585655 0.012484025 -0.012413453 -0.0058015794 0.008661638 0.0069230297
-0.0073900614 0.014971716 -0.0061307917 0.0006426296 -0.008725029 -0.001472978 0.003968575 0.0060810237
-0.016260179 0.012046812 -0.009745492 -0.013041582 -0.01479096 0.0011923108 -0.0023476407 -0.015642498
0.0027514654 -0.018239267 0.012205446 -0.0077770795 -0.0009903349 -0.005465161 0.0034074134 -0.016806833
0.0014427368 -0.009347544 0.002373321 0.00717743 -0.01209762 -0.008155283 0.006956489 0.012623632
0.0040780935 -0.0052517774 -0.010451097 0.0038590746 0.009111016 -0.0074515594 -0.014098792 0.01607598
-0.010996479 -0.011720435 0.0008572992 0.006565067 0.002761798 0.00064235914 0.016471125 -0.012275852
-0.0013594895 0.0067992383 0.004409192 0.010000958 0.009967163 -0.003781656 0.01313212 -0.014874798
0.017396046 -0.0101924995 -0.0133612035 0.009568503 0.015210274 0.013661985 -0.012206494 -0.0172681
-0.0005331382 -0.006261539 -0.010733334 -0.013707541 0.017593302 0.017431043 -0.008075242 -0.0068997853
-0.009558205 0.007048253 0.009961157 -0.013413134 -0.011995045 0.0027273414 0.015195427 -0.007481412
-0.018655533 -0.005679242 0.008522495 0.008461021 0.013827903 -0.006539941 -0.009444153 -0.01888887
0.018430216 -0.0021949962 0.01470953 -0.01699406 0.018916423 0.017233724 0.017929893 -0.0015144381
-0.0056736 -0.009056626 -0.0006850985 -0.002251427 -0.002903553 0.005482579 0.011108469 -0.01664946
0.0109590795 0.007408525 0.0034856477 0.012295356 0.0012357706 -0.018350946 0.017043563 -0.004677477
-0.0024122223 0.008284392 -0.01499801 0.005506653 0.009743726 -0.017365012 -0.0037247436 0.015163939
-0.008780742 -0.012977396 0.015062701 0.005117151 0.0122798765 -0.017099066 -0.006763166 -0.0034955782
-0.010056554 0.0012085154 0.007338289 -0.0050374465 0.007668313 -0.0044804094 0.010223768 0.007719967
-0.0079063615 0.011849362 0.0030951712 0.009137332 0.007846822 -0.01323995 0.0011088226 0.012025992
0.017890146 -0.0053308844 0.010514074 0.0017233017 0.017036637 0.017039983 -0.014257015 0.0023815723
0.008556608 0.007236872 0.0057063657 0.009058123 -0.0016772059 0.017958196 -0.003339564 0.018448966
-0.014871051 -0.017895069 0.013712394 0.015780384 0.01742024 0.011652515 0.003488436 -0.00031930255
-0.013665913 -0.0072075054 -0.00028003994 0.015803546 0.016412497 -0.001498713 0.0054312907 0.006239097
-0.010059188 -0.008818239 -0.011205428 0.017379897 0.0041247415 0.003937727 0.010130894 -0.018366791
0.016593378 0.011740998 -0.009807849 0.00621638 -0.010778978 0.018234668 -0.013745419 0.016820677
-0.0029833326 -0.008342863 -0.015923882 -0.018655455 0.0006481083 -0.0041057146 -0.008642314 -0.0131782815
-0.012458158 0.0046449453 -0.006868569 0.016445914 -0.013977021 0.015509452 -0.0013446938 0.010952657
-0.018833417 0.016099356 0.009870174 0.00297864 0.017887946 0.0065756515 0.013679483 0.010742487
0.0014490018 0.0017800846 -0.0075057996 0.015416678 0.0067852424 0.011657826 -0.016767776 -0.009764153
0.0007970441 0.017632006 -0.010245465 0.015043295 0.0025964328 -0.005069424 0.008819498 0.0033783948
0.008592807 -0.013857369 0.017114885 -0.007797399 0.006369372 -0.013587887 -0.0095240185 -0.015658464
-0.015086186 0.01599416 -0.0019116432 -0.0029031462 0.0020927426 -0.001217705 0.018629765 0.0023674106

lp.prompt f4 [1, 128]
00000000: 4a2f 503e 9ac5 63bc 044b 34bb b420 333e
00000010: 8977 333e a90d 933c e995 f4bc 5103 c8bd
00000020: f8ad 5cbe 26b1 723c e784 b8bc 6074 10be
00000030: 42e7 c3bd 94da 3dbd b49e 03be 2d0b 5cbe
00000040: 05d5 b8ba d946 733d 5127 71bd 7d10 34bd
00000050: 6025 4b3e 891f 17be 698f 21be b283 18be
00000060: c1df 42be 12a6 f4bd 148a ebbd 8d82 ea3c
00000070: fed1 05be 40dd d23c 0d48 a63d dca0 febc
00000080: f6bd 3e3e 5128 07be 06f3 01be 1bd1 34bd
00000090: 4e0e a13d fc0f a03d 0325 473e 6849 b2bd
000000a0: 075b 53be eed8 33bc d5dc 96bd 3869 103e
000000b0: 33fc 47bd ba04 053e 7a79 c73d 9d4d cdbd
000000c0: becc 9bbd 9b72 a63c 3c87 2a3e 2f85 15bd
000000d0: 3c6f 113e c3ba 20be f1a0 373d cc30 3fbe
000000e0: 7c73 de3d 65a7 a53c 9ef9 39be 3274 473e
000000f0: 8173 87bd 7664 8cbd 09d7 b4bc d65e ad3c
00000100: c376 383e 15ef 523e 7c4d 0ebe 348f 3dbe
00000110: 627d 553e 33cc 89bb 12ce 09be 3774 f6bd
00000120: f561 443e 6cb4 4c3e a075 e43d 43b3 0dbe
00000130: a5ab ddbc 3728 3d3e f623 0dbe 1b7a 29be
00000140: 2c2f 793d 02da 143e 4fc7 3ebe 112e 593e
00000150: 4cde d8bc ecd2 94bd ccd1 71bd 7f51 053e
00000160: a384 813d bb5d d3bd 5c17 8a3c 0707 863d
00000170: 181d 86bc 0685 38be 51ff b63d 35b4 83bd
00000180: d8d2 0abe da98 223c 79ca 143e 35ef 2bbe
00000190: 4c65 8fbd 2e00 19be a7aa 4cb8 e8ee 1d3e
000001a0: d8d7 a43d 7fea 9f3c ffb8 8d3d 9b44 253e
000001b0: 58a9 99bd 066a 38be 5566 a23c 1f86 21be
000001c0: f9bf cf3d cdcf df3d 1366 f6bc 8cef 533d
000001d0: d5f0 273e 0e1c c43d d126 3fbe b9fc ca3c
000001e0: 3219 09be aff3 4abe 9783 0ebe 6d1f 9bbd
000001f0: 469b 6fbd 9ae6 073d 09eb 0b3e 6819 bdbd
0.2033054 -0.013902092 -0.0027510533 0.17492944 0.17526068 0.01795085 -0.029856639 -0.097662576
-0.21550739 0.014812743 -0.02252431 -0.14106894 -0.09565593 -0.04635103 -0.12853509 -0.21488638
-0.0014101571 0.059393737 -0.058875386 -0.043961037 0.19838476 -0.14758123 -0.15777363 -0.14893988
-0.19030668 -0.11945738 -0.11500946 0.028626705 -0.13068387 0.025740266 0.08119211 -0.031082563
0.18627152 -0.13198973 -0.12690362 -0.04414473 0.078640565 0.07815549 0.19447713 -0.087054074
-0.20640193 -0.010977013 -0.07366339 0.14102638 -0.0488245 0.12990084 0.09739967 -0.10024569
-0.07607411 0.02031832 0.1665315 -0.036503967 0.14202589 -0.15696244 0.04483122 -0.18670958
0.10861871 0.020221421 -0.18161628 0.19477919 -0.066138275 -0.06855099 -0.022075193 0.021163385
0.18014054 0.20599015 -0.13896745 -0.18511659 0.20848611 -0.0042052506 -0.13457516 -0.12033885
0.19177993 0.199907 0.11155248 -0.13837914 -0.027059386 0.18472372 -0.1378325 -0.16550486
0.060836002 0.14536288 -0.18630718 0.21208979 -0.026473187 -0.07266793 -0.05903797 0.1301937
0.063241266 -0.10320612 0.016856842 0.06544309 -0.016371295 -0.18019494 0.089354165 -0.06430856
-0.13556993 0.009924138 0.14530362 -0.16790469 -0.07001743 -0.14941475 -4.8796323e-05 0.15423167
0.080489814 0.019520996 0.06920051 0.16139452 -0.07503003 -0.18009195 0.019824186 -0.1577382
0.10144038 0.10928307 -0.03007797 0.05174212 0.16400464 0.095756635 -0.18667151 0.02477871
-0.13388517 -0.1981952 -0.13917385 -0.07574353 -0.05849769 0.033178903 0.13663878 -0.092333615

gcn.convs.0.bias f4 [128]
00000000: 0000 0000 0000 0000 0000 0000 0000 0000
00000010: 0000 0000 0000 0000 0000 0000 0000 0000
00000020: 0000 0000 0000 0000 0000 0000 0000 0000
00000030: 0000 0000 0000 0000 0000 0000 0000 0000
00000040: 0000 0000 0000 0000 0000 0000 0000 0000
00000050: 0000 0000 0000 0000 0000 0000 0000 0000
00000060: 0000 0000 0000 0000 0000 0000 0000 0000
00000070: 0000 0000 0000 0000 0000 0000 0000 0000
00000080: 0000 0000 0000 0000 0000 0000 0000 0000
00000090: 0000 0000 0000 0000 0000 0000 0000 0000
000000a0: 0000 0000 0000 0000 0000 0000 0000 0000
000000b0: 0000 0000 0000 0000 0000 0000 0000 0000
000000c0: 0000 0000 0000 0000 0000 0000 0000 0000
000000d0: 0000 0000 0000 0000 0000 0000 0000 0000
000000e0: 0000 0000 0000 0000 0000 0000 0000 0000
000000f0: 0000 0000 0000 0000 0000 0000 0000 0000
00000100: 0000 0000 0000 0000 0000 0000 0000 0000
00000110: 0000 0000 0000 0000 0000 0000 0000 0000
00000120: 0000 0000 0000 0000 0000 0000 0000 0000
00000130: 0000 0000 0000 0000 0000 0000 0000 0000
00000140: 0000 0000 0000 0000 0000 0000 0000 0000
00000150: 0000 0000 0000 0000 0000 0000 0000 0000
00000160: 0000 0000 0000 0000 0000 0000 0000 0000
00000170: 0000 0000 0000 0000 0000 0000 0000 0000
00000180: 0000 0000 0000 0000 0000 0000 0000 0000
00000190: 0000 0000 0000 0000 0000 0000 0000 0000
000001a0: 0000 0000 0000 0000 0000 0000 0000 0000
000001b0: 0000 0000 0000 0000 0000 0000 0000 0000
000001c0: 0000 0000 0000 0000 0000 0000 0000 0000
000001d0: 0000 0000 0000 0000 0000 0000 0000 0000
000001e0: 0000 0000 0000 0000 0000 0000 0000 0000
000001f0: 0000 0000 0000 0000 0000 0000 0000 0000
0.0 0.0 0.0 0.0 0.0 0.0 0.0 0.0
0.0 0.0 0.0 0.0 0.0 0.0 0.0 0.0
0.0 0.0 0.0 0.0 0.0 0.0 0.0 0.0
0.0 0.0 0.0 0.0 0.0 0.0 0.0 0.0
0.0 0.0 0.0 0.0 0.0 0.0 0.0 0.0
0.0 0.0 0.0 0.0 0.0 0.0 0.0 0.0
0.0 0.0 0.0 0.0 0.0 0.0 0.0 0.0
0.0 0.0 0.0 0.0 0.0 0.0 0.0 0.0
0.0 0.0 0.0 0.0 0.0 0.0 0.0 0.0
0.0 0.0 0.0 0.0 0.0 0.0 0.0 0.0
0.0 0.0 0.0 0.0 0.0 0.0 0.0 0.0
0.0 0.0 0.0 0.0 0.0 0.0 0.0 0.0
0.0 0.0 0.0 0.0 0.0 0.0 0.0 0.0
0.0 0.0 0.0 0.0 0.0 0.0 0.0 0.0
0.0 0.0 0.0 0.0 0.0 0.0 0.0 0.0
0.0 0.0 0.0 0.0 0.0 0.0 0.0 0.0

gcn.convs.0.fc.weight f4 [128, 35]
00000000: 089c 85bd 4700 88bd 1cb6 d0bd ee78 0bbc
00000010: 5fd2 f5bd 69fa d33d 3e7d 3ebc 44df 073e
00000020: ec40 38be 84e5 0d3e c3bd 2ebe 6cf1 e7bd
00000030: 0e92 233c 667d 033e bded ebbd 2de1 613d
00000040: 602e 1fbe fd5f 20be e6d1 c3bd b142 b9bc
00000050: 8966 d13d 490b f13d f635 38be 2582 c7bd
00000060: 48e7 18bd 1950 143c 6049 2abd d2a2 bfbd
00000070: cdc9 c93c d0dc 2f3e 29c4 b63d fb3a 13bd
00000080: cfef 343d 4b8c 193e f5d4 e63d 53a1 2cbe
00000090: 6ae1 423d 50d7 0ebe 72c9 093e f0c4 b73b
000000a0: c50a e93d a748 223e 5003 c6bc 549c 8b3d
000000b0: 02d4 15be 8e1a e53d fe39 e5bc a01d 163e
000000c0: 8f2b 1a3e f6fc 263e 9af8 f33d 041e ef3d
000000d0: f059 843d 4410 3c3e ee82 d3bd e82a ebbc
000000e0: 684c 8e3d e2e8 aa3c f497 4c3d ab11 12be
000000f0: 096a 37be 0903 c93c 5973 0a3e 90f7 9f3d
00000100: f87c dabd 3cce d9bd ae82 8f3d c631 0b3d
00000110: baf1 333e d4a7 a93d 35ab babd 56a8 03be
00000120: e2b4 3bbe d854 de3b 07da ecbd 7537 f73d
00000130: 970a 03be 1b27 a43d 470d a53d 8a2a babd
00000140: 3f21 28be 94a3 37be f043 123d 4eb3 2e3e
00000150: 43c7 0cbe fd14 9fbd 162e e83d 6ef4 6bbd
00000160: 5d5a 323e 8bc4 b43d 350d 203d 5960 1b3e
00000170: 52ce d0bd c07e 48bd 3eb2 e3bd f86d 243e
00000180: 9373 42bd 5292 153e 11e9 2cbe 1829 af3d
00000190: 4b57 21be b251 00be aad5 403e 7758 293e
000001a0: 5a7b 933d caa9 e2ba ac42 8c3c c72b 373e
000001b0: 286c 373d 789e 1a3e 8008 2cbd af1b 223e
000001c0: d19c 2bbe cc8f 8cbc 6578 273e c242 26bd
000001d0: 7cf4 fdbd 543b b7bc a046 f53d 335c f4bc
000001e0: 6b3b 25be f275 40be 0e4b 363e c015 b5bd
000001f0: eeb7 383e ed09 f9bc 275b 9cbd 213e 3bbe
00000200: 3444 af3c 88cc f3bd f9d3 bd3c 4eeb 2c3d
00000210: 129f 96bc ec42 b1bd 56b1 1bbe 896c a8bd
00000220: 919c 2fbe cdd2 dfbd 85c2 3fbe 97e0 b63d
00000230: e97d 21bd 0eb3 e5bd dbff f4bd 46d0 f8bc
00000240: d157 bb3d 13d9 513d 1726 99bd 89f9 58bd
00000250: 355c 06be 54e9 3fbe bf28 413e d092 2c3e
00000260: f2e7 86bd 66eb d33c 7d22 2a3e bfd2 18be
00000270: 22a5 063e e0d5 383e fa37 abbc c816 8c3c
00000280: e907 903d 5c1c 0e3e 9f65 15bc 12b5 48bd
00000290: 483c c73d 76f1 b93d 5010 3dbe af58 133e
000002a0: 9164 23be ed09 013e 8a93 893d 7532 f8bd
000002b0: 3ca7 c3bd 9843 8f3d 0c09 e23d b3d9 303b
000002c0: 2a57 f43c 1d95 a43c 0687 05be a792 2ebe
000002d0: f906 5cbd b29b efbd d585 103e 6222 bebd
000002e0: 00b6 41be 88d3 403d f680 b43c f50c 9a3d
000002f0: ac50 bb3c 7b52 803d dee1 abbc a23f 593d
00000300: ec84 d33d 4fdd ef3d 68e1 923c ecfc e1bc
00000310: b925 73bc 4347 743d ca22 a53d bb88 283e
00000320: 4f3d 5b3d 7084 e3bd 969d b83d c1da 8fbd
00000330: 72da 2abe 9d59 22be 6918 36be f3ce 0b3e
00000340: a462 c8bd 80e2 8f3d 7461 493d a5ff 60bd
00000350: 38f9 3f3d e66d f1bd c0f8 43be 0fe4 303d
00000360: df2e 8ebd 0c5e b0bd ea92 56bd 0219 09be
00000370: ba0c 0d3e 599f d8bd bb59 4bbc af99 e03d
00000380: dc0b afbd 0125 8abc 8840 27be eab8 303e
00000390: a0de 163e 8f69 703d 9484 6bbd bf13 2abe
000003a0: 28b8 d8bc a873 2ebe 5f0a 0ebe 739b ba3d
000003b0: 3c5a d2bd 04d0 413d ef8e ce3c 9398 0bbe
000003c0: 826f a73d 3964 aabd 4aea 203e c4f0 3c3d
000003d0: e10c 86bc 2678 0f3e 35a2 073e 4c8a 6cbc
000003e0: 7eb6 0d3d 512c 7d3d f146 143e 763e 0f3e
000003f0: 18f2 c63d 8686 bdbd 8f7f 913d 7d11 09be
-0.06523901 -0.06640678 -0.101909846 -0.008512719 -0.12003016 0.10350496 -0.01162654 0.13268763
-0.17993516 0.13857085 -0.17064576 -0.113253444 0.009983553 0.12840804 -0.11519954 0.055146385
-0.15545034 -0.15661617 -0.09561519 -0.022614809 0.10224635 0.117697306 -0.17989334 -0.0974162
-0.037329942 0.0090523 -0.041573882 -0.093572274 0.024632359 0.17174077 0.08924133 -0.03594492
0.04417401 0.14994924 0.11271087 -0.16858415 0.047578253 -0.13949323 0.13455752 0.0056081936
0.11379007 0.15848027 -0.024171501 0.068169266 -0.14631656 0.111867055 -0.027981754 0.14659739
0.15055679 0.16307434 0.11912651 0.11675647 0.06462467 0.1836558 -0.10327707 -0.028706983
0.06948167 0.020863 0.0499496 -0.14264552 -0.17911543 0.02453758 0.13520564 0.07810891
-0.10668367 -0.10635039 0.07007347 0.033983015 0.1757268 0.08283964 -0.091146864 -0.12857184
-0.1833072 0.0067850165 -0.11565023 0.120711245 -0.12797008 0.08015271 0.08059173 -0.09090145
-0.16418932 -0.17933494 0.03570932 0.17060587 -0.13747887 -0.07767675 0.11336915 -0.057606153
0.17417283 0.0882655 0.039075095 0.15173472 -0.101956025 -0.048949003 -0.111179814 0.16057575
-0.0474735 0.14606598 -0.16885783 0.0855276 -0.15755956 -0.12531164 0.18831506 0.16537653
0.07201262 -0.0017293033 0.017121635 0.17887793 0.04478088 0.15099514 -0.042000294 0.15830873
-0.1675904 -0.017158411 0.1635452 -0.04059101 -0.12400147 -0.022367157 0.11976361 -0.02982912
-0.16135947 -0.18794993 0.17802069 -0.08842039 0.18038914 -0.03040024 -0.076345734 -0.18285419
0.021394826 -0.119042456 0.023172366 0.04221659 -0.018386398 -0.086553425 -0.15204367 -0.082238264
-0.17149569 -0.10928879 -0.18726547 0.08929556 -0.039426718 -0.112157926 -0.11962863 -0.03037275
0.09147609 0.05123241 -0.07477968 -0.05297235 -0.13121112 -0.18741351 0.188632 0.1685288
-0.06587209 0.025869083 0.16614719 -0.14924143 0.1314893 0.18050337 -0.020900715 0.017100707
0.07032759 0.13878006 -0.009118467 -0.049000807 0.097282946 0.09079258 -0.18463254 0.14389299
-0.15956332 0.12601443 0.06717594 -0.12118999 -0.09553382 0.06995314 0.11036882 0.0026985228
0.02982672 0.020090634 -0.13039789 -0.17048131 -0.053717587 -0.116996184 0.14113553 -0.09283902
-0.18917084 0.047076732 0.02203415 0.075220026 0.022865616 0.06265732 -0.020981725 0.0530392
0.10328087 0.11712133 0.017929748 -0.027586423 -0.014840537 0.059638273 0.08063276 0.16458409
0.053525265 -0.11109245 0.09014432 -0.07024146 -0.16684893 -0.15854497 -0.17782749 0.13653164
-0.09784439 0.07025623 0.049165204 -0.0549313 0.046868533 -0.117885396 -0.1913786 0.043186244
-0.06942534 -0.08611688 -0.052386202 -0.13388446 0.13774386 -0.10577268 -0.01241153 0.10966813
-0.08547184 -0.016863348 -0.1633321 0.17258039 0.14733362 0.05869442 -0.057499483 -0.16609095
-0.026455 -0.17036307 -0.13871144 0.09111681 -0.10271117 0.04731752 0.02521464 -0.13632421
0.08175565 -0.08319897 0.15714374 0.04612805 -0.016363563 0.14010677 0.13245471 -0.014437269
0.034597866 0.06180984 0.14480187 0.1398867 0.097141445 -0.09254174 0.07104408 -0.13385577

gcn.bns.0.weight f4 [128]
00000000: 0000 803f 0000 803f 0000 803f 0000 803f
00000010: 0000 803f 0000 803f 0000 803f 0000 803f
00000020: 0000 803f 0000 803f 0000 803f 0000 803f
00000030: 0000 803f 0000 803f 0000 803f 0000 803f
00000040: 0000 803f 0000 803f 0000 803f 0000 803f
00000050: 0000 803f 0000 803f 0000 803f 0000 803f
00000060: 0000 803f 0000 803f 0000 803f 0000 803f
00000070: 0000 803f 0000 803f 0000 803f 0000 803f
00000080: 0000 803f 0000 803f 0000 803f 0000 803f
00000090: 0000 803f 0000 803f 0000 803f 0000 803f
000000a0: 0000 803f 0000 803f 0000 803f 0000 803f
000000b0: 0000 803f 0000 803f 0000 803f 0000 803f
000000c0: 0000 803f 0000 803f 0000 803f 0000 803f
000000d0: 0000 803f 0000 803f 0000 803f 0000 803f
000000e0: 0000 803f 0000 803f 0000 803f 0000 803f
000000f0: 0000 803f 0000 803f 0000 803f 0000 803f
00000100: 0000 803f 0000 803f 0000 803f 0000 803f
00000110: 0000 803f 0000 803f 0000 803f 0000 803f
00000120: 0000 803f 0000 803f 0000 803f 0000 803f
00000130: 0000 803f 0000 803f 0000 803f 0000 803f
00000140: 0000 803f 0000 803f 0000 803f 0000 803f
00000150: 0000 803f 0000 803f 0000 803f 0000 803f
00000160: 0000 803f 0000 803f 0000 803f 0000 803f
00000170: 0000 803f 0000 803f 0000 803f 0000 803f
00000180: 0000 803f 0000 803f 0000 803f 0000 803f
00000190: 0000 803f 0000 803f 0000 803f 0000 803f
000001a0: 0000 803f 0000 803f 0000 803f 0000 803f
000001b0: 0000 803f 0000 803f 0000 803f 0000 803f
000001c0: 0000 803f 0000 803f 0000 803f 0000 803f
000001d0: 0000 803f 0000 803f 0000 803f 0000 803f
000001e0: 0000 803f 0000 803f 0000 803f 0000 803f
000001f0: 0000 803f 0000 803f 0000 803f 0000 803f
1.0 1.0 1.0 1.0 1.0 1.0 1.0 1.0
1.0 1.0 1.0 1.0 1.0 1.0 1.0 1.0
1.0 1.0 1.0 1.0 1.0 1.0 1.0 1.0
1.0 1.0 1.0 1.0 1.0 1.0 1.0 1.0
1.0 1.0 1.0 1.0 1.0 1.0 1.0 1.0
1.0 1.0 1.0 1.0 1.0 1.0 1.0 1.0
1.0 1.0 1.0 1.0 1.0 1.0 1.0 1.0
1.0 1.0 1.0 1.0 1.0 1.0 1.0 1.0
1.0 1.0 1.0 1.0 1.0 1.0 1.0 1.0
1.0 1.0 1.0 1.0 1.0 1.0 1.0 1.0
1.0 1.0 1.0 1.0 1.0 1.0 1.0 1.0
1.0 1.0 1.0 1.0 1.0 1.0 1.0 1.0
1.0 1.0 1.0 1.0 1.0 1.0 1.0 1.0
1.0 1.0 1.0 1.0 1.0 1.0 1.0 1.0
1.0 1.0 1.0 1.0 1.0 1.0 1.0 1.0
1.0 1.0 1.0 1.0 1.0 1.0 1.0 1.0

gcn.bns.0.bias f4 [128]
00000000: 0000 0000 0000 0000 0000 0000 0000 0000
00000010: 0000 0000 0000 0000 0000 0000 0000 0000
00000020: 0000 0000 0000 0000 0000 0000 0000 0000
00000030: 0000 0000 0000 0000 0000 0000 0000 0000
00000040: 0000 0000 0000 0000 0000 0000 0000 0000
00000050: 0000 0000 0000 0000 0000 0000 0000 0000
00000060: 0000 0000 0000 0000 0000 0000 0000 0000
00000070: 0000 0000 0000 0000 0000 0000 0000 0000
00000080: 0000 0000 0000 0000 0000 0000 0000 0000
00000090: 0000 0000 0000 0000 0000 0000 0000 0000
000000a0: 0000 0000 0000 0000 0000 0000 0000 0000
000000b0: 0000 0000 0000 0000 0000 0000 0000 0000
000000c0: 0000 0000 0000 0000 0000 0000 0000 0000
000000d0: 0000 0000 0000 0000 0000 0000 0000 0000
000000e0: 0000 0000 0000 0000 0000 0000 0000 0000
000000f0: 0000 0000 0000 0000 0000 0000 0000 0000
00000100: 0000 0000 0000 0000 0000 0000 0000 0000
00000110: 0000 0000 0000 0000 0000 0000 0000 0000
00000120: 0000 0000 0000 0000 0000 0000 0000 0000
00000130: 0000 0000 0000 0000 0000 0000 0000 0000
00000140: 0000 0000 0000 0000 0000 0000 0000 0000
00000150: 0000 0000 0000 0000 0000 0000 0000 0000
00000160: 0000 0000 0000 0000 0000 0000 0000 0000
00000170: 0000 0000 0000 0000 0000 0000 0000 0000
00000180: 0000 0000 0000 0000 0000 0000 0000 0000
00000190: 0000 0000 0000 0000 0000 0000 0000 0000
000001a0: 0000 0000 0000 0000 0000 0000 0000 0000
000001b0: 0000 0000 0000 0000 0000 0000 0000 0000
000001c0: 0000 0000 0000 0000 0000 0000 0000 0000
000001d0: 0000 0000 0000 0000 0000 0000 0000 0000
000001e0: 0000 0000 0000 0000 0000 0000 0000 0000
000001f0: 0000 0000 0000 0000 0000 0000 0000 0000
0.0 0.0 0.0 0.0 0.0 0.0 0.0 0.0
0.0 0.0 0.0 0.0 0.0 0.0 0.0 0.0
0.0 0.0 0.0 0.0 0.0 0.0 0.0 0.0
0.0 0.0 0.0 0.0 0.0 0.0 0.0 0.0
0.0 0.0 0.0 0.0 0.0 0.0 0.0 0.0
0.0 0.0 0.0 0.0 0.0 0.0 0.0 0.0
0.0 0.0 0.0 0.0 0.0 0.0 0.0 0.0
0.0 0.0 0.0 0.0 0.0 0.0 0.0 0.0
0.0 0.0 0.0 0.0 0.0 0.0 0.0 0.0
0.0 0.0 0.0 0.0 0.0 0.0 0.0 0.0
0.0 0.0 0.0 0.0 0.0 0.0 0.0 0.0
0.0 0.0 0.0 0.0 0.0 0.0 0.0 0.0
0.0 0.0 0.0 0.0 0.0 0.0 0.0 0.0
0.0 0.0 0.0 0.0 0.0 0.0 0.0 0.0
0.0 0.0 0.0 0.0 0.0 0.0 0.0 0.0
0.0 0.0 0.0 0.0 0.0 0.0 0.0 0.0

gcn.bns.0.running_mean f4 [128]
00000000: ccc5 a23d df11 a23d 5df2 ae3d c5af e1bb
00000010: 0111 b33c cee9 49bb ccb4 7e3d 9596 823e
00000020: ed8b 823e 8793 33bd 0c65 983d be3f d03c
00000030: d456 8e3d 945c afbd 522d 94bb 63d5 6d3d
00000040: ab2e 2a3e 223f 413e 412f d0bc feb2 81bc
00000050: b60b 233e 5e94 723e c8fe abbc a403 d439
00000060: f550 973e 6e29 8bbc a1d8 76bc d956 3a3d
00000070: 1ab9 96bb 267d e6bc 2eb4 59bd 2001 24bd
00000080: 2b49 343e 1ca5 633d da43 263e 260a ec3d
00000090: 5788 103e dcf9 3f3e 9fdb 4fbb 2f80 81bc
000000a0: ae7f ff3c 9279 413d d32e 0e3e 7f0c bd3d
000000b0: 6e4e 283e 3886 48bd 1475 cc3d 5ee1 6b3e
000000c0: b7a8 f73c 3fb3 553e 1ad8 113d 5cf4 903d
000000d0: 1fc0 723d 8fa5 15bd 045b 363d 3858 723d
000000e0: a2d1 493e d00d 293d 59b5 86bb b336 d03d
000000f0: 4af5 4f3e 2b5a 033c 784e 25bd 776b ef3d
00000100: 24dc 80bc 1974 893d 0fbe 65bd f920 6bbd
00000110: 3980 723e 2673 acba a970 e13c ea2e 96bc
00000120: 0207 92bc b402 bd3d 4a97 363d 907f d73d
00000130: c808 8f3d 7a00 c83b d64d 98bd 6dd6 7c3e
00000140: 9949 93bc 9e0b 083e 4cbd 45ba 00b4 8c3e
00000150: 2b93 41bd f2cb 16bc c623 613d dbcd 7a3d
00000160: 1a4a 80bd eb30 c43c 08b6 603e ffb7 9f3d
00000170: 11ed e83d e9c2 d03d f724 d53c 39fc a83d
00000180: 9952 1f3d a172 14bd 6a4a 963c f233 11bd
00000190: 9bf0 093e 47dd 0e3e 3674 5b3e 0177 dc3d
000001a0: cf34 8fbc 545b 463d 9711 633d 06ff de3d
000001b0: 559d c5bc 62eb 15bd 2347 a639 359a 1c3e
000001c0: 923b ebbc 49eb c03c 66f9 123e 5b22 37bd
000001d0: 709b efbc e7c3 793e eb3e 3f3d 7f26 bc3c
000001e0: 94dd 953d 9f73 103e 2c74 dcbc 439c 1abd
000001f0: 212e 3b3e 0bcb 1c3e 56f1 813d 8635 643b
0.07947883 0.07913565 0.08542321 -0.0068874084 0.021858694 -0.0030809524 0.06218414 0.2550551
0.2549738 -0.043841865 0.07441148 0.02542102 0.06950155 -0.0856258 -0.004522004 0.05806483
0.16619365 0.1887174 -0.025413157 -0.01583242 0.15922436 0.2368941 -0.020995513 0.00040438503
0.29553953 -0.016987529 -0.015066297 0.04549298 -0.0045997025 -0.028135847 -0.05315035 -0.040040135
0.17606036 0.055577382 0.16236821 0.11525373 0.1411451 0.18747658 -0.0031716598 -0.015808193
0.031188812 0.04723508 0.1388505 0.09230899 0.16436169 -0.048956126 0.099832684 0.2303519
0.030231817 0.20869158 0.03560648 0.07077858 0.059265252 -0.036534842 0.044520393 0.059166163
0.19708875 0.04127294 -0.004110974 0.10166683 0.20308414 0.008017103 -0.040358037 0.11690419
-0.015729971 0.06711597 -0.056089457 -0.057404492 0.23681726 -0.0013156876 0.02751954 -0.018332917
-0.017825607 0.09229031 0.044577874 0.105223775 0.06984097 0.0061035724 -0.07436721 0.24691172
-0.01797943 0.13285682 -0.0007543161 0.2748108 -0.04725949 -0.009203898 0.054965757 0.061231475
-0.06264134 0.023949107 0.2194444 0.07798766 0.11373342 0.10193426 0.026018603 0.08251233
0.03889713 -0.03624213 0.01834603 -0.03544993 0.1347069 0.13951598 0.2143105 0.10764886
-0.017481236 0.04842694 0.055436697 0.108884856 -0.024122873 -0.03660143 0.00031714988 0.152932
-0.028714929 0.023549693 0.1435295 -0.0447105 -0.029248923 0.24391137 0.046690863 0.022967575
0.07317653 0.14106606 -0.026910864 -0.03774668 0.18279316 0.1531183 0.06344859 0.0034821942
