Experiment/pre_trained_model/ENZYMES/Edgepred_GPPT.GCN.128hidden_dim.pth (torch, 70736 bytes, 4 tensors)

conv_layers.0.bias f4 [128]
000000 33 1b 0e 3d d4 8d 64 bc 27 63 27 bc 6e e1 f0 bc
       0.034693908 -0.01394983 -0.010216511 -0.029404368
000010 ad a9 4e bb 57 d5 d6 bb f9 88 0f be 4e a1 ee ba
       -0.003153424 -0.006556194 -0.14017095 -0.0018206032
000020 02 69 72 bb 6b 77 c0 bc 38 56 4d bd 56 ea 91 bc
       -0.003698886 -0.023494443 -0.050131053 -0.017811935
000030 17 c1 0f bb 15 cc 54 ba 52 14 1c be d0 ee 46 bc
       -0.002193516 -0.0008117569 -0.15242127 -0.012141898
000040 50 f8 85 bd 05 04 07 bc 69 90 ab ba 4e a9 a5 bd
       -0.065415025 -0.008240704 -0.0013089302 -0.08088933
000050 22 94 b1 3c 1f f6 c6 3c b4 c8 9b bc e5 15 bb bb
       0.02167708 0.024287282 -0.019016601 -0.005709397
000060 58 3c ef bb 75 35 40 bc 04 8f 8b ba 4e 1d 5e bc
       -0.0073008947 -0.011731495 -0.001064748 -0.0135567915
000070 34 56 9f bb 7b 05 00 bb eb 60 20 3e ac 30 9d ba
       -0.004862571 -0.0019534517 0.15661971 -0.0011992655
000080 99 8c 27 bc 29 13 a3 bd 5a a4 f4 bc 74 82 a4 bb
       -0.010226392 -0.07962639 -0.029863525 -0.005020434
000090 00 db ba bb 49 96 24 bc 3c 52 1d ba 75 80 76 bb
       -0.0057023764 -0.010045596 -0.00060013286 -0.0037613187
0000a0 a8 89 24 3d 1c a3 3a be c5 4e bc bd dd 22 ef b9
       0.04017034 -0.18226284 -0.091947116 -0.00045611607
0000b0 f3 f5 5e bd 9e 24 0b b9 c7 c2 be bc 37 45 9e bd
       -0.054433774 -0.00013269714 -0.023286236 -0.077280454
0000c0 80 eb bf bd 66 c2 03 bd 82 e4 29 bb 83 09 8d ba
       -0.0937109 -0.032167815 -0.0025923555 -0.0010760281
0000d0 28 e5 65 3e 4f dc 84 bb 8a f7 78 bc 0e cf 60 bc
       0.22450697 -0.004054583 -0.015195737 -0.013721241
0000e0 4d b0 e7 bc 9e 3d 3f bd 97 95 5d ba 9f a0 aa bc
       -0.028282309 -0.046689622 -0.00084527716 -0.020828543
0000f0 45 ed 22 bb 5e cb 3a be ca f0 79 3c 69 08 b6 bc
       -0.0024860662 -0.18241641 0.0152551625 -0.022220807
000100 fe cf 33 bc 99 f0 0b bb 5a 98 b3 bc a4 e9 95 bc
       -0.010974882 -0.0021353124 -0.021923233 -0.018299885
000110 96 d1 81 bb 4e c1 a5 3c a4 1c 1d be 9a 1b 8a 3d
       -0.003961752 0.020233776 -0.15342957 0.06743546
000120 e4 7c 54 bb e8 a8 8c bb 8b d3 22 3e 1b 0a 85 3d
       -0.0032423073 -0.004292596 0.1590101 0.06496068
000130 c4 0f 33 3e d9 bb 13 bd b6 22 cc 3d e3 90 33 be
       0.17486483 -0.036067817 0.09967558 -0.17535739
000140 ae 92 ef bc 3d 92 aa bc 9d 05 8c bc f6 09 c4 bc
       -0.029244747 -0.020821685 -0.01709252 -0.023930531
000150 0c e2 80 bc 9f fe ab ba 73 b4 b5 3d 9c 78 57 b9
       -0.015732788 -0.0013122148 0.088723086 -0.00020548928
000160 ad 07 09 bb e9 88 9b bb 31 26 6a bc 7b 40 37 3e
       -0.0020909116 -0.0047465456 -0.014291332 0.17895691
000170 85 a6 02 bc 22 82 a8 b9 93 e4 b0 bb af 49 a3 bc
       -0.007974272 -0.00032140414 -0.005398342 -0.019932596
000180 bd 2d 77 bc 44 eb 21 bc 34 c9 6f 3e 6e c7 95 b9
       -0.015086588 -0.009882752 0.23416597 -0.0002856808
000190 8d 6e 7b 3d e8 2a 4f bb e4 2e c8 bb 63 ea f4 bb
       0.061384726 -0.0031611267 -0.0061091054 -0.00747423
0001a0 ca 57 51 bb 78 3e 0f ba d3 fe 78 bb eb 79 8c bb
       -0.0031943195 -0.00054643257 -0.0037993684 -0.0042869947
0001b0 23 74 ea bb 66 7f 70 bc 5f e7 94 bb 43 72 f2 3d
       -0.007154958 -0.014678812 -0.004544183 0.118382
0001c0 9d 1d 25 bb 8d e3 bd bc 10 9a 7e bd e7 54 5d 3d
       -0.0025194653 -0.023179794 -0.062158644 0.054036047
0001d0 e7 ab 3b 3e 36 b7 a6 b9 1d 94 20 bd a3 d1 6a ba
       0.18327294 -0.0003179849 -0.03920375 -0.000895763
0001e0 92 0e d9 bc dd 8f b4 bc 8c 44 94 ba c2 2b 3c 3a
       -0.026496205 -0.022041256 -0.0011311932 0.0007178151
0001f0 a3 c3 a7 ba 6f e5 36 be 32 ab 2f be 41 e6 34 bc
       -0.0012799393 -0.1786096 -0.1715515 -0.011041225

conv_layers.0.lin.weight f4 [128, 3]
000000 4d 34 2e be d6 07 06 3f 96 e3 35 bf 77 31 80 bc
       -0.17012139 0.52355707 -0.71050394 -0.015648587
000010 49 a1 9b 3a 8a eb 1c 3a 4d da 63 bc f3 2a f5 3b
       0.0011873628 0.0005986026 -0.013907027 0.0074819266
000020 a9 d4 83 39 70 9b 20 3c ce ee 1e bd 5d 4e 5e 3d
       0.0002514471 0.009802684 -0.03880196 0.05427395
000030 49 23 d4 3a 8a 71 af 3a e3 71 03 39 d6 e4 07 3a
       0.0016184832 0.0013385278 0.0001253556 0.00051839405
000040 d1 c8 24 bb 21 9c 31 39 5b 38 88 be 7a 98 3c 3e
       -0.002514411 0.00016938198 -0.26605496 0.1841754
000050 19 1b 8f bd 39 ec 65 3a 03 fe b9 3a a0 b0 92 38
       -0.0698759 0.00087708567 0.0014190081 6.9947215e-05
000060 35 50 8f b9 9b 4b e4 ba 00 92 1e 3a 3b 27 4f bc
       -0.00027334844 -0.0017417552 0.00060489774 -0.012643631
000070 24 34 cd bc 54 69 12 bc d7 ce 68 3e ae ba 59 bb
       -0.025049277 -0.008936245 0.22735153 -0.0033222842
000080 25 31 80 be 5d aa cd bb a6 8f bc bc b7 fd 9a ba
       -0.25037494 -0.0062764124 -0.023017716 -0.001182488
000090 98 16 6f 39 dd 67 ef 3a 15 85 82 39 d6 5a c0 39
       0.00022801233 0.0018265207 0.00024894686 0.00036688772
0000a0 6a 1f 2e 3a b6 3d 1c 38 3e 43 01 3f e3 90 df bf
       0.00066422543 3.725077e-05 0.5049323 -1.7466091
0000b0 ba 5a 58 be c8 b5 17 bc d0 7f 12 bc 73 c6 a2 bb
       -0.2112836 -0.009259649 -0.008941606 -0.0049675046
0000c0 de b6 27 3c 38 d3 59 3d e8 0a fd 39 a6 d2 aa ba
       0.01023647 0.05317995 0.00048264046 -0.0013032749
0000d0 ee 23 1c ba cd 00 80 39 93 7d 6a 3a 59 19 9b 3a
       -0.00059562817 0.0002441466 0.00089451036 0.0011833116
0000e0 3c a6 83 38 95 95 5c 3e 6c dc 0e be 31 65 ad 3e
       6.27753e-05 0.21541436 -0.13951272 0.33866265
0000f0 a7 88 fc 3e 1e 6b 1d be 8f 4a 54 bf 75 22 a7 3e
       0.49323007 -0.15372893 -0.8292627 0.32643476
000100 78 20 44 3e fa f7 94 bf d7 9d ff 3e 8f 3e 6c bf
       0.19153011 -1.1638176 0.4992511 -0.92282957
000110 65 01 e9 be f9 20 07 bb 87 38 0c bb 95 14 1b 39
       -0.45508876 -0.0020619018 -0.0021395998 0.0001478962
000120 7d 55 83 bb f1 4e 2c 3b e8 ca 97 39 69 f9 aa 39
       -0.0040079937 0.002629217 0.0002895214 0.00032610752
000130 1c d2 a7 bb 1e ac 7f 39 b0 7a 72 3a 18 15 c2 39
       -0.0051214825 0.00024382814 0.0009249849 0.0003701828
000140 ff d5 3d 38 bb c3 14 3a 6b d5 53 bc 60 14 19 3c
       4.526041e-05 0.0005674918 -0.012929301 0.009343237
000150 1b 3a 10 bb 7c 6f fd 3a 3c bc 62 39 26 e7 b6 3a
       -0.002200729 0.0019335593 0.00021623162 0.0013954386
000160 48 24 a4 3a dd 74 dd 38 a9 12 ad bf a7 cb cb 3e
       0.001252302 0.00010559869 -1.352132 0.39803812
000170 5c 52 57 bf 14 df ee ba 3b 23 07 bd 3a 3a ee 38
       -0.84110045 -0.0018224441 -0.032992583 0.0001135957
000180 30 30 ac bb 40 a6 f3 bb b4 36 95 39 a0 7b ec 3e
       -0.005254768 -0.00743559 0.00028460252 0.46188068
000190 08 45 2e bf 47 c1 00 bf 08 19 15 3c af 45 41 bd
       -0.68074083 -0.5029492 0.009100206 -0.047185596
0001a0 13 8a 84 3d 19 39 be ba db ab 64 39 4c f8 a3 39
       0.06471648 -0.0014512866 0.00021807796 0.00031274778
0001b0 ab 40 9f bb bf 69 84 ba a3 3b 8b bb 66 8e d3 ba
       -0.004860004 -0.0010102316 -0.0042490526 -0.001614046
0001c0 5d 30 51 3a 70 13 ff 3b 12 1f f0 39 55 48 00 3a
       0.0007979924 0.0077842996 0.00045799516 0.0004893591
0001d0 c3 63 73 38 f8 9c 59 3b 06 6d af bb 07 82 91 37
       5.8028625e-05 0.0033205133 -0.005353573 1.7345896e-05
0001e0 8e a5 d1 3e 20 63 ea 3c 91 2f 88 bf 7d 8d da 3e
       0.4094662 0.02861172 -1.0639516 0.42686072
0001f0 80 72 97 bf fe dd 2b be 45 7b f4 3e 81 f4 2a bf
       -1.1831818 -0.16783902 0.47750297 -0.66779333
000200 c5 0d 00 bf e1 18 8a 39 b6 21 c3 39 9e e7 c9 37
       -0.5002101 0.00026339947 0.00037218415 2.4068922e-05
000210 76 d2 f0 3e 91 5d e7 be 3d d1 4f 3d 79 a9 02 39
       0.4703557 -0.45188573 0.050736655 0.000124609
000220 79 f4 08 38 f2 85 6a 38 bd dc 00 bc e0 c8 8a bc
       3.265261e-05 5.5914694e-05 -0.007865128 -0.016941488
000230 ce 69 e4 39 41 34 c4 bf 2a 7f c4 3e d2 1d bd bc
       0.0004356638 -1.5328447 0.38378268 -0.023085508
000240 ee 97 96 bf 6b 3c aa 3e 66 d4 3f 3b 2e c6 ff bc
       -1.1765115 0.3324922 0.0029270886 -0.03122243
000250 76 f2 64 b9 47 dd a7 bb 18 81 b6 3a 7d 89 77 3a
       -0.00021834098 -0.005122814 0.0013923971 0.00094427896
000260 e6 fc 8c 38 43 77 64 3a 58 0d 43 3a 25 a3 2c 38
       6.722826e-05 0.0008715281 0.0007440648 4.1159936e-05
000270 a9 47 ab bf 39 41 b4 3e 11 0b 31 bf 76 2c 30 3b
       -1.3381244 0.3520601 -0.6915751 0.002688197
000280 2b 53 1b bb 92 fa 06 39 3d 41 44 bc 5b fb 64 3b
       -0.0023700695 0.0001287258 -0.011978445 0.0034939859
000290 2d cc f8 bb 86 d0 48 bc 44 22 fc 3a 7b 2f bb b8
       -0.007592699 -0.012256747 0.0019236286 -8.925699e-05
0002a0 5a a5 7e bd 79 5b fb 3b 8a 4c b5 bc 52 3a 9c bb
       -0.06216941 0.0076708165 -0.022131223 -0.0047676945
0002b0 80 fa 23 3d 07 d1 95 39 dd 3a 2f 3a 73 b5 34 3a
       0.040033817 0.00028575232 0.00066844915 0.0006893493
0002c0 5d 46 a6 38 44 5d e6 3e 8f 69 bd bd d5 26 2a bf
       7.928603e-05 0.4499303 -0.09248649 -0.664655
0002d0 29 6c bd 39 b7 eb ac 3a 02 32 f3 38 b7 bd eb 3e
       0.00036129475 0.0013192807 0.000115964576 0.46043178
0002e0 d0 95 ad bf 54 de 59 be f9 de 85 bf b7 10 68 bd
       -1.3561344 -0.21276218 -1.0458671 -0.056656566
0002f0 5c 97 6d 3f 0e d7 60 3d 73 5c 94 3e 5b e9 18 bf
       0.9280908 0.054892592 0.28976783 -0.5973107
000300 dc e8 70 bc e9 0c 09 3c 14 ee aa 39 95 87 a6 bd
       -0.0147039555 0.008364894 0.0003260231 -0.08131329
000310 0d 38 a7 3e f0 93 e3 be f6 f6 87 bc 80 93 97 3a
       0.3265995 -0.44448805 -0.016597252 0.0011564344
000320 0c 47 b9 39 9b c3 67 bb d9 90 43 b9 57 89 18 bb
       0.00035338884 -0.0035364393 -0.00018650609 -0.002327522
000330 fc 31 d9 3a ab fe e5 ba a2 8d f4 38 99 e0 05 3f
       0.0016570683 -0.001754721 0.00011661208 0.52295834
000340 10 12 dc be 82 a2 fb 3d 9f 57 f9 3e 7f c6 d2 bf
       -0.4298253 0.12286855 0.48699662 -1.6466826
000350 3f be 41 be 28 a6 46 bf c6 4b 76 3e 83 1f 34 bf
       -0.1892023 -0.77597284 0.24052343 -0.70360583
000360 75 85 29 3b 35 b8 00 bb fa 8e 99 38 68 82 81 ba
       0.00258669 -0.0019641046 7.32224e-05 -0.0009880783
000370 a5 8b a3 3a 4a 0b 9c ba f9 1c 93 be 03 9c a8 bd
       0.001247753 -0.001190522 -0.28733042 -0.08232882
000380 da e7 c0 3e 11 aa cf 3e 7d 84 55 3e 65 24 c6 bf
       0.3767689 0.40559438 0.20851322 -1.5479857
000390 80 1e a7 be 69 d2 eb 3e e0 cf 62 3e f7 a2 82 bb
       -0.32640457 0.46058968 0.2214961 -0.003986712
0003a0 5a cc 92 bd e5 32 1c bd 86 73 4d be b0 92 99 3e
       -0.07167883 -0.038134474 -0.200636 0.29994726
0003b0 33 ad 29 3e 73 c0 eb 3e 95 85 b2 bf a4 1f 55 be
       0.16569977 0.46045265 -1.3947016 -0.20812851
0003c0 b2 d2 e5 bc 9d 75 96 3b cb 8e d9 b9 15 18 11 3c
       -0.028054569 0.0045916573 -0.00041495854 0.008855839
0003d0 96 1f 26 bd ef ff 24 3d a0 62 7a bc d3 6f 13 3c
       -0.040557466 0.04028314 -0.015282303 0.008998829
0003e0 64 13 f6 ba 86 71 b4 3e e8 62 87 bd 6d 63 00 bf
       -0.0018774089 0.35242862 -0.06610662 -0.5015171
0003f0 16 08 8e bc d0 c3 cb bb a7 89 87 3a e3 de 84 3a
       -0.01733784 -0.006218411 0.0010340706 0.0010137226

conv_layers.1.bias f4 [128]
000000 09 41 c9 bd fa 98 06 3e 0b 4b 6c bd c1 a8 06 3e
       -0.098268576 0.13144293 -0.057688754 0.13150312
000010 34 7f fa bd 6c 21 ce bd fd cd 56 bd c8 a6 d5 3c
       -0.12231293 -0.100649685 -0.05244254 0.026080504
000020 e7 24 9a bd 3b 2e 07 be 4b d8 fd 3d cd b5 c9 bd
       -0.0752657 -0.1320123 0.1239477 -0.09849129
000030 25 28 96 bb ec a2 80 3d 97 85 08 be fc af 82 bd
       -0.0045824223 0.06281075 -0.1333221 -0.063812226
000040 c5 2f 07 3e 60 f4 8c 3d cf 54 9f bd b4 88 d7 3d
       0.13201816 0.06882548 -0.07779848 0.10524121
000050 5c 05 fb 3d 78 27 f4 3d e3 f0 9c bd 7d 45 24 3d
       0.122568816 0.119215906 -0.07663133 0.04010533
000060 6f 81 e0 3d 96 07 c2 bd 2d 00 aa bd a0 20 e7 bd
       0.109621875 -0.09474103 -0.08300815 -0.112855196
000070 b9 f1 32 3d 88 87 e0 3d 11 08 ee bc 1d 28 f1 bc
       0.043687556 0.109633505 -0.02905658 -0.029438073
000080 aa 1a fb bd 85 bf a3 bd 3f 15 c0 3d f7 ab 51 bd
       -0.12260945 -0.07995514 0.09379052 -0.05118939
000090 bb b3 9e bc 42 aa 8f 3d 13 66 79 3d 62 ec 8e 3d
       -0.019372812 0.07014896 0.06088836 0.0697868
0000a0 be b6 b9 bd af eb a5 bd 1b 76 08 3d a8 c5 01 be
       -0.090680584 -0.08101594 0.03331576 -0.12673056
0000b0 71 a8 d1 bd f2 61 87 bd 23 6e 35 3d 8e aa 8a bb
       -0.10237206 -0.066104785 0.044294488 -0.0042317575
0000c0 ad 4a cf 3d 2a 15 cd 3d 3f da a9 bd c8 98 4c 3c
       0.10121665 0.10013802 -0.0829358 0.012487598
0000d0 b6 57 ab bd c4 f8 ec 3d 99 83 d1 bd 0e 11 ac bd
       -0.08366339 0.11570886 -0.102301784 -0.084016904
0000e0 b0 5f db 3d 6d d3 0b be ee 17 9b bd b7 9f 8c 3d
       0.1071161 -0.13654871 -0.075729236 0.06866401
0000f0 15 ff 97 bd 7c 31 09 3e 5a 37 3b 3d cc 47 a7 bb
       -0.074217 0.13397783 0.045707084 -0.0051049944
000100 a2 42 07 be 30 aa e8 bd 95 e1 ae 3d 0e c0 a1 bc
       -0.13209012 -0.11360586 0.0853912 -0.0197449
000110 3d 07 d8 3d 80 91 34 3a 41 50 05 3e 7f b8 74 bd
       0.105482556 0.0006888136 0.13018896 -0.05974626
000120 ec 7e 02 bd e6 a0 84 bd 11 ba 93 bd ed f5 05 be
       -0.031859323 -0.064760014 -0.07213224 -0.13082094
000130 91 e0 2d bd fa 3c ae bd a8 49 a0 bd 1c d0 f9 3d
       -0.04245049 -0.08507724 -0.07826549 0.12197897
000140 f6 30 be 3d f6 bb 7f bd e6 83 1c 3c 9a ee ba 3a
       0.09286682 -0.062435113 0.009552931 0.0014261783
000150 4e ad 38 3d 20 72 62 bd 34 05 04 3e 7c 9b 36 3d
       0.04508715 -0.05528462 0.1289261 0.044581875
000160 e9 c8 6f 3d 9a a8 e4 bd a6 2a b6 bd 60 6a 4e bc
       0.058541212 -0.11164971 -0.08894853 -0.012598604
000170 88 b5 db 3d 29 61 f0 3d 23 d2 b3 3d ec f2 56 3d
       0.10727984 0.11737282 0.08780315 0.052477762
000180 4a b1 a6 3d fd 8a a2 bd 0c 2f c1 bd 37 0a 80 3d
       0.08139284 -0.07936666 -0.094328016 0.06251948
000190 b2 48 1f 3d 2a ae f6 bd fd 58 58 3d e4 89 d1 bc
       0.038887687 -0.12044938 0.05281924 -0.025578447
0001a0 ac 74 fa 3d 75 45 06 be 47 b9 a3 3a 2f b6 76 bb
       0.12229285 -0.13112433 0.001249113 -0.003764521
0001b0 7a 40 e7 3d 1d aa 91 bc 70 c7 5a 3d f4 74 9f 3d
       0.11291595 -0.017781312 0.053412855 0.07785979
0001c0 7e c0 08 3e 1d 40 b6 3d 25 2f fd bd ad 8b 5d 3b
       0.1335468 0.088989474 -0.12362508 0.0033805177
0001d0 fe 3e 3d bc 62 38 fc bd 2f ef dc bd a9 ee b9 bd
       -0.011550663 -0.12315442 -0.10787808 -0.09078724
0001e0 a4 cf 08 be 1c 03 b9 bc 89 f0 ba 3c fa 83 0a be
       -0.13360459 -0.02258449 0.022819774 -0.13526908
0001f0 44 97 a3 3d 18 07 b9 bc dc 85 a1 3c 69 aa 7a bd
       0.07987836 -0.02258639 0.01971715 -0.061197672

conv_layers.1.lin.weight f4 [128, 128]
000000 59 47 c1 3d 79 e2 60 b8 e5 3f c1 b9 fb 2e a3 3a
       0.094374366 -5.361668e-05 -0.00036859434 0.0012449914
000010 63 26 29 b9 6e 5d 35 b9 b3 9a 9f bc f6 2b a3 b8
       -0.00016131396 -0.0001729631 -0.019482946 -7.780634e-05
000020 5a ad 0c ba a4 0f 47 b9 f9 7c 07 3c 92 11 b6 b8
       -0.00053664076 -0.00018983945 0.008269542 -8.681709e-05
000030 bf e8 f8 b8 1d ef 78 b7 c6 a5 51 bd 11 27 89 b9
       -0.00011868914 -1.4837625e-05 -0.051183484 -0.00026159783
000040 1c 20 af 36 da 9a c4 b9 46 a9 8d b8 30 16 c0 bc
       5.2191444e-06 -0.00037499407 -6.7549336e-05 -0.02344808
000050 f3 2f 08 3d 3e e8 ed 3d d6 c2 05 be b0 be 20 b9
       0.033248853 0.11616562 -0.13062605 -0.00015329826
000060 9f 28 84 b9 22 8e d2 b9 8f 8f 4b b8 a8 7e f9 b9
       -0.00025207267 -0.00040160218 -4.853267e-05 -0.00047587347
000070 6e 3c 8d b9 95 fa 94 b8 be e6 2b be 60 ad e4 b9
       -0.0002693864 -7.1038645e-05 -0.1678724 -0.00043616723
000080 b7 8d 2f b9 e7 fd dd bd 32 9a 12 3b 17 0b 87 b9
       -0.00016742093 -0.10839444 0.002236974 -0.0002575747
000090 5b fb df ba 75 16 9d b9 d3 ce fa b7 8b 89 1a b9
       -0.001708846 -0.00029962105 -2.9898632e-05 -0.00014737823
0000a0 2c fe c9 3d d5 df 2b bd 9c eb e0 bd 42 12 1b b8
       0.098629326 -0.04196151 -0.10982439 -3.6971884e-05
0000b0 af cf 8c bd 19 de 8c b7 e9 24 d7 b9 90 76 b4 bd
       -0.0687555 -1.6792723e-05 -0.00041035496 -0.088116765
0000c0 55 85 8e bd 7e 96 fd b9 a7 cc a8 b8 6f 3c 02 b8
       -0.06959025 -0.00048368046 -8.048984e-05 -3.10507e-05
0000d0 ad 7f 27 be d7 c2 82 b9 d2 2e 5f 37 b0 a6 83 b8
       -0.16357298 -0.000249407 1.3302737e-05 -6.277615e-05
0000e0 94 c5 cd 38 12 6a 58 b6 be c0 0e b8 a5 2e e0 3c
       9.8119635e-05 -3.224825e-06 -3.4034943e-05 0.027365992
0000f0 8a fa f6 b8 f6 73 3e bd 1f fb d7 3d 55 b8 80 3d
       -0.000117768606 -0.046497308 0.105459444 0.062851585
000100 be 5d 15 b9 99 f4 4f 3d 79 24 4f ba ee 6a 1d ba
       -0.00014244669 0.050770376 -0.0007901858 -0.00060050085
000110 8d ac 11 b9 61 22 a8 bd 16 95 48 bd 0d 2b c1 bd
       -0.00013892558 -0.08209682 -0.048970304 -0.094320394
000120 d2 6c 09 b9 a6 26 a1 36 e0 22 32 bd 79 0e 1e 3e
       -0.00013105877 4.802673e-06 -0.04349029 0.15435208
000130 67 c3 16 bc 96 09 07 3a 80 d8 84 bb a1 43 3e bd
       -0.009201861 0.000515127 -0.004054129 -0.046451215
000140 0a 76 2f ba 2e a5 0e 3b ac 21 f4 b9 40 9f 99 3c
       -0.00066933094 0.0021765935 -0.00046564394 0.018752694
000150 d2 6e d8 ba 31 5b 86 b8 ea 84 21 3e 55 62 de b7
       -0.0016512519 -6.406604e-05 0.15773359 -2.6510252e-05
000160 46 9c b3 b7 60 5e ef b9 5d d1 10 ba 36 87 6b bd
       -2.1411233e-05 -0.00045655947 -0.00055243616 -0.057501994
000170 24 b8 f4 b8 78 bf dc b8 10 6b b2 b9 8f 07 bc bd
       -0.000116691255 -0.00010526081 -0.00034030573 -0.09181129
000180 2e 78 1a ba 51 a3 de b9 a8 c3 ba bd 65 07 ce 38
       -0.0005892542 -0.0004246482 -0.0911935 9.824223e-05
000190 85 77 d1 3d ae de 23 b9 85 2d bc b8 8c 6c 5f bb
       0.10227875 -0.00015627846 -8.973017e-05 -0.0034091799
0001a0 59 8e 8b b9 3d ab ca b7 70 51 70 b8 e7 cd 4b b9
       -0.00026618203 -2.4160016e-05 -5.7296304e-05 -0.00019436293
0001b0 4a 26 5e b8 1e 02 03 ba ec 9f 8a b9 cf 8f a1 3b
       -5.2964584e-05 -0.0004997569 -0.00026440562 0.0049304734
0001c0 aa f3 ef b8 eb b4 06 ba 54 b8 15 be d4 ea ad 3d
       -0.00011441794 -0.0005138653 -0.14621097 0.084920555
0001d0 b6 68 c5 bd 5d a3 a6 3c cc 73 94 3a 57 95 d8 b7
       -0.09639113 0.02034157 0.0011326014 -2.5818748e-05
0001e0 87 ac 33 ba d9 03 82 3b 5b 34 ac b8 3f 85 9b 3d
       -0.00068540167 0.003967744 -8.211351e-05 0.07593774
0001f0 6d d2 fa b8 4f f7 f6 bc 55 17 3d bd cc 00 00 ba
       -0.00011960124 -0.030147223 -0.04616483 -0.0004882931
000200 e5 0f 03 bd 97 fb 0b b8 24 1c fc 39 f9 cc cf bb
       -0.03199758 -3.3374494e-05 0.00048086152 -0.0063415733
000210 28 a8 01 38 20 27 1f 38 ae 2f bb 3c 48 66 6d 37
       3.0912604e-05 3.7944992e-05 0.022849884 1.4150115e-05
000220 9b 10 6d 39 03 ce 60 3b 45 00 8d bd e6 98 99 3a
       0.00022608267 0.003430248 -0.06884817 0.0011718541
000230 34 a3 9a 37 a2 b6 bd b6 2e be 9a 3e 4d 7f 4d 3b
       1.8434228e-05 -5.6539e-06 0.3022322 0.0031356395
000240 71 72 d0 b9 4f 33 e1 38 82 04 be 36 83 1e 1c 3d
       -0.00039758117 0.00010738393 5.662966e-06 0.038115036
000250 a7 b8 4d be f0 32 7b be d1 34 5b 3e 9e 5d 19 38
       -0.2008997 -0.2453115 0.21406867 3.656523e-05
000260 ec a3 6a 38 78 3a b6 38 ff 94 9d 37 50 7f 21 39
       5.594261e-05 8.689327e-05 1.878524e-05 0.00015401584
000270 53 eb b2 38 cb cb 52 36 e0 32 a7 3e 58 e9 45 39
       8.531534e-05 3.1411062e-06 0.32656002 0.00018874311
000280 2d bf 84 37 5a c7 35 3e 12 e2 20 bc 4b 2c 99 38
       1.582465e-05 0.17751828 -0.009819524 7.303859e-05
000290 80 d2 9d 39 d7 53 db 38 b8 49 3f b7 21 a4 92 38
       0.00030102208 0.0001045835 -1.1401651e-05 6.992394e-05
0002a0 1c 93 86 be 2f f7 62 3e ad 21 36 3e 2e 76 a7 37
       -0.2628411 0.22164606 0.17786284 1.9962983e-05
0002b0 d3 d5 1c 3d fe 8a 22 36 25 77 c6 36 43 f3 3b 3c
       0.038289856 2.4220785e-06 5.91473e-06 0.011471572
0002c0 e5 60 5e 3c c9 7c 15 38 0b 90 85 37 68 86 12 37
       0.013572906 3.5640584e-05 1.592191e-05 8.733572e-06
0002d0 3e 06 a5 3e 7b 91 c7 38 93 cb b7 b8 3d 33 1d b8
       0.32231325 9.516157e-05 -8.764039e-05 -3.7479436e-05
0002e0 f2 2b 04 b9 7f 25 e2 39 11 27 74 b7 c2 e8 30 be
       -0.00012604872 0.00043134016 -1.4552629e-05 -0.1727629
0002f0 d2 86 ed 37 bf ec 7f 3e 43 db 89 be 35 ae 01 be
       2.8315382e-05 0.24992655 -0.26925096 -0.12664111
000300 e2 e4 80 b8 fd 47 c6 bc 7e 43 88 39 5f d9 4a 39
       -6.1461484e-05 -0.024204249 0.00025990227 0.00019345198
000310 62 b2 78 38 59 d4 2e 3d e2 bb 92 3e 02 2c 4b 3e
       5.929394e-05 0.04268298 0.28658968 0.19841006
000320 b9 87 86 38 70 49 e5 b7 2f bc be 3d 8d f2 96 be
       6.414898e-05 -2.7333124e-05 0.09313237 -0.29481927
000330 51 40 2b 3e e0 05 d6 ba ba 42 d9 3d 43 df 81 3e
       0.16723754 -0.0016328655 0.1060843 0.25365648
000340 54 e0 de 38 4e 25 38 bb 6a cf 5e b8 eb aa 01 be
       0.00010627569 -0.0028098407 -5.3122094e-05 -0.12662856
000350 6b f7 09 39 61 a3 04 38 62 96 b0 be 2d 93 92 b6
       0.00013157509 3.162341e-05 -0.34489733 -4.3682726e-06
000360 25 54 a1 37 a4 64 6d 39 3f d2 a7 39 9f 5b f2 3d
       1.9231878e-05 0.00022639573 0.00032009368 0.118338816
000370 59 c7 aa 36 d7 8c ff 38 65 a6 23 39 53 e6 ad bc
       5.089602e-06 0.00012185581 0.00015606878 -0.021227991
000380 d7 d2 e1 38 74 b4 d6 38 bd 9e 37 3e b1 0e 70 36
       0.00010768108 0.00010237927 0.17931648 3.5771338e-06
000390 73 3c 0b bd b7 05 4e 38 c5 7b 25 3b 42 fd 23 bb
       -0.033993196 4.911955e-05 0.0025250774 -0.002502278
0003a0 8f 57 f4 38 05 69 36 38 da ca de b6 49 ba c8 38
       0.00011651136 4.348999e-05 -6.6397306e-06 9.5714415e-05
0003b0 39 23 c6 35 46 dd d6 38 97 fb d7 38 b2 f5 55 be
       1.4762401e-06 0.000102455306 0.00010298861 -0.20894507
0003c0 27 5b 1b 38 10 0f 70 38 29 d2 71 3e a6 2e d3 bc
       3.7039772e-05 5.7234487e-05 0.23615326 -0.02577908
0003d0 4c 1e 6f 3e 85 0d 0f be 5f 6f c9 3a 89 ac c5 34
       0.23351401 -0.13970001 0.0015368274 3.6819645e-07
0003e0 27 99 1b 39 93 1d 49 bc 6e 49 6d 37 5a a7 07 bd
       0.00014839006 -0.012275117 1.41433975e-05 -0.033118583
0003f0 47 fc 24 38 77 a3 5d 3d f5 2d 81 3e 5c a0 33 39
       3.93356e-05 0.05411097 0.25230375 0.00017130509
