Experiment/pre_trained_model/ENZYMES/GraphMAE.GCN.128hidden_dim.pth (torch, 70632 bytes, 4 tensors)

conv_layers.0.bias f4 [128]
0.015524415 -0.0041482477 -0.0041016056 0.08177207 0.10594488 0.027189927 0.016734825 0.089278646
0.28442407 0.032564394 0.07128086 0.012259472 -0.002040995 -0.001271154 0.022445038 0.07403758
0.035236068 -0.011961761 -0.009006999 0.106349446 -0.0022294365 0.065955445 -0.0040414724 0.2930271
-0.011913265 0.0825421 0.1819301 0.020054089 -0.003497168 -0.007927728 -0.005393631 -0.01076441
0.09112762 0.30866998 -0.015737485 0.08504842 0.04612219 -0.008015585 -0.0060515287 -0.010060005
0.07275244 0.0016636549 -0.0025885298 0.04209512 0.031869527 0.011528678 0.0038006436 0.21370627
-0.019172417 0.02904326 0.033107955 -0.004335454 0.007447252 -0.000988789 0.08909767 0.0036478078
0.008266408 0.11607904 0.03622544 0.00049667736 -0.0099531505 -0.0055511785 0.020585727 -0.015408841
0.039271347 0.036322217 0.009561783 -0.0011077573 -0.012625753 0.14061137 0.19496055 0.04133967
-0.00035815014 0.023538014 0.009225951 0.0006348303 0.0098789 0.10021976 0.07079678 0.18972637
0.019564094 -0.00087928376 0.014684534 0.043304674 -0.010095655 0.033255402 -0.013370317 0.018694296
-0.011674213 0.02790165 -0.0024964733 -0.001891367 0.0027000497 0.008535881 -0.008492211 0.07839537
-0.014328998 -0.010289506 0.037529863 -0.009482907 -0.006267905 0.007474593 -0.016132832 0.056335133
0.0030637467 0.024743471 0.060032412 0.09516485 0.042328805 0.0004604885 -0.012601732 0.001189909
0.002609163 0.09490134 0.00033521312 0.043222915 -0.018607115 0.117863 0.010485704 0.10553001
-0.003962306 0.122295514 -0.004779535 0.0010790591 0.11067728 -0.019629935 0.10037942 0.0035564608
00000000: 1e5a 7e3c 06ee 87bb c366 86bb 1d78 a73d
00000010: a1f9 d83d 69bd de3c 7917 893c b9d7 b63d
00000020: 08a0 913e 3e62 053d b3fb 913d f4db 483c
00000030: 37c2 05bb da9c a6ba a8de b73c 04a1 973d
00000040: b253 103d 43fb 43bc 1892 13bc bdcd d93d
00000050: bd1b 12bb a613 873d 546e 84bb a607 963e
00000060: db2f 43bc d50b a93d e24b 3a3e 7948 a43c
00000070: be30 65bb 4de3 01bc 0ebd b0bb 355d 30bc
00000080: 1ea1 ba3d fe09 9e3e e6eb 80bc de2d ae3d
00000090: 9fea 3c3d cd53 03bc e74b c6bb b8d2 24bc
000000a0: 3bff 943d ff0e da3a 53a4 29bb ef6b 2c3d
000000b0: 9f89 023d c8e2 3c3c 3814 793b d1d5 5a3e
000000c0: 790f 9dbc 21ec ed3c 359c 073d 6d10 8ebb
000000d0: 1408 f43b 419a 81ba d778 b63d 0f10 6f3b
000000e0: d46f 073c d9ba ed3d 2161 143d 7433 023a
000000f0: 8a12 23bc a9e6 b5bb 66a3 a83c 5d75 7cbc
00000100: feda 203d 9bc6 143d 06a9 1c3c 2b32 91ba
00000110: 3fdc 4ebc 6dfc 0f3e bda3 473e c953 293d
00000120: 19c6 bbb9 cbd2 c03c 7128 173c be6a 263a
00000130: 1cdb 213c 0440 cd3d e7fd 903d a147 423e
00000140: e144 a03c bc7f 66ba 6697 703c 3e60 313d
00000150: 3f68 25bc d136 083d 2d0f 5bbc c824 993c
00000160: 3345 3fbc 0092 e43c df9b 23bb bfe7 f7ba
00000170: 51f3 303b 14da 0b3c ea22 0bbc c08d a03d
00000180: 2cc4 6abc 5195 28bc eab8 193d 325e 1bbc
00000190: ff62 cdbb 6eed f43b 0029 84bc abbf 663d
000001a0: 24c9 483b d2b2 ca3c 8ce4 753d cae5 c23d
000001b0: f860 2d3d b86d f139 7f77 4ebc b8f6 9b3a
000001c0: 7efe 2a3b a25b c23d 8bbf af39 830a 313d
000001d0: f36d 98bc 2862 f13d 3bcc 2b3c 1e20 d83d
000001e0: 3bd6 81bb 1276 fa3d a59d 9cbb 376f 8d3a
000001f0: c5aa e23d f5ce a0bc ba93 cd3d 8313 693b

conv_layers.0.lin.weight f4 [128, 3]
0.16211374 0.030488614 -0.12934907 -0.0196218 0.13974997 -0.10683473 -0.08335065 0.08068958
0.07419327 -0.18315135 0.29636276 0.37805292 -0.3409169 0.11597879 0.36860052 -0.15719484
0.15776387 -0.113685854 0.10437345 0.081172064 -0.12983708 -0.29314843 0.13910605 0.38960496
-0.4566891 0.5343906 0.25046888 -0.020062407 0.118846774 -0.20827594 -0.232705 0.1377415
0.20374326 0.1864502 -0.042710252 -0.0758603 -0.0054539135 -0.007011736 5.0197556e-05 0.15546401
-0.077335544 -0.023374919 0.16289018 0.13659035 -0.27655405 -0.124397725 0.16359241 -0.4354919
0.0619971 -0.23934749 -0.2033595 0.020352624 0.15144068 0.13411811 0.18702102 0.12296547
0.07033919 0.364515 0.011582675 0.59800184 -0.05116691 -0.00333529 1.0426814e-06 -0.03306594
0.20443565 -0.3782979 0.08430336 -0.15740189 -0.026391126 -0.1258356 -0.012525303 -0.53770095
0.121629775 -0.08352009 0.1290989 -0.25922066 0.107327275 0.5428184 -0.21870857 -0.057209563
-0.78574413 0.05350047 0.06301395 -0.20231971 -0.015915541 0.120268986 -0.08977251 0.029690644
0.048998367 0.12088821 -0.07907554 -0.03299513 3.5561417e-05 -0.054439407 0.030049404 0.021191753
-0.16753115 0.43376383 0.64129394 -0.087298006 -0.2527227 -0.4111962 -0.17477223 0.12973197
-0.036100995 -0.1555356 0.18643907 -0.47505817 -0.009896422 0.07843605 -0.23453239 0.19087125
-0.09468606 0.054332476 0.11549677 0.16577423 0.045740142 0.14901768 0.14171934 -0.06472803
-0.23439501 0.10787334 0.36763927 0.13407572 -0.16135375 0.013412453 0.11043587 -0.08597332
0.09346773 0.034446847 -0.24728474 -0.054820996 0.14808632 0.04106023 -0.18980277 0.16249335
0.011324063 0.083038025 -0.008248665 0.12243138 0.1587978 0.012335108 -0.028197633 -0.37667096
-0.1017707 -0.04994316 0.00031546026 0.1396139 0.12841725 -0.21169448 0.12103689 -0.16030689
-0.18272586 -0.052597336 0.15818937 -0.042014483 0.18445535 0.20554413 -0.12864073 0.023746494
-0.01669059 0.08017007 -0.28295776 0.13566782 0.42547175 -0.03189745 0.17477375 -0.020654341
-0.08867097 0.13127644 -0.073814824 -0.2765627 0.39980963 0.4538878 -0.07060009 0.09732454
-0.12581125 0.08502365 -0.11201568 -0.011178673 0.084872924 0.14459537 -0.04223465 -0.04606113
-0.09194204 0.00013804043 0.06076079 0.10812897 -0.16560842 0.08755058 -0.0055641993 0.16817912
0.14142169 0.16999555 -0.2436979 -0.043829218 0.16364793 -0.26965865 0.04931106 0.18967324
-0.16109414 0.108563885 -0.14849971 -0.014590256 0.15656342 0.007249034 -0.01840188 -0.16238065
0.01495019 -0.7944364 -0.15694125 -0.06302664 -0.73283684 0.0867175 -0.18776786 -0.20617281
-0.11459253 0.050174482 0.10849487 0.13168496 0.013155701 -0.0779417 0.0060041957 0.06261601
0.4808305 0.021480162 -0.003838531 0.03754144 -0.15429033 0.17425147 -0.112123296 0.06112702
-0.025881156 -0.5976406 -0.23039412 0.09542177 0.444055 -0.03352173 -0.07003794 -0.64139915
-0.072934166 0.017952098 0.296417 0.025573557 0.010379483 -0.002722837 -0.059090212 0.055500664
0.027540985 -0.09217355 0.20425066 -0.22459318 -0.02470231 0.16480534 0.0021802976 -0.02861195
00000000: 2501 263e 42c3 f93c 1574 04be e6bd a0bc
00000010: 9e1a 0f3e 2bcc dabd bfb3 aabd 9440 a53d
00000020: a4f2 973d 078c 3bbe dcbc 973e 2790 c13e
00000030: a98c aebe 4a86 ed3d 35b9 bc3e aff7 20be
00000040: da8c 213e 21d4 e8bd bfc1 d53d 8a3d a63d
00000050: 03f4 04be 8d17 96be d171 0e3e 4d7a c73e
00000060: 27d3 e9be d3cd 083f 753d 803e eb59 a4bc
00000070: f065 f33d 4a46 55be 384a 6ebe 1c0c 0d3e
00000080: 13a2 503e cdec 3e3e f2f0 2ebd a55c 9bbd
00000090: beb6 b2bb b4c2 e5bb 378b 5238 f531 1f3e
000000a0: 1962 9ebd c27c bfbc afcc 263e 57de 0b3e
000000b0: 7e98 8dbe 3cc4 febd c584 273e cbf8 debe
000000c0: acf0 7d3d 8217 75be 793d 50be 8cba a63c
000000d0: 4413 1b3e 4256 093e 7082 3f3e 52d5 fb3d
000000e0: fe0d 903d b6a1 ba3e 43c5 3d3c a616 193f
000000f0: 6594 51bd e194 5abb 43f2 8b35 2770 07bd
00000100: 9457 513e 43b0 c1be 3da7 ac3d f62d 21be
00000110: 3432 d8bc 0cdb 00be ee36 4dbc c5a6 09bf
00000120: 0819 f93d 950c abbd 8132 043e 92b8 84be
00000130: 67ce db3d 26f6 0a3f 24f5 5fbe 9354 6abd
00000140: 8726 49bf 4f23 5b3d 750d 813d e62c 4fbe
00000150: 4f61 82bc 964f f63d a6da b7bd cb39 f33c
00000160: 83b2 483d 3d94 f73d 5bf2 a1bd e725 07bd
00000170: c827 1538 dbfb 5ebd 2b2a f63c 549a ad3c
00000180: 498d 2bbe 4b16 de3e d72b 243f 4cc9 b2bd
00000190: df64 81be 4f88 d2be 7ef7 32be 75d8 043e
000001a0: a3de 13bd b944 1fbe e2e9 3e3e d33a f3be
000001b0: 9a24 22bc 14a3 a03d 4229 70be c173 433e
000001c0: c4ea c1bd bb8b 5e3d 9289 ec3d b8c0 293e
000001d0: 045a 3b3d 1798 183e e01e 113e 2190 84bd
000001e0: 3f05 70be b3ec dc3d 373b bc3e 254b 093e
000001f0: eb39 25be e8bf 5b3c 342c e23d c812 b0bd
00000200: 026c bf3d 2318 0d3d 3638 7dbe fb8b 60bd
00000210: f1a3 173e c62e 283d a85b 42be a864 263e
00000220: 9088 393c d70f aa3d 6925 07bc 4ebd fa3d
00000230: e49b 223e 3119 4a3c b9fe e6bc 04db c0be
00000240: 286d d0bd 3391 4cbd 5c64 a539 f2f6 0e3e
00000250: d07f 033e 70c6 58be 30e2 f73d 7d27 24be
00000260: 7d1c 3bbe 4e70 57bd 65fc 213e 6117 2cbd
00000270: dde1 3c3e 297a 523e 65ba 03be 0288 c23c
00000280: b4ba 88bc 3530 a43d d7df 90be 81ec 0a3e
00000290: 6fd7 d93e e7a6 02bd e4f7 323e 4b33 a9bc
000002a0: 2099 b5bd 556d 063e 3a2c 97bd a099 8dbe
000002b0: d9b3 cc3e fb63 e83e c896 90bd 1752 c73d
000002c0: aad4 00be e120 ae3d 7a68 e5bd c126 37bc
000002d0: dbd1 ad3d cf10 143e 3efe 2cbd 98aa 3cbd
000002e0: 1c4c bcbd f2be 1039 4ee0 783d b972 dd3d
000002f0: 4195 29be b84d b33d e353 b6bb 2637 2c3e
00000300: d9d0 103e 5013 2e3e f18b 79be 4486 33bd
00000310: 5393 273e b310 8abe 65fa 493d b439 423e
00000320: ddf5 24be be56 de3d 4f10 18be f80b 6fbc
00000330: 2952 203e 4e89 ed3b 8abf 96bc 1d47 26be
00000340: a4f1 743c 2f60 4bbf 35b5 20be 1c14 81bd
00000350: 329b 3bbf f298 b13d 3846 40be f71e 53be
00000360: 7daf eabd c283 4d3d 8f32 de3d 6cd8 063e
00000370: 028b 573c e69f 9fbd d8be c43b d33c 803d
00000380: 6a2f f63e 2af7 af3c dd8f 7bbb 0ec5 193d
00000390: 49fe 1dbe fa6e 323e e6a0 e5bd 5360 7a3d
000003a0: b804 d4bc f9fe 18bf 70ec 6bbe 7d6c c33d
000003b0: 2d5b e33e 154e 09bd 0d70 8fbd bc32 24bf
000003c0: 825e 95bd 4710 933c f8c3 973e a37f d13c
000003d0: b50e 2a3c a071 32bb 9408 72bd aa54 633d
000003e0: a29d e13c 7cc5 bcbd 1627 513e c1fb 65be
000003f0: 805c cabc bbc2 283e 53e3 0e3b 9c63 eabc

conv_layers.1.bias f4 [128]
-0.005249417 0.014718136 -0.0113600725 -0.0034726774 0.016186936 0.0012649772 0.0062192134 -0.022531733
0.0149143515 0.0019233228 0.0024721152 0.0033023995 -0.011313622 -0.004156649 0.0026590275 -0.013343338
0.01491203 -0.013195123 0.0039485563 0.02023929 -0.011380837 -0.02522738 -0.0119668655 -0.01648408
0.0061130207 0.006813617 -0.00048608164 0.008806924 0.015879339 -0.00035040037 -0.020823393 -0.006722508
-0.01437971 -0.0005561523 -0.016869107 -0.019748276 0.00027825145 -0.011833915 0.007510616 0.012115898
-0.004378916 0.005556479 -0.018537212 -0.00396858 0.02204405 0.014780468 -0.009076704 0.01205744
0.019867335 -0.0026888147 -0.008043801 -0.008697384 0.0008377042 0.008344973 -0.0151628805 -0.013752081
-0.0033855445 0.018725453 0.007403719 0.011845046 0.002520288 -0.002804315 0.025302213 -0.017152105
-0.023062507 -0.009597272 -0.018199844 0.0011610602 0.007934262 0.007482296 0.01663108 0.009023273
-0.0019184989 -0.008781326 0.00865838 0.0029632922 0.0125769125 -0.0008300269 0.0154743735 -0.02094549
-0.00039386714 0.012386678 -0.005030743 0.027096018 -0.017621163 -0.011340134 -0.010812061 -0.0062764916
7.561188e-05 0.0135043645 0.02152752 -0.0015482537 -0.015566842 -0.006898894 -0.009669428 -0.02226025
0.005345764 0.006698668 -0.005253561 -0.00955885 -0.021260317 0.007976094 0.016511055 -0.0117414165
-0.002811985 0.015987096 0.0035721976 -0.011194347 -0.014528963 -0.021783292 0.008842416 -0.009122126
-0.02842985 0.020363213 -0.012754608 0.015104492 -0.006154659 0.017615022 -0.0064071463 0.020928154
-0.011788614 0.01569361 -0.013690246 -0.008130095 0.015811305 -0.002227595 0.0016212184 0.019909328
00000000: 4d03 acbb 5624 713c 991f 3abc dc95 63bb
00000010: 779a 843c 97cd a53a 8bca cb3b 7894 b8bc
00000020: 535b 743c 0118 fc3a 3603 223b 126d 583b
00000030: c55c 39bc 8034 88bb 1443 2e3b 049e 5abc
00000040: 9651 743c 5b30 58bc e462 813b decc a53c
00000050: b176 3abc a7a9 cebc ac10 44bc 9f09 87bc
00000060: bc4f c83b c344 df3b c6d8 feb9 eb4a 103c
00000070: 6315 823c f1b5 b7b9 d295 aabc 7c48 dcbb
00000080: e098 6bbc c0ca 11ba 1531 8abc 23c7 a1bc
00000090: 47e2 9139 09e3 41bc 9d1b f63b c281 463c
000000a0: 037d 8fbb 2013 b63b 5adb 97bc dd0a 82bb
000000b0: b995 b43c c729 723c 75b6 14bc 928c 453c
000000c0: d2c0 a23c d336 30bb 26ca 03bc 797f 0ebc
000000d0: 6199 5b3a 5bb9 083c bb6d 78bc 6950 61bc
000000e0: 03e0 5dbb 1f66 993c e59a f23b b911 423c
000000f0: 6b2b 253b 99c8 37bb 9646 cf3c 9282 8cbc
00000100: 95ed bcbc e03d 1dbc d717 95bc b72e 983a
00000110: b5fe 013c 0c2e f53b e73d 883c 5ad6 133c
00000120: 2476 fbba 8ddf 0fbc e1db 0d3c cb33 423b
00000130: 650f 4e3c 2a96 59ba 3a88 7d3c e095 abbc
00000140: f47f ceb9 7ef1 4a3c eed8 a4bb 78f8 dd3c
00000150: 425a 90bc f8cb 39bc 1225 31bc 07ab cdbb
00000160: d291 9e38 6941 5d3c 7b5a b03c c6ee caba
00000170: 110c 7fbc 1e10 e2bb 856c 1ebc 215b b6bc
00000180: 852b af3b 8080 db3b 1026 acbb b99c 1cbc
00000190: 1e2a aebc 2aae 023c 3142 873c 125f 40bc
000001a0: 4849 38bb 5ff7 823c 881b 6a3b 7f68 37bc
000001b0: e30a 6ebc e072 b2bc c8df 103c f874 15bc
000001c0: b7e5 e8bc c1d0 a63c b4f8 50bc d578 773c
000001d0: 06ad c9bb 614d 903c 0af3 d1bb 8571 ab3c
000001e0: 0825 41bc e38f 803c 0e4d 60bc 1734 05bc
000001f0: b686 813c d8fc 11bb 107f d43a e318 a33c

conv_layers.1.lin.weight f4 [128, 128]
0.10674161 0.09679865 0.03088935 0.1499671 0.10795875 0.056213394 0.13189936 0.107543625
0.311186 0.021024296 0.06303431 -0.05154934 -0.007218213 0.12569791 0.12883243 0.09483747
-0.10769267 0.07659611 0.1143663 0.10736987 0.015019275 -0.12834843 0.026365753 -0.122022994
-0.049111687 0.13916986 -0.10811244 -0.120013565 -0.11884392 0.11121572 0.028954161 -0.11258285
0.2867191 0.020701813 0.03372673 -0.09857175 -0.11861616 -0.108940706 0.0735661 0.011677202
0.060748275 -0.086899914 0.06163074 0.0267498 -0.040074922 0.02450891 0.05579187 -0.043814432
0.012399774 0.031886972 0.04524926 -0.026000159 0.021809798 -0.07255227 0.1179491 0.0792412
0.043244053 0.2727958 -0.07386913 -0.00900579 0.11719394 0.0032840008 0.08456074 -0.036521323
0.13853174 0.06827301 -0.005180124 -0.06810327 -0.09478332 -0.017758923 -0.009745284 -0.12665538
0.071209185 -0.028039152 0.09856788 -0.03352766 0.087481715 0.028067764 0.092250526 -0.115112826
0.049201973 0.07190593 0.094911836 -0.008434466 0.024910882 -0.06586195 0.06293482 0.11467787
0.012984962 0.07408177 -0.0068742917 0.029350426 -0.075433336 0.011291966 0.001639567 0.021614626
0.09191258 -0.09163253 0.066744186 -0.0010683449 0.119851574 0.06435972 0.0046347957 0.2533594
0.052848376 0.021158217 0.04996989 0.033249367 0.09210856 0.0010495086 0.0012000011 0.0013649208
-0.03441234 0.10795435 -0.05037398 0.112048216 -5.2341853e-05 0.12667675 0.108833626 0.11048417
0.025773315 0.21599728 -0.14696015 -0.010206516 -0.06797084 -0.04848919 0.12211749 0.061176326
0.087678544 -0.10564731 -0.09423016 -0.06646239 -0.075566866 -0.105499744 0.050406914 -0.07971322
-0.022220386 0.03579316 -0.054084875 0.03477831 0.0004222437 -0.03157892 -0.034083396 0.15791121
-0.025937201 0.054442678 -0.12182334 -0.07431565 0.0013294641 0.0016318558 0.11032051 0.21241343
-0.03949626 -0.09083224 0.1395949 0.08627533 -0.11849619 -0.12736094 -0.00031651277 0.035154983
-0.0869652 0.06396501 -0.037043273 0.12561193 -0.09371339 0.008440826 -0.12927471 -0.03132108
-0.0620725 0.062706135 0.12520571 0.025662478 0.12725802 0.0012145758 -0.029469438 0.11251023
0.0028014393 -0.059015557 0.05926029 0.03902749 -0.014674947 -0.012791313 -0.081683315 -0.011514031
0.09221058 -0.062322516 -0.047854614 0.04625137 0.021040637 -0.00017475027 -0.080367774 -0.051781964
-0.10754309 0.07446796 0.046283703 -0.06894131 -0.08236567 0.09208086 0.13989033 0.006376787
0.0008527309 -0.046547256 -0.067593895 0.03881101 -0.0018411087 0.053712748 -0.083492 0.11310334
-0.028027518 0.08388807 -0.045238312 -0.041848253 -0.026526699 -0.078463465 0.030581612 0.0011455942
-0.000100896454 -0.06087296 -0.004520139 0.06543759 -0.026373457 0.11011562 -0.0041017514 0.1317004
-0.093104534 0.04624675 -0.037278883 -2.2425604e-05 -0.09154629 0.12828839 0.030994976 -0.08146976
-0.037470054 0.11460955 0.12587857 0.13082933 0.013739947 -0.0022037928 4.9334274e-05 0.07449297
0.05290949 -0.08682419 -0.011673698 0.08268113 8.210495e-05 -0.08269619 -0.0596659 -0.1017135
-0.055130515 -0.05191486 0.033486865 -0.00032143222 0.06687179 -0.100806676 -0.09857499 -0.04517029
00000000: 589b da3d 5f3e c63d aa0b fd3c fa90 193e
00000010: 7a19 dd3d 0440 663d a010 073e d53f dc3d
00000020: c553 9f3e 253b ac3c 2218 813d 6725 53bd
00000030: c286 ecbb f4b6 003e a6ec 033e 263a c23d
00000040: f98d dcbd 6cde 9c3d e138 ea3d bce4 db3d
00000050: 6813 763c c56d 03be fefc d73c 31e7 f9bd
00000060: 5629 49bd 8b82 0e3e 0e6a ddbd acc9 f5bd
00000070: 7164 f3bd 11c5 e33d 4731 ed3c d691 e6bd
00000080: d9cc 923e d996 a93c 0a25 0a3d fcdf c9bd
00000090: 07ed f2bd 4e1c dfbd d3a9 963d bc51 3f3c
000000a0: 2fd3 783d 95f8 b1bd 8470 7c3d 6622 db3c
000000b0: 9a25 24bd e9c6 c83c 0486 643d c376 33bd
000000c0: 6c28 4b3c ea9b 023d 4a57 393d 49fe d4bc
000000d0: 76aa b23c 4996 94bd 4c8f f13d 3649 a23d
000000e0: ad20 313d e4ab 8b3e b348 97bd 058d 13bc
000000f0: 6003 f03d 6438 573b 2e2e ad3d 6297 15bd
00000100: 44db 0d3e b8d2 8b3d 08be a9bb ba79 8bbd
00000110: c21d c2bd 297b 91bc afaa 1fbc f3b1 01be
00000120: 1fd6 913d 5db2 e5bc f5dd c93d 4d54 09bd
00000130: 9d29 b33d 5eee e53c d8ed bc3d 46c0 ebbd
00000140: 0288 493d 6b43 933d 2361 c23d b730 0abc
00000150: e811 cc3c a1e2 86bd f9e3 803d 3bdc ea3d
00000160: e1be 543c 2fb8 973d bd41 e1bb 4e70 f03c
00000170: cb7c 9abd f001 393c bde6 d63a 2811 b13c
00000180: aa3c bc3d d6a9 bbbd 2db1 883d b507 8cba
00000190: be74 f53d 07cf 833d 7cdf 973b 53b8 813e
000001a0: 8a77 583d ff53 ad3c 3aad 4c3d 7d30 083d
000001b0: 6aa3 bc3d aa8f 893a 5b49 9d3a 24e7 b23a
000001c0: f4f3 0cbd 2c17 dd3d f254 4ebd 8979 e53d
000001d0: a389 5bb8 8db7 013e 2ae4 de3d 8645 e23d
000001e0: 8f22 d33c 642e 5d3e b97c 16be 3b39 27bc
000001f0: 4c34 8bbd 9a9c 46bd bc18 fa3d 0794 7a3d
00000200: cf90 b33d 9e5d d8bd befb c0bd 6f1d 88bd
00000210: cdc2 9abd 4010 d8bd 7b77 4e3d af40 a3bd
00000220: 8707 b6bc d99b 123d 1a88 5dbd b473 0e3d
00000230: 9760 dd39 e658 01bd 089b 0bbd 7ab3 213e
00000240: 417a d4bc 49ff 5e3d 847e f9bd ce32 98bd
00000250: 6a41 ae3a ffe3 d53a b8ef e13d e882 593e
00000260: d5c6 21bd 4106 babd f7f1 0e3e 1fb1 b03d
00000270: 21ae f2bd e86a 02be a0f1 a5b9 acfe 0f3d
00000280: d01a b2bd 1600 833d b0ba 17bd 6aa0 003e
00000290: ceec bfbd 644b 0a3c 9760 04be 884a 00bd
000002a0: bc3f 7ebd 136c 803d ed35 003e 1e3a d23c
000002b0: ed4f 023e 6732 9f3a e469 f1bc c36b e63d
000002c0: 5a98 373b 4cba 71bd ebba 723d 4adb 1f3d
000002d0: 306f 70bc a892 51bc 9549 a7bd 59a5 3cbc
000002e0: e7d8 bc3d e545 7fbd 3303 44bd 1472 3d3d
000002f0: 6a5d ac3c 2b3d 37b9 dc97 a4bd 5319 54bd
00000300: 8d3f dcbd a882 983d fb93 3d3d 1a31 8dbd
00000310: 55af a8bd e494 bc3d 693f 0f3e 5ef4 d03b
00000320: cd89 5f3a 56a8 3ebd ab6e 8abd 4bf8 1e3d
00000330: 5b51 f1ba e601 5c3d dbfd aabd b9a2 e73d
00000340: f799 e5bc 82cd ab3d cf4b 39bd 1369 2bbd
00000350: 854e d9bc 74b1 a0bd 4a86 fa3c c327 963a
00000360: 5f98 d3b8 ed55 79bd ad1d 94bb 2504 863d
00000370: 260d d8bc 4c84 e13d fc67 86bb 78dc 063e
00000380: 97ad bebd 3b6d 3d3d beb1 18bd 9e1e bcb7
00000390: 9f7c bbbd 085e 033e 2de9 fd3c 9ed9 a6bd
000003a0: 337a 19bd 69b8 ea3d 50e6 003e 20f8 053e
000003b0: 841d 613c 826d 10bb 46ec 4e38 c58f 983d
000003c0: 9fb7 583d e2d0 b1bd 0a43 3fbc b954 a93d
000003d0: c22f ac38 9f5c a9bd 3b64 74bd 2b4f d0bd
000003e0: 89d0 61bd ada4 54bd 8629 093d e785 a8b9
000003f0: 14f4 883d bb73 cebd afe1 c9bd 7b04 39bd
