Experiment/pre_trained_model/ENZYMES/SimGRACE.GCN.128hidden_dim.pth (torch, 70632 bytes, 4 tensors)

conv_layers.0.bias f4 [128]
000000 be ca fa 3d b3 78 aa 3d e9 a8 0f 3e d4 ed 70 bd
       0.12245701 0.08323803 0.14029278 -0.05882056
000010 51 e5 ee 3c 6e 6a 3a 3e 56 b1 7a bc 13 82 f5 3c
       0.029162081 0.18204662 -0.015301069 0.02996925
000020 3a a0 96 bd 1a af 14 be 91 fd a9 3d 09 3e 25 3d
       -0.073547795 -0.14519921 0.08300317 0.040342364
000030 cf 9f 57 3e c7 6a 95 bd 93 80 a8 bd d0 45 c5 3d
       0.21057056 -0.07295757 -0.082276486 0.09632456
000040 7e 3f c9 ba f0 5a b8 bd c8 25 b4 bd 2f a3 22 b9
       -0.0015354005 -0.0900172 -0.08796269 -0.00015510315
000050 22 98 0f bc 74 9b 35 3e 19 e9 10 3d 1e 59 2d b9
       -0.008764299 0.17735082 0.03537855 -0.00016531764
000060 f2 53 24 3e ab f6 81 3e d6 3c e0 bd 30 c2 08 3e
       0.16047648 0.25383505 -0.109491035 0.13355327
000070 58 83 db bd 0a b0 34 be f8 82 7c 3e 26 72 2c bc
       -0.10718411 -0.17645279 0.24659336 -0.010525262
000080 4d 54 5f 3e 2f 1a 04 be 9b b2 02 3e aa a2 fe 3d
       0.21809502 -0.12900613 0.12763445 0.124333695
000090 96 8d 1b be 28 e5 63 3e c0 c8 0e be 26 70 c2 bc
       -0.1519073 0.22255385 -0.13943768 -0.023735117
0000a0 de 69 1d 3d df ee 18 3e b0 91 91 bd c1 ff 63 3e
       0.03843104 0.14934872 -0.07107866 0.22265531
0000b0 cd d7 c1 3d 52 50 da bd f5 6b 01 be 8d 66 ea bd
       0.09464989 -0.10659851 -0.12638839 -0.11445341
0000c0 8a 9e 30 bc 3d 71 21 be ef 29 b3 3d bc 47 91 39
       -0.010779986 -0.15765853 0.087482326 0.0002771
0000d0 7e 80 e1 bd ce f2 ec bc 4c 9c 65 3d b4 14 86 3d
       -0.11010836 -0.028924372 0.05605726 0.065469176
0000e0 e3 1a c3 3b 11 6a 8e bc db dc 2c bd a0 6d 33 bd
       0.005954133 -0.01738456 -0.04220281 -0.04380572
0000f0 cc d4 95 3c 70 6b 3a be 06 25 3a bd 77 15 a2 3d
       0.018289946 -0.18205047 -0.045445465 0.0791425
000100 5a 92 eb bd 0d f0 38 3d 25 59 66 3e 0a 7e 00 3e
       -0.11502524 0.045150805 0.22494943 0.1254808
000110 92 6e 99 3d 9c d0 b3 3d 00 35 88 3c 15 b0 b4 3d
       0.07491793 0.087800235 0.016626835 0.088226475
000120 1b 44 03 be 36 16 a0 bd 84 5b 18 3d 9e 52 fb bc
       -0.12818949 -0.078167364 0.03719665 -0.030679043
000130 f0 ba cb 3d 9a 7e ae bd 25 42 2e 3e 3f 76 6e bd
       0.09947765 -0.08520241 0.1701742 -0.058218237
000140 47 2b 06 be 7f 1d 8d bd 2d 21 73 bd a8 65 cd 3d
       -0.13102446 -0.068903916 -0.05935781 0.10029155
000150 85 a2 95 bd 87 87 80 bd 92 03 8f 3d e6 6f 01 3c
       -0.07306389 -0.0627585 0.06983103 0.007900214
000160 4b 08 e6 bd 42 d1 14 be d2 d4 0b 3e a3 5f eb bd
       -0.112320505 -0.1453295 0.13655403 -0.11492851
000170 9d 6f ca ba 7a 99 3d be dd bd c0 bd 6d b0 48 3d
       -0.001544464 -0.18515578 -0.094112135 0.048996378
000180 aa 39 10 3e d8 fb ff bb 38 c5 a9 3c e7 46 ab bb
       0.14084497 -0.0078120045 0.020723924 -0.005226958
000190 d5 8e 7b 3d 51 65 b7 bd b2 d3 99 bd 05 eb a3 bc
       0.061415512 -0.089548714 -0.07511081 -0.020009527
0001a0 22 2d 1d 3e 86 4c 81 bd ee 61 f4 3c 3f 5f f7 bc
       0.15349248 -0.06313424 0.029831853 -0.030196784
0001b0 a9 24 dd 3d a1 a3 92 bd db 69 de be fb c8 26 3e
       0.10798008 -0.07160116 -0.43440136 0.16287605
0001c0 38 52 c0 bd db 92 a1 3d 5c 06 ae 3d e9 d8 38 3e
       -0.09390682 0.078893386 0.08497307 0.18051495
0001d0 5c 4a 8f 3e c6 74 28 bc 2a 97 48 be 42 76 a8 bb
       0.2798642 -0.010281747 -0.19588915 -0.0051410506
0001e0 85 64 ae bb a2 8c 66 be 89 4e f9 bd a1 a1 d2 ba
       -0.0053220415 -0.22514585 -0.121731825 -0.0016069898
0001f0 53 bc ad 3d a6 14 3d 3e ca 24 45 bd 07 9c 45 3d
       0.084831856 0.18464908 -0.048130788 0.048244502

conv_layers.0.lin.weight f4 [128, 3]
000000 58 c3 38 3f c8 5c c9 be 5d 1d 6c be 5e 18 7f be
       0.7217307 -0.393286 -0.23058076 -0.24911639
000010 34 d6 0b 3f e1 c4 4c be e0 44 a6 be 85 30 14 3f
       0.54623723 -0.19996978 -0.32474422 0.57886535
000020 25 39 64 be df 27 0b c0 27 41 0a 3f d4 0d 4d be
       -0.22287424 -2.1743085 0.54005665 -0.20024806
000030 04 d0 3a c0 2c ab 26 3f 11 79 8f be 3c ee 7f bf
       -2.9189463 0.6510494 -0.28022054 -0.9997289
000040 c8 20 56 3f ef 93 3c bf 92 2b d6 3a cc a0 04 bb
       0.8364377 -0.7366323 0.0016339889 -0.0020237444
000050 09 34 10 38 a1 a9 09 3f 5e fc dc bf 97 53 b4 3e
       3.4380737e-05 0.5377446 -1.7264516 0.35220024
000060 5a cc fb bf a1 15 05 3f c6 5c 3e be 81 d8 c1 bf
       -1.9671738 0.5198613 -0.18590078 -1.5144197
000070 56 36 ec 3e 67 5a da bd f3 f8 79 c0 24 34 60 3f
       0.46135205 -0.10661774 -3.9058197 0.8757956
000080 7d c8 cc be 67 2c c8 3e 1c 4b 9d be 70 ef 00 be
       -0.3999671 0.39096376 -0.30721366 -0.12591338
000090 e9 61 41 3f f8 aa f1 bf a6 1e 26 3e 30 f5 0a 3f
       0.75540024 -1.88803 0.16222629 0.54280376
0000a0 2a b0 b5 bf c6 a5 52 3e 84 e0 d7 3d f1 f8 89 3c
       -1.4194386 0.2057105 0.1054087 0.016842337
0000b0 f9 b4 c3 ba 00 0d 43 bf 71 f0 1f 3f cb 03 0e bf
       -0.0014931253 -0.7619171 0.6247626 -0.5547454
0000c0 5c b3 e4 3a 0a b2 6e 3a 1a 20 bb 36 ad ab c8 be
       0.0017448473 0.00091055094 5.5767714e-06 -0.39193478
0000d0 ec ae cb 3e 63 2c 33 be 35 3b 69 3e b5 ec c1 bd
       0.39781892 -0.17497401 0.22776492 -0.094689764
0000e0 56 ca f9 bc 92 f5 a7 38 13 f6 0b 39 21 8a 76 35
       -0.03049199 8.0089216e-05 0.00013347743 9.1843145e-07
0000f0 fa 6e 34 3a 96 b1 a9 3b 81 33 37 37 7e 9b 69 be
       0.0006882992 0.0051786406 1.0919642e-05 -0.22813222
000100 b0 fc 37 3f 4c ee 58 be db 15 21 3f a5 76 be bf
       0.71869946 -0.21184653 0.62923974 -1.4879957
000110 f6 95 96 3e 90 f8 9a 39 0e 4b 32 b9 85 cf 82 36
       0.29411286 0.00029558362 -0.00017003363 3.8984604e-06
000120 98 cb 16 3f 0d d0 e9 be 1d cd fc 3d 8e 31 c9 be
       0.5890441 -0.45666543 0.1234381 -0.3929562
000130 89 76 a2 be 79 aa f7 3f ed 31 ba bd 08 b7 93 bd
       -0.3173106 1.9348899 -0.09091554 -0.07212645
000140 af 4b 56 39 86 4b 37 be c1 c6 0e 3f 76 fc 35 be
       0.00020436825 -0.17899904 0.55772024 -0.17772087
000150 de 24 93 be da 59 67 3e 22 ac 8c bd 0c 8e bb bf
       -0.28739065 0.2259287 -0.06868769 -1.4652724
000160 5c 29 fa 3e 4b 7e a7 bd 21 9b 4e 3f da 89 02 c0
       0.4885968 -0.08178385 0.8070546 -2.0396638
000170 a3 47 1c 3e 26 20 a4 bb 90 3c fd 3b b3 7a 6f 38
       0.15261702 -0.005008715 0.007728167 5.7096313e-05
000180 83 2c c6 be f9 09 85 be c1 02 b8 3f db ce fe bf
       -0.38705835 -0.2598417 1.437584 -1.9906877
000190 01 25 0a 3f f3 a5 10 be 8a 21 32 bf 55 60 2e 3f
       0.53962713 -0.14125805 -0.69582427 0.6811574
0001a0 48 5d df be 66 8a 5c bf 50 21 36 3f 39 e7 1d bf
       -0.43625855 -0.8614868 0.7114458 -0.6168094
0001b0 22 a4 2d bf 32 3e 8b 3e 93 a4 1e bd 78 ec 51 3f
       -0.6782857 0.2719589 -0.03873117 0.8200145
0001c0 81 2a 11 bf 3d 21 8a 3e 79 bc c2 3e 01 bd 56 bf
       -0.5670548 0.26978484 0.38034418 -0.8388215
0001d0 67 b0 19 3d b6 98 dc 3e 9b 1a 12 be 90 26 05 be
       0.037521746 0.4308526 -0.14267962 -0.13002992
0001e0 51 b5 0e 3f bd ec dc bf df e8 b2 3e 4a 6a 04 3f
       0.55745417 -1.7259747 0.34943292 0.51724684
0001f0 a3 8d ec be 03 8c 89 be a2 0f f9 3e 87 5c 94 bf
       -0.4620181 -0.26864633 0.4864474 -1.1590737
000200 3a ab 83 3e b3 4a 55 3f bf 39 fd bf 7b 58 17 3e
       0.25716573 0.83317107 -1.9783248 0.14779846
000210 fd 79 03 3f d7 dd ad be 27 51 d7 bd 9a c2 f7 3e
       0.51358014 -0.33958313 -0.105135255 0.48390657
000220 81 75 8d bf d3 92 6d 3e 6a bd 06 c0 8a 10 12 3f
       -1.1051484 0.2320054 -2.105311 0.57056487
000230 c8 9d 19 be b5 a5 20 bf b1 b7 6e 3e 81 bb 27 bd
       -0.15001595 -0.6275285 0.2331226 -0.040950302
000240 89 1f 1b c0 c5 0c 17 3f fa b0 90 be 54 85 d2 3e
       -2.4237998 0.5900386 -0.28260022 0.41117346
000250 73 fe 50 bf 4c 14 d9 bc 4e e3 3b 3f 2a 9f cf bf
       -0.8163826 -0.026498936 0.73393714 -1.6220448
000260 60 45 84 3e b0 a3 0e bf e2 0a 04 3f 5a 64 c7 be
       0.2583418 -0.5571852 0.51579106 -0.3894375
000270 38 bb 3c bd 92 e0 8b 3e 91 59 8e bd c1 45 ef 3e
       -0.046076983 0.2731977 -0.06950677 0.46732906
000280 17 32 c0 bf 97 83 a6 3e fe 62 3e c0 cd b0 1f 3f
       -1.5015286 0.3252227 -2.974792 0.6237915
000290 51 7f 1e be 0f 44 49 bf 62 46 24 3f 1a a9 0a bf
       -0.15478255 -0.78619474 0.64169896 -0.5416428
0002a0 5d 51 db be d0 d5 c5 3e e1 42 94 be 95 9e 25 c0
       -0.42835513 0.38639688 -0.28957275 -2.587804
0002b0 17 98 19 3f a0 30 72 be 75 69 0c bf 7d 3e ab 3e
       0.59997696 -0.23651361 -0.54848415 0.33446112
0002c0 4e 3e 5f be a9 59 f1 3e db 93 ad bf 2f 7b 9d 3e
       -0.21801111 0.47138718 -1.3560747 0.30758044
0002d0 6a 27 26 be f2 6d fa 3e ca 84 30 be 64 de 0a be
       -0.16225973 0.48912007 -0.17238155 -0.13561398
0002e0 5c e8 42 be 18 bd d1 39 f0 89 ac 3d 95 c5 7f bd
       -0.1903395 0.00040004472 0.08424747 -0.06244429
0002f0 1d 80 ae bb 04 1a f0 3e 72 a8 94 be bb e4 e6 bd
       -0.005325331 0.46894848 -0.29034764 -0.112740956
000300 7b 64 d5 bc 77 b7 08 3e 43 84 0f bb 4e 00 88 be
       -0.02604889 0.13351236 -0.0021898902 -0.26562732
000310 50 c4 fe 3e 75 bd 66 be a4 d3 53 be 94 4b 77 3f
       0.4975915 -0.2253321 -0.20686203 0.965997
000320 b5 1d 56 be 0e 81 ed 3e 15 f8 cb be d4 df 7f be
       -0.2090977 0.46387523 -0.3983771 -0.24987727
000330 4d fc 0a 3f 46 a8 9f be b3 06 6a be 9d 08 33 bf
       0.5429123 -0.3118307 -0.22854118 -0.6993502
000340 3c a5 f4 3e 01 ed f1 be 67 92 01 bf d9 a8 a3 3e
       0.47782314 -0.47251132 -0.5061402 0.31964758
000350 21 78 94 be 32 3c cb 3e ba a8 a7 be 2b 5c 4b be
       -0.289979 0.39694363 -0.32745916 -0.19859378
000360 b3 74 9d bf 1f a4 c5 3e f4 1f b7 bd 28 ea 07 3f
       -1.2301239 0.38601777 -0.089416414 0.5309167
000370 60 b9 bb bf 48 0d 35 3e 60 ad 0f 3f f4 ca de bf
       -1.4665947 0.17680848 0.56123924 -1.7405686
000380 e5 72 b7 3e 24 af e4 3e c0 96 ac bf a7 40 92 3e
       0.35829845 0.44664872 -1.3483505 0.2856495
000390 70 84 4b bf 5b 7d 3c 3f f0 4e 1a bf 4e e2 87 3e
       -0.7949896 0.7362878 -0.602767 0.26539844
0003a0 39 25 2c bf 27 2f 60 3c 7c 3b 5d be b8 88 4e be
       -0.672443 0.013683117 -0.21604723 -0.20169342
0003b0 92 1e 6b 3f 6b af b6 be 70 65 1e 3e 94 f8 7f bd
       0.9184352 -0.35680708 0.15468383 -0.062492922
0003c0 92 e9 a3 bf 75 5e c9 3e d6 d6 9c bd f4 40 3b bd
       -1.2805655 0.39329877 -0.07658164 -0.04571624
0003d0 2a 2a fe 3b 26 49 e3 38 a7 a7 08 bf d7 c1 97 3e
       0.007756491 0.000108378284 -0.5338082 0.29640076
0003e0 b1 e2 37 be 14 a8 5d bf 23 14 45 3f 4a d6 23 bf
       -0.1795757 -0.8658459 0.7698385 -0.63998854
0003f0 5d 0c cd be f5 14 b2 3e 1b 22 2b be e8 1a c1 be
       -0.40048495 0.34781614 -0.16712229 -0.3771584

conv_layers.1.bias f4 [128]
000000 e4 f6 9e 3e 18 47 98 3e ff 3b fb be 72 66 96 3d
       0.31047738 0.2974174 -0.4906921 0.07343759
000010 32 5b 6a bd ca cf 73 3e 7f 53 82 3e 67 5f df 3d
       -0.057215877 0.23809734 0.25454327 0.109068684
000020 19 86 9f be bf 62 d7 bd c6 40 ae 3e d9 90 80 3e
       -0.31156996 -0.10516881 0.34033793 0.2511051
000030 56 7a ff be f6 f6 e4 3d 86 57 cf 3e 05 9a 6a be
       -0.49898022 0.111799166 0.40496463 -0.22910316
000040 4d ec 18 be 0f ca 19 3f 00 26 4c bf 75 7f b7 3e
       -0.14933892 0.6007394 -0.79745483 0.3583943
000050 13 1b a3 3e 7b 44 24 bd 7c 51 cf be c9 b5 20 be
       0.31856593 -0.04010437 -0.40491855 -0.15694346
000060 e5 90 91 be e5 87 88 bf d1 b0 15 be 83 d0 51 3f
       -0.28430858 -1.0666472 -0.14618231 0.8195879
000070 02 d9 4f 3e 27 37 bf 3c 42 23 b6 be 7c cd 5c bf
       0.20297626 0.023341728 -0.35573775 -0.86251044
000080 e3 b2 81 bd f4 ee 29 3f f0 77 30 3f 7b 0a b4 3e
       -0.06332948 0.6638024 0.6893301 0.35164246
000090 12 70 28 3f fd b4 ef 3e 6f db 6a 3e 63 85 70 be
       0.65796006 0.4681777 0.2293527 -0.23488383
0000a0 3a 44 dd be a1 8e f0 3e a7 b0 b8 be f1 ca f4 be
       -0.43216115 0.46983817 -0.36072275 -0.47811082
0000b0 03 a7 19 3e c0 fb 4b bf fe 72 ea 3e 01 be 35 3d
       0.15005116 -0.79681015 0.45790857 0.044370655
0000c0 2f be 33 bf 2e fc fa 3e d5 be 26 bf 92 1a 88 3e
       -0.7021207 0.49020523 -0.65134937 0.26582772
0000d0 66 81 60 be da 8f 00 3f e4 e2 d3 bd ed 27 58 be
       -0.21924362 0.502195 -0.1034601 -0.2110898
0000e0 ef 90 3c be 50 6c 0b be 08 45 df 3e 1b 4d 38 3f
       -0.18414663 -0.13615537 0.43607354 0.71992654
0000f0 4b ef 6c be 11 2a a0 3e b7 9e bc 3c cb 69 9e bd
       -0.23138158 0.31282094 0.0230249 -0.07735022
000100 e1 f0 09 3f 6e fe ae be b4 41 34 be 5c 07 63 be
       0.5388318 -0.3417849 -0.17603189 -0.22170776
000110 4a a8 4a 3f 21 72 f3 be 3a 00 18 bf 38 cb 4f bf
       0.7916304 -0.4754801 -0.59375346 -0.8116946
000120 05 83 f2 be 6d f6 40 bf b7 33 d1 be 45 6e bd be
       -0.47365585 -0.75376016 -0.40859768 -0.3699819
000130 54 23 1f bf 78 dc 00 be c1 65 6f be c4 09 9f be
       -0.6216328 -0.12584102 -0.2337866 -0.31062138
000140 d7 2a 00 3f d9 d8 92 3d 05 d5 05 bf 49 d5 9b 3e
       0.5006537 0.07170267 -0.52278167 0.3043616
000150 30 0d a8 be 93 cd f3 be b8 c3 49 bf 79 7d 3a be
       -0.3282256 -0.47617778 -0.7881427 -0.18211927
000160 45 0d a2 3e e9 a2 59 bf 96 c9 ee be a5 13 a0 3d
       0.3165075 -0.85014206 -0.46638173 0.07816247
000170 14 cd 5e be 6a e2 1a 3f c2 06 e3 be 08 08 83 bc
       -0.21757919 0.6050173 -0.44341093 -0.01599504
000180 99 f6 27 3f 74 d3 67 bd a9 d1 23 3e da 02 6f 3f
       0.65610653 -0.05659814 0.15997948 0.93363726
000190 76 ba 3f be dd 92 91 be 39 7f 87 bf 87 aa a4 be
       -0.18723473 -0.2843236 -1.05857 -0.32161352
0001a0 e3 9d 85 3d 72 bb b8 be 1e c0 71 3e 57 5c 1a bf
       0.06524255 -0.3608051 0.23608443 -0.6029715
0001b0 53 76 43 bf bd 91 83 3f ba b3 b1 3e be 62 2a bf
       -0.76352423 1.0278851 0.34707433 -0.6655692
0001c0 96 ba a1 be 63 32 d9 3d d5 ec 10 3f e2 df 5f be
       -0.31587666 0.10605314 0.56611377 -0.21862748
0001d0 7d 3b 40 be 93 53 1a 3f d9 96 24 3f eb 98 9b 3c
       -0.18772693 0.60283774 0.64292675 0.018993815
0001e0 56 3e 2f 3f 53 ac 3f bf dc 80 8b 3d 5a 39 6a bf
       0.6845449 -0.7487232 0.06811687 -0.9149376
0001f0 74 f5 e5 3e 4a dd 1d bd 4d df 1f be 3e da 47 be
       0.44913828 -0.038541116 -0.15612526 -0.19516847

conv_layers.1.lin.weight f4 [128, 128]
000000 40 d3 29 bd c4 2b da 3e 18 07 e7 3e a7 cd 8a be
       -0.04146123 0.42611516 0.451226 -0.27110025
000010 64 30 bf be b9 6f 0b 3f 63 29 ef b9 13 df d7 3d
       -0.37341607 0.5446735 -0.00045616468 0.10540595
000020 ad b9 72 be d1 7c 2d be f1 84 05 bf eb b4 59 bd
       -0.23703642 -0.16942145 -0.5215598 -0.053151052
000030 88 99 57 3c 31 e9 c4 3d 5c 7a 49 3c fb 7f c2 3e
       0.013159163 0.0961479 0.012297239 0.37988266
000040 06 ac 8d b8 47 33 ef 3d 77 5f 0b 3c 5e 6d 32 34
       -6.755446e-05 0.11679702 0.008506647 1.661733e-07
000050 c3 11 35 38 fb d2 ea 3e 84 e0 46 3d a3 31 4f b8
       4.3170305e-05 0.4586409 0.04855396 -4.9398874e-05
000060 a1 4a 0c be e7 7d 59 3d 73 57 ed bb d6 84 bd 3e
       -0.13700344 0.053098585 -0.007243091 0.37015408
000070 d5 e2 89 3c 46 c7 2b be f5 9c 00 3d d9 3c c3 38
       0.016831795 -0.16775236 0.031399686 9.309658e-05
000080 b2 f4 bb 3d 46 13 6d be 39 5c ec 3e d7 d6 d8 3e
       0.09177531 -0.23151883 0.4616411 0.4235141
000090 1b b3 5c bd 24 9d 5c be 4a 72 80 3d a3 f5 a3 bb
       -0.053881746 -0.2154432 0.06271799 -0.0050036474
0000a0 7b 6d c7 3d 89 fc c9 bd 8b f8 9c 3d cb e0 03 3c
       0.097376786 -0.098626204 0.07664593 0.0080492
0000b0 00 db c3 bd c2 04 94 3d fb a0 85 be a2 d1 62 bd
       -0.09563255 0.0722747 -0.2609938 -0.055375703
0000c0 1f 30 96 be 42 53 7f 3d a2 86 c2 3c 77 76 71 3e
       -0.29333588 0.06233526 0.023745839 0.23580347
0000d0 81 5e c1 3d 3b d1 d3 3d 54 a5 c2 be 62 21 a5 3e
       0.09441853 0.10342642 -0.3801676 0.32252032
0000e0 d9 c9 4b 3e fd 8e aa be ff 4b 9a 3d a2 9c c1 3d
       0.19901218 -0.33312216 0.07534026 0.094537035
0000f0 1d cf b9 3e 57 b4 dd bb 68 09 32 3c d3 90 85 bd
       0.36290827 -0.006765883 0.0108665 -0.06521764
000100 cb 60 b3 bb 6c c5 bd 3e d3 2d 0c 3f d6 31 a8 bd
       -0.005474185 0.37064683 0.5475742 -0.082126305
000110 5a 52 a5 bd 12 ed 87 3e a0 b1 17 3e b8 c6 a0 bd
       -0.08072348 0.26548058 0.14813852 -0.078504026
000120 59 58 08 be 53 db cc 3d 59 cd d4 3d 60 04 bf 3d
       -0.13314952 0.1000277 0.103907295 0.09327006
000130 b6 20 ea 3e f5 4d 57 3d e4 61 17 3d 13 5f 31 39
       0.4572808 0.05256458 0.03695859 0.00016915453
000140 2d 59 0b be 65 5b f7 38 91 94 53 3d 65 59 e4 3e
       -0.13608237 0.000117949014 0.051655356 0.44599453
000150 66 6d c2 3d 4e b3 9b 3d 5e f3 d9 3e c8 4f a4 3e
       0.09493522 0.07602559 0.42568487 0.32092118
000160 4a c6 49 be b5 94 86 bc 51 45 cc bd 17 58 3d 3d
       -0.19704548 -0.01642833 -0.099741586 0.046226587
000170 e5 8a e9 b6 8f 0a 30 be 91 95 3c be 8a ec 69 3e
       -6.9601106e-06 -0.17191528 -0.1841643 0.22844139
000180 4b a6 ff 3b b8 4b e9 3d 43 d8 d6 3d 8a 85 81 37
       0.007801806 0.11391395 0.104904674 1.5440182e-05
000190 f3 4b a3 3e 5a 25 8d 3d 1c 33 7b bc b2 88 b4 be
       0.31893882 0.0689189 -0.01533201 -0.3526054
0001a0 85 17 bc 3c 17 ce a7 be 22 58 0c 3e 10 93 de 3d
       0.022960434 -0.32774422 0.13705495 0.10867894
0001b0 f6 07 f3 3e 58 60 89 be 8a e0 42 3f d4 bf be bd
       0.4746701 -0.26831317 0.7612387 -0.09313932
0001c0 8c 56 84 3d 22 71 d7 3d e7 14 7b 3d 3b 2d d7 bd
       0.0646182 0.10519625 0.06129923 -0.10506674
0001d0 e9 34 59 3d 9e 55 30 ba 37 59 8a bd 60 97 80 be
       0.053028975 -0.0006726625 -0.06755298 -0.2511549
0001e0 a0 e1 79 3e 99 79 9d 3d ef 58 6a 3d 9b b3 9e 36
       0.24402475 0.076892085 0.05721372 4.7296758e-06
0001f0 e5 95 04 bf e5 93 a7 bc 1a e6 0d be 60 f2 e0 3d
       -0.5179122 -0.020456264 -0.13857308 0.10983729
000200 67 a3 1b 3f 39 73 87 be b4 49 95 be 3b 41 16 3e
       0.6079621 -0.26455095 -0.29157794 0.14673321
000210 70 2e 5b 3e be 0f 27 bf eb 5f ae 39 37 9c 47 be
       0.21404433 -0.65258396 0.0003325933 -0.19493185
000220 ac 27 f7 3d c6 e1 b9 3d b1 b6 90 3e 1a 77 b2 3e
       0.12068114 0.09076266 0.28264382 0.34856492
000230 34 fa 21 3e 78 37 56 be ec b7 87 3c 12 4e f7 be
       0.15818101 -0.20919597 0.016567193 -0.4830175
000240 82 e6 60 38 43 ed 49 be 99 06 0e 3e db 2a a7 37
       5.362044e-05 -0.19719414 0.13869704 1.9927907e-05
000250 5b c5 d6 39 3c ec 6a be f3 63 c5 3b 35 94 c1 37
       0.00040964302 -0.22941679 0.0060238778 2.3076407e-05
000260 2a b6 0d 3f eb f3 1f 3e 59 3b d6 3a fd d3 e4 bd
       0.55356085 0.15620391 0.0016344591 -0.11173246
000270 7f fa 63 bd 71 bb b6 3d 79 7e 25 3e db ef 96 3a
       -0.055658814 0.0892247 0.16161527 0.0011515574
000280 96 c7 81 3d 3c 74 0c 3e 6c 8a fc be ab c5 0a bf
       0.06336896 0.13716215 -0.49324358 -0.5420787
000290 99 18 9b 3c 8d 80 36 3f 99 cd 38 be 1c 39 af 3e
       0.018932628 0.712899 -0.1804718 0.34223258
0002a0 da c7 12 be 52 e6 00 3f b5 ff 07 be b0 94 5e 3e
       -0.1433405 0.5035144 -0.13281138 0.21736407
0002b0 0c 24 ff 3e c5 b7 1a be a2 09 1d 3e f7 04 bd 3c
       0.4983219 -0.15109165 0.15335706 0.023073656
0002c0 a4 c5 11 3e 99 d1 38 be 09 9f bf 3d 0b 27 b4 be
       0.1423555 -0.18048705 0.093565054 -0.35186037
0002d0 c9 e0 c5 bd 1d 64 83 be 8c 3f 6f 3e 65 5c ee be
       -0.09662015 -0.25662318 0.23364085 -0.46554866
0002e0 30 71 88 be 8c ba 41 3e eb 0e 1d be 09 6f 56 be
       -0.26648855 0.18918818 -0.15337722 -0.20940794
0002f0 bf 30 37 be 3e d8 e6 3b 9e ef 0d 3c da bd e1 3e
       -0.17889689 0.007044821 0.008663086 0.44090158
000300 28 76 41 3a 94 8f 76 be e7 f9 0f be fc 5f e2 3e
       0.00073799724 -0.24078208 -0.14060174 0.44213855
000310 e1 30 e5 3e cd 25 c4 be 5d 9d 66 be 76 e4 c8 3e
       0.44763854 -0.3831009 -0.22520967 0.39236802
000320 87 20 8a 3d 8c 2b 81 be 8a f2 24 be 4b a1 53 be
       0.06744485 -0.25228536 -0.16108146 -0.20666997
000330 2b 25 0c bf 2f f1 15 be f8 3c 60 3d a4 ef fa bc
       -0.54744214 -0.14642785 0.054745644 -0.030631848
000340 09 29 88 3d 89 3e cc 3b 87 64 e2 bd 3f d7 12 bf
       0.06648452 0.0062330407 -0.1105433 -0.5735969
000350 86 45 2d be 83 3a 0e be 95 2f ed be 26 31 77 be
       -0.16921052 -0.13889508 -0.46325365 -0.24139842
000360 96 de db 3d 36 2a 93 bc 1e de 11 3f d4 1f e0 bd
       0.10735814 -0.017964464 0.5697955 -0.10943571
000370 2a 26 4d 38 ae f5 c0 3d e3 e9 cf 3d 8a e7 ab be
       4.891135e-05 0.0942186 0.10152032 -0.33575088
000380 4d 73 2e 3e 1d 06 3d be 89 ff 42 be 40 ef 11 3a
       0.17036171 -0.18459363 -0.19042791 0.0005566962
000390 5c 16 ba be dc 94 bd bd 04 d9 c5 3a 67 37 5f 3e
       -0.36345184 -0.09256908 0.0015094583 0.21798478
0003a0 5d 17 4e 3d 71 d2 57 3e 5c 42 b2 3e bf 39 36 be
       0.05031525 0.21076371 0.34816253 -0.17795466
0003b0 08 aa 11 bf ae 57 20 3e 8c 49 2b be f9 a6 04 3f
       -0.5690007 0.15658447 -0.16727275 0.5181728
0003c0 85 a8 46 be c1 1a 35 be fa 27 56 bc d4 8e 1b 3f
       -0.19400223 -0.17685987 -0.013071055 0.60764813
0003d0 b6 8b 4a 3e a1 36 72 3b 30 ac ce 3c 2d 50 29 3e
       0.19779858 0.003695883 0.02522859 0.16534491
0003e0 fc 6b bd be ad 1f 22 3d 6a 6b 19 be c7 b2 be 38
       -0.36996448 0.03958099 -0.14982381 9.093206e-05
0003f0 49 91 88 3e 20 4f 78 3e f0 1f b8 3c 00 07 50 be
       0.26673344 0.24248934 0.022476166 -0.2031517
