mine/ProG-main/Experiment/pre_trained_model/Wisconsin/Edgepred_Gprompt.GCN.128hidden_dim.pth (torch, 940673 bytes, 4 tensors)

conv_layers.0.bias f4 [128]
000000 b0 f9 d2 bb e0 4d d8 3c 94 a1 b6 3a b4 cc dc ba
       -0.0064384565 0.026404321 0.0013933652 -0.0016845674
000010 50 5d c8 ba 0a e1 07 3b e3 7f a5 3c 5c a9 68 bb
       -0.0015286598 0.00207335 0.020202583 -0.0035501337
000020 b8 59 34 3c 3f 89 0d 3d 10 1d 1d bb 44 4a ce 3c
       0.011007719 0.034554716 -0.0023973621 0.025181897
000030 c0 05 b9 bb 17 68 13 ba fb 04 52 bb 8c 27 91 39
       -0.0056464374 -0.00056231156 -0.0032046426 0.0002768602
000040 e9 af 03 bc 4c df b7 ba a1 f4 d2 3c b9 08 a8 3b
       -0.008037546 -0.001402834 0.025751414 0.005127993
000050 7d 51 1a 3c 30 bf 17 3b c0 96 ab 3c f9 35 84 3a
       0.009418842 0.0023154728 0.020945907 0.0010086886
000060 73 a5 83 bb b1 89 9c bb b3 f1 f5 3a 50 13 0a bc
       -0.004017526 -0.0047771563 0.0018764049 -0.008427456
000070 e9 7f 59 bb a0 bf b3 bb 6e 28 64 ba 94 63 ce 3b
       -0.0033187813 -0.00548549 -0.0008703534 0.0062984917
000080 5e da e8 bb da f4 22 3c ac 9a dd 3b e5 07 90 bb
       -0.0071061095 0.0099460725 0.006762823 -0.0043954724
000090 3c 0e 9b 3a c5 f7 38 bc b5 98 1b bc b4 37 0a 3d
       0.0011829804 -0.011289542 -0.009496857 0.03374453
0000a0 b9 9c 86 bb 64 80 dd bb bc ae 3c 3c 74 d7 a2 3a
       -0.0041080383 -0.00675969 0.011516269 0.0012423829
0000b0 d6 97 15 bb aa bf 6b bb 61 d1 ea ba 82 17 d6 3c
       -0.0022826097 -0.0035972395 -0.0017915183 0.026134256
0000c0 93 ee 26 bb b0 49 66 3b b3 93 91 3a 93 01 06 bc
       -0.002547179 0.0035139136 0.001110664 -0.008179086
0000d0 48 56 e7 bb a0 f6 cc 3a 90 76 ca ba 69 ed cd bb
       -0.007059846 0.0015637465 -0.0015446711 -0.006284405
0000e0 c3 1c 8b b9 b2 9d 64 bb 6a b1 90 bb 9d 5e 81 bb
       -0.00026533575 -0.0034884033 -0.0044156807 -0.0039480464
0000f0 7c 59 b0 bb 88 fa 77 ba da 21 31 bb b9 cb e1 3b
       -0.005381761 -0.00094596343 -0.0027028234 0.0068907407
000100 ee 06 bf 38 d4 f7 1d bc 60 f8 af 3b 08 f7 ec bb
       9.1088805e-05 -0.009641606 0.005370185 -0.007231597
000110 66 b3 01 3c 05 ec 04 3c 0e 0d e3 ba 51 05 cb bb
       0.007916307 0.008112912 -0.0017322616 -0.006195702
000120 72 7d b7 bb 28 42 92 3d 17 7c 89 bb fb 93 ca bb
       -0.005599671 0.071415246 -0.004195701 -0.0061821914
000130 71 21 12 bb e8 bb fa 3b 91 2c 5a bb 9c 7e 9b 3a
       -0.0022297765 0.0076517947 -0.0033290724 0.0011863294
000140 7d 05 98 ba b5 0a aa 3b 71 91 78 bb dd 9c 94 3b
       -0.0011598315 0.0051892647 -0.0037928487 0.004535301
000150 38 a4 ad bb 30 47 54 3d db d6 4f bc 71 0f ef 39
       -0.0052991174 0.051825702 -0.012685503 0.00045597137
000160 49 ac 7b 3c 78 fd b0 3c 39 bf 3e 3b c3 25 97 bb
       0.0153609 0.021605238 0.0029105677 -0.004612656
000170 40 57 a6 3b 7e f8 2f 3b 28 cf 92 3c 41 3e ca 39
       0.005076319 0.0026850994 0.017921045 0.00038574825
000180 b2 b5 29 3e a1 9b 5d bc ea 17 9e bb 99 b3 36 bb
       0.16573218 -0.013525874 -0.004824628 -0.0027878045
000190 39 a9 fd 3a eb 62 04 bb 4c b7 8a 3d b1 b1 c0 bb
       0.00193528 -0.0020200561 0.06773242 -0.0058805575
0001a0 82 8f 1f 3b 8c 09 58 bc 95 80 59 ba 18 24 a9 3a
       0.0024347012 -0.01318587 -0.0008297053 0.0012904434
0001b0 2b 45 2a bb d4 12 e9 3b bb 93 05 3d 07 67 65 3b
       -0.0025981169 0.00711284 0.03261159 0.0035004036
0001c0 a7 fa 0b bc 26 27 f1 37 e3 f3 86 ba 79 7c e0 bb
       -0.008543647 2.8747669e-05 -0.0010296073 -0.006850776
0001d0 aa 7b bb bb 57 6c 01 3d 84 19 a9 bb 6b f1 10 3b
       -0.005721529 0.03159746 -0.0051605124 0.0022116553
0001e0 ee 26 d7 ba ec ff 7e b9 22 b1 1f b9 18 11 a8 3a
       -0.00164148 -0.00024318666 -0.00015229409 0.0012822477
0001f0 4d a6 c6 bb f1 df d3 bb d1 f7 1c bc e4 ae ab bb
       -0.006062305 -0.006465905 -0.009580568 -0.0052393544

conv_layers.0.lin.weight f4 [128, 1703]
000000 ac 1f 26 bc 5f 7d ce 3b 62 c7 81 39 30 3f bc b9
       -0.010139387 0.0063015665 0.0002475335 -0.00035905233
000010 60 17 fe 39 3c ae ac b9 1d c4 d9 bc d0 0c 94 bc
       0.0004846407 -0.0003293621 -0.026582772 -0.018072516
000020 b2 7b 63 bd d1 4c 57 bb 22 3f 18 3c 9f 2d 1e bd
       -0.055537887 -0.0032852183 0.009292396 -0.038617726
000030 ca 6d d7 bb b3 a6 39 3d 4b 16 1b bc 55 93 31 3d
       -0.006574367 0.045324992 -0.009465764 0.043353397
000040 be 62 00 bd b2 ab 78 bc c9 fd 5d 3c 64 a7 d0 3b
       -0.031344168 -0.015177654 0.013549277 0.006367611
000050 36 fb a2 bc 1f e5 e8 bc 11 63 dd bc 2d 43 7b bb
       -0.019895177 -0.028429566 -0.027024778 -0.00383396
000060 69 5f 15 3d a4 2c ba bc 1b 5d 96 3a ee 3b 4d bc
       0.036467943 -0.022726364 0.0011471839 -0.012526495
000070 b7 2a 0a 3c 4a 11 37 3c cd 7f ba bc 3c 72 b7 b9
       0.008433036 0.011173556 -0.022766018 -0.0003498959
000080 8a 8e 47 bd 0f 9c 10 3d 33 84 91 3b 04 f7 1a 3c
       -0.04871992 0.03530508 0.004440808 0.009458307
000090 35 09 5e 3c 81 a8 2f bd af 46 6a b8 e3 ec f6 3b
       0.013552 -0.042885307 -5.5855777e-05 0.0075355633
0000a0 da 86 ee 39 03 16 9b 3c 68 f0 c7 3a f6 7a b1 bc
       0.0004549537 0.018931394 0.0015254142 -0.021665078
0000b0 0e cc 40 3a 61 78 6f bc 78 fa 43 bd a0 f1 69 3d
       0.0007354625 -0.014616103 -0.047846287 0.057115197
0000c0 e5 0c e1 bb 95 5b 04 00 0e 03 bb 3c 70 e9 c2 3c
       -0.006867992 4.00195e-40 0.022828605 0.023792952
0000d0 06 a6 8b bc 23 df ab bc 5c f3 db 3b 83 4b 83 3b
       -0.01704694 -0.020980423 0.0067123603 0.0040068044
0000e0 c2 26 ab 3c 9f 3e 4a bd 05 e6 1b bc 46 61 7f 3b
       0.020892505 -0.049376126 -0.00951529 0.0038967892
0000f0 52 da ad 3a 10 03 c7 bc 3a f8 4d bd d1 c9 83 39
       0.0013263917 -0.024293453 -0.050285555 0.00025136632
000100 df 86 01 3d 97 d3 69 bc b2 9d d0 bb a3 60 03 00
       0.031622764 -0.014271638 -0.006366455 3.10173e-40
000110 42 2c 81 bc 46 05 8f 3c b9 f0 77 3c bd f6 cf bc
       -0.015768174 0.01745857 0.015133076 -0.025386209
000120 5b 69 78 bb 31 ec 2c bd 36 4b 78 bc e3 df 73 3c
       -0.0037904594 -0.042217437 -0.01515465 0.014884922
000130 36 42 5d b9 5b 44 8e 3a fc c4 43 3c 18 c7 cb 3c
       -0.00021100868 0.0010854112 0.01194882 0.024875209
000140 c8 28 b0 bc e6 38 be 3c ea 00 3c 80 b8 b0 f5 3c
       -0.021503821 0.02322049 -5.510458e-39 0.029991493
000150 87 78 3e 3c c4 d4 df 80 da 7b af 3a 4a e6 1f 80
       0.011625416 -2.0555642e-38 0.0013388351 -2.929513e-39
000160 43 ef bc 81 b3 f3 a5 3c a1 63 9c bb 4f 70 db 3c
       -6.9403617e-38 0.020257806 -0.004772619 0.026786951
000170 01 d5 8b 3c c8 84 3d bd 9c 66 4c ba 7c a5 0e 3d
       0.017069342 -0.04626921 -0.00077972724 0.034825787
000180 d6 53 c4 bc 1c a1 a4 3c 1b bd 0b bc 9a 23 8e 80
       -0.023965757 0.020096354 -0.008528973 -1.3053412e-38
000190 a6 9c 0b bc df 19 97 3a 6f 29 df ba 7b c2 53 81
       -0.008521235 0.0011528096 -0.0017025898 -3.8894112e-38
0001a0 5e bb ed bc f3 07 10 3d 33 d9 5e bc e6 e3 9d bc
       -0.029020008 0.03516383 -0.013601589 -0.01927371
0001b0 48 69 41 bd 53 f6 2f bd 13 22 ca ba 7c 40 24 3c
       -0.047219545 -0.042959522 -0.0015421532 0.01002514
0001c0 70 62 0f bd 8b 8e 4b 3d 1d 9c 2e bd cd dd cc 3c
       -0.035005987 0.049696486 -0.04262935 0.025008107
0001d0 2f 7a 1f 3d c1 f3 b7 3c ff 12 88 3c 9a 9b 6a bc
       0.038934883 0.022455098 0.01661062 -0.014319325
0001e0 98 d0 ba 3b a9 dd 0c bd ca f7 4e bd fd 2b 92 82
       0.005701136 -0.03439108 -0.05052928 -2.147802e-37
0001f0 c4 2f 8b ba ff f7 dd bc 97 5f 56 bd 27 b1 50 3b
       -0.0010619094 -0.027095793 -0.052337255 0.0031843872
000200 72 12 fe 3c 90 9d 46 3c b9 f9 17 bd 1d 71 b6 bc
       0.031014655 0.012122527 -0.03710339 -0.022270733
000210 68 96 5e bc cb 51 40 bc 6c bf 1c bd a6 23 06 bd
       -0.013585664 -0.011738251 -0.03826849 -0.03274884
000220 5a 18 22 bd ef b4 7b bc 08 a7 88 3b 88 d5 03 bd
       -0.039574005 -0.015362962 0.0041703023 -0.03218606
000230 6b 94 8c bc c6 7a 84 3c 04 86 2e bd cd cb d3 bc
       -0.017160615 0.016171824 -0.042608276 -0.025854016
000240 f5 77 ed bc 67 fe 7d bc 7f 7a de 3c e2 fc 3d 3d
       -0.028987864 -0.015502549 0.02715802 0.046383746
000250 5f 22 17 ba ae 80 4b bd db 69 cb 3c b4 33 1a bd
       -0.00057653146 -0.049683265 0.02483075 -0.037646964
000260 08 c3 1f 3d c2 fc c5 3b 31 27 30 3d b3 df 0d 01
       0.039004356 0.006042094 0.043006126 2.6058106e-38
000270 d8 a3 a3 3b d6 34 2f 3c a8 65 fe bc 6a 2c 6a bc
       0.004993897 0.010693749 -0.031054333 -0.014292816
000280 2a 2e 01 82 d8 4a c2 ba 56 52 2d bc 73 7e ad 3c
       -9.490672e-38 -0.001482333 -0.010578712 0.02117846
000290 1d 0c f0 3c 9d b7 0b bc 82 54 2d bc 2c ee 15 bc
       0.029302651 -0.008527664 -0.01057923 -0.009151023
0002a0 20 85 8c 3b 25 f5 a1 3b 9c 1e 12 3d 39 9f 8a ba
       0.0042883307 0.0049425536 0.035673723 -0.0010576017
0002b0 3d 75 7c 3c d2 4a 7c 3d be 14 74 bb 31 79 d9 bb
       0.015408811 0.06159479 -0.0037243809 -0.0066367616
0002c0 29 9e 40 3b 67 13 b3 bc 0e 96 04 80 09 bd a5 bc
       0.0029391146 -0.021859838 -4.21171e-40 -0.02023174
0002d0 47 4a 7f bc 89 68 0c 3d 8d 7f 55 bb b8 65 a9 ba
       -0.015581674 0.03427938 -0.0032577247 -0.0012923991
0002e0 ee 58 17 bc f0 24 00 bd 10 45 e0 3b da 65 99 bc
       -0.009237511 -0.031285226 0.0068441704 -0.018725324
0002f0 e8 2a db 3c 1f a2 a2 01 dd 57 44 3c 06 9b da bb
       0.026753858 5.9742034e-38 0.011983839 -0.0066713123
000300 3e a2 f1 bc f0 36 0f 3c ac 71 98 bb e0 68 79 3c
       -0.029496308 0.008741125 -0.0046522226 0.015222758
000310 ee 14 0a 3d f2 7b 35 3c bb 8f d2 bc 26 00 15 3d
       0.033711366 0.011076914 -0.025703302 0.036377095
000320 31 dc 2f bc 3a a6 55 bd 05 88 5d 38 53 75 49 3c
       -0.01073365 -0.05216048 5.2817184e-05 0.012296039
000330 c9 d1 8a bc 5b bc db 3c 1f 90 95 3c 4c 37 8b bb
       -0.016945736 0.026823213 0.018257199 -0.0042485353
000340 38 1f 58 3b a1 27 43 b9 2a 4f 5b bd 1c 7a 65 02
       0.0032977592 -0.00018611412 -0.053542294 1.6859307e-37
000350 14 8b ef 3c 5c e2 e4 bc aa 2d a3 3a 8f 43 de 3c
       0.029241122 -0.027939968 0.0012449522 0.027131824
000360 da f5 2b b9 37 d8 18 bd ea 1e f9 bc ee 44 0c bd
       -0.00016399418 -0.037315574 -0.030410249 -0.034245424
000370 44 a5 45 bb 1b 6f b3 3b 0e 7d c9 b9 12 e7 f8 3c
       -0.003015832 0.0054758913 -0.0003843088 0.03038362
000380 88 2e 93 bc 6a 78 06 3b 9e 44 c8 3c 90 5d 9b bc
       -0.017966524 0.002051855 0.024446782 -0.018965513
000390 97 62 8f 3c fc 94 0b 3c 92 3b 2a bd 45 f3 68 3c
       0.017503066 0.008519407 -0.041560717 0.014218156
0003a0 10 75 2a 3b 39 93 0c 3c 17 87 58 3b 92 e4 17 3c
       0.0026009716 0.0085800225 0.0033039504 0.009270804
0003b0 e1 94 76 bc 2a b7 2a 3d 19 bf eb 3b 24 a1 a8 3b
       -0.015050144 0.041678585 0.0071944115 0.0051461626
0003c0 23 7f d5 bc b9 48 15 bc 1e 3a 4e bd 97 ab 81 3c
       -0.0260616 -0.009111577 -0.050348394 0.01582889
0003d0 0d a6 99 bc ec 75 48 3c b9 9e 9e 3c c4 44 c4 bb
       -0.018755937 0.012235146 0.019362794 -0.005989643
0003e0 6d a0 19 bd d1 ec 20 3c cf ff 27 bd 48 1a d7 3a
       -0.03750651 0.009822086 -0.041015442 0.0016411031
0003f0 bc 24 1c bc e1 e3 78 ba 81 d6 d8 3c 2d 9d f1 bc
       -0.0095302425 -0.0009494406 0.026469471 -0.029493893

conv_layers.1.bias f4 [128]
000000 4b 49 a7 b9 58 69 b1 bb fa f1 17 ba 2a f2 8d bb
       -0.0003190733 -0.0054141693 -0.000579625 -0.0043318467
000010 1b ed 2a 3c 4c 35 31 3c 2e fa 37 3c 37 4f 4b bc
       0.010432507 0.01081593 0.011229081 -0.012409023
000020 f7 da 02 3a 66 53 ac 3b 43 cd 03 3c 8d e2 47 bb
       0.0004991735 0.0052589653 0.008044544 -0.0030500025
000030 31 74 b2 3b 3f 83 3f bb 6e d3 9b bb e7 1a 25 3c
       0.00544598 -0.0029222516 -0.004755429 0.010077215
000040 66 5d 8a bb cb f6 67 bb 84 ba 05 bb 7f bd 96 3b
       -0.0042225597 -0.0035394903 -0.0020405361 0.0046002264
000050 5b c7 b9 3a fd 2b f6 39 4b 8c ce bb 8b c0 86 3b
       0.0014173792 0.0004695355 -0.0063033453 0.0041123084
000060 a7 1f c5 3c fc e4 71 bb 17 38 41 ba 23 e6 3b 3b
       0.024062945 -0.0036910167 -0.0007370724 0.0028671108
000070 41 d0 88 b9 99 7c b2 3a eb 64 79 bb 26 78 3e 3b
       -0.00026095103 0.0013617455 -0.0038054537 0.0029063313
000080 6b 56 42 3a 91 c1 4c 3b 86 e0 12 bb 5c ee d7 ba
       0.000741339 0.0031243304 -0.0022411658 -0.0016474235
000090 8f e5 15 3c 7c 99 13 3b ef 77 b2 ba 9d 6e 6c bc
       0.009148969 0.0022521904 -0.0013616065 -0.014430669
0000a0 43 b1 cc 3b f7 a0 99 bc 56 f3 39 3c d1 5b 61 bb
       0.006246717 -0.018753512 0.01134952 -0.0034387002
0000b0 d1 eb 03 3c d4 b6 cd bb c9 1e 83 b9 30 3f 16 3d
       0.0080518285 -0.0062778983 -0.00025009204 0.036681354
0000c0 33 c5 7c bb c8 c5 1a 3a 12 99 15 3d 48 95 db bb
       -0.0038569688 0.00059041055 0.036522932 -0.0067011453
0000d0 58 33 12 bc 45 8d 7a 3c bd 20 d5 3a 30 5d 2e 3b
       -0.008923374 0.01529247 0.0016260367 0.0026605837
0000e0 db 2f c1 bc e0 ba 11 3b 61 b7 c4 3a 5a 45 20 b8
       -0.02358239 0.002223663 0.0015008264 -3.821156e-05
0000f0 43 ee 72 bb 26 dd 72 bc 6c 4d 33 bc ff 50 d8 ba
       -0.0037068285 -0.014823234 -0.010943752 -0.0016503631
000100 58 49 df bc e6 cd 0f 3a 05 11 cc bb 08 40 b7 bb
       -0.027256653 0.00054856983 -0.006227615 -0.00559235
000110 91 23 6d 3c b7 9b c1 bb ad 30 78 ba a3 7c 20 bb
       0.014473812 -0.0059084552 -0.00094677025 -0.0024488352
000120 2e ba 3a 3b 7f 8d cd 3a 6d d1 b5 3a 72 2b 86 3b
       0.002849232 0.0015682428 0.0013871618 0.0040945346
000130 ee 33 52 bb ec c2 a0 3b e9 d0 f3 3b 50 d6 c6 3b
       -0.003207441 0.004906049 0.0074406755 0.0060680285
000140 80 29 6f bb 41 58 c1 bb c0 74 0b bd 30 80 9d 38
       -0.0036493242 -0.0059004133 -0.03404689 7.51022e-05
000150 ac 11 82 bb d0 bd 44 ba db e1 98 bc 95 48 1a b9
       -0.003969392 -0.0007505091 -0.018662384 -0.00014713623
000160 43 d0 94 bb 7a 9c 1d bc ee a7 be 3a 82 29 10 bb
       -0.0045414283 -0.009619826 0.0014545897 -0.0021997397
000170 80 5f 83 bb bf 1b f4 3a 24 32 0c bc 42 b8 3b bc
       -0.004009187 0.0018623992 -0.008556876 -0.011457505
000180 9b 3c 53 bb 26 42 5b ba ec 55 0b 3c 77 80 7e bc
       -0.0032232169 -0.0008364044 0.008504372 -0.015533558
000190 d7 31 9f 3b 7a 03 f1 3c 5f e5 da bc d3 21 8a 3c
       0.0048582363 0.029420603 -0.0267207 0.016861832
0001a0 5e ba 41 3c 44 64 0d 3c f2 2f 62 ba c8 71 2c 3a
       0.011824219 0.008629862 -0.000862836 0.0006578234
0001b0 50 72 64 3b 4e 49 7c 3a a5 d8 57 b8 58 f4 59 3b
       0.0034858175 0.00096239604 -5.146176e-05 0.0033257212
0001c0 18 95 af 3b d6 cc 9b 3b 04 66 00 bc ec 8f f2 bb
       0.0053583495 0.004754643 -0.007836822 -0.0074024107
0001d0 e5 43 f8 3b 67 e7 99 3a 5c d4 61 3c 83 f7 21 bb
       0.007576453 0.0011741937 0.013783541 -0.002471418
0001e0 dd ad 15 3b ae e7 cb ba 45 88 97 3a 3b f6 d4 ba
       0.0022839226 -0.0015556717 0.0011560997 -0.0016247699
0001f0 4a d5 fb ba ea c3 35 3c e7 e8 e9 bb 64 9d be 3b
       -0.0019213345 0.011094073 -0.00713836 0.0058171023

conv_layers.1.lin.weight f4 [128, 128]
000000 d6 7d b0 3d 8e 53 dc 3d 92 33 fb 3b ec 6e 77 bd
       0.08617751 0.10758124 0.00766606 -0.060408518
000010 5c 5b c1 bc 8f 8d 04 be b6 21 9b bd f2 d7 e2 bd
       -0.023603134 -0.12944625 -0.07574789 -0.110763445
000020 08 84 ed 3d fe 11 8f 3d 1c 72 7f bb 2f 67 ed 3c
       0.115974486 0.069858536 -0.0038977927 0.028979866
000030 eb 7c 68 3d 68 3f 11 3e f1 57 97 3b 3d 0f a4 3d
       0.056759756 0.14184344 0.0046186377 0.08010719
000040 7c a2 d3 3c e6 8b 7c bd d6 73 39 be 75 62 f4 3d
       0.025834315 -0.061656855 -0.18110594 0.11932842
000050 c6 d8 83 3d f8 77 c4 bd cb 5a 0d be 2c 49 1e be
       0.064378306 -0.09593195 -0.13804166 -0.154576
000060 a5 78 ef 3d db 2f e6 3d 3f ff e9 3b b3 3f 38 3c
       0.11692933 0.112395965 0.0071410234 0.011245656
000070 66 9b 79 3d 48 bd f6 3c f3 d3 7e bd fd 5a 74 3d
       0.060939215 0.030119553 -0.06221385 0.059657086
000080 fc a3 58 3d 90 87 c5 3d 09 55 89 bd 23 e9 d2 bc
       0.052890763 0.09644997 -0.06705672 -0.025745934
000090 99 05 99 bd e8 2c 55 bd 16 1b 0e be ac a5 c0 3d
       -0.07471771 -0.05204478 -0.1387752 0.094065994
0000a0 fa 69 9e bd c7 a5 2c 3d 9e 67 b6 3c e1 0f 9c 3b
       -0.07735057 0.042150285 0.022266205 0.004762635
0000b0 1c 21 bd bd 67 15 b4 3c ff 97 ae bd 86 86 f6 bc
       -0.09234831 0.021982862 -0.08525085 -0.030093443
0000c0 28 40 23 3d 5d 85 f4 3d e2 73 75 bd a0 a4 01 be
       0.039856106 0.119394995 -0.059924968 -0.12660456
0000d0 86 d5 df 3d fc ab c1 3d 8f 94 58 bd 21 bb fb 3c
       0.10929398 0.094566315 -0.05287605 0.030728878
0000e0 2d 36 65 bd 6a 5d ae bd fe 06 4c bd 5e 94 34 bd
       -0.05595987 -0.08513911 -0.049811356 -0.044086806
0000f0 0d 54 be 3b df 4b 02 3d 7f 35 05 be 9b 39 d2 bc
       0.0058083595 0.031810638 -0.13008688 -0.025662234
000100 dd ca 51 bd bf ee 1d 3d 2f da 83 bd c4 6e e2 bd
       -0.051218856 0.038557764 -0.064380996 -0.11056283
000110 63 34 0f bd c5 62 86 bd 3a fb f8 3d cf 40 3b 3d
       -0.03496207 -0.065618075 0.12157293 0.045716103
000120 73 ba 78 3c 95 2a 2c 3e 68 10 ed bc 83 b3 14 bd
       0.015181172 0.16813119 -0.028938487 -0.03630401
000130 5f ee fb 3d f4 15 2c 3b 87 c3 01 bd 8b b4 75 3c
       0.12301325 0.0026258202 -0.03168061 0.014996658
000140 13 fe 00 be 79 8d c3 3d 2a 77 bd 3d 97 7d a9 3d
       -0.12596922 0.09548468 0.09251244 0.082759075
000150 91 4f 39 bd 7b ea c7 bd f9 13 0c 3d 01 1d 15 3e
       -0.045241896 -0.097615205 0.034198735 0.14561845
000160 e9 c9 a5 3d 41 63 ab 3d 92 36 db 3d 39 d2 a2 3d
       0.08095152 0.083685406 0.10703768 0.07950253
000170 28 c4 20 bd 46 2c d9 bd 6b d2 0f bd 0f 9c 0f bd
       -0.03924957 -0.106041476 -0.03511278 -0.03506094
000180 d8 ba 71 3d 4f ce 0a be 22 40 ff 3b f7 3c e4 3d
       0.05901608 -0.13555263 0.0077896276 0.111444406
000190 c8 5a 85 3d 7a bb 5c bc 9a c3 cf 3c fb f6 db bd
       0.06511456 -0.013472432 0.025361825 -0.10740467
0001a0 73 65 ec 3c 21 af 41 ba 27 b1 78 3d a8 78 5c bd
       0.028856969 -0.0007388462 0.06071582 -0.053826004
0001b0 a3 e2 d7 bd 00 99 36 bd 34 3e 0d 3d 92 69 55 bd
       -0.105412744 -0.044579506 0.03448315 -0.052102633
0001c0 ea bf c7 ba 7b e7 cd bd 76 66 0a be e5 6f eb 3c
       -0.001523969 -0.10053917 -0.13515648 0.028739879
0001d0 30 35 d7 bc af 00 14 3e 4c 2a 32 3d 14 cd ef bd
       -0.026270479 0.14453386 0.04349737 -0.117090374
0001e0 b6 f7 a9 bd 0f 40 c7 3d b1 dc 13 be 66 79 a1 bd
       -0.082992 0.09729015 -0.14439656 -0.07884483
0001f0 a1 98 2e bd 62 6a 93 bc 32 43 df bd 4d 61 b1 3c
       -0.042626027 -0.017995063 -0.10901488 0.021652842
000200 4e 7d d9 bc 63 18 13 be b2 a1 b2 bd 3e 44 cd bd
       -0.026549008 -0.14364772 -0.08722247 -0.10022782
000210 4c 3c 0a 3c ee f4 28 be 90 8d 69 3d 99 93 02 be
       0.008437227 -0.16499683 0.05701977 -0.12751617
000220 28 37 44 bd 18 0f 3b bd 7e fe 87 bd 1f c3 22 bd
       -0.047904164 -0.04566869 -0.066403374 -0.039736863
000230 53 38 24 3d e2 d1 ca bd 15 53 12 3e a4 85 fe 3d
       0.040092777 -0.09903313 0.14289506 0.12427834
000240 03 f6 c4 bd 22 a1 c0 bd 44 96 bf bc c5 ac 09 3e
       -0.096172355 -0.09405734 -0.023387082 0.13444813
000250 22 92 b9 bc 6e fe 21 3c 2c 62 f1 3c b6 92 40 bc
       -0.02265269 0.009887321 0.029465757 -0.011753729
000260 1b 01 00 be 62 58 8a 3d 7c 8e 71 bd ff b0 33 3d
       -0.12500422 0.06755139 -0.058973774 0.04386997
000270 da 6c 82 3b 8c 5f 09 be b1 d1 b2 3b 1b 2e 0a be
       0.0039802613 -0.13415354 0.005457126 -0.1349415
000280 f1 1d 03 3e b1 37 cd 3c d7 e4 85 3d c2 96 87 bd
       0.1280439 0.02505097 0.06537788 -0.06620552
000290 82 ab 64 3d 37 5b 99 bd c4 a6 16 3d ae 8b b7 3d
       0.055827625 -0.07488101 0.036780134 0.08962189
0002a0 34 cb fb bd 69 f2 6f bd 6b cc a4 bd b3 d9 ae 3d
       -0.12294617 -0.05858079 -0.08046802 0.085376166
0002b0 15 df 8f bd 2f c5 a2 3c f8 87 d3 bd f8 ce f4 bd
       -0.070249714 0.019869415 -0.10328668 -0.11953539
0002c0 65 1f 94 bd 35 cf 07 3e 3b 71 b0 3d 24 86 88 3d
       -0.072325505 0.13262637 0.08615347 0.0666621
0002d0 12 29 fc 3d 35 30 6a bd 1a cf 5b bd 12 7f 9b 3d
       0.12312521 -0.05717488 -0.053664304 0.07592596
0002e0 ea 1e 0f 3e ec 82 bc bd ea 44 89 3d 1d 05 e4 bd
       0.13976637 -0.09204659 0.067025974 -0.11133788
0002f0 8c 9b 51 bc 19 d8 d1 3d fd 4b e7 bd 8f 10 ee 3c
       -0.012793433 0.102462955 -0.112937905 0.02906063
000300 04 44 3f bd 00 d3 a3 bd 3e ef ef bd ec c3 f7 3d
       -0.046695724 -0.079992294 -0.11715554 0.12097916
000310 9c e5 98 3c e2 e9 a4 bd 77 9f e5 3d bc 42 c8 bd
       0.018664174 -0.08052422 0.11212056 -0.097783536
000320 1d b3 f3 bd 9c 04 7d 3d 71 e3 a7 3c be 01 a6 bd
       -0.118993975 0.061771974 0.020494195 -0.08105801
000330 9c d6 06 3e de c8 9a bd af 25 1a 3d 31 1e 18 3e
       0.13167804 -0.075578436 0.037633594 0.14855267
000340 ca 1c f9 bd 48 37 c0 bd 0a d2 ea 3c 0c 20 2b bd
       -0.12163694 -0.09385544 0.028664608 -0.04177861
000350 56 5a 83 3b be 7e 0e be 9a 11 27 3d 36 73 61 bd
       0.0040085716 -0.13915536 0.04078827 -0.055041514
000360 f8 0b 61 bd da fe 1d bd 39 56 af 3c fa 9e be ba
       -0.054943055 -0.038573124 0.021403419 -0.0014543228
000370 38 12 02 3e 0f 1c 0e be d9 f4 f4 3d f9 a6 0b be
       0.12702262 -0.13877891 0.119607635 -0.13637914
000380 a3 d7 0e 3c e3 46 22 be db 3f ce 3d 96 7b c3 bd
       0.008718404 -0.15847354 0.10070773 -0.095450565
000390 d9 66 0d 3e 08 51 04 3e 9e d8 09 bc 47 fb 28 bd
       0.13808765 0.12921536 -0.008413462 -0.04125526
0003a0 bd 23 c9 bd 20 d7 05 bc 93 35 83 3d d9 6e fb bd
       -0.0982127 -0.008168966 0.06406703 -0.12277002
0003b0 d8 46 8e bd 2b b3 4d bc 2a cd 99 bc e3 fe c1 3d
       -0.06947106 -0.012554924 -0.018774588 0.09472444
0003c0 52 04 76 3d be ee 81 ba 77 6e 71 bd c9 f1 ad bc
       0.060062714 -0.000991307 -0.058943238 -0.021233456
0003d0 6c 84 64 3c 84 f9 38 3d dc 75 73 3c 3e 73 90 bd
       0.013947587 0.04515983 0.014859643 -0.07053231
0003e0 52 68 1c 3e ea d4 a9 3d 8c ba 1c be 24 9f 0e be
       0.1527417 0.08292563 -0.15305537 -0.13927895
0003f0 ef 64 12 3e d2 aa 83 3d eb 64 8a 3d 97 28 b9 bd
       0.14296316 0.06429066 0.0675753 -0.09040945
