mine/ProG-main/Experiment/pre_trained_model/Wisconsin/GraphMAE.GCN.128hidden_dim.pth (torch, 940561 bytes, 4 tensors)

conv_layers.0.bias f4 [128]
000000 56 25 16 ba 17 b4 d6 3a 81 ed e5 bb f1 5e 19 3c
       -0.00057276094 0.0016380575 -0.007016838 0.009361015
000010 23 75 64 ba 1e 42 3b bc 8c db af 3a 56 6b 10 3c
       -0.00087149645 -0.011429338 0.001341687 0.008814653
000020 ad a0 e9 bb 83 e7 70 3c 14 b2 0d 3b f1 26 20 bc
       -0.0071297497 0.014703634 0.0021621035 -0.009774909
000030 17 5c 22 3c e3 e2 c5 ba 3b 33 18 bb b2 de 13 3a
       0.009909651 -0.0015097525 -0.0023223895 0.0005640789
000040 2a 67 ea bb c4 15 fa 3b f4 e2 c4 bb 91 9b 04 3c
       -0.0071534114 0.007631989 -0.0060085002 0.008093731
000050 42 fe 93 39 2b 9f e1 bb 47 e0 b8 bb 93 08 97 bb
       0.00028227462 -0.0068854294 -0.0056419703 -0.0046091764
000060 66 b9 ad 3b 95 cc 12 bc 61 7c 25 3c b5 27 07 3c
       0.005301642 -0.008959909 0.010100455 0.008249213
000070 c7 bf 8c bb b1 1a c4 ba 56 41 b5 bb d0 4e c5 bb
       -0.0042953226 -0.0014961568 -0.0055314703 -0.006021358
000080 58 44 0d 3b 72 45 ba 3c 1d c7 90 bb 08 b4 c2 3b
       0.0021555629 0.022738192 -0.0044182674 0.0059418716
000090 28 f6 39 3c da d3 ca bb b1 6e 0f 3c 45 ac c5 bb
       0.011350192 -0.0061898055 0.008754418 -0.006032499
0000a0 a8 45 53 3b 80 77 20 3c a9 09 c8 bb 79 09 63 3c
       0.0032237563 0.009794116 -0.006104667 0.013857239
0000b0 5c b4 ce bb ac 86 7b bb ac 3e 0b bc b9 96 22 3c
       -0.0063081216 -0.0038379831 -0.008498829 0.00992363
0000c0 d7 70 cf 3b c0 14 94 bb 05 af d3 bb 97 dc f1 bb
       0.00633059 -0.004519075 -0.006460073 -0.0073810327
0000d0 aa 12 bb ba 3b c6 05 3c 9d cf de bb b0 e5 99 3c
       -0.001427253 0.008164938 -0.006799652 0.018786281
0000e0 d2 b4 7c ba cb 2e 6b ba e7 c0 be bb dd eb 24 3c
       -0.00096399814 -0.0008971511 -0.0058213356 0.010066
0000f0 53 2c 1c bc 09 38 ee 3b a5 c1 4a bb af b1 bb bb
       -0.009532052 0.0072698635 -0.0030938175 -0.0057279686
000100 25 e3 db 3c bc bd 1a bb c7 97 9e 3b db 70 1a 3c
       0.02684171 -0.0023611626 0.0048398706 0.009426321
000110 b3 e6 28 bb 69 7a 17 3c c1 8e a4 bb 73 54 8f 3b
       -0.0025772273 0.009245493 -0.0050219004 0.004374081
000120 8c 2b 11 3c a5 d1 87 3b 20 92 75 3c 94 ae 11 bb
       0.00886048 0.0041448646 0.014988452 -0.00222293
000130 59 67 25 3b a9 4d ad bb 98 89 1a ba 27 6b 11 3c
       0.0025238602 -0.005288799 -0.0005895137 0.008875645
000140 37 12 a7 bb 7f 67 87 3b eb c0 27 bc b4 8b c1 bb
       -0.005098607 0.0041322107 -0.010238866 -0.0059065465
000150 ef 98 8d bb 2b a4 88 3b 0c 6e fd bb 13 63 b1 bb
       -0.0043212096 0.004169961 -0.007734066 -0.005413422
000160 b1 db fb 3b 82 d3 1d bb b8 22 aa 3b bb 3f c0 bb
       0.0076861014 -0.0024082367 0.005192127 -0.0058669723
000170 97 13 35 3b 05 ed 82 ba 6e 12 e6 39 de 11 ad ba
       0.0027630085 -0.000998885 0.0004388275 -0.0013204177
000180 3a a3 9b 3b 41 b3 bb ba 0f c4 b0 bb bf 81 cc bb
       0.0047496827 -0.001432039 -0.0053944658 -0.006241053
000190 1a 6e 97 bb 29 41 a5 bb 92 5a b4 bb d6 03 1b 3c
       -0.0046212794 -0.005043168 -0.005503961 0.009461364
0001a0 77 95 ed bb b0 4b e9 3b 16 ac c3 bb 91 fc 09 bc
       -0.0072504836 0.0071196184 -0.005971442 -0.008422033
0001b0 2c ab 6e bb a2 e2 80 bb 8e 09 85 3b a3 e6 1b bc
       -0.0036417944 -0.0039332667 0.004059977 -0.009515437
0001c0 2c bc c4 3c f7 7a d3 3b 5d 3f 13 3b 81 9b 09 bb
       0.024015509 0.0064538675 0.0022468187 -0.0020997229
0001d0 a0 e0 7e 3b 99 37 68 3b 78 59 84 bb 6c 5d a7 ba
       0.003889121 0.003543353 -0.004038986 -0.0012768931
0001e0 cf 97 e0 bb 00 3f ac bb 1c 30 75 3c 5e 0c 0d 3b
       -0.0068540345 -0.0052565336 0.014965083 0.0021522264
0001f0 0f 17 6c bb bc ec b9 bb bd f6 f9 bb e9 df f1 bb
       -0.0036024486 -0.005673973 -0.0076282904 -0.0073814285

conv_layers.0.lin.weight f4 [128, 1703]
000000 1d 2c 45 ba af e2 69 ba 8e 16 56 39 23 ab f7 b8
       -0.0007521527 -0.0008922023 0.00020417033 -0.000118097545
000010 6a d4 87 39 73 e1 c3 b9 c5 d5 78 ba 00 c1 92 3b
       0.00025907467 -0.0003736127 -0.00094923034 0.004478574
000020 4e cb f9 3c ac 3c 19 39 c0 f5 c7 39 d5 4b b1 b9
       0.030492451 0.00014613819 0.00038139336 -0.0003381657
000030 2e a1 62 ba 56 ac 97 bc 8c 92 0f 39 03 2f 63 bc
       -0.00086452335 -0.018514793 0.00013692136 -0.013866189
000040 0c e9 5f b9 36 31 9f bb b7 c7 21 ba af 7f 07 38
       -0.00021353754 -0.0048581613 -0.00061714224 3.2305423e-05
000050 cc 47 e4 b9 ca cc 4d bd 23 66 02 ba 58 ac e4 bb
       -0.00043541042 -0.05024413 -0.0004974326 -0.006978553
000060 a2 eb 10 bd a9 43 07 3a 34 e7 32 bb 66 f6 49 bc
       -0.035380967 0.00051599235 -0.0027298452 -0.012326812
000070 5d d3 09 3a f6 d2 c2 ba e2 b2 5e 3d d4 bb db 39
       0.0005257631 -0.0014863897 0.054369815 0.00041910878
000080 62 50 f6 b9 93 8b 59 3d 60 c2 22 ba 88 f7 d3 3c
       -0.00046980666 0.053111624 -0.00062087737 0.025874868
000090 a4 08 c8 b9 17 ea 65 3c 6d 2a 07 3a 3a 94 46 b9
       -0.0003815341 0.014032862 0.0005156163 -0.0001893797
0000a0 68 1b 2f 3b 68 b0 3e 3a c2 7f 21 bd 9e e5 49 bd
       0.0026719216 0.00072742114 -0.03942848 -0.049291246
0000b0 ff 55 c5 37 68 4c 0c 3d 25 dc 73 3d 89 fa 7e 3a
       2.3524275e-05 0.034252554 0.059536118 0.00097266637
0000c0 fa 88 e9 bc a6 71 4e 3a ae c6 7e 3a a8 bd 26 bb
       -0.028507698 0.00078752113 0.00097189366 -0.0025442634
0000d0 66 2f c9 b8 14 48 76 3a 8d b5 3e ba bf 44 b2 3c
       -9.5932555e-05 0.0009394896 -0.0007274978 0.021761296
0000e0 8d dc 75 3a 6d a0 51 bd b8 c8 e1 39 bd 5f 7e 3a
       0.0009378873 -0.051178385 0.0004306489 0.0009703597
0000f0 bd 64 53 39 57 27 0d bd fd 62 0b 3a 40 b7 be b9
       0.00020160056 -0.034461346 0.00053171796 -0.00036376156
000100 a5 6d 52 3d df 71 ca 37 92 a3 83 b6 06 93 1a 3b
       0.051374096 2.4133302e-05 -3.9231463e-06 0.0023586168
000110 72 7e 08 3a 2d 6e 3b 3a 3a a9 6e 3d b8 a1 95 3a
       0.000520683 0.00071499014 0.058266856 0.0011415994
000120 57 8d 18 b9 d2 eb 3c ba 3d 2d 7c 38 3d 0e 27 3a
       -0.00014548503 -0.0007206771 6.0123613e-05 0.0006372666
000130 e3 0d 3a 39 59 4e 33 3a 52 5f c7 b9 46 0d 6a 39
       0.00017743515 0.0006839983 -0.00038027257 0.00022320924
000140 89 fe 5b 3c dd 6a 1c 3d 91 f0 e4 38 3c 42 f5 b9
       0.013427385 0.03818785 0.00010916696 -0.0004677939
000150 66 c2 96 b5 3a 34 a7 b6 bc 41 c7 3a e0 b8 5b ba
       -1.1232448e-06 -4.983068e-06 0.0015202085 -0.00083817355
000160 62 8e dc 39 2d d4 80 ba f3 97 bd 3c c7 e2 97 38
       0.00042067753 -0.0009828858 0.023143744 7.242482e-05
000170 f5 a8 7a 39 d1 99 83 b9 70 b7 2e bd 70 a6 c0 3b
       0.000239048 -0.0002510087 -0.04265541 0.005879216
000180 56 70 3f bd 9f 6f 59 bb 8a 6c 7b ba 77 58 56 38
       -0.04673799 -0.0033178104 -0.0009591064 5.1103965e-05
000190 b1 bf ec 38 d7 52 02 b9 c0 e1 57 3a 68 84 e1 3a
       0.00011289062 -0.00012428626 0.00082352385 0.0017205598
0001a0 73 d7 a1 b9 68 e9 07 3d 71 ed 6d ba 15 5d 3e ba
       -0.00030868835 0.033181578 -0.0009076214 -0.0007261795
0001b0 50 25 80 3a af 09 ff bc 54 2d 2a ba 58 8f db b9
       0.0009776745 -0.031132547 -0.000649174 -0.00041877734
0001c0 bb fd d9 3c 23 4f 1f 3d e7 fb 31 3d c6 cf d9 bc
       0.026610246 0.03889383 0.043453123 -0.026588332
0001d0 c4 d6 82 3b 9a 81 92 b7 e4 aa 0c bb b4 5d 83 b9
       0.003992887 -1.7464907e-05 -0.0021464163 -0.0002505608
0001e0 07 70 fe 3c ab 18 35 bb e5 c8 3a 3d cc 49 cf 39
       0.031059278 -0.0027633111 0.045601744 0.000395371
0001f0 a0 d6 6e 3a b5 54 e2 39 0c 5a 19 39 6e e0 31 bb
       0.0009110961 0.0004316919 0.00014624762 -0.0027141827
000200 85 ad 2d 3d a0 c1 00 ba c6 46 02 bd 77 33 16 ba
       0.04240181 -0.0004911665 -0.031805776 -0.0005729715
000210 61 a3 7a ba 86 ae dd b8 d8 e9 13 bd d6 1d d3 bc
       -0.00095610885 -0.00010570609 -0.036111683 -0.025771063
000220 de f0 f1 bc 98 c6 43 38 d0 6f 13 3d de 3e 4d b8
       -0.0295338 4.6676578e-05 0.035995305 -4.893436e-05
000230 7b 30 58 ba ca 1d ef bc 2a bc f3 bb 8f 17 d6 3c
       -0.000824697 -0.02918901 -0.0074382024 0.02613428
000240 b8 d2 18 bd e7 49 d9 39 da bb 82 b7 0f 23 b5 bc
       -0.037310332 0.00041444527 -1.5584683e-05 -0.022111444
000250 b8 b5 82 b9 b1 fc 14 3d d4 f9 73 ba 64 d2 66 b9
       -0.00024930923 0.036373798 -0.00093069416 -0.00022012886
000260 92 ed 0e bc d0 60 d4 bb 59 83 31 3d 84 bc 4a b9
       -0.008723633 -0.0064812675 0.043338154 -0.00019334449
000270 cd 8b 85 3b 80 16 3b bd dc ae a1 b8 68 18 35 bd
       0.0040755034 -0.045675755 -7.709648e-05 -0.04421273
000280 7d 38 27 ba 38 6c ec bc b5 c1 41 ba a9 02 ae b9
       -0.0006378962 -0.028860196 -0.00073912303 -0.00033189848
000290 74 18 0d bd 8e 8b c1 ba 25 ca 03 3d bb 81 05 bd
       -0.03444715 -0.0014766322 0.032175202 -0.032594424
0002a0 64 99 25 3a 62 9f 11 b9 bd 15 2a bd 15 dc 51 ba
       0.00063171075 -0.00013887652 -0.041524637 -0.0008005512
0002b0 64 ef 6d 3a 9c 99 a9 38 fc e4 5a 3b 19 98 09 b9
       0.00090765045 8.08716e-05 0.0033400645 -0.00013121999
0002c0 68 e2 18 bd 95 e3 05 bb f3 e0 0b ba 27 b6 5e b9
       -0.037325293 -0.002042984 -0.0005335949 -0.00021239427
0002d0 16 db ce b9 b9 11 58 bd 7a b2 c9 bc 6c 59 fc 3c
       -0.00039454614 -0.052751277 -0.024621237 0.030804358
0002e0 2a d6 c2 39 7e de 13 bd bf c3 80 ba f9 b9 27 39
       0.00037162128 -0.036100857 -0.0009823962 0.00015995641
0002f0 c9 d4 c2 b7 4e d0 fc 34 13 67 db b9 93 54 da 3c
       -2.3225688e-05 4.709022e-07 -0.0004184773 0.026651656
000300 43 e8 80 ba ac 32 54 3a 14 d4 07 3b 11 82 8b bc
       -0.0009834844 0.0008094709 0.0020725774 -0.017029794
000310 25 9e 61 b6 5b 6d 8a 39 57 9d 79 3c 81 15 70 ba
       -3.3619665e-06 0.00026402887 0.015235267 -0.0009158478
000320 8d da 51 bd 23 ed 15 bb dd 5c ce b9 99 0b 40 bd
       -0.051233817 -0.002287694 -0.0003936057 -0.04688606
000330 3a 0a fd 3a 4c a7 0b 3b b2 67 17 b6 1e 18 d6 39
       0.0019305416 0.0021309434 -2.2561112e-06 0.0004083523
000340 61 c7 7a bc bd a5 80 3a c8 5f 02 3c e4 d9 2b bb
       -0.015306325 0.0009815019 0.007957406 -0.0026222402
000350 b5 a3 4b ba 01 c7 e5 38 ec 95 1b 3a be 6e 02 ba
       -0.00077682297 0.00010956638 0.0005935121 -0.00049756083
000360 e9 ed 4b 3b 49 43 14 bb 05 ea c3 bc 9c 2f 37 bd
       0.0031117147 -0.0022623113 -0.0239153 -0.04472314
000370 a3 92 23 bd 6f 3b ab 39 fb 44 69 ba b8 b5 da 39
       -0.039934766 0.00032659943 -0.00088985235 0.0004171559
000380 d3 dc 48 b9 e3 49 72 3c 5c 4f 59 3d 02 87 16 ba
       -0.0001915575 0.014788124 0.0530542 -0.00057421636
000390 2f ce f5 3c 85 96 f2 b8 7c 6f 12 3d dc c1 9a ba
       0.030005543 -0.00011567496 0.03575085 -0.0011807042
0003a0 34 30 f8 37 a1 a7 5e 39 76 b6 b0 38 63 29 78 bc
       2.958635e-05 0.00021234016 8.42632e-05 -0.015146586
0003b0 46 f7 a9 3c d0 5f d4 3a 05 66 ca 35 b1 d9 d0 39
       0.020747792 0.0016202871 1.5079864e-06 0.00039835044
0003c0 5f 90 2c ba 18 b3 83 39 55 15 15 3d 2f 1c 05 3d
       -0.0006582792 0.00025119702 0.036397297 0.03249758
0003d0 ad a2 3e 38 6f ee fb 38 9a a6 35 36 12 59 80 ba
       4.5451034e-05 0.000120130244 2.7068077e-06 -0.000979217
0003e0 67 82 ec b7 ae 26 7d b9 17 a2 e8 37 b9 13 7b ba
       -2.8194116e-05 -0.0002414237 2.7732034e-05 -0.0009577829
0003f0 7e 88 07 b7 a9 62 0a 38 98 90 7f 3a 58 a7 4d 3d
       -8.078407e-06 3.299365e-05 0.0009749024 0.05020842

conv_layers.1.bias f4 [128]
000000 dc bb 08 3c 6f c6 86 bb 9a 99 69 bb 53 d3 1c bc
       0.00834557 -0.0041130106 -0.0035644532 -0.009571868
000010 dd 6a f8 bb 9c ae b6 3b 59 8c d7 3b ec ad 49 3c
       -0.0075810985 0.0055750143 0.00657801 0.012309533
000020 d7 7a 70 bc 42 aa b7 bb 3a b6 f9 3b 8a 69 ad 3b
       -0.014677725 -0.005605013 0.0076206 0.0052921223
000030 45 46 61 3c 45 c2 4b bb 36 32 22 bc 1f a4 a8 bb
       0.013749664 -0.0031091135 -0.0098996665 -0.005146518
000040 76 b7 85 bb 59 76 e6 3b c3 57 94 bb 98 99 ae bb
       -0.004080708 0.007033151 -0.0045270636 -0.0053283684
000050 74 be 02 bb 05 63 be 3b 8a 23 8a ba 97 4f 5e 3b
       -0.0019949945 0.005810144 -0.0010539156 0.003392195
000060 1b e4 ac 3b 8a 94 f0 3b 0c d5 9e 3b d9 ef 70 39
       0.0052762157 0.007341926 0.0048471745 0.00022977534
000070 b5 17 ce bb b8 59 d2 3b 31 d5 0c bc 42 06 05 bc
       -0.006289447 0.0064193867 -0.008595751 -0.008119168
000080 a1 ae a7 bb b7 28 51 bc 28 a4 e2 3a 26 de 85 3b
       -0.005117253 -0.012766055 0.0017291354 0.00408532
000090 ef 1c f5 bb 15 16 f8 3b 43 d0 a8 bb 25 a1 16 bb
       -0.007480256 0.0075709918 -0.00515178 -0.0022984233
0000a0 a3 68 13 3c 8b d4 68 ba df 20 c0 bb e6 14 03 bc
       0.008997115 -0.0008881769 -0.0058632935 -0.008000588
0000b0 ac 1b 78 3c 74 16 b3 bb 6d 8c c9 3b ca 1e a3 bb
       0.015143316 -0.005465323 0.0061507733 -0.0049780356
0000c0 53 76 bd bb 94 e1 9d bb 66 1a 87 3b e8 e7 b9 bb
       -0.0057819276 -0.004818151 0.00412302 -0.0056733973
0000d0 7c 38 3c bc 9d 9c 93 3a f1 1b db 3b 90 4b c4 3b
       -0.011488076 0.0011261884 0.0066866805 0.005990453
0000e0 66 14 21 bb e5 ec da 3b 30 c1 49 3b f7 69 c6 bb
       -0.0024578809 0.006681072 0.0030785315 -0.0060551125
0000f0 68 d0 a5 bb ae 63 ec 3b f6 f1 ae bb 82 8b cd 3b
       -0.0050602444 0.007214031 -0.0053389026 0.006272734
000100 52 03 b9 3b 7a bb c3 bb 1b 2f cf ba 44 6b c0 3b
       0.0056461478 -0.0059732767 -0.0015806885 0.005872162
000110 cf 9c aa 3b b9 67 d3 3b 66 8e ba bb 10 46 01 bc
       0.0052066813 0.0064515737 -0.0056932447 -0.007890239
000120 dc c2 75 bb 8b 38 ad 3b 52 2a 98 bb 51 78 bf bb
       -0.0037500178 0.0052862815 -0.004643717 -0.0058432003
000130 9d f8 f5 3b 6b b6 10 bc 85 44 ae 3b 22 73 40 3b
       0.0075064437 -0.008832554 0.0053182268 0.00293655
000140 84 18 89 ba 74 bb 93 3b 17 3d bc ba b6 20 5c bb
       -0.0010459577 0.00450843 -0.0014361468 -0.0033588833
000150 a1 c6 fe ba e4 91 a2 bb 9a e4 0e 3b f2 92 9f 3b
       -0.0019437858 -0.004961239 0.0021803738 0.004869812
000160 56 ec 6e bb 76 b1 42 3c b1 b4 de 3b 6f 25 bc 3b
       -0.0036456785 0.01188313 0.0067964424 0.005741767
000170 0e 5a 29 3b 96 70 04 bb 2c a5 c5 bb 66 61 ab bb
       0.002584103 -0.0020208708 -0.006031653 -0.0052301167
000180 75 fc a5 bb 96 20 fb 3b 80 b0 8f bb 2b 68 b4 bb
       -0.0050654956 0.0076637967 -0.004385054 -0.005505582
000190 00 fe 03 3a cc 5f e0 bb 13 6f 1d bc d0 a8 89 3b
       0.00050351024 -0.0068473574 -0.009609002 0.004201032
0001a0 e7 3b 9e bb f9 79 9b 3b a4 a5 b8 3b a3 71 13 bc
       -0.0048289183 0.004744765 0.0056349803 -0.008999261
0001b0 92 81 0b bc 8e 1a 98 bb b2 b5 24 3c 53 09 19 3b
       -0.008514779 -0.0046418374 0.010053085 0.0023351505
0001c0 ef 53 01 bc 63 cf 11 bc 39 2a ca 3b 72 25 3e 3c
       -0.0078935465 -0.0088995425 0.006169584 0.011605607
0001d0 4a a3 05 3c b4 08 c4 bb e5 74 fb ba c2 45 8f 3b
       0.008156607 -0.005982483 -0.0019184618 0.0043723295
0001e0 a9 fc b2 3b e0 9a 43 3a fd a2 df 3b 06 48 a0 bb
       0.0054622483 0.0007461738 0.0068248496 -0.0048913984
0001f0 3f 00 9f 3b f5 f9 94 bb c0 bf 8c bb bf 2d 9a 3b
       0.0048523243 -0.0045463988 -0.0042953193 0.0047051604

conv_layers.1.lin.weight f4 [128, 128]
000000 87 38 c2 3d c8 3b e1 bc 86 02 f6 bd 09 0f 98 3d
       0.09483438 -0.027494326 -0.120122 0.07424743
000010 5d bb c9 3d 93 24 be 3d fa bc d3 3d a3 a2 b0 3d
       0.0985019 0.0928432 0.10338779 0.086247705
000020 a7 af 7a 3d 44 a9 8b bd 77 23 b7 bd 89 13 5b bd
       0.06120267 -0.06819394 -0.08942311 -0.053485427
000030 42 81 c8 bc fe 38 b6 bd 31 e9 e0 bd d0 da 1c 3c
       -0.024475697 -0.08897589 -0.10981978 0.009573653
000040 4d b1 a7 3d 06 84 a3 3d c1 dc cf bb d5 5e a9 bc
       0.08188114 0.07984166 -0.0063434546 -0.020675102
000050 f9 c0 c6 bd 2a e7 c3 3c bd c8 b8 39 a2 44 7b 3d
       -0.09704775 0.023913939 0.00035244777 0.06134475
000060 61 18 89 bd 84 35 bc bd b3 c8 39 bd b9 94 60 3d
       -0.06694103 -0.09189895 -0.045357417 0.054829333
000070 85 16 39 bd 2d 26 9e 3c 11 8c 95 bd 6c 6c 08 be
       -0.045187492 0.019305313 -0.07302106 -0.1332261
000080 26 86 5b 3d 91 71 09 be a4 b6 10 3e 25 88 05 3e
       0.05359473 -0.13422228 0.14132172 0.13040216
000090 27 e2 0b be 8b ab c7 bd 3e 87 f7 3d a1 7d d7 bd
       -0.13660489 -0.09749516 0.12086342 -0.10522009
0000a0 ff 9b b2 bd 61 a2 12 bd a2 a7 48 bb 47 ae de bd
       -0.0872116 -0.035799388 -0.0030617495 -0.108730845
0000b0 84 68 98 3c 18 27 a9 bc 70 6c e1 bd de 75 a8 bd
       0.018604524 -0.020648524 -0.11007011 -0.082256064
0000c0 34 7e b4 bd 6f 29 e7 ba b0 ce bc bd f6 ba 81 3d
       -0.08813134 -0.001763625 -0.0921911 0.06334488
0000d0 22 22 c9 bd fd 48 62 bd 62 bc 58 bd 3d 9c 5e bd
       -0.098209634 -0.05524539 -0.05291403 -0.05434822
0000e0 9a bc fa bc bf d9 4d 3d bc 6c bc bd b9 5e 1f 3e
       -0.03060751 0.050256487 -0.09200427 0.15563478
0000f0 f8 52 8b 3d 38 b1 c1 bd 0a 5c b4 bd 00 40 c0 3d
       0.068029344 -0.0945763 -0.088066176 0.09387207
000100 48 4e b5 3d a6 d2 d7 bc b6 7b ca 3c 75 12 39 3d
       0.088528216 -0.026345562 0.024717193 0.045183618
000110 3c 98 a6 bc 4e 47 fa bd 54 ff 9a 3d db b9 59 bd
       -0.020336263 -0.122206315 0.07568231 -0.05315576
000120 66 0f 9b 3d db 88 f5 3b c7 22 12 be a3 f7 00 3d
       0.075712964 0.007493121 -0.14271079 0.031486165
000130 46 11 0b be da 70 05 3e f8 45 94 3d d9 ca 96 3d
       -0.13580808 0.1303133 0.07239908 0.07362909
000140 86 40 8d bd 75 30 96 3d 71 b1 98 bd ea 14 21 3d
       -0.068970725 0.07333461 -0.07455719 0.039326586
000150 70 af 91 3d c9 88 e7 bd ce 51 27 bd 48 d7 39 bd
       0.0711354 -0.113053866 -0.0408495 -0.045371324
000160 00 4a bc 3d f3 4a 94 bd e3 5e ea 3c 92 07 a4 bd
       0.09193802 -0.07240858 0.028609699 -0.080092564
000170 73 ef fe bd 99 f2 7d bd 74 49 0d 3e 69 52 bf 3d
       -0.12448015 -0.061998937 0.13797551 0.0934189
000180 af e0 bb 3d 38 60 0b 3e b9 9e 30 bc 86 7a 43 bd
       0.09173714 0.13610923 -0.01078003 -0.04772427
000190 ba 92 59 3d d1 e5 16 3e b8 e4 f4 bc 4a 2c 00 3e
       0.053118445 0.14736106 -0.029894218 0.12516895
0001a0 70 c7 d3 bd e3 8a d4 bb 44 95 d6 3d 15 52 c5 bd
       -0.10340774 -0.006486283 0.10477689 -0.096347965
0001b0 7a e3 6f 3d c1 c1 24 bd 7e 14 a4 bd 41 5c e6 bd
       0.058566548 -0.04022384 -0.08011721 -0.11248065
0001c0 40 8c ec 3d de d6 3a 3d cc 1c 34 bd cb 5c f2 3d
       0.11550188 0.04561507 -0.043972775 0.11834105
0001d0 44 56 e1 bd b9 a6 c9 bd 10 b5 05 3d 8f 7c 7e 3d
       -0.11002782 -0.09846253 0.032643378 0.062130507
0001e0 64 f2 b8 bd b3 e3 0c 3e be 2f 79 bd b8 6b 12 3e
       -0.09030607 0.13758735 -0.060836546 0.14298904
0001f0 20 90 0f 3e 3d e2 fc bd 6c 91 c4 bd 73 cf 28 3d
       0.14019823 -0.12347839 -0.095980495 0.041213464
000200 cc b1 4a bd 01 6c 4f ba d2 f5 a1 bd 8d 4d 4c 3d
       -0.049485967 -0.0007912517 -0.07908215 0.049878646
000210 d8 1d b8 bd 1f 98 e7 bc 2f ba 8f bc e8 fc 36 3d
       -0.08990067 -0.02827078 -0.017544834 0.044674784
000220 1b 5d 89 bb 3b 57 fa 3d 6d 8a 11 be d9 53 f9 3d
       -0.0041920072 0.12223669 -0.14212961 0.12174196
000230 ac 8f 09 be e8 64 44 3d 94 f4 a4 bd 2b 4a 05 3e
       -0.13433713 0.047947794 -0.08054462 0.13016574
000240 1f 74 9e bd e7 0f 0f 3e 0f 15 96 3d 46 9b 01 bd
       -0.07736992 0.1397091 0.07328235 -0.03164222
000250 ad 57 91 bd d3 a3 a6 bd fe ab 99 bc 3f 54 5f 3d
       -0.07096801 -0.08136716 -0.01875877 0.054523703
000260 65 94 fd bd 27 77 97 bd 25 d0 a4 bc 73 22 46 3d
       -0.1238182 -0.073957734 -0.020118782 0.048372697
000270 66 49 b4 3d 86 27 96 3d 3b e0 5c 3c 6b ce 86 bd
       0.08803062 0.07331757 0.013481195 -0.0658234
000280 88 5f 0b bd 9f f0 b0 3d 6b 69 5f 3d 2c fe 5e bc
       -0.034026653 0.08639645 0.054543894 -0.013610404
000290 e6 69 b8 bc 91 86 13 3e 81 8a c2 3d f3 82 bb bd
       -0.022511434 0.14406802 0.09499074 -0.09155836
0002a0 28 c6 18 be cf 5c 24 3e 95 e6 5f 3d 3b 5c 98 3d
       -0.1491934 0.16051029 0.05466326 0.074394666
0002b0 be 02 b9 bd 18 6f d5 bd 44 b9 dd 3c a5 41 cf bd
       -0.09033726 -0.1042158 0.02706588 -0.101199426
0002c0 ee e0 49 bd a9 96 94 3d ca 19 1e bd 7a d6 b8 bd
       -0.049286775 0.07255299 -0.038598813 -0.09025283
0002d0 42 79 2e bd de 39 60 3d 8b 1e 9a 3d a7 bc 07 3c
       -0.04259611 0.054742686 0.07525357 0.008284724
0002e0 b8 f5 bd bc 15 24 0a 3d 99 da f4 3d 73 2d ad bd
       -0.023188457 0.033725817 0.11955757 -0.084559344
0002f0 9d 74 c3 bd d2 ec ec bc 65 17 6a 3d e2 eb ef bc
       -0.095437266 -0.028921518 0.057151217 -0.029287282
000300 ff ce 4a 3d ee 38 c3 3d 7d a4 9f bd 58 44 13 3e
       0.049513813 0.09532343 -0.077950455 0.1438154
000310 15 2e ef 3d 29 5e 0e be e5 d4 23 bb 22 1d 95 bd
       0.11678711 -0.13903107 -0.0024998721 -0.07280947
000320 ad 19 21 3d 77 a8 4b 3d bc f9 a6 bc c3 62 e7 bd
       0.039331127 0.049721207 -0.020382755 -0.11298134
000330 09 40 e6 3d d2 6b e9 3d ef 2b 8a 3c 78 50 c0 bd
       0.112426825 0.11397518 0.016866652 -0.09390348
000340 a4 5e fe bc 47 aa 5f bd c5 8c 40 bd 1e d1 b0 bb
       -0.031050988 -0.05460575 -0.04700925 -0.0053960225
000350 5d fb 7f 3d f0 1b 9d bd c4 38 99 3d ed 67 12 3e
       0.062495578 -0.07671344 0.0748153 0.14297457
000360 75 e9 06 3e 71 35 a1 bd f1 f1 e1 bd 65 ee c9 bd
       0.13174994 -0.07871521 -0.11032475 -0.09859923
000370 26 21 15 3e 0c b2 02 be 02 e8 0f 3e 37 ce f7 3d
       0.14563426 -0.12763232 0.14053348 0.12099879
000380 84 16 1b 3d 07 f0 1b 3d a4 bd 3c 3a 3c cb dd 3d
       0.03786327 0.038070705 0.00071998895 0.108297795
000390 00 d9 8f bc 44 a4 82 bd 1b c8 bb bd f8 8f 11 3d
       -0.017559528 -0.063789874 -0.091690265 0.03553769
0003a0 8a e4 c7 3c a2 2f 8c bb 2b 91 db bd 6f fe 53 bc
       0.024400968 -0.004278139 -0.10721048 -0.01293908
0003b0 7d e4 87 bd dd f9 da bd 35 33 07 bc fd 17 09 3e
       -0.066353776 -0.10692189 -0.008251955 0.13388057
0003c0 e0 52 c4 3d 29 1e 9c ba fa 76 17 be d1 d7 db 3c
       0.0958612 -0.0011910844 -0.1479148 0.026836308
0003d0 f3 6a 02 be 6e 6e 13 3e 70 6c 54 bd 04 e2 56 3d
       -0.1273611 0.14397594 -0.051861227 0.05246164
0003e0 81 ca 13 be 8f 86 cf 3b f6 ab 4d bd b2 ec fa bd
       -0.14432718 0.0063331793 -0.050212823 -0.12252177
0003f0 9c c3 8e bc c5 3b bb 3d d8 10 91 3d 1f aa 47 3c
       -0.017427258 0.091422595 0.07083291 0.012186556
