mine/ProG-main/Experiment/pre_trained_model/MUTAG/GraphMAE.GCN.128hidden_dim.pth (torch, 72680 bytes, 4 tensors)

conv_layers.0.bias f4 [128]
0	0x3c9dc472	0.019258711
1	0xbcc93ece	-0.02456608
2	0x3b3b57f6	0.0028586364
3	0xbcdbf771	-0.026851388
4	0xbba85eaa	-0.005138238
5	0xbb98377c	-0.004645286
6	0xbce38448	-0.027773038
7	0xbafb3fce	-0.0019168796
8	0xbb838491	-0.004013606
9	0x3bbe7ecd	0.0058134557
10	0x3cdfca17	0.027318044
11	0xbba30d9f	-0.004975989
12	0x3c07e6f2	0.008294808
13	0xbc0607a6	-0.0081805345
14	0x3cc83b4d	0.02444234
15	0xbc212c78	-0.009837262
16	0x3b3f1433	0.0029156327
17	0xbb9fca9e	-0.004876449
18	0xbc21f68c	-0.0098854415
19	0xbb74fcf1	-0.003738221
20	0x3bcba23f	0.0062144096
21	0x3c792f0f	0.015208974
22	0xbb849190	-0.0040456727
23	0xbba3a799	-0.0049943444
24	0x3ba47390	0.005018659
25	0xbc28ba9f	-0.0102984
26	0xbb852092	-0.0040627206
27	0xbbe5b41c	-0.007009996
28	0x3a736a66	0.0009285569
29	0x3b02ae9a	0.0019940496
30	0x3ceb25fc	0.028704636
31	0xbc4889e1	-0.012239904
32	0xbc04a834	-0.008096743
33	0x3ca76f23	0.020438736
34	0x3b9e8930	0.0048381314
35	0xbb9d405f	-0.0047989334
36	0x3c9ba653	0.019000208
37	0x3b313d0f	0.002704445
38	0x3b8ae69a	0.0042389156
39	0xbc040f1b	-0.008060242
40	0xbb03a74c	-0.002008873
41	0xbb5a0896	-0.0033269278
42	0xbbf32bec	-0.0074210074
43	0x3b7da276	0.003870157
44	0xbc027045	-0.007961337
45	0xba6f61b5	-0.0009131686
46	0xbb2e8abb	-0.0026632983
47	0xbaed20de	-0.001809146
48	0xbc1aaef6	-0.009441128
49	0x382a31df	4.0577605e-05
50	0x3b41f1ac	0.002959351
51	0x3b2e9141	0.002663687
52	0x3b4c5b07	0.0031182186
53	0xb9a5c7a6	-0.00031620002
54	0x391a6207	0.00014723103
55	0xb9b0181b	-0.00033587296
56	0x3caaf153	0.020867025
57	0x3b5b6519	0.0033477007
58	0x3a98f106	0.001166851
59	0xbcb53110	-0.022118121
60	0xbc09776f	-0.008390292
61	0xbb7f5c16	-0.00389648
62	0xbbc3e2e4	-0.005977975
63	0xbc2afd75	-0.010436405
64	0xbc661ed8	-0.01404544
65	0xbcd9ce47	-0.026587619
66	0xbbc55d30	-0.0060230717
67	0xbbc861ea	-0.006115188
68	0xbb447366	-0.002997601
69	0x3cdd2c31	0.026998611
70	0x3bda7d8f	0.0066678
71	0xbc81be6c	-0.01583787
72	0x3a4000a2	0.0007324313
73	0xbb3865c7	-0.0028136836
74	0xbc355c20	-0.011069328
75	0xbad4fc16	-0.0016249444
76	0x3a32745e	0.0006807501
77	0x3bb22650	0.005436696
78	0xb8c21065	-9.2536946e-05
79	0xbc1b692b	-0.009485523
80	0xbb938d87	-0.0045029554
81	0xbbd07723	-0.0063618585
82	0xbc846077	-0.01615928
83	0x3c0dddd5	0.008658846
84	0x3d1af126	0.037827633
85	0xbc5c6aec	-0.013453227
86	0xbc5c236c	-0.01343618
87	0xbb5bac3e	-0.0033519412
88	0xbaed2a47	-0.0018094265
89	0x3c4bd69d	0.0124413045
90	0xbc3d25a2	-0.011544617
91	0x3b2cb298	0.0026351567
92	0xbcc960f8	-0.024582371
93	0x3cff1179	0.031136261
94	0xbc94be64	-0.018157192
95	0xbb258c6f	-0.0025260707
96	0x3c7d4870	0.015459165
97	0xbbcc0c74	-0.0062270705
98	0xbc63039b	-0.01385584
99	0x3b05b72f	0.0020403375
100	0xbbe18263	-0.0068819984
101	0xbc61397c	-0.0137466155
102	0xbc2021e6	-0.009773707
103	0xbbaf6b4b	-0.0053533665
104	0x3b03a029	0.0020084477
105	0xbb0ddca0	-0.0021646395
106	0x3cb4aa64	0.022053905
107	0xbc3b54cd	-0.011433792
108	0xbbb18502	-0.005417467
109	0x3bad2fe4	0.00528525
110	0xbc4977cf	-0.012296631
111	0x3b43fa22	0.002990373
112	0xbad70170	-0.0016403627
113	0xbbd48476	-0.006485517
114	0xbc0d36bf	-0.0086190095
115	0xbbc65b58	-0.0060533695
116	0xbc10f917	-0.00884845
117	0xbbde1c45	-0.0067782723
118	0x3c66d649	0.0140891755
119	0xbb81b9e2	-0.0039589265
120	0x3ae903b2	0.001777759
121	0xbb4cc9ad	-0.0031248138
122	0xbb992ecf	-0.0046747695
123	0x3c983a00	0.018582344
124	0x3b2f4bbb	0.002674802
125	0x3c7e0caf	0.015505954
126	0xbb4f79b9	-0.0031658246
127	0x3b29ac68	0.0025890116

conv_layers.0.lin.weight f4 [128, 7]
0	0xbddca417	-0.10773485
1	0xbd6af708	-0.057364494
2	0xbe08402f	-0.13305734
3	0x3e1efb65	0.15525587
4	0x3c67a94c	0.014139485
5	0xb9fce252	-0.00048233807
6	0x3daccb6e	0.08437239
7	0xbdf9bacf	-0.12193834
8	0x3995343d	0.00028458415
9	0x3d2f8399	0.04285011
10	0x3db571a9	0.088595696
11	0x3df4cdf5	0.11953346
12	0xbc8e705a	-0.017387558
13	0x3d901de9	0.07036955
14	0x3dfd8030	0.123779655
15	0x3e2db487	0.16963397
16	0x3e018fa4	0.12652451
17	0x3e02ecca	0.1278564
18	0x3c958dcf	0.018256096
19	0xbe0f4714	-0.13991958
20	0xbc7347f0	-0.014848694
21	0xbe038ed1	-0.12847449
22	0x3e1a40e8	0.15063822
23	0x3dfa55bb	0.12223383
24	0xbd1988fd	-0.037484158
25	0xb7677e1b	-1.3798034e-05
26	0x3d7cda12	0.061731406
27	0x3a72c184	0.00092604035
28	0x3df55a3e	0.11980103
29	0x3b843ebd	0.0040357993
30	0xbe590ff2	-0.21197489
31	0x3e28e332	0.16492918
32	0xbb5f3272	-0.0034057167
33	0x3c559070	0.013034925
34	0xbb3f01c8	-0.0029145349
35	0x3e18aef2	0.14910486
36	0xbcb2c74c	-0.021823548
37	0x3e51a09f	0.20471428
38	0xbbcbffad	-0.0062255473
39	0xbcd6b93c	-0.026211374
40	0x3d48fb24	0.04906763
41	0xbd86ff45	-0.065916575
42	0x3c324399	0.010880374
43	0x3da3ad59	0.07992048
44	0xbe05477c	-0.1301555
45	0xbbbe9212	-0.005815753
46	0x39705d20	0.00022922875
47	0x3e0502b3	0.12989311
48	0x3d4f1ba4	0.05056347
49	0x3d034396	0.032046877
50	0x3dbefa63	0.09325101
51	0xbde454b5	-0.11148969
52	0xbc5d51ae	-0.0135082435
53	0x3cd89b92	0.02644137
54	0x3e266e31	0.16252972
55	0x3e097e35	0.1342705
56	0x3e351272	0.17682818
57	0x3e58bf8d	0.21166821
58	0xbe22205b	-0.15832655
59	0x3cbe022c	0.023194395
60	0xbc9f1cec	-0.01942297
61	0x3d2a75ac	0.041616127
62	0xbd0b2847	-0.03397396
63	0xbe20810c	-0.15674227
64	0x3d9b09e7	0.07570248
65	0xbd9dfee0	-0.07714629
66	0x3e1460d4	0.14490062
67	0xbc0cf746	-0.008603876
68	0xbc70dee6	-0.014701581
69	0x3d753448	0.059864312
70	0xbdfd75aa	-0.12375958
71	0xbe3ad0c9	-0.18243708
72	0xbd7a0641	-0.06104112
73	0x3e32aba4	0.17448288
74	0xbba12ec1	-0.0049189036
75	0x3dc321dd	0.09527943
76	0x3dcbf186	0.09958176
77	0x3dacfb88	0.08446413
78	0xbdedea67	-0.11616974
79	0x3e0aff7e	0.13574025
80	0x3d5464b1	0.05185384
81	0x3bda7c8d	0.0066676796
82	0xbd6bac73	-0.057537507
83	0x391788a2	0.00014451382
84	0xbe5f127e	-0.21784398
85	0xbe607951	-0.21921279
86	0x3d7e84c7	0.062138345
87	0x3d2fa1e6	0.042879008
88	0xbca82ab2	-0.020528171
89	0x3d8e18da	0.06938334
90	0xbcec34aa	-0.028833706
91	0xbe356a79	-0.17716397
92	0x3e0a6019	0.13513221
93	0x3e0bfbfe	0.13670346
94	0xbc7e5d60	-0.015525192
95	0xb8b0d907	-8.4327585e-05
96	0x3e26ebd0	0.16300893
97	0xba2b1f8f	-0.0006527835
98	0x3d26b6ed	0.040701795
99	0x3e5be0ad	0.21472426
100	0xbdcb5859	-0.0992896
101	0x3d6ce61c	0.057836637
102	0xbd40aee0	-0.047041774
103	0xbd38aa95	-0.045084555
104	0x3dad842a	0.08472474
105	0x3c139096	0.00900664
106	0xbd82d704	-0.06388667
107	0xbdb81cca	-0.08989866
108	0x3d03bf0e	0.032164626
109	0x38ca534e	9.647627e-05
110	0xbc1906f8	-0.00934004
111	0xb916843b	-0.00014354374
112	0xbd90b022	-0.07064845
113	0x3dc101f1	0.094241984
114	0xbdca579d	-0.09879992
115	0xbcb746a3	-0.02237255
116	0xbc257316	-0.010098239
117	0x3d822679	0.06354994
118	0x3d3a3d73	0.04546876
119	0x3df900df	0.12158369
120	0xbc538384	-0.012909774
121	0x3e2709e7	0.16312371
122	0xbcd56ccf	-0.02605286
123	0x39a0506e	0.00030577503
124	0x3e55f5fc	0.20894617
125	0xbb52de51	-0.0032175968
126	0xbdd73e07	-0.10509878
127	0x3a88ddf8	0.0010442128
128	0xbdf3af15	-0.118986286
129	0x3e0c3160	0.1369071
130	0xbcbdcbdb	-0.023168495
131	0x3c995efd	0.018722052
132	0x38b05b91	8.4093896e-05
133	0xbe538a92	-0.20658329
134	0xbd2d4357	-0.04230055
135	0xbd8b36e2	-0.067975774
136	0x3dea9b15	0.11455361
137	0xba801133	-0.0009770751
138	0x3d177551	0.036977116
139	0x3c002c40	0.00782305
140	0xbe13c467	-0.1443039
141	0x3c842639	0.016131507
142	0x3e0ea1df	0.13928936
143	0x3c810e10	0.015753776
144	0xbc9896b7	-0.018626554
145	0xbd84ee37	-0.064907484
146	0xbcd7bb61	-0.026334466
147	0x3d308b38	0.04310152
148	0x3e447f0f	0.19189094
149	0xbdbae390	-0.09125435
150	0x3e02bb43	0.12766747
151	0xbc9b91c6	-0.018990409
152	0x3cf1343c	0.029443853
153	0x3d8a3470	0.06748283
154	0x3d83c1d6	0.06433456
155	0xbd6fb9de	-0.058526866
156	0x3db00d13	0.08596244
157	0xbcea30e5	-0.028587768
158	0xbc2bd041	-0.010486663
159	0x3e26f77c	0.16305345
160	0x3ca7f2b7	0.020501478
161	0x3cf2846a	0.029604156
162	0x3db8692b	0.09004434
163	0xbd38a906	-0.04508307
164	0xbc8d6b20	-0.017262995
165	0xba9aaa1b	-0.0011799963
166	0x3d07dde7	0.033170607
167	0x3b72ed52	0.0037067723
168	0x3de33124	0.11093357
169	0x3dbec9fb	0.093158685
170	0x3e13fd44	0.14452082
171	0xbd51a3b4	-0.05118151
172	0xbd1376d5	-0.036002
173	0x3e4cb67e	0.1999149
174	0xbc4e2675	-0.012582411
175	0x3d8cbcd1	0.06871951
176	0x3d9c73a5	0.07639245
177	0x3e140046	0.1445323
178	0x3d5da3d5	0.05411132
179	0x3b3b7cb4	0.0028608264
180	0x3db2acb9	0.087243505
181	0x3dd5c00a	0.10437019
182	0xbe25d591	-0.1619475
183	0xbd81fc1b	-0.063469134
184	0xbbc22a8b	-0.0059254817
185	0xbbf8690d	-0.0075808824
186	0x3b03632d	0.0020048127
187	0xbc1a6f02	-0.00942588
188	0x3d073ea7	0.033018734
189	0xbd9fec4d	-0.07808743
190	0x3e2f91ff	0.17145537
191	0xbe1dae58	-0.15398538
192	0x3c4d0142	0.012512507
193	0xbd112d06	-0.03544333
194	0x3d12422c	0.035707638
195	0xba439bc6	-0.0007461872
196	0x3e48e641	0.19619085
197	0xbe002056	-0.12512335
198	0xbc85580a	-0.016277332
199	0xbdd52fb6	-0.10409491
200	0xbcb386c0	-0.02191484
201	0x3dc3e495	0.09565083
202	0xbd46691d	-0.048440088
203	0x3df4ffa8	0.11962825
204	0x3dfe0f45	0.12405256
205	0x3ca6bb5d	0.020353014
206	0xbd34456f	-0.04401153
207	0xbbeaef1e	-0.0071696183
208	0xbdb81cc4	-0.089898616
209	0xbcc78e2a	-0.024359781
210	0xbcc335a7	-0.023829294
211	0x3dac049c	0.08399317
212	0x3df25a15	0.11833588
213	0x3dc24537	0.09485858
214	0x3d232c84	0.039837375
215	0x3da0802b	0.07836946
216	0xbc61d3d3	-0.013783413
217	0x3e5235cc	0.20528334
218	0x3de3632c	0.111029
219	0x3e14a791	0.14517047
220	0xbde0d682	-0.10978414
221	0xbd34181f	-0.043968316
222	0x3d6672bc	0.056261763
223	0x3ce27277	0.027642472
224	0xbe2fed3d	-0.17180343
225	0x3e4c9ce8	0.1998173
226	0x3d31bf39	0.043395255
227	0xbd63f482	-0.055653103
228	0xbc922a71	-0.017842503
229	0xbd854d6e	-0.06508909
230	0x3ad87760	0.0016515069
231	0xbd72f214	-0.059312895
232	0xbe914aaf	-0.28377292
233	0x3d92e5a3	0.07172706
234	0xbd837104	-0.064180404
235	0xbcfb30a0	-0.030662835
236	0x3d8e1998	0.06938475
237	0xbd22be7c	-0.03973244
238	0xbcffda82	-0.031232122
239	0xbdae27f8	-0.08503717
240	0xbe0ee808	-0.139557
241	0x3e25f599	0.1620697
242	0x3b85533d	0.0040687607
243	0xbc8b6f69	-0.017020898
244	0x3d550fe5	0.05201711
245	0x3e22097c	0.1582393
246	0xbe568a57	-0.2095121
247	0xbdc95269	-0.098301716
248	0xbd2a6207	-0.041597392
249	0x3c26a0bc	0.010170158
250	0xbe09979f	-0.13436745
251	0xbd265b92	-0.040614672
252	0xbe466dd2	-0.1937783
253	0xbe3dbe31	-0.18529584
254	0x3d1c1577	0.038106408
255	0x3e016e19	0.12639655

conv_layers.1.bias f4 [128]
0	0xbbb07030	-0.0053844675
1	0x3c18a610	0.009316936
2	0xbbbae81b	-0.0057039387
3	0x3b27b9f9	0.0025593026
4	0x3aa28efb	0.0012402231
5	0xbc390e11	-0.011294858
6	0x3c6f3a2c	0.014601272
7	0xbab920e2	-0.001412418
8	0xbb763a52	-0.0037571383
9	0x3ac9b0f6	0.0015387821
10	0xbc1348f2	-0.0089895595
11	0xbbec339e	-0.0072083017
12	0xbbaaa998	-0.0052082054
13	0x3bb0692e	0.005383632
14	0x3c0d3af0	0.008620009
15	0xbc498ab7	-0.012301139
16	0x3abc671c	0.0014373991
17	0xba7b3044	-0.0009582082
18	0x3bd49775	0.0064877816
19	0x3c11a7a4	0.008890066
20	0x3be667c5	0.0070314133
21	0x3b0062bd	0.0019590103
22	0x3c19ccbd	0.009387192
23	0xbc0428cf	-0.00806637
24	0xbb08e08b	-0.002088579
25	0xbc4597d0	-0.012060121
26	0x3c81fb79	0.015866982
27	0x3b179a54	0.0023132758
28	0x3a4149a7	0.0007373341
29	0xbae43def	-0.0017413477
30	0xba92f3ca	-0.0011211571
31	0xbb172d3a	-0.0023067729
32	0xbc65bbbd	-0.014021811
33	0xbc8c1be3	-0.017103141
34	0x38dd233c	0.00010544664
35	0x3c429831	0.011877106
36	0xbb64f9d2	-0.0034938944
37	0x3ac8783d	0.0015294623
38	0xbc96a80a	-0.018390674
39	0xbc9d019c	-0.019165806
40	0xbaf5bad4	-0.0018747696
41	0x3c211832	0.009832429
42	0x3b6c27fe	0.003603458
43	0xbc5b5270	-0.013386354
44	0xbc7f1930	-0.01556997
45	0x3bde8c18	0.006791603
46	0xbc0d1fe8	-0.008613564
47	0x3d0edc1f	0.034877893
48	0xb9171022	-0.00014406492
49	0x3b9baf00	0.0047510862
50	0xbbc311b9	-0.0059530404
51	0xbb272a8d	-0.002550754
52	0x3d05173c	0.03249286
53	0xbb0205e6	-0.0019839942
54	0xbba1f37c	-0.0049423557
55	0xbb047ae6	-0.0020214855
56	0xb992250e	-0.00027874898
57	0xbbb37e9b	-0.005477739
58	0x3b26e67e	0.0025466974
59	0xb9ca0182	-0.00038529566
60	0xbb8f1db8	-0.0043675564
61	0xbc2ad784	-0.0104273595
62	0xbcdb11a2	-0.026741806
63	0x3c0f0e5e	0.008731453
64	0x3cab88d7	0.020939274
65	0x3ab89c20	0.0014084615
66	0x3c311d7e	0.010810254
67	0xb9c19ab6	-0.00036927097
68	0x3c12a09a	0.008949423
69	0x39f66786	0.00046997907
70	0xb93cea3a	-0.00018016333
71	0xbba9144e	-0.005159891
72	0x3b38932c	0.0028163893
73	0xba129317	-0.0005591376
74	0x3c10594e	0.008810354
75	0xbb8475ad	-0.0040423484
76	0xbca62e5e	-0.020285781
77	0xbb2d8d6a	-0.0026481994
78	0xbb344537	-0.0027507076
79	0xb92a07ef	-0.00016215419
80	0xbb0c59b9	-0.0021415784
81	0xbc427ed7	-0.011871061
82	0x3c0e8fda	0.008701289
83	0x3b34e92a	0.0027604797
84	0xbb1c245b	-0.002382538
85	0xbc1efed9	-0.009704315
86	0x3b8c45a5	0.004280763
87	0xbc06e845	-0.008234088
88	0x3b52a37a	0.0032140897
89	0x3abf9f25	0.0014619572
90	0x3c180c7c	0.00928032
91	0x3b2bc492	0.0026209694
92	0xbbc9395f	-0.0061408724
93	0x3b535d31	0.0032251591
94	0xbbc0d1a2	-0.005884365
95	0xbb808fce	-0.003923393
96	0xbc3c9517	-0.011510155
97	0xbabf3d4e	-0.0014590414
98	0x3c1640e8	0.009170748
99	0x3b71a02e	0.0036869156
100	0x3b1c92fd	0.0023891323
101	0xbbe61fa3	-0.0070228144
102	0xbbce6837	-0.0062990445
103	0xbb162954	-0.0022912817
104	0x3c0bd43e	0.008534489
105	0x3c849d48	0.016188279
106	0xbbca324b	-0.006170546
107	0x3b8453d4	0.0040383134
108	0xbc685987	-0.014181501
109	0x3c4adea4	0.012382183
110	0xbc16d34a	-0.009205649
111	0x3c1c0f2f	0.009525104
112	0x3bad6407	0.005291465
113	0xbbb07027	-0.0053844634
114	0x3b423b35	0.002963734
115	0x3b8f9316	0.0043815477
116	0x3c60a5e1	0.013711424
117	0xbab95a9b	-0.0014141382
118	0xbbb9cdfe	-0.005670308
119	0x3bbbbce2	0.0057293037
120	0x3c8c1ee6	0.017104577
121	0x3b499555	0.0030759175
122	0xbb1f96e9	-0.0024351424
123	0x3b514fce	0.0031938436
124	0xbc14a2ad	-0.009071988
125	0xbce8ca52	-0.028416786
126	0xbc072989	-0.008249649
127	0xbc600832	-0.013673829

conv_layers.1.lin.weight f4 [128, 128]
0	0x3d79a505	0.06094839
1	0xbd0261cd	-0.03183155
2	0xbe10ac2b	-0.14128177
3	0xbcc0b54e	-0.023523953
4	0x3e0207e1	0.12698318
5	0x3d102764	0.035193816
6	0x3cb7a5c4	0.02241791
7	0xbcba2806	-0.022724163
8	0xbdc40793	-0.09571757
9	0x3d5eaaf6	0.05436226
10	0xbdc1133b	-0.09427496
11	0xbdfb789d	-0.122788645
12	0xbd81e34e	-0.06342183
13	0xbdbe23e7	-0.092841916
14	0x3d43520a	0.04768566
15	0x3dbc7eaf	0.092038505
16	0x3d9f7071	0.07785118
17	0xbdc27dbe	-0.0949664
18	0x3cb06824	0.021534033
19	0xbde18523	-0.11011722
20	0x3db7735a	0.089575484
21	0x3d544984	0.051827922
22	0x3d3a54ab	0.045490902
23	0xbd1349d0	-0.035959065
24	0xbde8049c	-0.11329004
25	0x3e191bf2	0.14952067
26	0xba1faeda	-0.00060914236
27	0xbd82365a	-0.06358023
28	0xbd7116b1	-0.05885953
29	0x3e0f598c	0.13999003
30	0x3d07d426	0.033161305
31	0x3e1b42ab	0.1516215
32	0x3e022e6d	0.12713023
33	0xbb736de5	-0.003714436
34	0xbd776dee	-0.06040757
35	0x3dc351dc	0.09537098
36	0x3de38da2	0.11110999
37	0xbe0abe60	-0.13549185
38	0xbd2de09d	-0.042450536
39	0xbd65a72a	-0.056067623
40	0xbd47e11b	-0.04879866
41	0xbcb68a61	-0.022282781
42	0x3c7d8f6f	0.015476092
43	0xbdfee90d	-0.12446795
44	0xbe02b519	-0.12764396
45	0xbd56dadd	-0.052454818
46	0x3c0a0a63	0.008425328
47	0xbd5a66f4	-0.05332084
48	0x3ddc9cc6	0.1077209
49	0xbd7761cd	-0.060396004
50	0xbd5d1266	-0.053972624
51	0x3cd52671	0.026019307
52	0xbd40125a	-0.0468925
53	0x3d9080bf	0.07055806
54	0x3e0a3202	0.13495639
55	0x3e05d6f7	0.13070284
56	0x3e13773d	0.14400955
57	0xbca3a4d0	-0.01997605
58	0x3bde050e	0.006775505
59	0x3d4133d5	0.04716857
60	0xbd62196d	-0.05520003
61	0x3cc27afd	0.023740286
62	0xbd82f6af	-0.063947074
63	0x3d96f83c	0.07371566
64	0x3dffcdec	0.12490448
65	0x3ded823c	0.11597106
66	0xbe1ae6ee	-0.15127155
67	0x3d9c7207	0.076389365
68	0xbdbac1f6	-0.09119026
69	0xbd016a5b	-0.03159557
70	0x3d88ec5b	0.06685706
71	0x3d568d87	0.052381065
72	0xbdabe086	-0.08392434
73	0xbe11ad40	-0.14226246
74	0x3de20ae4	0.110372335
75	0x3df289d9	0.118426986
76	0xbc5836bd	-0.013196644
77	0xbdf71a39	-0.120655484
78	0x3c5e2b1c	0.013560083
79	0x3dade36f	0.08490645
80	0xbca79210	-0.02045539
81	0x3d2ae774	0.041724637
82	0x3dcc54b3	0.099770926
83	0xbce5ad21	-0.028036656
84	0xbd070932	-0.032967754
85	0xbdaa559d	-0.08317111
86	0x3d3d712c	0.046250507
87	0x3c6b17e7	0.0143489605
88	0x3c2863b8	0.010277681
89	0xbcc05190	-0.023476392
90	0x3e08aed4	0.13347942
91	0xbdbf7ad7	-0.09349602
92	0xbe0ae189	-0.13562597
93	0xbd700bb4	-0.05860491
94	0x3dfc59aa	0.123217896
95	0xbbbc6d25	-0.0057503157
96	0xbdd881fd	-0.10571668
97	0xbc3120fb	-0.010811086
98	0x3c1c40a2	0.009536894
99	0x3c185a13	0.009298819
100	0xbc464446	-0.012101239
101	0xba94a008	-0.0011339197
102	0x3d7f948f	0.062397536
103	0xbd246d04	-0.040143028
104	0xbd7171ef	-0.058946546
105	0xbdc54303	-0.09631922
106	0xbc817c18	-0.015806243
107	0xbc5a7f19	-0.0133359665
108	0xbde05acd	-0.10954819
109	0x3de22f4f	0.1104418
110	0x3e1844da	0.14870015
111	0xbe0441a6	-0.12915668
112	0x3ced1a57	0.028943224
113	0x3b391961	0.0028243887
114	0x3db43462	0.08799054
115	0xbc88ac33	-0.016683673
116	0xbdcd4e71	-0.10024727
117	0xbdb160e3	-0.08661058
118	0x3d368600	0.044561386
119	0xbdca457e	-0.09876536
120	0xbdb225eb	-0.086986385
121	0x3e0cfd23	0.13768439
122	0x3e0cc4ed	0.13746996
123	0xbd982efc	-0.074308366
124	0x3d7e5d6a	0.062100805
125	0x3e17e7a8	0.14834464
126	0x3cd16c49	0.02556433
127	0x3da74626	0.08167677
128	0xbd837a4c	-0.06419811
129	0xbcf3058c	-0.02966573
130	0xbca3c243	-0.019990092
131	0x3d2b91e8	0.041887194
132	0x3e100727	0.14065228
133	0xbdbb8081	-0.091553695
134	0xbd9e15ce	-0.07719003
135	0xbdf5b940	-0.11998224
136	0x3c6750b0	0.0141183585
137	0xbd9caea5	-0.07650498
138	0xbd865e6a	-0.06560977
139	0xbd5bb402	-0.053638466
140	0x3d45b061	0.04826391
141	0x3d9ff57a	0.07810493
142	0x3dedfb5c	0.116202086
143	0xbdc70673	-0.09718027
144	0xbddfdcf5	-0.10930816
145	0x3c9791c2	0.01850212
146	0xbd4fd8f6	-0.05074402
147	0xbd16231c	-0.036654577
148	0x3d1a2459	0.03763232
149	0xbe0d821e	-0.13819167
150	0xbdc99bc8	-0.09844166
151	0x3d8b343b	0.067970715
152	0x3db9e16f	0.09076201
153	0xbdbe1f98	-0.0928337
154	0xbd2b83ac	-0.04187362
155	0xbdd34996	-0.1031677
156	0x3e164a78	0.14676845
157	0xbd95ca06	-0.073139235
158	0x3dda622d	0.10663257
159	0xbd952127	-0.07281714
160	0x3dac7e31	0.084225066
161	0xbd2ffc81	-0.042965416
162	0xbd8b86d9	-0.068128295
163	0x3e106209	0.14099897
164	0xbcc74b66	-0.024327945
165	0x3d57bab0	0.052668273
166	0x3cc1aded	0.023642505
167	0xbe1316f7	-0.14364229
168	0x3c8a539c	0.016885571
169	0xb9189eff	-0.0001455508
170	0xbd125b83	-0.035731804
171	0x3be831da	0.007086021
172	0xbe0e611c	-0.13904232
173	0xbbc556d7	-0.006022315
174	0x3db945e1	0.090465315
175	0xbe0924b5	-0.13392909
176	0x3d63710c	0.05552773
177	0xbd7d6ef5	-0.061873395
178	0xbce2c4e8	-0.027681783
179	0x3de1f1cc	0.11032447
180	0x3c9ffc30	0.019529432
181	0xbcf99900	-0.030468464
182	0xbce79e40	-0.028273702
183	0xbe0c2148	-0.13684571
184	0xbdcad949	-0.09904725
185	0x3dc619c9	0.09672887
186	0xbde7afb3	-0.11312809
187	0xbd47b0e3	-0.048752677
188	0xbc887b1a	-0.016660262
189	0xbdb1df15	-0.08685128
190	0x3c8baa57	0.017048998
191	0xbd6d07b9	-0.057868693
192	0x3da809e9	0.08205015
193	0x3d67dcf9	0.05660722
194	0xbd9e50cb	-0.07730254
195	0xbd838277	-0.064213686
196	0xbd180ea2	-0.03712333
197	0x3c560f94	0.013065238
198	0xbe165eaf	-0.14684556
199	0x3deaf8b9	0.11473221
200	0x3de134c5	0.10996393
201	0xbce386ad	-0.02777418
202	0xbda9b22e	-0.08285938
203	0x3d1e8d3b	0.038708907
204	0xbcd448fd	-0.02591371
205	0x3cb8aa76	0.02254222
206	0x3da0675d	0.07832215
207	0x3db8a1e1	0.09015251
208	0xbc39d7ab	-0.011342923
209	0x3dd7681f	0.105179064
210	0xbe0189e7	-0.12650262
211	0xbe03e0f4	-0.12878782
212	0xbdd8beac	-0.10583243
213	0xbd03cba4	-0.03217663
214	0xbd63cf45	-0.05561759
215	0x3c3ee6b3	0.011651683
216	0xbe0b7c2e	-0.1362159
217	0xbe15fff7	-0.14648424
218	0xbc7d71f2	-0.015469061
219	0xbdc1f669	-0.09470827
220	0xbdfdeb7e	-0.12398432
221	0x3dbe046b	0.092781864
222	0x3d1ea93b	0.03873561
223	0xbc105722	-0.008809837
224	0xbe0b9381	-0.13630487
225	0xbc6616c7	-0.0140435165
226	0xbd609a16	-0.054834448
227	0xbda8451f	-0.08216309
228	0xbca97a60	-0.020688236
229	0x3db5306d	0.08847127
230	0xbde7e686	-0.11323266
231	0x3dc04a38	0.09389156
232	0x3c985a7c	0.018597834
233	0x3db6e264	0.08929899
234	0x3d5e4a74	0.054270223
235	0x3e191e24	0.14952904
236	0x3cc40f68	0.023933128
237	0x3da4fdca	0.08056219
238	0xbd8dc388	-0.0692206
239	0xbdb11557	-0.086466484
240	0xbde18e2e	-0.11013447
241	0xbbc776b0	-0.0060871467
242	0xbdc151d3	-0.09439435
243	0x3bd8b2f5	0.00661313
244	0x3bb7cd50	0.005609192
245	0x3da49a27	0.08037215
246	0xbe29f705	-0.16598137
247	0xbc88d305	-0.016702184
248	0x3d9bd8ec	0.07609734
249	0xbdd6f450	-0.10495818
250	0xbe191965	-0.14951093
251	0xbd9d1824	-0.0767062
252	0xbde9bc8c	-0.114129156
253	0xbe1d580f	-0.15365623
254	0xbd1d4c3e	-0.03840279
255	0xbdeb6c27	-0.11495238
