mine/ProG-main/Experiment/pre_trained_model/BZR/GraphMAE.GCN.128hidden_dim.pth (torch, 96232 bytes, 4 tensors)

conv_layers.0.bias f4 [128]
00000000: 6520 4cbc 0930 c63b 4613 5fbb 83db 95bc
00000010: 108b 873b f884 f0bc 49e2 afba b3fe f5bc
00000020: 6ddd 97b9 79a6 253c 9a27 343c ff86 83bb
00000030: 9013 533b d2a1 b33d c389 6abc 424f 7bbc
00000040: c649 923c 0c83 debc 0c58 18bc 87c2 3139
00000050: bb05 f0bb 32d2 1ebd bf46 003d be20 b1bc
00000060: 9c5f c2bb 559c a0bb 55b8 85bc 9dfd 54bc
00000070: 4c4d 163c d3ac 12bd 7bd5 8abc 68ed 13bc
00000080: 038b f93c 0079 87b8 48d2 7abc 29d3 8b3c
00000090: ad4f a6bc cad0 82bc da7f e4bc 93e7 bdbb
000000a0: 89b3 f7bb d0c9 d5bb c82a 45bc a9a7 21bc
000000b0: 60bb 5a3c 5ae6 c7bc c858 03bd da11 5abc
000000c0: 17d8 ea3b 881b 0bbc a060 c4bb ca7c 4d3b
000000d0: 1680 7fbc 6cb6 a0bc e6dc 4bba 1137 913a
000000e0: ddb4 713c b9fa 3e3b fb33 f5bc 0f09 403d
000000f0: 1c04 9c3c be37 a33c 688e 3b3d 5e0d 1b3b
00000100: c165 e5bc 0696 a23c 6d68 8cbc bcab a3bc
00000110: 4072 bb3b 2f77 57bc e081 c9bb f5f4 e43c
00000120: c2de 793d 6966 15bd bd90 be3c 26a6 cc3c
00000130: 0515 28bd 2668 5dbc 0b7b 0f3d c2ff abbc
00000140: b951 01bc 404d 6abc d06b 29bc 192a 1dbd
00000150: 2f86 373b fc42 3abc 9dec b5bb 92ad debb
00000160: 0110 35bc 2d6b cbba b77e 96bc 541b 653b
00000170: 40bc b9bb 8087 143b 8399 a1bb 7976 a23c
00000180: 33e8 22bc 1a9f 723d 92f0 e9bb a0b6 333b
00000190: 9f52 a6bb 9b02 01bc 812d a2bc b3af f7bb
000001a0: 22d1 df3b cd06 833c 88aa f03a 8444 20bc
000001b0: b38a 833c ffa6 053d 520f a03b baf4 cabc
000001c0: 2d9a 84bb 8f8e 0e3c c988 9cbb 43f5 a93c
000001d0: 8c9e babb bd97 ccbb 3063 9dbc ed45 83bc
000001e0: e0f4 1c3d 7f6b 7c3c 228d 7e3c 17ec d63b
000001f0: 7166 09bc 120a b63b bb03 9b3a 08fb 53bc
-0.012458895 0.0060482067 -0.0034038587 -0.018293148 0.0041364506 -0.02936028 -0.0013418879 -0.030028677
-0.0002896594 0.010110491 0.01099577 -0.0040138955 0.0032207705 0.08771099 -0.0143150715 -0.015338721
0.017857444 -0.027162097 -0.009298336 0.00016952502 -0.007324902 -0.038774677 0.03131747 -0.021622058
-0.0059318077 -0.0049014487 -0.016323248 -0.012999919 0.009173702 -0.03580935 -0.016947499 -0.00902877
0.030461794 -6.45984e-05 -0.015308924 0.017068462 -0.020301664 -0.015968699 -0.027892996 -0.005795428
-0.007559244 -0.006524302 -0.012034126 -0.009866633 0.013350338 -0.024401832 -0.03206709 -0.01330992
0.007166873 -0.008490451 -0.005992964 0.0031354898 -0.015594503 -0.019618236 -0.0007776752 0.0011079033
0.014752594 0.0029141142 -0.029932013 0.04688364 0.019044928 0.01992404 0.045790106 0.002365909
-0.028002622 0.019846927 -0.017139638 -0.01997935 0.005720407 -0.013150974 -0.0061495155 0.027948836
0.061003454 -0.03647462 0.023262376 0.02498157 -0.04103567 -0.0135136 0.035029452 -0.020995978
-0.007893019 -0.014300644 -0.010340646 -0.038370226 0.0028003564 -0.011368509 -0.005551888 -0.0067955935
-0.011051179 -0.0015519612 -0.01837097 0.0034958916 -0.005668193 0.0022663772 -0.00493163 0.019831883
-0.009943056 0.059233762 -0.007139274 0.0027422085 -0.005075767 -0.007874156 -0.019797089 -0.007558787
0.0068303505 0.015994454 0.0018361369 -0.00978196 0.016057348 0.032629963 0.004884639 -0.024774898
-0.0040466995 0.008700981 -0.0047770482 0.020746833 -0.00569517 -0.0062436746 -0.019212335 -0.016024554
0.03831947 0.015406488 0.015536578 0.006558906 -0.00838624 0.0055553997 0.0011826673 -0.0129382685

conv_layers.0.lin.weight f4 [128, 53]
00000000: a721 04be 8c9b 9139 7007 fba5 9ea5 4436
00000010: d520 acb5 5789 e73d b28a 0e3e 0252 c53d
00000020: 87d9 eb3d 9a73 872a 130c e4a8 54ba 1b29
00000030: 5167 bdb6 a52b 1a2c 8b2d 193c af47 0bbd
00000040: 0649 b9bd 860d 3b29 7f34 d0ac 72b7 94ab
00000050: 8303 172a f262 302c 89c3 1fac 41fd 9db1
00000060: 758b a6b4 239b 80a8 a742 3139 1ecf 5c27
00000070: a81f aba9 9878 fb29 986b 4729 9161 c0a8
00000080: c89b a4b1 ca5d e1b5 9164 0cbd 0d66 4327
00000090: 27a8 d02a ea21 b336 5949 8baf 43f8 8a29
000000a0: a037 0539 61f6 7c38 78dc d4af fbf1 dd2f
000000b0: 5e45 37b8 b295 b3b1 04ed 8faa 03c6 bbb6
000000c0: d006 deb1 ddee 83af dd49 3bb6 d13e 99b9
000000d0: 751c 73bb 404d 173b c181 56a8 a0da 1829
000000e0: ad30 d12c 810a 1726 d9df 1bbd 7c77 083e
000000f0: 001e 303e 6431 803c 3def 08a8 6a3b 85b7
00000100: 214a e0b3 b68e 2636 7f33 17ab bc56 95bb
00000110: 4026 debc c3b6 a33d 08a6 a9a8 25ec 27b4
00000120: 515c 9837 179f 1e34 d394 7e39 0474 4e36
00000130: 3091 e72f f390 4734 0368 9c39 3f7a daa9
00000140: b0fe e328 578d ddb1 ad13 de28 7c41 9eaa
00000150: cd7c 0b2a 6610 222d 6f0e 8834 113b 9ebc
00000160: 34be 82a9 0e12 5ab9 f1b1 8331 51ea 8829
00000170: e962 5da9 9599 1c38 fc8f 4d2d 0102 aab8
00000180: 6f43 9aaf 74e0 2bb9 7f1f b42b da89 95aa
00000190: 2a49 e3ac e80a feb2 fc5c ca29 e2c2 89a8
000001a0: 49d6 6a36 8c72 763b 800a 05be 5fbe d831
000001b0: 9376 3126 6dbc 09a8 feea 8d2f 9183 cabc
000001c0: 612e e83d bed5 323e cab7 513d ba3d cf33
000001d0: b080 1fb5 e0b8 7d2d 7f8a 9a2a 6128 f433
000001e0: f87b 8d3d 20a5 743d c7eb a4bc 386f 3829
000001f0: ac97 87ad 1c14 c6a9 3aa6 3136 c502 872a
00000200: 9d31 57ab a73c a4a6 b3a9 d9b3 b4e3 e636
00000210: 17a5 d4b6 ce53 bbab c4db 2a26 db05 a9b3
00000220: 8dad 9a29 8139 e9b8 fe0d 8ca9 a9c9 0eab
00000230: 0938 d1bb a856 9bad abe9 7338 d30b e5af
00000240: c98a 75aa d939 c029 b738 fbaa 8c7d 8c38
00000250: dc23 832a cf2f 0db9 d7dd 9eb9 9585 0ab4
00000260: 6991 87ac f175 1b2a 35e2 b72c 519c 9c2e
00000270: fd8a 50a6 a486 adb9 09dc 423d 06c8 003d
00000280: 3a3c 09b3 45ad b226 6578 b52c 4dbd ac2f
00000290: c47a 4cbe 09c8 173e f492 073e ca9d 42bd
000002a0: 2f14 632d 389f 582d fe1a 922a 1559 81a8
000002b0: bf22 722e 1a5f 6bbc 2e90 3a3b e7e1 e43d
000002c0: 4e6f 9b39 4e53 8134 5bb9 33ac faba 97b1
000002d0: adc8 71a9 b645 bf38 5fa4 e1b6 bef6 b2b7
000002e0: ecbd 04b3 d515 81ae 8d0a 09a8 fe6b 9a27
000002f0: 0334 df36 ebe1 53ab 461f f1b4 f37a 082c
00000300: 6dac 3e28 d43f 543d 722c f028 4dd4 5c2a
00000310: 6a55 3f39 97a4 c428 0703 03ab d754 0f35
00000320: 6fe6 e9a9 9931 e738 4e88 c637 d510 2d39
00000330: 9e87 78a9 11db 8ead 11eb 0bb1 556e 7238
00000340: 9f0f d12f 642d 1d2b e6fe 27ad 804f c33b
00000350: 7a5b a83d 999d b72d e17c fe28 d235 7829
00000360: 24a7 c9a7 cbe4 ee3d 1744 623d fc4e 53bd
00000370: df02 e33c 2014 c1b1 6541 9eae b419 6929
00000380: 98b6 a9b1 7864 ba34 e62e 183c bc05 223d
00000390: 6127 803d 02e9 102b 0725 1329 d2c0 8d31
000003a0: 7cee 3b29 226e 6e29 5050 94ae d92c be31
000003b0: c8a5 f327 6d51 34ac be64 d0aa acb8 5eb8
000003c0: bf37 c52a 99b1 4827 1091 8339 437c 6d2d
000003d0: a03e 442e 16d9 1a29 d8af 6c3d c453 5db9
000003e0: 30f5 a6a9 5f73 e1b6 9e06 2cad c259 872e
000003f0: cd86 25b1 0598 0fb7 e0aa b2a6 f4af 94b8
-0.12903462 0.00027772447 -4.35466e-16 2.9302678e-06 -1.2824554e-06 0.11305492 0.13920096 0.096347824
0.115160994 2.4061032e-13 -2.5318321e-14 3.4578528e-14 -5.6446665e-06 2.1908944e-12 0.009349237 -0.03400391
-0.09047131 4.153407e-14 -5.917544e-12 -1.0566949e-12 1.3412713e-13 2.506603e-12 -2.2703803e-12 -4.598093e-09
-3.1021378e-07 -1.4278135e-14 0.00016904865 3.0643412e-15 -7.599417e-14 1.1167559e-13 4.42802e-14 -2.1358595e-14
-4.7907385e-09 -1.6791103e-06 -0.034275595 2.7117008e-15 3.7064901e-13 5.338564e-06 -2.533607e-10 6.1714976e-14
0.0001270459 6.031094e-05 -3.8719228e-10 4.0371603e-10 -4.3695203e-05 -5.226604e-09 -2.5566365e-13 -5.596086e-06
-6.461825e-09 -2.3998484e-10 -2.7908166e-06 -0.00029229236 -0.003709582 0.0023086816 -1.1907522e-14 3.3940407e-14
5.9455414e-12 5.2402884e-16 -0.038055275 0.1332683 0.17198944 0.015648551 -7.601393e-15 -1.5882502e-05
-1.0444297e-07 2.4818996e-06 -5.371744e-13 -0.0045574587 -0.027117848 0.079938434 -1.8834774e-14 -1.5638996e-07
1.81628e-05 1.4772773e-07 0.00024278769 3.0763922e-06 4.2121817e-10 1.8586051e-07 0.00029832133 -9.702351e-14
2.5312516e-14 -6.448015e-09 2.4655484e-14 -2.8111877e-13 1.2388979e-13 9.212275e-12 2.5342476e-07 -0.019315274
-5.806155e-14 -0.00020796826 3.8328314e-09 6.080261e-14 -4.915765e-14 3.7336333e-05 1.1684872e-11 -8.106605e-05
-2.806035e-10 -0.00016391446 1.2798511e-12 -2.656337e-13 -6.459851e-12 -2.9574451e-08 8.986732e-14 -1.5294572e-14
3.4993448e-06 0.0037604896 -0.12992287 6.30807e-09 6.156991e-16 -7.645886e-15 2.5814723e-10 -0.024720939
0.11336971 0.17464349 0.051200666 9.6504166e-08 -5.941938e-07 1.44224355e-11 2.7451996e-13 1.136948e-07
0.06908411 0.059727788 -0.020131959 4.0952674e-14 -1.5415079e-11 -8.796455e-14 2.6471812e-06 2.398274e-13
-7.6452196e-13 -1.1396226e-15 -1.0135718e-07 6.8810423e-06 -6.3373113e-06 -1.331041e-12 5.9278436e-16 -7.870741e-08
6.86908e-14 -0.00011121017 -6.219676e-14 -5.0728394e-13 -0.0063848537 -1.7659943e-11 5.8153335e-05 -4.166326e-10
-2.1808522e-13 8.536548e-14 -4.462591e-13 6.699105e-05 2.3295157e-13 -0.00013464618 -0.00030301392 -1.2900848e-07
-3.8530745e-12 1.3807685e-13 5.226287e-12 7.121826e-11 -7.235286e-16 -0.00033097446 0.047573123 0.031440757
-3.1952574e-08 1.2398196e-15 5.157696e-12 3.1421124e-10 -0.19968706 0.14822401 0.13239652 -0.04751376
1.2907938e-11 1.2313532e-11 2.595354e-13 -1.436051e-14 5.505529e-11 -0.014365936 0.0028467285 0.111759
0.00029646832 2.4088735e-07 -2.5540323e-12 -4.415935e-09 -5.3686808e-14 9.1205744e-05 -6.724658e-06 -2.1334152e-05
-3.0906378e-08 -5.870119e-11 -7.6073156e-15 4.286067e-15 6.651973e-06 -7.5275783e-13 -4.4912503e-07 1.9395013e-12
1.0584508e-14 0.051818684 2.6664628e-14 1.9613582e-13 0.00018246999 2.183175e-14 -4.654475e-13 5.339511e-07
-1.03872524e-13 0.00011024177 2.3666911e-05 0.00016504836 -5.518469e-14 -1.6240816e-11 -2.0360782e-09 5.780005e-05
3.8027978e-10 5.5840597e-13 -9.54945e-12 0.005960405 0.08220573 2.0874679e-11 2.8253822e-14 5.5113744e-14
-5.596992e-15 0.116647325 0.055240717 -0.051588997 0.02771133 -5.6193272e-09 -7.1966245e-11 5.1758687e-14
-4.939306e-09 3.47183e-07 0.009288525 0.03955625 0.06257511 5.148244e-13 3.2672673e-14 4.1255612e-09
4.1729193e-14 5.294214e-14 -6.744527e-11 5.5348264e-09 6.762579e-15 -2.5624739e-12 -3.7018126e-13 -5.3100914e-05
3.5032911e-13 2.7851851e-15 0.00025094347 1.3499482e-11 4.4620863e-11 3.438316e-14 0.057784885 -0.00021107408
-7.414414e-14 -6.7189535e-06 -9.778537e-12 6.1550334e-11 -2.4087285e-09 -8.558859e-06 -1.2397547e-15 -7.089964e-05

conv_layers.1.bias f4 [128]
00000000: 68a9 87bc 5638 993c 3fde 96bc 4035 583c
00000010: 8fba 0b3d 2ba5 7d3c 94be af3c 2e33 0e3c
00000020: 4449 963c 5c40 9ebc f1a2 123c 8f03 603c
00000030: ca7c ec3c 00f5 1b3d fb56 91bb 68a3 5a3b
00000040: bf6b 9dbc c4dc 21bd ea35 c6bc c646 bc3c
00000050: dd36 01bd 7ec4 b83c 5d64 dcbb e8ee 16bc
00000060: 0404 e73c 3eb4 6d3c 663a 963c c20e 5fbc
00000070: 4582 173a 52a7 52bc 7448 803c 15ff a3bc
00000080: d4cc e03b c9a8 313b e6e1 9b3b ffea b8bb
00000090: d9b7 feb8 1dbb 383c e016 f73b a355 13bc
000000a0: f58d 453c 7cab 503c 39b2 0fbd bca7 9d3c
000000b0: bfd1 79bc 07f2 eb3c 22ce 0d3d 5f98 74bc
000000c0: 0a42 46bc b148 083c 3301 6ebc 63c4 b7bc
000000d0: a5cd adbc 8880 f0bb 0043 b13a 8907 b73c
000000e0: 4a66 e73c 94b3 23bd 7af5 fb38 edca 94bb
000000f0: d0cc 37bd 6f83 60bc 6968 6e3c be9a f0bc
00000100: 6380 2fbc 11e8 92bc 7cdb 3d3c c6be 22bc
00000110: a7d3 ce3b 2d04 1b3c f7bf 01bc 461d b2bc
00000120: 3184 3bba a4f6 45bc 8b8a 873c 4159 873b
00000130: 6a41 a53c da44 9cbb 524c d4bb cfdc 7abc
00000140: e758 62bb 642d 303c ad57 31bc 76ac 4a3b
00000150: 796d abba 9f67 e53c acc1 10bb 6e4b 9b3c
00000160: 8997 5dbb 84dd 94bc 87d9 943a f3aa 55bb
00000170: 8453 223b 8150 333c bf48 2a3c 34f1 4dbc
00000180: acd5 c93c 9490 48bb 64e4 01bc 7c2d 803b
00000190: d548 73bd 4486 c3bc 4b2c 673a a3c1 7dbc
000001a0: e19a a3bc 0f83 61bd 8f4a 733c 2d70 ffbc
000001b0: 56b7 9fbb 3535 72bc f652 b4bb a5bf 833b
000001c0: 1ce6 b4bb 886a 1ebc e7a8 b23c 5f92 f9bc
000001d0: 9426 a9bb 9b3a d8ba 5556 263c bab2 bbbb
000001e0: fb7e f8bb 52f2 c9bc 2fc8 2e3c 2939 2e3d
000001f0: ceda 6ebc df94 85bc 6528 853c a86d eb3a
-0.016560271 0.01870362 -0.018416522 0.01319629 0.034113463 0.015481274 0.02145318 0.008679194
0.018345483 -0.019317798 0.008949981 0.013672723 0.028868098 0.038075447 -0.0044354177 0.0033361558
-0.019216416 -0.03951718 -0.02419563 0.022982966 -0.031546462 0.022554632 -0.0067258314 -0.009212233
0.028200157 0.014508305 0.018338393 -0.013614358 0.00057796045 -0.012857275 0.015659548 -0.020019094
0.006860355 0.002710866 0.004757154 -0.005643248 -0.00012145908 0.01127508 0.0075405687 -0.008992585
0.012057771 0.012736198 -0.035082076 0.019245021 -0.015247761 0.028801931 0.03462041 -0.014928906
-0.012100706 0.008318112 -0.014526653 -0.022432512 -0.021216223 -0.007339541 0.0013523996 0.02234246
0.028247017 -0.03996618 0.00012014336 -0.004540792 -0.04487306 -0.013703211 0.0145512605 -0.029370662
-0.010711762 -0.017932924 0.011587974 -0.009933179 0.006311852 0.009461445 -0.007919303 -0.021742474
-0.0007153182 -0.0120827295 0.016545555 0.004130513 0.020172793 -0.00476895 -0.0064788247 -0.015311434
-0.0034537853 0.0107530095 -0.010824126 0.0030925549 -0.001307889 0.028003512 -0.0022088094 0.018956866
-0.0033812246 -0.018172033 0.0011356332 -0.0032603114 0.0024769017 0.010944487 0.010393321 -0.012569714
0.02463802 -0.0030603753 -0.007927988 0.003911672 -0.05939563 -0.023867734 0.0008818551 -0.015488061
-0.019971313 -0.055056628 0.014849319 -0.03118142 -0.0048741503 -0.014783193 -0.005503054 0.0040206485
-0.0055205952 -0.009668954 0.021809055 -0.030465303 -0.0051620696 -0.0016496958 0.010152419 -0.005728093
-0.0075834966 -0.02465168 0.010667845 0.04253498 -0.014578534 -0.016306339 0.016254613 0.0017961757

conv_layers.1.lin.weight f4 [128, 128]
00000000: d73a f2bc 4c24 f8bd 30b8 813d 0a86 e03c
00000010: 64c7 833d d436 dabc 1c90 cf3d f960 a9bd
00000020: ab15 0dbc e0a7 5dbc a29d 423d edd5 4a3c
00000030: 7502 aa3d 9f3d 04bc b32d 23bc caf1 e7bd
00000040: 4a7c a9bd 3fb4 ae3d 09e0 b33d cf35 a2bd
00000050: 9eb4 a6bc 59d2 1cbd d6d8 2fbd 107c febb
00000060: c5c5 043e 1082 9dbd 65a2 7ebd 72e8 cf3d
00000070: 0c6e 02bd 88be 913c 7c7c ecbd e263 de3c
00000080: 9755 a0ba 26e8 613d 4478 013e 4411 88bd
00000090: 60f8 993d 9a78 263d 1a6f 55bb d7c7 793d
000000a0: 748e e4bd 458d 6cbc 9834 173c 9c84 c3bc
000000b0: 0378 00be de06 bc3c 3c94 4dbd cd2c 62bd
000000c0: 21d9 463d 9ad3 50bc 4033 083e 851a eabc
000000d0: 6bae e2bd 1228 fa3d 1a20 0d3d e4e1 ecbc
000000e0: 8f03 0b3d 406c 1b3c 2c61 0bbe 4725 da3d
000000f0: f4ca 0d3e d899 5fbc e500 d13d 66e7 11be
00000100: 285f 4e3d 5d2f e73d cd44 903c 02e3 72bd
00000110: a81c 74bd 98fc 303d 345d ab3d faa4 91bd
00000120: 5425 e73d 8d90 91bc e3b4 c4bd f4fb 2b3d
00000130: 9ef1 5c3d 124d a33d ef15 4f3d c242 1abe
00000140: c72f fd3d b19d 5e3d 7f3c db3d 1d83 b2bd
00000150: 8e5f 9eba 7927 7d3c a3fb 74bb d70d 043e
00000160: 5312 273d 1f91 6abc cb0b 7abc 0bc3 fabb
00000170: 5eb4 e8bd 0530 1bbe c63f 113e 3d9f bbbd
00000180: 20d9 683c 685e cebd 774f c23d 164a d73d
00000190: 89ae 533d 4f91 27bd 400f 88bd 5b2b b2bd
000001a0: 0c63 3e3d 8224 6abc 42e5 a33c 5dc9 97bc
000001b0: a817 05be 074c ebbd abd4 233d d3b0 b7bc
000001c0: 0050 41bb 66dc a8bc 70fd ca3d 3ca6 f2bd
000001d0: 1f01 77bd 172f f73c cde5 bfbc ccd9 563d
000001e0: 9bc9 06bd e81e 0c3e 4a47 fb3d 2196 3f3d
000001f0: 6431 00bd b7a8 1fbd bd49 0b3e 4a05 5e3c
00000200: 8d24 4fbb 7cc9 f3bb afdc c73d 1617 1c3c
00000210: 344a 903d 9e7a 623d 43b6 f83d b9d9 c93d
00000220: 5acc 5d3d d9bb d9bc ecac 16be 6d76 11bd
00000230: 6936 92bc f988 86bc f639 2dbc afe1 4fbb
00000240: 63c2 87bb 7351 723d da73 6ebb 50a4 003d
00000250: b9f0 89bc 9c58 b0bc c299 8b3d 46cf a83d
00000260: adb7 02be b8db 573d f3fa ce3d d987 b5bd
00000270: 106b 25bd 5441 1e3e efbd cf3c 8cbf 3dbd
00000280: 8c44 a83c 6209 103e f898 0e3e 05c2 973d
00000290: f373 a23d 5285 ae3b 269b adbd 299e 00bd
000002a0: 17f1 543d d6a2 cfbc 8478 ef3d 15ee 72bd
000002b0: 0689 debd 37e0 003c 50ee 2c3c f5d9 563d
000002c0: 1652 d7bc d964 fe3d f76e dbbc 6cfc 95bd
000002d0: b02f a63d 53e3 aa3d f5fc 36bd 8f42 b53d
000002e0: ad55 a73d 6cff f23c 1d96 1f3e f69e a1bd
000002f0: 345e f8bd 7bf8 833c 970f 193d d8da bbbd
00000300: 077f 1fbd 27ba 623d 79ee 043d 6c24 7ebd
00000310: 51b7 063e 725a 803d 8cc1 be3d 7fbd 323c
00000320: edb3 2a3d c88e be3d 9b73 41bd 9ba3 e9bd
00000330: f425 b1bd 55f6 463c 449b de3d 815c 58bd
00000340: 05ad aabc fd9e b8bd 1213 03be d592 a13d
00000350: c62b 02bd 8bdf 2dbc a4f7 3fbd e140 d0bd
00000360: b637 d63c 7800 9f3d 2c38 03be c14b 59bc
00000370: 3456 b2bc 6bbb b83d 0145 013e b59c 88bc
00000380: 0af5 85bd 360c b0bd ca8b 99bd ed7e 743d
00000390: 3274 16be c38d c23d 6a87 743d 5739 b03d
000003a0: 1e22 163e defc a7bd d453 1dbe 0afa 8bbc
000003b0: dc54 95bc 0fc8 88bc a14d 7fbd 0893 603d
000003c0: 381c acbd 022e e2bc 7a18 0abe 9710 cbbd
000003d0: 4ee0 a43c 2c33 c0bb 6802 f0bc 1006 04be
000003e0: e986 7bbd 75c7 d13d f4aa 81bd 4a30 d53d
000003f0: 787c 07be 6c22 d9bd 7465 073e 8a09 f93d
-0.029569073 -0.12116298 0.06333959 0.027407665 0.06434515 -0.026637472 0.101349086 -0.08270449
-0.008611123 -0.013528794 0.04751361 0.012380105 0.0830125 -0.008071332 -0.009959626 -0.113254145
-0.082756594 0.08530473 0.08782966 -0.079204194 -0.020349797 -0.03828654 -0.0429314 -0.0077662542
0.12966068 -0.07690823 -0.06216659 0.10151757 -0.03184323 0.017791048 -0.11547181 0.027147237
-0.0012232539 0.055153035 0.12643534 -0.06643918 0.07518077 0.04064236 -0.0032567442 0.060981598
-0.11159983 -0.014437978 0.009228848 -0.023866944 -0.12545781 0.022952493 -0.050190195 -0.055218507
0.048546914 -0.012745762 0.133008 -0.028577099 -0.11068424 0.12214674 0.034454443 -0.028916307
0.03393894 0.009486258 -0.13611287 0.10651641 0.13846952 -0.013647519 0.10205249 -0.14248428
0.050383717 0.11288331 0.017610932 -0.059298523 -0.05959764 0.043209642 0.083673865 -0.07111545
0.11286417 -0.017769122 -0.09604814 0.041988328 0.05394136 0.07973684 0.050558027 -0.15064529
0.123626284 0.054349605 0.10704898 -0.08716414 -0.0012082921 0.015451306 -0.0037381432 0.12895904
0.04078896 -0.014316826 -0.015261601 -0.0076526455 -0.11362527 -0.15155037 0.14184484 -0.09161232
0.014211923 -0.100766 0.09487813 0.10512178 0.05168012 -0.04091006 -0.06643534 -0.08699676
0.046481177 -0.014290931 0.02000678 -0.018528635 -0.12997305 -0.114891104 0.039997738 -0.022423184
-0.0029497147 -0.020612907 0.099116206 -0.11848113 -0.060303804 0.030173821 -0.023425007 0.0524538
-0.03290711 0.13683665 0.12269457 0.046774033 -0.031297103 -0.03897926 0.13602348 0.013551066
-0.003160748 -0.0074397903 0.09758889 0.0095269885 0.07045403 0.055292718 0.12144139 0.098559804
0.054149963 -0.02657883 -0.14714402 -0.03551333 -0.01784821 -0.016422736 -0.010572901 -0.0031720211
-0.0041430457 0.059159707 -0.003638497 0.0314067 -0.016838418 -0.021526627 0.06816436 0.08242659
-0.12765379 0.052699775 0.101064585 -0.088638015 -0.040385306 0.15454608 0.025359122 -0.04632525
0.020540498 0.1406608 0.1392554 0.07410053 0.07932272 0.0053259516 -0.08476858 -0.031400833
0.051987734 -0.0253462 0.116929084 -0.059309084 -0.10865979 0.007865957 0.010554865 0.052453954
-0.026284259 0.12421579 -0.02678631 -0.07323536 0.081145644 0.0834414 -0.044674832 0.08850586
0.08170638 0.02966281 0.15584607 -0.078916475 -0.12127343 0.016109696 0.037368383 -0.091726005
-0.038939502 0.05535331 0.032453988 -0.062046453 0.13155867 0.06267251 0.0931426 0.010909437
0.041675497 0.09304577 -0.04722939 -0.114081584 -0.08649817 0.012143691 0.10869458 -0.052822594
-0.020834455 -0.090146996 -0.12800243 0.07889334 -0.031780027 -0.010612379 -0.046867028 -0.10168625
0.026149612 0.07763761 -0.12814397 -0.01326269 -0.02176962 0.09020122 0.12623979 -0.016676286
-0.06540878 -0.08596079 -0.07497366 0.05969136 -0.14692762 0.09499695 0.059699453 0.08604687
0.14661452 -0.082025275 -0.15364009 -0.017087001 -0.01822894 -0.016696958 -0.062329892 0.05482772
-0.0840382 -0.027609829 -0.134859 -0.09915274 0.020126488 -0.005865475 -0.029298022 -0.12892938
-0.061407957 0.102431215 -0.06331435 0.10409601 -0.13231075 -0.106022686 0.13222295 0.121600226
