Experiment/pre_trained_model/Cora/Edgepred_GPPT.GCN.128hidden_dim.pth (torch, 802896 bytes, 4 tensors)

conv_layers.0.bias f4 [128]
0	0x3c4a830c	0.012360346
1	0xb95da8c3	-0.00021139071
2	0x3d18a8a7	0.037270214
3	0x3d6f3dca	0.058408536
4	0xbd39f96f	-0.045403894
5	0xbc64d40f	-0.013966574
6	0x3b9c2290	0.0047648624
7	0xb956e544	-0.00020494038
8	0x3cf90d13	0.030401742
9	0x3d4044cf	0.04694062
10	0xbcb2a123	-0.021805352
11	0xb9a4057c	-0.00031284604
12	0x3d7cb882	0.061699398
13	0xb83c29db	-4.4861674e-05
14	0x3d1c2536	0.038121425
15	0x3d5ac935	0.053414542
16	0xb2138bf0	-8.588344e-09
17	0xbb3d4f9d	-0.0028886565
18	0xbc818007	-0.015808119
19	0xa9c6ce8b	-8.828796e-14
20	0xbc8f7d8b	-0.017515918
21	0x3d268c74	0.04066129
22	0xaf548b59	-1.9330794e-10
23	0xbcf49750	-0.029857308
24	0xbc53c0e4	-0.012924407
25	0xbbf91ccf	-0.007602311
26	0xbc7779ff	-0.01510477
27	0xbb991df9	-0.0046727625
28	0xb42bccf1	-1.6000173e-07
29	0x3d0da917	0.034585085
30	0x3c70b69e	0.014691977
31	0xbc2903a6	-0.010315811
32	0x3ce509d7	0.027958794
33	0x3c6887c2	0.014192523
34	0xbc87c51d	-0.016573483
35	0x3c549c93	0.012976783
36	0xbc0422b7	-0.008064917
37	0xb9ea3583	-0.00044671827
38	0xb289e1d5	-1.6051596e-08
39	0xac31601d	-2.5206566e-12
40	0x3c399c56	0.011328777
41	0xb9e5be72	-0.00043820177
42	0xbd2f4095	-0.0427862
43	0x3cfc6ace	0.030812647
44	0xb20d2a3d	-8.216884e-09
45	0xb4aa91f2	-3.1771157e-07
46	0xbcd09647	-0.025462283
47	0xbccada25	-0.024762223
48	0x3d4979e4	0.04918851
49	0xbbb4096a	-0.0054942863
50	0xbd2e57dc	-0.042564258
51	0x3cfddd47	0.030989302
52	0xb9ba195e	-0.00035495585
53	0x3d22e419	0.039768312
54	0xbc84a0b6	-0.016189914
55	0x3b83b5be	0.004019468
56	0xad571485	-1.2225891e-11
57	0x3cfe09b6	0.03101049
58	0xbc002ffc	-0.00782394
59	0x3baf75ce	0.0053546196
60	0x3cafabc2	0.021444205
61	0x3d41651f	0.047215577
62	0x3d30205f	0.04299962
63	0x3c0aecff	0.008479356
64	0xbc4e4a42	-0.012590947
65	0x3d4b06c3	0.049566995
66	0xbcc25957	-0.023724241
67	0xb0d09b59	-1.5178144e-09
68	0xbcd7d891	-0.026348384
69	0xbbac09e4	-0.0052502025
70	0xbcee13c0	-0.029062152
71	0xb955eb55	-0.00020400931
72	0xbc61a340	-0.013771832
73	0xbd06ce0b	-0.03291134
74	0xbcc94083	-0.024566894
75	0xbb999f29	-0.004688163
76	0x3d4e13f4	0.050311998
77	0xbc70b8ad	-0.014692468
78	0xbc982781	-0.018573524
79	0xbd3c46e0	-0.04596603
80	0xbbacd23f	-0.0052740867
81	0x3d4736ab	0.04863612
82	0x3d4aede6	0.049543284
83	0xbc15ecdf	-0.009150713
84	0xbcf7369e	-0.03017741
85	0x3caf5746	0.02140392
86	0xbc125b42	-0.00893289
87	0xb1da3c11	-6.351464e-09
88	0xbcb1e822	-0.021717135
89	0x3cf04b46	0.029332768
90	0x3c066ee5	0.00820515
91	0xb56bd745	-8.785758e-07
92	0xbc3fb62d	-0.011701149
93	0xb6c3461b	-5.819614e-06
94	0xbca553b1	-0.020181509
95	0xbc4840ae	-0.012222452
96	0xb78e6246	-1.6973481e-05
97	0xbcab58b0	-0.020916313
98	0xb35c5de0	-5.130812e-08
99	0xb0ac42a1	-1.2533584e-09
100	0xbbe3c287	-0.0069506797
101	0xbc607066	-0.013698673
102	0x3c8ae4f4	0.016954876
103	0x3cd7fae5	0.026364753
104	0xba84782f	-0.0010106618
105	0x3d3d345c	0.046192512
106	0xb68d7812	-4.2161055e-06
107	0xb6aca4b0	-5.1451716e-06
108	0xbd1109b7	-0.035409655
109	0x3d082f5d	0.033248294
110	0xbcbec14b	-0.023285529
111	0xbd1b6183	-0.03793479
112	0x3c61fa52	0.013792591
113	0xbd2fd026	-0.042923115
114	0xbc15b17f	-0.009136557
115	0x3d29b5d9	0.04143319
116	0x3c50983f	0.012731611
117	0xbd241930	-0.040063083
118	0xbb46e1a1	-0.0030346888
119	0xbc677aa6	-0.014128363
120	0xacb596df	-5.1610795e-12
121	0xbc5bb8f1	-0.013410793
122	0xb3d52561	-9.9253846e-08
123	0xbc3fcf91	-0.0117072025
124	0xac0f2ef5	-2.0347589e-12
125	0xbd21181d	-0.039329637
126	0x3e38ecaa	0.1805903
127	0xbd436ef0	-0.04771322

conv_layers.0.lin.weight f4 [128, 1433]
0	0xbe17a0b3	-0.14807396
1	0x3e0d9ce2	0.13829377
2	0x3ce156a0	0.027507126
3	0x3e473999	0.19455566
4	0x3df43f78	0.11926168
5	0xbe2b7b75	-0.16746314
6	0xbe43b8a7	-0.19113408
7	0x3e6a6766	0.22891006
8	0xbd4927d9	-0.049110267
9	0xbc5b0016	-0.01336672
10	0xbd6bacae	-0.057537727
11	0x3c109a55	0.008825858
12	0xbe4b551a	-0.19856682
13	0x3e166e02	0.14690402
14	0x3d3e33a9	0.046435986
15	0xbe877e7b	-0.26463684
16	0xbceec792	-0.029147897
17	0xbc5d671e	-0.013513355
18	0xbe09c3a8	-0.13453543
19	0x3e875b8b	0.2643703
20	0xbcebc59c	-0.02878075
21	0x3d814b8b	0.06313237
22	0x3da65d39	0.081232496
23	0xbdf796ad	-0.12089286
24	0xbc907227	-0.017632557
25	0xbe06ba85	-0.13157089
26	0x3d1f46be	0.038885824
27	0x3e446d17	0.1918224
28	0x3cc3b36b	0.023889264
29	0x3ca8ea44	0.020619519
30	0x3bbb2f89	0.0057124537
31	0x3dba74ba	0.09104295
32	0xbd96aeba	-0.07357545
33	0xbdd61c0d	-0.10454569
34	0xbd38cbea	-0.045116343
35	0x3e31db1c	0.1736874
36	0x3d348ebe	0.044081442
37	0xbe0fa98a	-0.14029518
38	0x3d83aeec	0.06429848
39	0x3d8ece45	0.069729365
40	0xbedc0301	-0.42971042
41	0x3b24b74d	0.002513367
42	0x3ddd1d13	0.10796561
43	0xbdc8e990	-0.098101735
44	0xbe948949	-0.2901099
45	0x3e6b7f0e	0.22997686
46	0x3d9890b8	0.07449478
47	0xbdbb339e	-0.091407046
48	0xbed6ec00	-0.4197693
49	0xbe82b27e	-0.25526804
50	0x3e33295a	0.17496243
51	0x3e06c7d9	0.13162173
52	0x3e2d29f2	0.16910532
53	0x3e2ea74a	0.17056003
54	0xbe6e5183	-0.23273282
55	0xbe23624d	-0.15955468
56	0xbdf382cf	-0.11890184
57	0x3e1a023e	0.15039918
58	0x3e44c63a	0.19216242
59	0xbcd8c6a4	-0.026461907
60	0xbdcd3c57	-0.100212745
61	0xbdad58f0	-0.08464229
62	0xbea2477f	-0.31695172
63	0xbde10c3b	-0.10988661
64	0xbde00a5a	-0.109394744
65	0x3d07e8a4	0.033180848
66	0x3e414b76	0.18876442
67	0x3d7cfc5d	0.06176411
68	0xbcbcf617	-0.023066564
69	0xbc578198	-0.013153456
70	0xbe57fab9	-0.21091737
71	0x3ded2100	0.1157856
72	0xbd32ff33	-0.04370041
73	0x3e64b5d2	0.22334984
74	0x3dddffd2	0.108398095
75	0x3eba0abc	0.36336315
76	0xbdff4c59	-0.12465734
77	0x3e8065cb	0.25077662
78	0xbe32d0b3	-0.17462425
79	0x3cc8a195	0.02449111
80	0x3d9e816b	0.07739528
81	0xbcc77b8c	-0.024350904
82	0x3d093fa2	0.03350795
83	0xbe38ea15	-0.18058045
84	0xbd8ff273	-0.070286654
85	0xbddfb8ea	-0.109239414
86	0x3b239871	0.0024962688
87	0xbec2b55c	-0.3802899
88	0x3f140a08	0.57827806
89	0xbf31f608	-0.6951604
90	0x3e2c6623	0.16835837
91	0x3d4cdecd	0.050017167
92	0x3e9281d9	0.2861469
93	0x3e5bdb37	0.21470343
94	0xbb742bd9	-0.003725758
95	0x3c732e93	0.014842647
96	0xbe30cb12	-0.17264965
97	0xbe0aa1b8	-0.13538253
98	0x3f0fddad	0.56197625
99	0x3f0ad999	0.5423828
100	0x3e202266	0.15638122
101	0x3eb38926	0.35065573
102	0x3cb33927	0.021877838
103	0xbe980db3	-0.29697952
104	0x3ebeac81	0.37240985
105	0xbd5f4396	-0.054507814
106	0xbecf69e4	-0.40510476
107	0xbe321c6b	-0.17393653
108	0xbc5b85f1	-0.013398633
109	0x3d588d2e	0.052869014
110	0x3db91d79	0.090388246
111	0x3e2f4f51	0.171201
112	0xbea13fc4	-0.31493962
113	0x3e60a52b	0.21938007
114	0xbcd62487	-0.026140464
115	0x3c526094	0.012840409
116	0xbd1fd593	-0.03902204
117	0xbb4805ff	-0.0030521152
118	0x3e90dfe9	0.2829583
119	0x3df646aa	0.12025197
120	0x3da09692	0.07841219
121	0x3e0d9424	0.13826042
122	0x3e8caf49	0.27477482
123	0x3e81a727	0.2532284
124	0xbdfa5017	-0.12222307
125	0xbe260be3	-0.16215472
126	0x3e171776	0.14755043
127	0xbe4bb265	-0.19892271
128	0xbf00b575	-0.5027688
129	0x3a12ef5b	0.0005605125
130	0xbe6b1d97	-0.22960506
131	0x3e68c2a6	0.22730502
132	0x3e2ffdb4	0.17186624
133	0x3e7e61fa	0.24842063
134	0x3d3c6999	0.045999143
135	0x3d04ba12	0.032404013
136	0xbece0bfd	-0.4024352
137	0x3e8874eb	0.266517
138	0xbe9f3131	-0.31092218
139	0xbcd3e565	-0.02586622
140	0x3d52a929	0.051430855
141	0x3c8f3d40	0.017485261
142	0xbe4ecb92	-0.20194843
143	0x3ddc49e9	0.10756285
144	0x3cc09105	0.02350665
145	0xbd9594ef	-0.073037975
146	0x3cba9816	0.022777598
147	0xbe670150	-0.22559094
148	0xbcfb5db1	-0.030684324
149	0xbe890206	-0.26759356
150	0xbe391715	-0.18075211
151	0x3e394388	0.18092167
152	0x3c077910	0.00826861
153	0xbb17660c	-0.0023101596
154	0xbe02c18c	-0.12769145
155	0xbc72cacb	-0.014818857
156	0xbd2bf862	-0.041984923
157	0x3e7dceaa	0.24785867
158	0x3df35917	0.11882227
159	0x3d61807e	0.05505418
160	0x3e70f9fc	0.23532861
161	0xbe36b448	-0.1784221
162	0xbd429aa6	-0.047510765
163	0x3cd7b42f	0.026331035
164	0xbba519cb	-0.005038475
165	0xbd868de8	-0.06570035
166	0x3eab128c	0.33412588
167	0x3e984ee9	0.29747704
168	0xbd59c596	-0.05316695
169	0xbd6f2c9f	-0.058392163
170	0xbc81e745	-0.015857348
171	0xbd8cf235	-0.06882135
172	0x3cda5393	0.02665118
173	0x3e96a9a1	0.29426292
174	0x3b1cda12	0.002393369
175	0xbc59bc7f	-0.01328957
176	0x3d55507b	0.052078705
177	0x3e041b5c	0.12901062
178	0xbeac1169	-0.33607033
179	0xbd2c57a5	-0.04207577
180	0x3d5c583d	0.053795088
181	0x3d079f6b	0.033111017
182	0xbe9d1b73	-0.30685005
183	0x3e1e915d	0.15485139
184	0x3e3f6e72	0.18694475
185	0x3e566db4	0.20940286
186	0xbedb4275	-0.4282414
187	0x3e5ee9f7	0.21768938
188	0x3e985519	0.29752424
189	0xbd57ed21	-0.052716378
190	0x3d6b9130	0.05751151
191	0xbdfefb50	-0.12450278
192	0x3d45302f	0.048141655
193	0x3e2f9bd4	0.17149287
194	0x3e907d89	0.28220776
195	0x3c06a05c	0.008216944
196	0x3e874caa	0.26425678
197	0x3e2b7791	0.1674483
198	0x3e35ecfa	0.1776618
199	0x3e388e74	0.18023092
200	0xbd29b5da	-0.041433193
201	0xbe19ce80	-0.1502018
202	0x3f14f6a1	0.58188826
203	0x3c84613f	0.016159652
204	0xbeec05c4	-0.4609815
205	0xbe234472	-0.15944079
206	0x3b91c210	0.004448183
207	0x3d2cb1d7	0.04216179
208	0xbd3057ac	-0.04305236
209	0xbd9d5202	-0.076816574
210	0xbde79143	-0.11307003
211	0xbc95285a	-0.018207718
212	0x3e4c2097	0.19934307
213	0xbe023659	-0.12716044
214	0x3d9918cf	0.07475435
215	0x3ba0aaaf	0.0049031596
216	0xbe264ef2	-0.16241053
217	0x3ebf73ed	0.37393132
218	0xbb5fad1a	-0.0034130276
219	0xbe0701ce	-0.13184282
220	0xbe4a95b4	-0.1978367
221	0x3e1e6c96	0.1547111
222	0xbd4f85ee	-0.050664835
223	0x3e1939c2	0.14963439
224	0xbe824917	-0.25446388
225	0x3eb77b9d	0.35836497
226	0x3d8c6d52	0.06856789
227	0x3d752d18	0.059857458
228	0x3deb606a	0.11492999
229	0xbe5bc7e8	-0.21462977
230	0x3e055288	0.13019764
231	0x3dae25ce	0.085033044
232	0x3e2bac46	0.16764936
233	0x3e1885bc	0.14894766
234	0x3c14ed69	0.009089806
235	0xbdfb3759	-0.12266416
236	0xbd046388	-0.032321483
237	0x3e3b9b8f	0.1832106
238	0x3e2448b5	0.1604336
239	0x3dc6e6a7	0.09711962
240	0xbea16155	-0.3151957
241	0xbb65c3ca	-0.0035059326
242	0x3dc9aa38	0.0984692
243	0xbd4b6c24	-0.049663678
244	0xbe1b34db	-0.15156882
245	0x3dbf785d	0.09349129
246	0x3e863afa	0.2621687
247	0x3e2c7f8a	0.16845527
248	0xbd58a2b8	-0.052889556
249	0xbdb32aa3	-0.08748367
250	0xbe1b625f	-0.15174244
251	0x3ea43179	0.32068995
252	0x3da32502	0.07966043
253	0xbcf3e3d7	-0.029771728
254	0x3ea1f1b6	0.31629723
255	0xbe1f65ab	-0.15566127

conv_layers.1.bias f4 [128]
0	0xbca39c38	-0.019971952
1	0xbc7bd2cc	-0.015370082
2	0xbb7b09cf	-0.0038305407
3	0x3c8c650c	0.017138027
4	0xbd9f1ec2	-0.077695385
5	0xbc956ad4	-0.018239416
6	0xbda57793	-0.080794476
7	0xbcd9fb8d	-0.026609207
8	0xbd54e455	-0.051975567
9	0x3cfa1bca	0.030530829
10	0x3ccc724e	0.024956848
11	0x3cb038b1	0.021511408
12	0x3c8e1f2d	0.01734885
13	0x3e3d7c84	0.1850453
14	0xbd4c48da	-0.049874164
15	0xbcf4a5a1	-0.029864134
16	0xbc53796e	-0.012907369
17	0x3d89ae53	0.06722703
18	0xbdd7bd6f	-0.105341785
19	0xbda4f46a	-0.08054431
20	0xbd138fbf	-0.03602576
21	0xbddd3b10	-0.10802281
22	0x3d992346	0.07477431
23	0xbdf12a17	-0.11775606
24	0x3db02a5b	0.08601829
25	0xbdf2e176	-0.118594095
26	0x3bf8a1d0	0.007587649
27	0x3d6b1741	0.057395224
28	0xbdbaae95	-0.0911533
29	0xbd542471	-0.051792566
30	0x3df34593	0.118785046
31	0xbdd968cd	-0.10615692
32	0xbd1e1b86	-0.038600467
33	0x3c2898eb	0.010290365
34	0xbd8cf26d	-0.068821765
35	0x3dde8ec8	0.10867077
36	0xbde2e65e	-0.11079095
37	0xbd4ff752	-0.050772972
38	0x3c9f9415	0.01947979
39	0x3cd5a182	0.02607799
40	0x3d6a6b97	0.057231512
41	0x3d73dfa9	0.05953947
42	0x3e324202	0.17407992
43	0x3d654c9d	0.055981267
44	0x3e035294	0.1282447
45	0x3c3cb01a	0.011516595
46	0x3d6b7cc8	0.057492048
47	0xbd1a131a	-0.037615873
48	0x3e07d220	0.1326375
49	0x3e65bcbe	0.2243528
50	0x3d89720b	0.06711205
51	0xbdd205fc	-0.10255048
52	0x3d628681	0.055304054
53	0x3df64a67	0.1202591
54	0x3d620c83	0.055187713
55	0x3df6f87c	0.120591134
56	0xbd8251cc	-0.06363258
57	0xbd9b901c	-0.07595846
58	0x3da78c0a	0.08181007
59	0xbdbcbacf	-0.092153184
60	0xbdae0c2f	-0.084984176
61	0xbdf8d561	-0.12150074
62	0xbc5b50b0	-0.013385937
63	0x3d279a52	0.040918656
64	0xbdc33248	-0.09531075
65	0x3b24ac3a	0.002512707
66	0x3db71eda	0.08941431
67	0xbd5f4ef6	-0.054518662
68	0xbdaf45d5	-0.08558241
69	0x3da03e49	0.0782438
70	0xbe11dd31	-0.14244534
71	0x3d9f220e	0.07770167
72	0x3dd28623	0.10279491
73	0x3de38179	0.11108679
74	0xbc899a63	-0.01679725
75	0x3e1d4967	0.15360032
76	0x3d7fab20	0.062419057
77	0x3d64ad19	0.05582914
78	0xbdf7987d	-0.12089632
79	0x3de0f9e8	0.10985166
80	0x3de8db63	0.1136997
81	0x3e151e49	0.14562334
82	0x3d92342b	0.071388565
83	0xbdb18188	-0.08667284
84	0x3d998c58	0.074974716
85	0x3dbeb674	0.09312144
86	0xbdce4d21	-0.10073305
87	0x3cbbd011	0.022926362
88	0x3df09786	0.11747651
89	0xbdbe8303	-0.09302332
90	0x3e0e8144	0.13916498
91	0x3d5d4304	0.05401899
92	0xbe656190	-0.22400498
93	0x3e5fbaa2	0.21848539
94	0x3d95b978	0.07310766
95	0xbdb27650	-0.087139726
96	0x3deaa727	0.11457663
97	0x3d4480a1	0.047974233
98	0x3da5d016	0.0809633
99	0xbe571c64	-0.21006924
100	0x3e3d357b	0.18477432
101	0xbc2e16de	-0.010625569
102	0x3d47f7c7	0.048820283
103	0xbdc62ce4	-0.09676531
104	0xbd93be71	-0.07214058
105	0x3d8b7a69	0.06810457
106	0xbc94926e	-0.01813623
107	0x3c866721	0.016406598
108	0x3cf9b328	0.030480936
109	0x3de6752b	0.11252817
110	0xbd91eea9	-0.07125599
111	0xbbe42830	-0.0069627985
112	0xbcc31c15	-0.023817101
113	0xbdcfb7ce	-0.1014248
114	0xbc7a51b7	-0.015278271
115	0x3e8d22bd	0.27565566
116	0xbd8db7b8	-0.06919807
117	0xbdca24ce	-0.09870301
118	0x3c7d4abc	0.015459713
119	0xbdb28928	-0.08717567
120	0x3d9c1082	0.07620336
121	0xbd75f10e	-0.06004434
122	0x3c6a9e3c	0.014319953
123	0x3cf21f1b	0.029555848
124	0x3dd2e873	0.102982424
125	0x3d630c6f	0.05543178
126	0x3dfff27b	0.12497421
127	0x3c59c82e	0.013292355

conv_layers.1.lin.weight f4 [128, 128]
0	0x3e828491	0.25491765
1	0x37202c55	9.547065e-06
2	0xbda2eb00	-0.07954979
3	0x3ecd84ad	0.40140286
4	0x398a2374	0.00026347826
5	0x397e0a39	0.00024227136
6	0xbd74676c	-0.059668943
7	0x36f74067	7.368671e-06
8	0xbd776c79	-0.060406182
9	0x3ea2449b	0.31692967
10	0x395af4fa	0.00020881361
11	0x371ad16a	9.227873e-06
12	0x3ecd3898	0.4008224
13	0x3623eaf2	2.442565e-06
14	0x3e34728a	0.17621818
15	0x3eaae8a0	0.33380604
16	0x30fe19d0	1.8488269e-09
17	0x38481d95	4.7711266e-05
18	0xbb890807	-0.004181865
19	0x270d8dbb	1.9644513e-15
20	0x39b228fb	0.00033981338
21	0xbeafc7bd	-0.34332076
22	0x2e09d989	3.1343404e-11
23	0x39d32d7e	0.0004027895
24	0x3907a2ba	0.00012935224
25	0x3914fbcf	0.00014208186
26	0x397c9ac4	0.00024090247
27	0x38baf7d2	8.915331e-05
28	0x3349c2c8	4.6976112e-08
29	0x3e0a5694	0.1350959
30	0xbd7e0278	-0.062014073
31	0x3d093085	0.033493537
32	0xbe9605b0	-0.29301214
33	0xbe25a36b	-0.1617562
34	0x3941440d	0.00018431265
35	0xbca581f0	-0.02020356
36	0xb9424165	-0.00018525643
37	0x3a49fbf0	0.0007705083
38	0x3041d3ef	7.0514167e-10
39	0x2b33e3ce	6.390972e-13
40	0xbbaf63e3	-0.0053524836
41	0x37753f56	1.46178845e-05
42	0x399948bf	0.00029236634
43	0xbcfefa29	-0.031125145
44	0x3011da9e	5.3061366e-10
45	0x32e40179	2.6543363e-08
46	0x395b6cda	0.00020926018
47	0x39a8f202	0.00032223767
48	0xbd66c116	-0.056336485
49	0x39176e15	0.00014441491
50	0x39c58591	0.00037674283
51	0xbe1c93b3	-0.15290718
52	0x3a2ea275	0.0006661781
53	0xbdddec9d	-0.10836146
54	0x3c32a539	0.01090365
55	0x3dc8727e	0.09787463
56	0x2c857aef	3.7937357e-12
57	0xbe94c72b	-0.29058203
58	0x39687b68	0.00022171217
59	0x3bcec361	0.006309912
60	0xbc8d56cf	-0.017253308
61	0x3e809ccc	0.25119627
62	0x3c71acb1	0.0147506455
63	0xbd4c490b	-0.049874347
64	0x3bf2d1df	0.0074102725
65	0xbc931276	-0.017953139
66	0x39cf271f	0.00039511264
67	0x2e964c02	6.834712e-11
68	0x39c0ffbf	0.0003681164
69	0x3d402663	0.04691161
70	0x39cf5370	0.00039544282
71	0x3732f961	1.066769e-05
72	0x3975ee09	0.00023453696
73	0xbb8d83d8	-0.0043186955
74	0x396bd0ad	0.00022489084
75	0x38db0785	0.000104441344
76	0xbebff01e	-0.37487882
77	0x39504fe6	0.0001986619
78	0x39b575a4	0.0003461066
79	0x3a5a0a45	0.00083175703
80	0x38e8e407	0.000111050955
81	0xbe0c3c86	-0.13694963
82	0x3eb5bfaa	0.3549779
83	0xbc5817fd	-0.013189313
84	0x39c6723a	0.00037850608
85	0x3e3a8cf4	0.18217832
86	0xb942fbde	-0.0001859511
87	0x30669b17	8.389391e-10
88	0x3c5d5c3b	0.013510759
89	0xbd5b1cc7	-0.05349424
90	0xbd99976a	-0.07499583
91	0x33b15891	8.258315e-08
92	0x3933ad59	0.00017135347
93	0x3551e62e	7.819352e-07
94	0x3c065f62	0.008201452
95	0xb389c694	-6.415681e-08
96	0x3639e5db	2.7700942e-06
97	0x39d686da	0.00040917733
98	0x31d7af32	6.277241e-09
99	0x2f205e60	1.4585444e-10
100	0x3d388a98	0.04505405
101	0x399a93e5	0.0002948336
102	0x3d48830b	0.048953097
103	0xb9b78a74	-0.00035007636
104	0x383db759	4.5231867e-05
105	0xbca6837f	-0.020326374
106	0x345d58b0	2.0614493e-07
107	0x34f0f278	4.4879903e-07
108	0x39afd6c4	0.00033538614
109	0x3d5c5ac8	0.053797513
110	0x398a9666	0.00026433467
111	0x3918a2ae	0.00014556453
112	0xbd247b2e	-0.040156536
113	0x39d15af5	0.00039931355
114	0xb70a84dd	-8.256376e-06
115	0xbe03f6ec	-0.12887162
116	0x3e1cb624	0.15303856
117	0x39e0c563	0.00042871674
118	0x38f43da9	0.00011646312
119	0x3af352e1	0.0018564129
120	0x2a81a41c	2.3028877e-13
121	0x3998b8a8	0.0002912928
122	0x322b75cc	9.980294e-09
123	0x395ca506	0.00021042311
124	0xa9a1781c	-7.170672e-14
125	0x3a823806	0.0009934909
126	0xbe4d04dd	-0.20021386
127	0x39ed4e73	0.00045262612
128	0xbf20a3a4	-0.62749696
129	0xb7922cfc	-1.7425504e-05
130	0x3d3fcfbc	0.04682897
131	0x3f0298d6	0.5101446
132	0x3c14365d	0.009046164
133	0xb9ffa6a5	-0.0004876155
134	0xbe59f7e5	-0.2128597
135	0xb72e8b59	-1.0403653e-05
136	0x3f02a1e1	0.5102826
137	0xbf64675b	-0.8922021
138	0xb9589172	-0.00020653548
139	0xb749ee6c	-1.20360455e-05
140	0x3f07cebb	0.5304982
141	0xb68ed170	-4.2563115e-06
142	0xbf2cb24c	-0.6745956
143	0x3eadb453	0.3392664
144	0xb0944fac	-1.0791061e-09
145	0xb88d8f2b	-6.750071e-05
146	0x3ac2f997	0.0014875409
147	0xa79c5d7e	-4.3400062e-15
148	0xba440f95	-0.00074791285
149	0xbec961bc	-0.39332378
150	0xae052499	-3.0273204e-11
151	0xbbc37dbe	-0.0059659174
152	0xb915f2dc	-0.0001430022
153	0xb9a648cf	-0.00031716234
154	0xb9d5aa37	-0.00040753346
155	0xb8bc26cd	-8.971766e-05
156	0xb27cf1fc	-1.4723351e-08
157	0xbf1eb967	-0.6200165
158	0xbe1eb0e9	-0.15497173
159	0xbdd16b5f	-0.102255575
160	0xbeb245ec	-0.3481897
161	0xbe75092f	-0.23929285
162	0xb97c0102	-0.00024032968
163	0xbe105fa3	-0.14098983
164	0xbc068fcf	-0.008212998
165	0x37a9c220	2.0236766e-05
166	0xb10e67fa	-2.0722823e-09
167	0xab124ea5	-5.197876e-13
168	0xbdb0a32f	-0.08624875
169	0xb7f84528	-2.9596107e-05
170	0xbad2f0dd	-0.0016093511
171	0x3f66ecc5	0.9020503
172	0xb08fcd55	-1.0462978e-09
173	0xb31cf66f	-3.654571e-08
174	0xb9a57105	-0.0003155546
175	0xb9af0d60	-0.00033388566
176	0x3b96a89d	0.004597737
177	0xb99de9e7	-0.00030119644
178	0x3baec75b	0.0053338236
179	0xbf4cb8ba	-0.7996937
180	0xb9c05be1	-0.0003668955
181	0x3f607c3f	0.87689584
182	0x3cb29407	0.0217991
183	0x3ee1c6f2	0.44097096
184	0xac228691	-2.3096284e-12
185	0xbe9d0270	-0.30665922
186	0xb9a2cb3f	-0.00031050478
187	0xbe134089	-0.14380087
188	0xbe1e9e83	-0.15490155
189	0x3ef748e7	0.48297808
190	0xbea16273	-0.31520423
191	0xbe77aad8	-0.24186265
192	0xbb1bb4c4	-0.0023758868
193	0xbf86e5a3	-1.053883
194	0xba51d4dc	-0.0008004436
195	0xaf7096f0	-2.1881497e-10
196	0x3988b517	0.00026074864
197	0x3e2a145e	0.16609332
198	0xba093e4c	-0.0005235418
199	0xb792801b	-1.746421e-05
200	0xb9fe844b	-0.0004854522
201	0xbb95369e	-0.00455363
202	0x3a38d112	0.0007050197
203	0xb958f673	-0.00020691175
204	0xbec4f92b	-0.3847135
205	0xb9f45de8	-0.00046609272
206	0xba05ee69	-0.0005109073
207	0x3c13c7be	0.00901979
208	0xb963efea	-0.00021737782
209	0x3f517a96	0.81827676
210	0xbf6aca1c	-0.91714644
211	0xbe34211c	-0.17590755
212	0xb99eec8c	-0.0003031235
213	0x3edb686b	0.42853102
214	0xbbbc95ff	-0.0057551856
215	0xb069e6c8	-8.5092866e-10
216	0xbba509af	-0.0050365548
217	0x3f31b10b	0.6941077
218	0xbdc30d67	-0.09524041
219	0xb3d5874d	-9.9431965e-08
220	0xb9adca4a	-0.00033147848
221	0xb4dfa9a6	-4.1660422e-07
222	0x3ce926ea	0.028460938
223	0x3a9aae29	0.0011801171
224	0xb68c0db5	-4.173921e-06
225	0xb9f34d94	-0.00046406372
226	0xb1af4281	-5.100731e-09
227	0xaf5e7921	-2.0233816e-10
228	0xbdfa46fc	-0.122205704
229	0xb9c377fb	-0.0003728269
230	0xbea78c52	-0.32724243
231	0x3f1cfba8	0.61321497
232	0xb85acd4b	-5.2166444e-05
233	0xbf9faf6d	-1.2475411
234	0xb4dfee6c	-4.1710462e-07
235	0xb4f14523	-4.4940052e-07
236	0xbc8262b9	-0.015916215
237	0xbeaef248	-0.3416922
238	0xbc63f073	-0.013912308
239	0x3cc89c1f	0.024488507
240	0x3f1377c9	0.5760465
241	0x3c32759c	0.010892298
242	0xbb34629c	-0.0027524596
243	0xbcde105e	-0.027107414
244	0x3e8d0ad9	0.2754734
245	0x3a9da0a4	0.0012026024
246	0xb9463c37	-0.00018905183
247	0x3c6d89fd	0.014498231
248	0xab7d492f	-8.998522e-13
249	0xb9f3e887	-0.00046521818
250	0xb25a00fb	-1.2689493e-08
251	0xb9e2f7a2	-0.0004329058
252	0xab8948c9	-9.754637e-13
253	0x37d5e32c	2.5497364e-05
254	0x3f1ec421	0.6201802
255	0x3a4d04db	0.0007820853
