Experiment/pre_trained_model/Cora/SimGRACE.GCN.128hidden_dim.pth (torch, 802856 bytes, 4 tensors)

conv_layers.0.bias f4 [128]
0.040497955 0.049459416 0.026836207 0.027949948 -0.0054281494 0.060728297 0.04335662 0.004727662
0.00864817 -0.038728807 0.019275423 0.015492475 0.013664461 0.034378145 -0.10239876 0.020683944
0.017652797 0.019969909 -0.04944768 0.027330864 0.030389722 0.007773281 0.026683306 0.02197232
0.034794204 0.011820491 0.017639617 0.019856382 -0.028001854 0.03153636 0.053302348 -0.052323725
0.039044194 0.025316333 0.039549634 0.0236539 0.03231514 0.0054723653 0.026837112 -0.13413882
-0.08227454 0.036105745 0.033232886 0.01974338 0.021598415 0.011857044 0.014392856 0.10998801
0.035974678 0.016995082 0.016400777 0.03354421 0.0381741 -0.08059768 0.030902866 0.08182233
-0.08103023 0.033486243 0.02854409 0.008628323 0.023400916 0.01885523 0.017480733 0.00064920203
0.03593972 0.02500165 0.010115062 0.025609374 0.024714993 0.011377933 0.024175564 0.037125
0.010778963 -0.038193546 0.031548586 0.020354636 -0.064068206 0.064712875 0.0358971 0.027848575
0.018421376 -0.054084025 0.03583473 0.011981173 0.057184536 -0.004113361 0.029078323 0.00921923
0.030940577 -0.02465033 0.040428698 0.04191179 -0.23110563 0.014348716 0.008567658 -0.056589182
0.010937528 0.013255242 0.0049321875 0.0022917043 -0.09557026 0.022725258 0.024031367 0.015361939
0.02514777 -0.3382827 0.03017701 0.019963749 0.100282006 0.04027202 0.026909826 0.03236583
0.025399806 0.02615388 -0.12949681 0.02599211 0.019572709 0.067852706 0.15552254 -0.06515542
0.04326805 0.01550065 0.119033694 -0.07810439 0.03116471 0.03301486 -0.007885358 0.18845911
00000000: 2fe1 253d f595 4a3d 9bd7 db3c 4af7 e43c
00000010: 9ede b1bb 3cbe 783d b696 313d 81ea 9a3b
00000020: 0eb1 0d3c 19a2 1ebd 7ee7 9d3c 26d4 7d3c
00000030: e7e0 5f3c 19d0 0c3d 71b6 d1bd 6071 a93c
00000040: 999c 903c ef97 a33c a789 4abd fae4 df3c
00000050: def3 f83c 02b7 fe3b f396 da3c 4bff b33c
00000060: 5e84 0e3d bcaa 413c f580 903c daa9 a23c
00000070: 2564 e5bc 452c 013d 9053 5a3d 6751 56bd
00000080: ceec 1f3d 3364 cf3c ccfe 213d d3c5 c13c
00000090: e15c 043d 8751 b33b 81d9 db3c b05b 09be
000000a0: 8e7f a8bd 9ee3 133d 351f 083d debc a13c
000000b0: 29ef b03c 0c44 423c 03d0 6b3c 6541 e13d
000000c0: 2f5a 133d 4539 8b3c ec5a 863c a765 093d
000000d0: 725c 1c3d 6510 a5bd 0228 fd3c 7792 a73d
000000e0: 2df3 a5bd df28 093d 4cd5 e93c cf5d 0d3c
000000f0: 47b3 bf3c 4976 9a3c c133 8f3c 362f 2a3a
00000100: 8735 133d 43d0 cc3c a5b9 253c c0ca d13c
00000110: 1977 ca3c 836a 3a3c d50b c63c 6210 183d
00000120: 3f9a 303c d670 1cbd 1739 013d c4be a63c
00000130: 3136 83bd 2f88 843d d608 133d b222 e43c
00000140: 6de8 963c 3687 5dbd 70c7 123d af4c 443c
00000150: 553a 6a3d 5fc9 86bb aa35 ee3c 410c 173c
00000160: 1877 fd3c 7def c9bc 9098 253d b2ab 2b3d
00000170: f4a6 6cbe e016 6b3c 5d5f 0c3c 0fca 67bd
00000180: 5133 333c 842c 593c 309e a13b 6b30 163b
00000190: 57ba c3bd 522a ba3c 6edd c43c a4b0 7b3c
000001a0: b202 ce3c 6433 adbe c735 f73c 048b a33c
000001b0: a760 cd3d 46f4 243d ff71 dc3c 0892 043d
000001c0: 4113 d03c a940 d63c d09a 04be 68ed d43c
000001d0: f256 a03c 5cf6 8a3d 4d41 1f3e 3470 85bd
000001e0: d739 313d 70f6 7d3c f0c7 f33d 32f5 9fbd
000001f0: 224d ff3c 973a 073d 9731 01bc 6dfb 403e

conv_layers.0.lin.weight f4 [128, 1433]
-0.010102692 0.00073849305 -0.077647194 0.21306588 0.02263967 -0.011643229 -0.06673407 -0.04337892
0.035741713 -0.011849318 -0.05922255 0.01752722 -0.043431815 0.07967549 -0.07348509 0.02243314
0.06358587 -0.084106594 -0.016313603 0.1774556 -0.008843451 -0.0086412 -0.030832153 0.022927195
0.03585285 -0.022612795 -0.19826421 -0.17222244 -0.051329445 -0.032687917 0.048811223 -0.021976344
0.057089906 0.002885601 0.09216556 -0.09094597 0.05841681 -0.0033661798 -0.013176513 -0.04733416
-0.22055705 -0.10340208 0.076062016 -0.021750353 -0.09961688 0.031333536 0.12558186 -0.0089465575
-0.033371337 0.07521556 0.030997334 -0.13493349 -0.042335447 -0.0142183835 -0.08796301 0.0134293595
0.018496027 0.08479718 -0.047457166 0.056434333 0.022610573 0.09945986 0.007220196 -0.026335282
-0.1182873 0.13463642 0.07227994 -0.016266849 -0.013865404 -0.06882762 0.03241478 -0.004891956
0.098082244 0.014611436 -0.031542227 -0.09227294 0.02796406 0.06414075 -0.09368008 0.024957985
0.06259617 -0.07822191 -0.045011878 0.10476962 -0.0049380674 0.033038963 0.054051057 0.011938833
0.2610288 0.098574966 -0.027572963 -0.021940118 -0.03372071 -0.16864815 -0.064466454 -0.05719177
0.032431852 0.15570076 -0.0102927955 -0.21179119 0.0443083 0.12541996 -0.08246354 -0.016431808
0.091097936 0.025267256 -0.054296996 0.061613854 0.10987885 0.035217676 -0.012090273 -0.018859312
-0.14836076 0.075665966 0.020570531 -0.017262343 -0.030022968 0.068421714 0.0012810295 -0.013299895
-0.014284796 -0.11463386 -0.05473738 0.103894725 0.057508085 0.13235398 0.024776574 0.13745473
-0.15532318 -0.07974906 -0.32098293 0.110732235 0.26064217 0.13614585 0.067417026 -0.051827155
-0.096859165 -0.0018373617 -0.0053775334 -0.07281747 -0.3582068 -0.017311871 0.014015185 -0.09228366
-0.09311082 -0.03672124 -0.14364988 0.018694377 0.015889233 -0.10340629 -0.0954494 0.039983504
-0.020882243 -0.015379173 0.054224346 0.024126478 -0.062580675 0.30467623 0.001182932 -0.012209401
-0.0030761957 0.030179119 -0.017728033 0.12816727 0.050761715 -0.04517017 0.003548286 -0.16647375
-0.13279553 0.02480132 -0.01846296 0.051148713 -0.08036586 0.13651597 -0.03264201 -0.0112553965
-0.04904889 -0.012392467 -0.02361565 0.122322045 -0.0033773992 -0.014863114 -0.08908142 -0.014485304
0.02524406 -0.027297452 0.008737379 -0.25965276 0.04420602 -0.015210299 0.0011184448 -0.0022069707
-0.03725633 -0.080100045 -0.009313129 -0.0955872 -0.100709744 0.013373634 -0.013489519 -0.0026221036
0.03704705 0.02744228 -0.02879211 0.27464655 0.10888659 0.14461792 0.0051819966 -0.15881069
-0.012122021 -0.06792688 -0.1037641 -0.0648332 0.032504965 0.018025795 -0.08103235 0.054974712
0.045864955 0.107877254 0.10712405 0.011249014 -0.015725512 -0.026805116 -0.12083305 0.004172993
-0.07766137 0.10100031 -0.03759577 0.09298548 0.11508909 -0.006138834 0.102985315 0.12367309
0.028325735 0.21237873 0.09391696 0.08316429 -0.058690503 0.041115668 0.1673004 -0.0045784307
-0.0220377 -0.03666059 -0.0014413493 0.043112684 -0.057430808 -0.050443344 -0.064821914 -0.058904592
-0.043844763 -0.060857967 -0.020662865 -0.03966585 -0.06772202 -0.007260563 0.010330566 -0.08459058
00000000: c385 25bc 6e97 413a 7e05 9fbd f12d 5a3e
00000010: d476 b93c 3ec3 3ebc dfab 88bd 18ae 31bd
00000020: e765 123d a423 42bc 5893 72bd 3f95 8f3c
00000030: 8fe5 31bd e72c a33d 5a7f 96bd b4c5 b73c
00000040: 4f39 823d 1440 acbd 1ba4 85bc ecb6 353e
00000050: 1fe4 10bc d293 0dbc b693 fcbc d0d1 bb3c
00000060: 70da 123d 783e b9bc c605 4bbe 145b 30be
00000070: d33e 52bd c4e3 05bd 47ee 473d bc07 b4bc
00000080: 1bd7 693d 5a1c 3d3b 4cc1 bc3d e141 babd
00000090: 7746 6f3d 209b 5cbb 4de2 57bc 77e1 41bd
000000a0: b5d9 61be 78c4 d3bd 67c6 9b3d cc2d b2bc
000000b0: ef03 ccbd 9857 003d 8898 003e 9594 12bc
000000c0: 62b0 08bd 9e0a 9a3d 1fee fd3c 012c 0abe
000000d0: ef67 2dbd 39f4 68bc f325 b4bd d106 5c3c
000000e0: fb84 973c 25aa ad3d 7262 42bd b027 673d
000000f0: cf39 b93c 9cb1 cb3d 6597 ec3b 17bd d7bc
00000100: 9d40 f2bd 21de 093e 8107 943d 0e42 85bc
00000110: b82b 63bc 7ff5 8cbd 5cc5 043d b44c a0bb
00000120: 58df c83d ce64 6f3c 6c32 01bd 98f9 bcbd
00000130: e214 e53c 3a5c 833d 57db bfbd b074 cc3c
00000140: 6c32 803d cf32 a0bd 605e 38bd 7491 d63d
00000150: 83cf a1bb dd53 073d a464 5d3d 189b 433c
00000160: 91a5 853e ace1 c93d b2e0 e1bc c3bb b3bc
00000170: ba1e 0abd 1ab2 2cbe fd06 84bd eb41 6abd
00000180: 43d7 043d 0570 1f3e 1da3 28bc cadf 58be
00000190: 9f7c 353d 176e 003e a5e2 a8bd 009c 86bc
000001a0: 8e91 ba3d 47fd ce3c 8766 5ebd cf5e 7c3d
000001b0: 2a08 e13d 6940 103d 4816 46bc d87e 9abc
000001c0: e2eb 17be c2f6 9a3d 8883 a83c c269 8dbc
000001d0: baf2 f5bc af20 8c3d 38e8 a73a cee7 59bc
000001e0: c70a 6abc 28c5 eabd 4e34 60bd c2c6 d43d
000001f0: 998d 6b3d cd87 073e 3ef8 ca3c efc0 0c3e
00000200: 0a0d 1fbe 7a53 a3bd e057 a4be 95c7 e23d
00000210: e472 853e d169 0b3e f011 8a3d b648 54bd
00000220: 195e c6bd a1d3 f0ba 0536 b0bb 5321 95bd
00000230: e266 b7be a0d1 8dbc f29f 653c 37ff bcbd
00000240: e3b0 bebd 0369 16bd f418 13be f324 993c
00000250: 232a 823c adc6 d3bd fa7a c3bd bec5 233d
00000260: 3d11 abbc edf8 7bbc 591a 5e3d e4a4 c53c
00000270: 4c2a 80bd 86fe 9b3e 9d0c 9b3a f009 48bc
00000280: 009a 49bb 333a f73c 613a 91bc 483e 033e
00000290: 84eb 4f3d 5b04 39bd 5c8a 683b 1878 2abe
000002a0: 8dfb 07be 232c cb3c a23f 97bc 5081 513d
000002b0: db96 a4bd d8ca 0b3e a1b3 05bd 8e68 38bc
000002c0: 7de7 48bd c609 4bbc 9c75 c1bc fb83 fa3d
000002d0: 5b57 5dbb 6b84 73bc 5270 b6bd c553 6dbc
000002e0: a2cc ce3c e89e dfbc 3927 0f3c 35f1 84be
000002f0: 5f11 353d 9e34 79bc c898 923a d3a2 10bb
00000300: 189a 18bd 7e0b a4bd 1896 18bc 39c3 c3bd
00000310: e940 cebd 161d 5b3c 2503 5dbc 99d7 2bbb
00000320: a6be 173d a2ce e03c 6edd ebbc 799e 8c3e
00000330: efff de3d b816 143e bdcd a93b 459f 22be
00000340: 719b 46bc 401d 8bbd 4682 d4bd 45c7 84bd
00000350: ed23 053d d5aa 933c 4af4 a5bd 2a2d 613d
00000360: e4dc 3b3d c0ee dc3d db63 db3d c94d 383c
00000370: cad2 80bc 6796 dbbc 5177 f7bd 9abd 883b
00000380: ed0c 9fbd 40d9 ce3d 06fe 19bd 2c6f be3d
00000390: d4b3 eb3d 4628 c9bb f7e9 d23d 5148 fd3d
000003a0: 5f0b e83c cf79 593e 8957 c03d 0a52 aa3d
000003b0: 7465 70bd e768 283d cc50 2b3e a906 96bb
000003c0: 6888 b4bc 6a29 16bd a8eb bcba ed96 303d
000003d0: 913c 6bbd ae9d 4ebd 5ac1 84bd f145 71bd
000003e0: 9196 33bd 3446 79bd 2b45 a9bc a978 22bd
000003f0: d8b1 8abd 04ea edbb 8941 293c d33d adbd

conv_layers.1.bias f4 [128]
-0.06019817 0.06251021 0.26200262 0.06296134 -0.34478393 0.024755184 -0.0952328 0.0060135294
-0.31950283 0.41423643 0.106111154 -0.0110694915 -0.026233478 0.6433429 -0.08188709 -0.42233843
0.28838506 -0.10816505 -0.071051925 -0.15301092 0.06145093 0.1299475 -0.20362964 0.16658995
-0.03473158 0.117391676 -0.07877115 -0.20180075 -0.21371159 -0.61045873 -0.19670002 0.06040631
-0.16378787 -0.13705118 0.088226594 0.5796942 -0.027583366 -0.3145518 0.045854844 0.24296017
0.20091453 0.2462939 -0.012509808 0.1236629 0.10413525 0.3123493 -0.2861923 0.1306695
-0.2571219 -0.10964611 0.31951708 0.2074398 0.031298846 0.028178317 0.094999805 -0.036466945
0.1034132 0.067889616 -0.18149807 0.09326389 0.13621014 0.27941146 -0.11236963 -0.18205506
-0.027347445 0.029288402 -0.0018608681 0.08920079 -0.25731537 -0.1578738 -0.013823055 0.13464159
0.029244853 0.13326958 -0.3113319 0.08247103 0.19632022 -0.3447986 -0.17880179 -0.007278373
0.016247226 -0.30498126 0.1265919 -0.22768357 -0.25888473 -0.43035942 0.02603136 0.036047474
-0.42144033 -0.10512055 0.29103673 -0.28637198 -0.061779138 -0.07997522 -0.10343027 -0.21686214
0.08842422 -0.2845831 -0.031138528 0.0056113848 0.22551855 -0.058967166 0.07950838 -0.024284557
0.036974784 -0.51474357 0.31588182 0.17611207 -0.17847131 0.089788616 -0.24085134 0.06750839
0.11234308 -0.16284536 -0.033181287 -0.15530436 -0.13712539 -0.079224534 -0.18381165 -0.049833898
-0.09729433 -0.18734828 -0.25558704 -0.12032885 0.33483246 -0.14300787 0.13373539 0.21017049
00000000: 5b92 76bd 5a05 803d 3525 863e e0f1 803d
00000010: 8587 b0be 62cb ca3c 6a09 c3bd 240d c53b
00000020: e095 a3be cc16 d43e ce50 d93d d05c 35bc
00000030: 97e7 d6bc 1fb2 243f 6bb4 a7bd be3c d8be
00000040: 35a7 933e a385 ddbd ac83 91bd e5ae 1cbe
00000050: f8b3 7b3d f510 053e 4a84 50be 8e96 2a3e
00000060: b442 0ebd 0c6b f03d c552 a1bd dba4 4ebe
00000070: 36d7 5abe 0647 1cbf bb6b 49be 9b6c 773d
00000080: 02b8 27be 2557 0cbe 25b0 b43d d766 143f
00000090: 83f6 e1bc ef0c a1be 4ad2 3b3d 8dca 783e
000000a0: 8abc 4d3e 7834 7c3e f0f5 4cbc f942 fd3d
000000b0: dd44 d53d 3fec 9f3e cc87 92be 3ace 053e
000000c0: 7ba5 83be 248e e0bd be97 a33e 196b 543e
000000d0: 3833 003d 37d6 e63c 428f c23d 5d5e 15bd
000000e0: 4dca d33d b609 8b3d a1da 39be 2301 bf3d
000000f0: ac7a 0b3e 050f 8f3e 0c22 e6bd a46c 3abe
00000100: c007 e0bc 3bee ef3c 5fe8 f3ba e7ae b63d
00000110: d7be 83be aba9 21be 187a 62bc 7cdf 093e
00000120: e792 ef3c d277 083e e566 9fbe 92e6 a83d
00000130: 2b08 493e 7189 b0be d117 37be 6b7f eebb
00000140: e718 853c 8126 9cbe 4fa1 013e e225 69be
00000150: 8a8c 84be 1258 dcbe b83f d53c 84a6 133d
00000160: 07c7 d7be 7149 d7bd c402 953e 599f 92be
00000170: 1f0c 7dbd 0cca a3bd 40d3 d3bd 1c11 5ebe
00000180: c217 b53d e0b4 91be 3a16 ffbc b5df b73b
00000190: 56ee 663e 8e87 71bd 4ad5 a23d 68f0 c6bc
000001a0: df72 173d 3cc6 03bf 43bb a13e b956 343e
000001b0: 2fc1 36be 18e3 b73d bca1 76be d741 8a3d
000001c0: 2114 e63d efc0 26be 1ae9 07bd 1b08 1fbe
000001d0: 996a 0cbe 7940 a2bd 1f39 3cbe a11e 4cbd
000001e0: 4042 c7bd 3ad8 3fbe 4edc 82be f96e f6bd
000001f0: 296f ab3e a870 12be eef1 083e ef36 573e

conv_layers.1.lin.weight f4 [128, 128]
-0.060271528 -0.13339663 -0.099840835 -0.10682039 -0.060931742 -0.0045361295 -0.13036473 0.0003424363
0.024781693 -0.0010401182 -0.022763519 -0.09518139 -0.047650427 0.03708305 -0.00087777834 -0.026953408
-0.0154218 -0.006284612 -0.008258021 -0.07771548 -0.12834688 -0.04688276 -0.11836078 -0.09102207
-0.1346598 -0.017515855 0.005542327 -0.007872235 0.0044306405 -0.032093093 -0.14045285 -0.000104756466
-0.13493559 0.03713848 -0.11327138 -0.020140689 -0.13214014 -0.048698593 -0.07118219 -0.0006412662
-0.0004918356 -0.14621896 -0.16743715 -0.030540429 -0.09910981 0.0041840696 0.026691161 -0.18423378
-0.13581486 -0.027033435 -0.0030516726 -0.017737832 -0.18771783 -0.0027164228 -0.006819336 0.042147566
-0.00058806787 -0.14636096 -0.12628575 -0.029117068 -0.020215927 0.0059687383 -0.08624477 0.019411108
-0.1590381 -0.12584344 0.03188553 -0.039838254 -0.076422326 -0.032257512 -0.071702085 0.0128143
-0.0049683317 -0.00035569826 -0.024351234 -0.0041761743 0.0060936147 -0.06106196 -0.067537986 -0.020172548
-0.02095187 -0.00066744274 -0.1551636 0.029753687 0.02512747 0.044539787 -0.04116148 0.01260263
-0.14042412 0.004859883 -0.004115458 -0.17387871 -0.004416467 0.00691126 0.0381535 -0.00014575725
0.015220764 0.009302417 0.051168714 0.046859793 5.5983197e-05 -0.03000198 -0.025973454 -0.018973542
-0.03406707 0.28682682 -0.0731348 -0.085444294 -0.188805 -0.13523285 0.014051195 -0.1170954
-0.13562268 -0.018898163 -0.0018049754 -0.10504722 -0.024436828 -0.1584741 -0.29202932 0.0034140612
-0.037059307 0.009288641 -0.19757134 -0.021941485 -0.13836165 -0.14636448 -9.5494586e-05 0.02072988
0.13825153 -0.17649007 -0.10670167 -0.11178211 0.08943909 0.25762293 -0.07257107 0.1361414
0.15359414 0.0010366898 0.24063797 0.0067847827 0.08185781 0.05939897 -7.721875e-05 0.18402925
0.15391915 0.19894701 0.026414368 -0.08593747 -0.07330387 0.1255537 -0.097881526 -0.04440783
-0.1242805 0.15435882 0.2066314 0.24353059 0.003131877 0.2265107 -0.19329692 -0.0006726514
-0.10074078 0.19893536 -0.097161375 0.21954995 -0.134913 0.11624012 0.05418248 0.0009614146
-0.00041162453 -0.11250662 -0.107405014 0.18437523 0.1410194 0.17092302 0.23388582 0.15158479
-0.13357972 0.25475383 0.17176592 0.19499199 -0.10868326 0.0009009031 0.2476013 -0.07760552
-0.0004216339 -0.09679379 -0.09268862 0.14608625 0.23209621 0.20824856 0.0042129247 0.09739344
-0.107988216 -0.058056764 0.22052671 0.23088959 -0.031240668 0.14605547 -0.06281085 0.15846723
0.19183165 -2.794222e-05 0.14516224 0.2190703 0.00085503573 0.27532613 0.24506088 0.23745193
0.19618088 0.00066721946 0.060262065 0.16130877 0.049644202 0.13341053 0.20519494 0.17686003
-0.064007744 0.003194458 0.14512451 -0.13002415 -0.01672888 0.18458521 0.19568446 -0.00053505204
0.16698304 0.20767641 0.21162586 0.096181326 -0.00087985565 0.13108401 0.20462994 0.14919423
0.21482778 -0.4017022 0.2335905 -0.061466236 0.11997948 -0.13835272 0.21602936 -0.0733255
-0.060464676 0.24544978 -0.00090275175 0.06455434 0.22987182 -0.08150408 0.49746954 -0.00010548851
0.10849542 0.22064589 0.20998955 0.014654006 -0.101753704 -0.093655325 0.00035982387 -0.38513258
00000000: 47df 76bd 2099 08be 5a79 ccbd a6c4 dabd
00000010: 9093 79bd d0a3 94bb 557e 05be 0689 b339
00000020: fa02 cb3c 9354 88ba 8f7a babc 76ee c2bd
00000030: 182d 43bd 65e4 173d b51a 66ba 65cd dcbc
00000040: b8ab 7cbc 26ef cdbb a74c 07bc 4b29 9fbd
00000050: 5d6d 03be 2308 40bd 2367 f2bd c769 babd
00000060: 42e4 09be 697d 8fbc 699c b53b 8cfa 00bc
00000070: e82e 913b 0c74 03bd dfd2 0fbe b3b0 dbb8
00000080: 8e2c 0abe 851e 183d d3fa e7bd 16fe a4bc
00000090: bf4f 07be 2d78 47bd f8c7 91bd a51a 28ba
000000a0: 87ee 00ba 6cba 15be a574 2bbe ec2f fabc
000000b0: 16fa cabd 851a 893b 6ca7 da3c c8a7 3cbe
000000c0: 0d13 0bbe 3975 ddbc 92fe 47bb ee4e 91bc
000000d0: 1a39 40be 0306 32bb bd74 dfbb eda2 2c3d
000000e0: 9128 1aba a6df 15be 0d51 01be eb86 eebc
000000f0: df9b a5bc 6895 c33b 19a1 b0bd 0b04 9f3c
00000100: e2da 22be 1add 00be 679a 023d 702d 23bd
00000110: 4f83 9cbd 7420 04bd 8bd8 92bd 12f3 513c
00000120: 63cd a2bb 037d bab9 3d7c c7bc 4ad8 88bb
00000130: f2ac c73b 1b1c 7abd 5b51 8abd e640 a5bc
00000140: 42a3 abbc 53f7 2eba 35e3 1ebe 01be f33c
00000150: 20d8 cd3c 5a6f 363d f198 28bd 437b 4e3c
00000160: 57cb 0fbe a73f 9f3b f7da 86bb 430d 32be
00000170: 03b8 90bb da77 e23b d846 1c3d 6ad6 18b9
00000180: 8360 793c 2a69 183c 4996 513d 0ef0 3f3d
00000190: 80cf 6a38 b6c6 f5bc 48c6 d4bc 676e 9bbc
000001a0: e989 0bbd f7da 923e b3c7 95bd 6bfd aebd
000001b0: 1956 41be 7b7a 0abe fc36 663c b7cf efbd
000001c0: ace0 0abe 52d0 9abc ed94 ecba ff22 d7bd
000001d0: be2f c8bc 0947 22be de84 95be 71be 5f3b
000001e0: 80cb 17bd 622f 183c 2450 4abe a1be b3bc
000001f0: adae 0dbe 92e0 15be 4444 c8b8 b6d1 a93c
00000200: cf91 0d3e d0b9 34be 6886 dabd 05ee e4bd
00000210: d72b b73d 27e7 833e 24a0 94bd a768 0b3e
00000220: c847 1d3e 8ae1 873a cd69 763e e252 de3b
00000230: 11a5 a73d 564c 733d 80f0 a1b8 2a72 3c3e
00000240: fb9c 1d3e c4b8 4b3e f262 d83c fcff afbd
00000250: 5720 96bd 2691 003e 1c76 c8bd fce4 35bd
00000260: c686 febd 3d10 1e3e 2f97 533e 1560 793e
00000270: 2d40 4d3b 6cf2 673e a1ef 45be df54 30ba
00000280: 2f51 cebd b6b5 4b3e 8bfc c6bd b4d1 603e
00000290: a226 0abe 4d0f ee3d 73ee 5d3d 7107 7c3a
000002a0: 4fcf d7b9 df69 e6bd 29f7 dbbd dccc 3c3e
000002b0: 6467 103e 7206 2f3e c47f 6f3e 0b39 1b3e
000002c0: 1fc9 08be 186f 823e 68e3 2f3e fbab 473e
000002d0: 5495 debd 952a 6c3a 328b 7d3e a5ef 9ebd
000002e0: be0e ddb9 d33b c6bd 88d3 bdbd a297 153e
000002f0: a1aa 6d3e 1c3f 553e 930c 8a3b 3676 c73d
00000300: ed28 ddbd eecc 6dbd c1d1 613e 526e 6c3e
00000310: 6eec ffbc 918f 153e faa2 80bd 3c45 223e
00000320: 846f 443e 7665 eab7 69a5 143e f753 603e
00000330: 7a24 603a 8cf7 8c3e 3df1 7a3e 9926 733e
00000340: a4e3 483e 57e8 2e3a 5bd5 763d 202e 253e
00000350: b857 4b3d c59c 083e 9f1e 523e cc1a 353e
00000360: 7e16 83bd 1d5a 513b 859b 143e 0d25 05be
00000370: 010b 89bc e803 3d3e 8261 483e bc42 0cba
00000380: 9afd 2a3e 20a9 543e 73b4 583e b7fa c43d
00000390: 1da6 66ba e33a 063e 838a 513e 5fc6 183e
000003a0: d0fb 5b3e e9ab cdbe 5932 6f3e 05c4 7bbd
000003b0: cdb7 f53d 56ac 0dbe cd36 5d3e ae2b 96bd
000003c0: cfa9 77bd 3057 7b3e a5a6 6cba 1135 843d
000003d0: 8563 6b3e 9ceb a6bd 54b4 fe3e b639 ddb8
000003e0: d932 de3d fff0 613e 8007 573e 5b17 703c
000003f0: 3f64 d0bd 5dce bfbd bea6 bc39 1930 c5be
