Experiment/pre_trained_model/BZR/DGI.GCN.128hidden_dim.pth (torch, 96128 bytes, 4 tensors)

conv_layers.0.bias f4 [128]
0.0146588 0.12656766 -0.013703892 0.046064515 0.22096959 -0.113957666 0.037920572 -0.11654231
0.08553718 0.017470839 -0.063610554 -0.015349278 0.024105879 0.041375637 0.032758795 -0.09669685
0.028991139 0.45755213 0.035536274 -0.19495189 0.07817423 0.026067423 0.034844443 -0.0015775792
0.28652298 0.34403834 0.36902714 -0.26050383 0.06665745 -0.0019432701 0.24703638 0.061057188
0.36315465 0.2229015 0.2125188 0.023652108 0.04379395 0.010943986 0.034304764 0.039654907
-0.054152 0.00077579526 -0.22952199 -0.0055965474 0.47717723 -0.13796772 0.102560915 0.026452187
-0.02162106 0.03368554 -0.18065433 0.039969675 -0.10382145 0.2828226 0.07515671 0.43164116
-0.16085069 0.019232098 0.3746236 -0.47453108 -0.043643326 -0.37793458 -0.24755073 -0.10377581
0.041183345 0.11832064 -0.13651611 -0.029506495 0.47567683 -0.0045962795 -0.029102957 0.012901764
-0.03599754 0.10693259 0.038427904 -0.13467789 0.34932953 -0.19111466 0.06946828 0.021911822
-0.02343127 -0.015615691 0.025563063 0.116093695 -0.003160047 0.0032490932 0.10692335 -0.20922716
0.052529633 0.03166906 -0.026923405 -0.01855419 -0.22269988 -0.035010543 0.37058425 -0.035251588
0.46182546 0.04420282 0.2173587 0.06708481 0.32386997 0.09982881 -0.0432239 -0.080304705
0.39171332 0.05923858 0.38424236 0.042465743 0.37967664 0.014329391 0.027281662 -0.05017378
0.017725877 0.09517097 0.023904404 -0.0039198925 0.0572832 0.03472966 -0.16444147 0.07747539
0.07119707 -0.038132835 0.37355536 0.4445655 0.111383714 0.22944224 0.21666324 -0.044210777
00000000: 772b 703c f49a 013e 4a86 60bc 25ae 3c3d
00000010: da45 623e a362 e9bd 9a52 1b3d bcad eebd
00000020: 1e2e af3d 011f 8f3c 4046 82bd 8a7b 7bbc
00000030: b179 c53c 8079 293d 162e 063d 0009 c6bd
00000040: d37e ed3c 4644 ea3e 7c8e 113d 78a1 47be
00000050: d019 a03d 598b d53c 0cb9 0e3d c6c6 ceba
00000060: 24b3 923e cb25 b03e 20f1 bc3e c260 85be
00000070: b383 883d 53b5 feba 1bf7 7c3e 1a17 7a3d
00000080: 68ef b93e 4a40 643e 879e 593e 11c2 c13c
00000090: 4961 333d 674e 333c 2783 0c3d 2f6d 223d
000000a0: 7dce 5dbd bd5e 4b3a d007 6bbe 3e63 b7bb
000000b0: 9350 f43e 6947 0dbe 750b d23d 42b2 d83c
000000c0: a61e b1bc d9f9 093d 73fd 38be 3eb7 233d
000000d0: 57a0 d4bd 20ce 903e c3eb 993d 1200 dd3e
000000e0: 0bb6 24be a28c 9d3c aace bf3e bdf5 f2be
000000f0: 58c3 32bd a480 c1be f07d 7dbe 6988 d4bd
00000100: deaf 283d 1752 f23d e1ca 0bbe 9bb7 f1bc
00000110: ea8b f33e 639c 96bb 5369 eebc ec61 533c
00000120: 2872 13bd 79ff da3d 9466 1d3d 00e9 09be
00000130: 52db b23e 90b3 43be 6345 8e3d 6c80 b33c
00000140: eff2 bfbc f5d8 7fbc a169 d13c 88c2 ed3d
00000150: cb18 4fbb bdee 543b a1fa da3d a53f 56be
00000160: 5029 573d 6bb7 013d 798e dcbc f5fe 97bc
00000170: 700b 64be 3767 0fbd 38bd bd3e f863 10bd
00000180: 6374 ec3e 040e 353d 4793 5e3e c363 893d
00000190: 49d2 a53e 0c73 cc3d 8b0b 31bd cb76 a4bd
000001a0: a68e c83e 27a4 723d 6abb c43e 8ff0 2d3d
000001b0: fa64 c23e d2c5 6a3c cb7d df3c 0683 4dbd
000001c0: dc35 913c ffe8 c23d 2bd3 c33c 7172 80bb
000001d0: caa1 6a3d b040 0e3d 5863 28be 6bab 9e3d
000001e0: c5cf 913d 2d31 1cbd a642 bf3e 179e e33e
000001f0: 251d e43d e8f2 6a3e f8dc 5d3e 5c16 35bd

conv_layers.0.lin.weight f4 [128, 53]
-0.22324121 0.1788787 -0.018300941 0.13734663 -0.13312335 0.30688143 0.27362934 0.5205948
0.57437617 -0.050193895 -0.011312493 0.021577558 -0.14121826 0.073957406 0.2787759 0.01053414
0.21062195 0.038926046 0.07962137 0.06838237 -0.042200297 0.072452016 -0.071995445 0.117047146
-0.12733176 -0.0079955505 0.17209591 0.022497062 -0.031318765 -0.037945814 -0.022823408 0.041533064
0.11696302 -0.13442591 0.375388 0.0018640332 0.053433765 0.1408695 -0.10557215 0.0277746
0.16854137 0.16028708 -0.104744196 0.102023736 -0.15711415 -0.11914231 0.049056046 -0.14116393
0.11454366 -0.10014709 -0.13707797 -0.17962508 0.2010494 -0.27215162 0.022591628 0.016065244
-0.07883806 0.006208394 0.027470265 0.027809268 0.48823008 0.15928838 -0.025092358 -0.14843598
-0.1239868 0.13644199 -0.063428655 -0.6806307 -0.5079825 0.5358334 -0.008723015 -0.12512259
0.14948563 0.124954924 0.17696035 0.13761729 0.102296814 0.12564553 0.17992577 -0.030963965
-0.0298002 0.114509515 -0.011700741 0.04967104 0.05489842 0.088190675 0.12664191 0.324232
-0.03584549 -0.1748283 -0.1115708 0.031452704 -0.027884576 0.15564312 -0.09686012 -0.16340072
-0.10057434 -0.17170063 0.070885524 0.049163546 -0.08847556 -0.121204264 -0.03328698 -0.008674701
0.13834639 0.025388647 -0.17317851 -0.11422526 0.004897778 0.01262413 0.100337744 -0.15582566
0.13895866 0.585613 0.5500222 0.12377855 -0.12977111 0.084758066 -0.049290888 0.12421554
0.37647164 -0.3461434 -0.5093612 0.030223412 -0.08727076 -0.03452339 0.1367897 0.07536625
-0.06182811 -0.00078254973 -0.123907216 0.14248873 -0.14195468 0.067484654 0.0010185192 -0.1232627
0.024456464 -0.16696325 -0.02464692 0.069163956 -0.4653653 -0.086415365 0.15991727 -0.10444767
-0.04635935 -0.059451316 0.065128475 0.1613699 -0.050250456 -0.16924533 -0.18015672 -0.12456594
0.077318214 0.040511157 -0.096992105 -0.094321124 0.029956471 -0.18147974 0.4140685 0.038429394
-0.12134204 -0.036211226 0.08859795 0.118372306 -0.20378773 0.4265255 -0.15849715 0.09787471
0.08441551 0.087804705 -0.04909505 -0.008125951 -0.092326306 -0.15159489 -0.18467078 0.3038754
0.17983383 0.12647381 -0.072600104 -0.11903281 0.029598806 0.16469923 -0.14233872 -0.15078293
-0.12128218 0.095464446 0.0056812176 0.012059665 0.14226803 -0.07507837 -0.12867832 -0.08142209
-0.01666031 0.23500243 -0.015270865 0.045549493 0.17308773 0.011184069 0.058216643 0.12934604
0.03801831 0.16686124 0.15164222 0.17178869 0.020820076 -0.08706784 0.10978132 0.15985577
0.10170509 0.06337548 -0.08375103 0.100803964 0.34057602 -0.090382725 0.020072602 0.030324318
-0.0075486368 0.23187102 0.36603063 0.14752597 -0.2557647 0.11330866 -0.09822541 -0.026253473
0.11261021 0.12772977 -0.46773592 0.064189665 -0.19035302 -0.05776634 -0.033732872 -0.11184286
-0.016946938 0.02175614 -0.09816412 -0.11657208 -0.0040672836 -0.07263303 -0.0534645 -0.15900727
-0.0649816 -0.044402573 0.17742598 0.08454426 0.09783929 -0.019009436 -0.13481791 -0.17502901
0.025838464 -0.14233321 -0.083794154 -0.09531503 0.11776682 -0.14394663 0.00083522615 -0.16196494
00000000: 5899 64be fa2b 373e dbeb 95bc 98a4 0c3e
00000010: 7d51 08be 901f 9d3e 2519 8c3e b345 053f
00000020: 510a 133f 1d98 4dbd 0958 39bc 6bc3 b03c
00000030: 859b 10be fb76 973d b7bb 8e3e 6397 2c3c
00000040: 48ad 573e eb70 1f3d 8710 a33d 0e0c 8c3d
00000050: 38da 2cbd b961 943d 5972 93bd 6ab6 ef3d
00000060: 4263 02be c5ff 02bc e939 303e c24b b83c
00000070: 1b48 00bd 126d 1bbd 28f8 babc 931e 2a3d
00000080: 4f8a ef3d f2a6 09be db32 c03e 9352 f43a
00000090: 5ddd 5a3d 1840 103e 3636 d8bd 8f87 e33c
000000a0: 1c96 2c3e 4c22 243e 2084 d6bd d2f1 d03d
000000b0: 88e2 20be e200 f4bd feee 483d 478d 10be
000000c0: de95 ea3d eb19 cdbd 2b5e 0cbe a3ef 37be
000000d0: e5df 4d3e 7557 8bbe 1412 b93c 429b 833c
000000e0: d975 a1bd c96f cb3b 5209 e13c 43d0 e33c
000000f0: 4bf9 f93e 7e1c 233e 7d8e cdbc 9aff 17be
00000100: cbec fdbd 73b7 0b3e e2e6 81bd d03d 2ebf
00000110: 240b 02bf 612c 093f faea 0ebc 2320 00be
00000120: c312 193e 5ee8 ff3d 1835 353e 8ceb 0c3e
00000130: fe80 d13d 39a9 003e 763e 383e 24a8 fdbc
00000140: 8d1f f4bc f783 ea3d 77b4 3fbc dc73 4b3d
00000150: 2add 603d 509d b43d 6bae 013e bd01 a63e
00000160: b8d2 12bd 3106 33be 3b7f e4bd 8dd4 003d
00000170: 326e e4bc e960 1f3e 995e c6bd 8552 27be
00000180: ebf9 cdbd 4ad2 2fbe 6e2c 913d b75f 493d
00000190: ad32 b5bd f139 f8bd ee57 08bd 5520 0ebc
000001a0: adaa 0d3e dafb cf3c b555 31be efee e9bd
000001b0: 8a7d a03b 70d5 4e3c e07d cd3d c390 1fbe
000001c0: 2e4b 0e3e bcea 153f 41ce 0c3f 9c7f fd3d
000001d0: b8e2 04be a395 ad3d 3ee5 49bd b864 fe3d
000001e0: e4c0 c03e b539 b1be 7f65 02bf 1797 f73c
000001f0: 03bb b2bd 6668 0dbd 9912 0c3e 9f59 9a3d
00000200: 793f 7dbd 0624 4dba 11c3 fdbd 91e8 113e
00000210: 915c 11be 6535 8a3d d57f 853a 2871 fcbd
00000220: ec58 c83c 6af8 2abe 56e8 c9bc d5a5 8d3d
00000230: 5c44 eebe 8afa b0bd 5ac1 233e a9e8 d5bd
00000240: 4de3 3dbd 3983 73bd 1462 853d 273e 253e
00000250: 6cd3 4dbd a64e 2dbe 017b 38be 6d1c ffbd
00000260: 0359 9e3d 07ef 253d cca3 c6bd 6f2b c1bd
00000270: 4667 f53c d3d5 39be c900 d43e 2468 1d3d
00000280: 2d82 f8bd 3952 14bd d872 b53d 2e6d f23d
00000290: bbad 50be 8d61 da3e 144d 22be 8972 c83d
000002a0: 0ae2 ac3d f4d2 b33d e417 49bd b522 05bc
000002b0: 9315 bdbd b13b 1bbe 561a 3dbe 8e95 9b3e
000002c0: 5c26 383e 5a82 013e 5daf 94bd 79c7 f3bd
000002d0: 3279 f23c eaa6 283e 3ec1 11be d766 1abe
000002e0: cb62 f8bd dd82 c33d 8229 ba3b e795 453c
000002f0: b6ae 113e b0c2 99bd 40c4 03be a0c0 a6bd
00000300: 347b 88bc 7aa4 703e a632 7abc 1b92 3a3d
00000310: e93d 313e 633d 373c 9374 6e3d 4a73 043e
00000320: 16b9 1b3d acdd 2a3e 1948 1b3e 60e9 2f3e
00000330: dd8e aa3c a050 b2bd 07d5 e03d 3bb1 233e
00000340: c24a d03d 01cb 813d a985 abbd 4f72 ce3d
00000350: fb5f ae3e 941a b9bd 4c6f a43c b46a f83c
00000360: 8e5a f7bb 996f 6d3e 5e68 bb3e 0c11 173e
00000370: 97f3 82be 5f0e e83d 672a c9bd 8611 d7bc
00000380: 2fa0 e63d 98cb 023e 157b efbe df75 833d
00000390: e7eb 42be 669c 6cbd 7b2b 0abd df0d e5bd
000003a0: 4ed4 8abc ef39 b23c 450a c9bd 58bd eebd
000003b0: d946 85bb a0c0 94bd 97fd 5abd cdd2 22be
000003c0: 1315 85bd 79df 35bd 28af 353e 8a25 ad3d
000003d0: f75f c83d adb9 9bbc b50d 0abe ce3a 33be
000003e0: 30ab d33c ccbf 11be 459c abbd 8734 c3bd
000003f0: bb2f f13d bf66 13be 14f3 5a3a 23da 25be

conv_layers.1.bias f4 [128]
0.21634708 -0.124425806 0.07057022 0.116435505 0.2709003 -0.03269619 0.17948142 0.28463918
-0.083207116 0.23300967 0.26374564 -0.20902067 0.16646342 0.174924 -0.19223331 0.15258741
0.25963807 -0.25906748 0.26691774 -0.10342191 -0.0329565 0.27511734 0.25928277 0.26101384
0.15778367 -0.25609508 -0.065950274 0.116966486 -0.17698519 -0.072187126 0.21906929 0.20464304
0.2678516 0.24664526 0.099586226 0.20065384 0.12278779 0.30105892 0.27392307 0.08742914
-0.08980644 0.1437805 0.099850744 0.19442686 -0.16963062 -0.04631049 0.17025599 0.034350872
0.30074206 0.23431432 0.18832569 0.18119009 0.26868302 0.21804383 0.117128596 0.171383
0.28902906 0.25134858 0.25393906 0.11613821 0.11513908 0.24572657 0.17862283 0.18292987
0.07780032 -0.028957352 -0.24537341 0.031554334 0.26023796 0.06912968 0.15775591 0.09569957
0.26976594 0.1616749 -0.23112696 0.2716643 0.20775743 0.2825543 -0.19340432 -0.27493778
-0.08187764 -0.17881227 0.116986655 -0.26397628 0.121719465 0.13454552 -0.11451417 0.2515496
-0.24180737 0.1841308 0.15139215 0.14953971 0.20975497 0.26589563 0.23570487 0.22426717
0.17332137 0.2986306 0.2714199 0.12402909 0.15618446 0.1328122 0.20536661 0.1327323
0.18871681 0.18734205 0.2669521 0.0052511403 0.27060303 0.024986953 0.18543015 0.19752502
0.18412583 0.2766208 0.12987095 0.25579864 0.18535921 0.13780959 -0.174393 0.19738753
-0.015709208 0.10746228 0.07262454 0.1557579 0.0719728 0.26365107 -0.07670316 0.049254373
00000000: 178a 5d3e f5d2 febd 1f87 903d bd75 ee3d
00000010: 72b3 8a3e 71ec 05bd fac9 373e 3abc 913e
00000020: 7e68 aabd 169a 6e3e ab09 873e 8409 56be
00000030: 6375 2a3e 471f 333e cfd8 44be e03f 1c3e
00000040: 48ef 843e 7ea4 84be 71a9 883e dece d3bd
00000050: 65fd 06bd 2edc 8c3e b6c0 843e 9ba3 853e
00000060: 0b92 213e e51e 83be f010 87bd 208c ef3d
00000070: 9b3b 35be d8d6 93bd b353 603e f28d 513e
00000080: d823 893e 9390 7c3e ddf3 cb3d 3378 4d3e
00000090: 2a78 fb3d 6524 9a3e a53f 8c3e 0d0e b33d
000000a0: 70ec b7bd 323b 133e 8c7e cc3d d617 473e
000000b0: a6b3 2dbe 12b0 3dbd 9657 2e3e 80b3 0c3d
000000c0: ddfa 993e 18f0 6f3e 73d8 403e e589 393e
000000d0: d290 893e e246 5f3e 1ee1 ef3d 067f 2f3e
000000e0: 9efb 933e c3b0 803e 4d04 823e dfd9 ed3d
000000f0: 0ace eb3d bf9f 7b3e e7e8 363e f851 3b3e
00000100: c655 9f3d f837 edbc 2b43 7bbe 1e3f 013d
00000110: e93d 853e dd93 8d3d c48a 213e 23fe c33d
00000120: c31e 8a3e 1b8e 253e 8cac 6cbe 9517 8b3e
00000130: 5dbe 543e f5aa 903e c80b 46be a5c4 8cbe
00000140: 77af a7bd 901a 37be b396 ef3d e627 87be
00000150: 0e48 f93d 4dc6 093e 6886 eabd 1ccb 803e
00000160: 5a9c 77be c98c 3c3e 8b06 1b3e f020 193e
00000170: 02ca 563e 7923 883e 9e5c 713e 4ba6 653e
00000180: 287b 313e 1ce6 983e 8df7 8a3e f702 fe3d
00000190: d2ee 1f3e ecff 073e a04b 523e faea 073e
000001a0: fb3e 413e 98d6 3f3e f2ad 883e c211 ac3b
000001b0: 7b8c 8a3e 70b1 cc3c 67e1 3d3e 0044 4a3e
000001c0: 7b8b 3c3e 3ea1 8d3e e4fc 043e 0af8 823e
000001d0: cece 3d3e f51d 0d3e 1494 32be f51f 4a3e
000001e0: 99b0 80bc 2f15 dc3d 2dbc 943d 007f 1f3e
000001f0: 7a66 933d 46fd 863e 8c16 9dbd f4be 493d

conv_layers.1.lin.weight f4 [128, 128]
0.26260138 0.37484074 -0.2707807 0.24014372 0.15160438 -0.5397352 0.32702753 -0.40344083
-0.14607385 -0.46531352 -0.24251263 -0.43524647 0.089667894 0.1668252 -0.26179412 -0.58902335
0.051148165 0.22543767 0.27292967 0.54612106 0.06474319 0.50200313 0.14168312 0.3052166
0.22098204 0.12885968 0.09552843 -0.4421715 0.5671715 0.23902215 -0.05113635 0.31086415
0.09578362 0.14897533 0.1940354 0.2580082 0.22112915 0.19120614 0.3149164 0.29276347
-0.36957607 0.22583301 -0.43013364 -0.11417389 0.026003418 -0.3233578 0.7599579 0.19984278
0.24062383 -0.28036585 0.7460754 0.4140045 -0.5085924 0.22911444 0.66552794 0.096547104
-0.4075069 -0.3548634 0.090391055 -0.0072246753 0.37508184 -0.23388565 -0.456322 0.1478995
-0.019868676 0.16796419 0.4576723 -0.5859906 0.09777074 -0.34340078 0.2845381 -0.54254216
-0.2218409 0.8398216 0.07945419 0.53465736 0.15969259 -0.39272562 0.56096613 0.03410706
0.062155418 0.21914764 0.15400697 -0.4421962 0.20534688 -0.29774725 0.65338254 -0.34038126
0.29444593 0.13817903 0.41917232 0.28968903 -0.79228014 -0.0110724475 0.31759343 0.12962359
0.1481203 0.19205798 0.15761015 0.25579345 0.19400477 -0.38889292 0.1478806 -0.40697798
0.17343953 -0.39905724 0.25158983 0.13279516 -0.013365602 -0.41731355 0.19561493 -0.30143833
0.27270868 0.7229921 0.38605908 0.19079107 0.13414168 0.23455751 -0.5677632 -0.27007136
0.18380788 0.24883087 0.32256383 0.17093146 -0.34104905 0.16468644 0.21596944 -0.28167948
-0.3478252 -0.55267763 0.5088859 -0.26613042 0.06869917 0.57939017 -0.13650773 0.46721444
0.29101974 0.4543321 0.1634703 0.46027008 0.01319825 -0.14599705 0.33368093 0.44485155
-0.16867906 -0.09243867 -0.19987828 -0.6421045 -0.13492262 -0.6190319 -0.21257351 -0.27832803
-0.15578873 -0.15260059 0.04261304 0.47556385 -0.7897915 -0.11735172 -0.016972004 -0.42098334
-0.06272814 0.051725782 0.13598707 -0.29012087 -0.10501048 -0.1803324 -0.44799224 -0.32794294
0.34409773 -0.39909777 0.5913609 0.046930883 -0.24038415 0.404995 -0.7846087 -0.2732551
-0.28541678 0.41162145 -0.6554899 -0.61997324 0.48225927 0.11782844 -0.6809913 0.00275774
0.5521677 0.51340955 -0.053655352 0.106229 -0.38992235 0.2761806 0.63894165 -0.4497182
0.09031626 0.05535775 -0.44397414 0.39647487 -0.010006819 0.46921366 -0.13167939 0.5368188
0.5172177 -0.5093725 -0.31725293 -0.60751486 -0.1970011 0.52061427 -0.37238005 -0.29654098
0.10644253 -0.28984508 -0.14436872 0.40976557 -0.3004612 0.5338794 -0.7108922 0.3798624
-0.26385695 -0.08556666 -0.6503555 -0.40399432 0.6542078 -0.088925146 -0.026656324 -0.3174096
-0.16917436 -0.4011024 -0.08303864 -0.12215375 -0.25802854 0.54093075 -0.19218877 0.4561275
0.08470968 0.32397908 -0.35232717 -0.2312729 -0.11376532 0.34237227 -0.23056485 0.37272292
-0.45454362 -0.7087089 -0.5134257 -0.49441135 -0.19730547 -0.2577737 0.493452 0.17580658
-0.4194633 -0.015864227 -0.20757283 -0.006971538 0.18866898 -0.32698408 0.07958039 0.4823671
00000000: b073 863e 20eb bf3e c5a3 8abe 3ce8 753e
00000010: 2e3e 1b3e 162c 0abf 2770 a73e cc8f cebe
00000020: 6294 15be 933d eebe 3b55 78be a0d8 debe
00000030: cda3 b73d 3ad4 2a3e e109 86be 3cca 16bf
00000040: bd80 513d 22d9 663e 70bd 8b3e 97ce 0b3f
00000050: 1498 843d 4783 003f 6115 113e 5a45 9c3e
00000060: 1e49 623e cbf3 033e 69a4 c33d 4e64 e2be
00000070: 2732 113f 39c2 743e 5974 51bd 9629 9f3e
00000080: 342a c43d fd8c 183e 37b1 463e a719 843e
00000090: ae6f 623e 8bcb 433e b93c a13e 18e5 953e
000000a0: 1339 bdbe c540 673e 7a3a dcbe 00d4 e9bd
000000b0: 1f05 d53c 278f a5be 9a8c 423f 96a3 4c3e
000000c0: 1866 763e 1d8c 8fbe ccfe 3e3f 66f8 d33e
000000d0: 1d33 02bf fa9c 6a3e 0a60 2a3f 7dba c53d
000000e0: bfa4 d0be a8b0 b5be f21e b93d f8bc ecbb
000000f0: ba0a c03e b87f 6fbe 0aa3 e9be f772 173e
00000100: a2c3 a2bc cefe 2b3e 0654 ea3e 7b03 16bf
00000110: 073c c83d 3ad2 afbe faae 913e 0be4 0abf
00000120: 432a 63be 8cfe 563f e1b8 a23d 4edf 083f
00000130: 7486 233e 5513 c9be 7a9b 0f3f d8b3 0b3d
00000140: ae96 7e3d 3d68 603e 01b4 1d3e 8a67 e2be
00000150: 7446 523e 5472 98be 1444 273f 7446 aebe
00000160: 9ec1 963e ce7e 0d3e c19d d63e 1f52 943e
00000170: dfd2 4abf 3669 35bc 9b9b a23e 0cbc 043e
00000180: d9ac 173e d9aa 443e 8e64 213e 5cf7 823e
00000190: 30a9 463e f91c c7be 036e 173e 6b5f d0be
000001a0: 229a 313e 3b51 ccbe 62d0 803e 74fb 073e
000001b0: 66fb 5abc 1faa d5be 484f 483e 2056 9abe
000001c0: 79a0 8b3e 0316 393f 89a9 c53e bc5e 433e
000001d0: 705c 093e d82f 703e ee58 11bf cb46 8abe
000001e0: 2238 3c3e 85cd 7e3e 1627 a53e a808 2f3e
000001f0: fb9d aebe 90a3 283e 1827 5d3e 4b38 90be
00000200: 2516 b2be 487c 0dbf 5946 023f 3f42 88be
00000210: 27b2 8c3d ea52 143f afc8 0bbe bb36 ef3e
00000220: 8a00 953e 389e e83e c264 273e 85a8 eb3e
00000230: 793d 583c 4080 15be 3ad8 aa3e 95c3 e33e
00000240: 34ba 2cbe 7c50 bdbd e4ac 4cbe f660 24bf
00000250: 2829 0abe e078 1ebf dfac 59be 0381 8ebe
00000260: 1587 1fbe 5443 1cbe 038b 2e3d 1b7d f33e
00000270: c72f 4abf 1956 f0bd df08 8bbc 218b d7be
00000280: 9c77 80bd 6ade 533d 3240 0b3e b98a 94be
00000290: bc0f d7bd 0fa9 38be 3d5f e5be 23e8 a7be
000002a0: 942d b03e 8b56 ccbe 6e63 173f 993a 403d
000002b0: 4327 76be 815b cf3e 1edc 48bf 18e8 8bbe
000002c0: 2622 92be 0cc0 d23e 30ce 27bf 91b6 1ebf
000002d0: b0ea f63e 0a50 f13d 7255 2ebf 33bb 343b
000002e0: dd5a 0d3f cf6e 033f b7c5 5bbd 978e d93d
000002f0: e7a3 c7be 8b67 8d3e ae91 233f 7741 e6be
00000300: bbf7 b83d cfbe 623d 9450 e3be c1fe ca3e
00000310: a4f3 23bc c63c f03e f6d6 06be f56c 093f
00000320: 6168 043f 3c66 02bf fa6e a2be 1886 1bbf
00000330: a8ba 49be fa46 053f 99a8 bebe 38d4 97be
00000340: 8bfe d93d 9366 94be 65d5 13be cbcc d13e
00000350: 0dd6 99be 52ac 083f 08fd 35bf 537d c23e
00000360: 4218 87be 933d afbd b37d 26bf 58d8 cebe
00000370: 2a7a 273f 631e b6bd 5d5e dabc 8383 a2be
00000380: 0b3c 2dbe 4b5d cdbe 2a10 aabd bf2b fabd
00000390: 511c 84be 707a 0a3f 22cd 44be 8b89 e93e
000003a0: 457c ad3d 96e0 a53e 3a64 b4be ced2 6cbe
000003b0: cbfd e8bd 6b4b af3e 3119 6cbe 8ad5 be3e
000003c0: f1b9 e8be f26d 35bf de6f 03bf 7c23 fdbe
000003d0: 720a 4abe eafa 83be bea5 fc3e a406 343e
000003e0: e5c3 d6be b2f5 81bc f98d 54be 8071 e4bb
000003f0: 7132 413e 756a a7be 0bfb a23d d2f8 f63e
