Experiment/pre_trained_model/BZR/GraphCL.GCN.128hidden_dim.pth (torch, 96224 bytes, 4 tensors)

conv_layers.0.bias f4 [128]
00000000: e930 9ebd 37a5 ddbc da8f f43c a041 1a3d
00000010: cd33 86bd 5afa 03bb 8db9 ddbc 2f4f 72bd
00000020: cbbd 10bd 27cd fbbb 5a85 59bd 0eb3 ff3c
00000030: 851e b2bc 5f31 893c 5fc5 f9bc 741b d1bc
00000040: bc28 25be 26db c4bd b6ae bfbd a176 35bd
00000050: d553 563d d3ef 0cbe 3244 55bd 52a9 6e3d
00000060: 39d7 7abd 3dc7 acbd 6298 c1bd 13b3 22be
00000070: 542f 5bbc a2cd 5fbd a889 f1bd 3b6c 293b
00000080: e0cb fbbd 91df a3bc 0953 d0bd af4e 0b3d
00000090: 4836 0bbe 49a0 85bd c380 363b d6b9 ba3d
000000a0: bf0d 6bbc 23d3 8bbc 6766 26bc 55cd f9bd
000000b0: 4195 e4bd a14f e23c 2697 ef3d 5334 4dbd
000000c0: 17c6 08be df8e 93bd 215a 67bd 4b30 27be
000000d0: 99d0 033e 26fe 31be d9a1 f5bd f9a2 a1bd
000000e0: b535 343d 2a91 0ebd b5f9 5ebd 3f5d 80bc
000000f0: 6c71 8bbd 1c96 533c aa2a 3fbe cb3a 0dbe
00000100: e679 65bd 1603 6fbd d535 4cbe 9495 b53c
00000110: d8af 8abd 9358 04bd c140 68bd 5d7e ac3d
00000120: 703f 85be fb7a 233d 14ef d73c 0d61 63bd
00000130: ddd0 dbbd c127 f63c 64c5 aa3c 9410 003e
00000140: 35c1 c3bc c749 583b 0a12 203d 7c03 d03d
00000150: 7d7b a4bc 1f42 cd3c fd8f c4bc bf33 dd3b
00000160: fcbc b5bd 46e2 843d da2b 6ebc e495 d3bd
00000170: 02f5 d7bd 44fc 86bd b410 d6ba 5a75 4cbd
00000180: ffef eabc beec f2bd 263e 5ebd 100d df3d
00000190: 4ae3 c8bd e741 e23d e9b2 b2bd 7bda ba3a
000001a0: 8ec3 49be 83ff 6dbc 5666 ccbd ff34 5fbe
000001b0: 0f68 94bd c0b8 4abd dbd5 5cbc de29 823b
000001c0: 690c f63c 5dc8 bcbd e8a7 b9bc 7bbb e8bd
000001d0: 2f4b 54bd d3d9 36bd 82e7 2ebd a76f a4bd
000001e0: 1ae8 8ebc 01ef 11be a75c 94bd 9303 97bd
000001f0: 34fc 96bd fb58 b8bd 4175 a2bd cdac 443d
-0.077241726 -0.02705632 0.02985375 0.03766024 -0.06552849 -0.0020138235 -0.027066017 -0.059157547
-0.03533725 -0.007684368 -0.05310569 0.03121331 -0.021743068 0.016747175 -0.030489622 -0.025525786
-0.1612882 -0.09612112 -0.09359495 -0.044302586 0.052326042 -0.1376336 -0.05206699 0.058266945
-0.06124041 -0.08436439 -0.09452893 -0.15888624 -0.013377983 -0.054639466 -0.11793834 0.0025851864
-0.122947454 -0.020004066 -0.10172088 0.034010585 -0.13594925 -0.065247126 0.0027847744 0.09117477
-0.014346539 -0.017068451 -0.010156251 -0.12197367 -0.111612804 0.02762586 0.11698751 -0.05009873
-0.13356815 -0.07204985 -0.056482438 -0.16327016 0.12872542 -0.17382106 -0.119937606 -0.07892413
0.04399653 -0.034806408 -0.054437358 -0.015669463 -0.06808743 0.012914207 -0.18668619 -0.13791959
-0.056024455 -0.058352552 -0.1994241 0.022166051 -0.06771821 -0.032311033 -0.05670238 0.084225394
-0.2602496 0.039912205 0.026359119 -0.055512477 -0.10733197 0.030048253 0.020846076 0.12506324
-0.02389584 0.003300296 0.039079703 0.101569146 -0.020078415 0.025055943 -0.02399444 0.0067505534
-0.088739365 0.06488471 -0.014536822 -0.10331324 -0.105447784 -0.065910846 -0.0016331882 -0.049916603
-0.028678892 -0.11861561 -0.054258488 0.10891163 -0.09808977 0.11047726 -0.08725531 0.0014255786
-0.19703504 -0.014526251 -0.099804565 -0.2179756 -0.0724641 -0.049492598 -0.0134787215 0.003972276
0.030035214 -0.09217904 -0.022663072 -0.11363884 -0.051829513 -0.044641327 -0.04270125 -0.080291085
-0.017444659 -0.14251329 -0.072442345 -0.073737286 -0.07372323 -0.09001347 -0.07932521 0.04801636

conv_layers.0.lin.weight f4 [128, 53]
00000000: c227 5cbe 79d1 cc84 bb47 ac82 7437 f883
00000010: 5274 9b84 cc4f e83c 19d1 6b3d 023e d4bc
00000020: 896e e93d 08f8 a283 a7a3 bf02 55d0 8a82
00000030: c591 7884 a4d5 a583 4afd ad03 136b c53b
00000040: 82ac 9f37 a881 8203 8ab2 0d84 c8bf 6a81
00000050: d914 6f83 c749 8882 1c94 a583 c74b 8304
00000060: 47d6 f403 8790 1782 598a 0504 f687 6501
00000070: 6645 8e83 9bf0 6703 1f1f 3c02 b8ec bd83
00000080: 5554 8d04 343f 9804 fefb 0f3b 95a1 bf82
00000090: d433 ef03 90c2 b004 0265 0684 15c7 3583
000000a0: 9b43 3d04 cf53 b984 4ec9 9b03 037b 1504
000000b0: 843d c204 d1e7 8984 184f f482 cde5 8a84
000000c0: 4750 2504 b7c2 6984 a206 9104 4a52 6e83
000000d0: 8c67 d6b9 bc39 ccbd 9d3a 6a02 eaf1 ff01
000000e0: 76c0 3384 9322 9882 457f aabb 9a9d 89be
000000f0: 17d0 863f 8e00 2fbe a2a7 0f83 5028 5704
00000100: 7bc7 1d82 4c72 4384 6cb6 e383 706f 9704
00000110: 7cb6 00bf d93a dc3e 3a03 2a80 ba90 9102
00000120: 4934 bd04 d12e 1884 5f7d c504 8379 b903
00000130: cb09 a683 77c4 9704 6624 8604 b049 8483
00000140: 331a a801 2f8a 0c04 f401 4b82 e2e5 e682
00000150: 8004 b503 4ed8 3503 d2cc 7584 5d9a debd
00000160: 9f61 9f03 d2f8 df04 8977 2904 6e5d 8283
00000170: 58e3 d281 e16c c604 2311 6584 e9df 7c04
00000180: d06c 8203 42ff 2004 46f6 2702 7655 dd83
00000190: 3b99 3704 d3f7 9484 57f9 1200 5119 d002
000001a0: 33d5 9d04 d8f2 353f fd40 1dbf fcfd c103
000001b0: 89d7 a502 026c 7401 b4b5 0a04 819a d2bd
000001c0: 1c83 a73e 122c 703f 26e4 33be 014a 2e04
000001d0: 52d7 b903 dff7 9f83 52b9 4903 1989 2c84
000001e0: 505d 0304 15e7 d6be 6fb4 2abe f1a3 4883
000001f0: aa99 4404 50f4 6b83 de87 a984 bfc0 2704
00000200: 6a85 0c84 1fe9 6902 167a 9883 c751 9a84
00000210: d761 8b04 794c 8b83 7be1 1502 c667 8784
00000220: 8521 6483 c61a 9b04 c2b6 9902 3f5b 1904
00000230: 7e76 64be 2230 3684 46cb 2884 b1b7 7604
00000240: f2ea e002 d8f6 ae83 53bf 2a03 e39b 0a02
00000250: f23e cc82 62b6 d984 72fd c284 23a3 9904
00000260: 9008 b883 f1f7 6283 dc50 3484 ce35 3904
00000270: bca1 ee01 10eb 1c83 f508 553f 5a81 7abd
00000280: 8424 8984 62f8 9e03 1e69 5284 a3dd c983
00000290: e842 89bc c02d 8ebe 52ee 8e3f 4b4c 28be
000002a0: 7a93 3184 75c3 4004 04c2 8c03 da01 c702
000002b0: b636 3e84 5b5a 1d03 c99e 31bf bedf 053f
000002c0: 0ee7 5004 77ae 0884 a30b 0d04 c0f3 9184
000002d0: eb51 5683 6cd9 5183 c182 af04 ffca af04
000002e0: c007 9184 8fbe 0f04 9bd7 b701 baac e582
000002f0: c0ab b284 8994 8003 d8b7 2701 a60b 2784
00000300: 02a5 1903 6475 5cbe 2e73 e800 4faf 9181
00000310: 4c36 ce04 e237 5102 dd6b f083 dcd3 9d84
00000320: 6a6f e102 1be2 7a84 b638 9b83 b030 c283
00000330: c98c 3983 f480 2904 fb95 7184 0c46 f883
00000340: 3452 6d04 4fe3 8d03 8d40 2a84 085a 4d3f
00000350: 519a 93bc 9514 4582 c17e 3683 af5e 8203
00000360: 4462 5282 6df1 2c3e afb4 d43e 6ca7 82be
00000370: 1a5b eb3e 7561 b202 366d 2584 bfec 0c01
00000380: 88cc 4e04 52ad 4004 c614 1084 c239 503f
00000390: 064a 94bd dc13 0584 4ec2 9983 1d19 8804
000003a0: 4820 0d03 b8a5 9702 ac96 f283 509a 1584
000003b0: ee8e b401 a8cd 1c04 a66b d683 8e8c c484
000003c0: 6052 c903 e2ee 8083 ac7b f503 2127 4684
000003d0: e268 1a84 3478 2403 06ad 093f e59d c604
000003e0: 183d 2203 06ec af04 b0a6 3b84 f0aa 5a84
000003f0: ba60 7184 594f 9084 f6fd d182 e132 bc84
-0.21499541 -4.815254e-36 -2.53143e-37 -1.4588861e-36 -3.654715e-36 0.028358363 0.057572458 -0.025908474
0.11398036 -9.578449e-37 2.815886e-37 -2.0396854e-37 -2.9219194e-36 -9.746878e-37 1.02261785e-36 0.006024727
1.9034607e-05 7.670481e-37 -1.6656451e-36 -4.3116609e-38 -7.025972e-37 -2.002575e-37 -9.731833e-37 3.0867542e-36
1.4390227e-36 -1.1135205e-37 1.5697601e-36 4.2158204e-38 -8.361943e-37 6.8161e-37 1.382099e-37 -1.116277e-36
3.3226387e-36 3.579307e-36 0.0021970267 -2.8157671e-37 1.4059057e-36 4.155608e-36 -1.5798005e-36 -5.3419654e-37
2.2247886e-36 -4.3570257e-36 9.1562985e-37 1.757135e-36 4.5665674e-36 -3.2421435e-36 -3.5897975e-37 -3.2654683e-36
1.9432518e-36 -2.7478427e-36 3.4095427e-36 -7.0036377e-37 -0.0004089441 -0.099719495 1.7208426e-37 9.4019336e-38
-2.1129723e-36 -2.2354237e-37 -0.00520316 -0.26878053 1.0532254 -0.17090055 -4.2216356e-37 2.529164e-36
-1.1591786e-37 -2.2974622e-36 -1.3383743e-36 3.560227e-36 -0.5027845 0.43013647 -3.858248e-39 2.1388904e-37
4.4481703e-36 -1.7889011e-36 4.6429613e-36 1.09012205e-36 -9.7588515e-37 3.5680354e-36 3.1536675e-36 -7.7751805e-37
6.175105e-38 1.6520372e-36 -1.4914645e-37 -3.3927409e-37 1.0639257e-36 5.3439425e-37 -2.889366e-36 -0.10869286
9.367593e-37 5.2655553e-36 1.9920742e-36 -7.662164e-37 -7.746804e-38 4.6649566e-36 -2.692669e-36 2.9725272e-36
7.665695e-37 1.8925118e-36 1.2339899e-37 -1.3008833e-36 2.1581907e-36 -3.5022223e-36 1.742485e-39 3.0577384e-37
3.7106315e-36 0.71073675 -0.6142729 1.1401832e-36 2.4368282e-37 4.4893214e-38 1.6305256e-36 -0.102833755
0.32717216 0.93817246 -0.175675 2.0487583e-36 1.0922758e-36 -9.4020885e-37 5.928133e-37 -2.0281455e-36
1.5441823e-36 -0.41973177 -0.16670392 -5.8962913e-37 2.3110248e-36 -6.934075e-37 -3.9856483e-36 1.971926e-36
-1.6518182e-36 1.7185039e-37 -8.961787e-37 -3.6280327e-36 3.2768595e-36 -8.187243e-37 1.1011501e-37 -3.183365e-36
-6.7041657e-37 3.6464912e-36 2.2586227e-37 1.8026962e-36 -0.22310826 -2.1416099e-36 -1.9841644e-36 2.9001508e-36
3.3048694e-37 -1.0283473e-36 5.017814e-37 1.0183376e-37 -3.0011235e-37 -5.1183947e-36 -4.5841934e-36 3.6119945e-36
-1.0816514e-36 -6.6700054e-37 -2.1196027e-36 2.1771351e-36 8.765947e-38 -4.611412e-37 0.8321679 -0.061158516
-3.224208e-36 9.343431e-37 -2.4733649e-36 -1.18646035e-36 -0.016755536 -0.2776928 1.116648 -0.16435353
-2.0873968e-36 2.2659241e-36 8.273004e-37 2.9241485e-37 -2.2359515e-36 4.6241876e-37 -0.6938291 0.5229453
2.4556378e-36 -1.6066833e-36 1.6579814e-36 -3.4313185e-36 -6.2982985e-37 -6.166917e-37 4.126238e-36 4.1328725e-36
-3.4096453e-36 1.689707e-36 6.753296e-38 -3.3747666e-37 -4.2005326e-36 7.557266e-37 3.0804957e-38 -1.9636104e-36
4.515208e-37 -0.21529156 2.1347154e-38 -5.3516143e-38 4.848023e-36 1.5370933e-37 -1.4130696e-36 -3.7105085e-36
3.3124727e-37 -2.9491181e-36 -9.123101e-37 -1.1413473e-36 -5.4528227e-37 1.9925067e-36 -2.8398282e-36 -1.4592212e-36
2.7896962e-36 8.339423e-37 -2.0013044e-36 0.802155 -0.01801792 -1.4479181e-37 -5.36305e-37 7.662452e-37
-1.5456564e-37 0.16888972 0.415441 -0.25518358 0.45967942 2.6210687e-37 -1.9445804e-36 2.5883796e-38
2.43091e-36 2.2649076e-36 -1.6936657e-36 0.8133813 -0.07240681 -1.5643194e-36 -9.037142e-37 3.199651e-36
4.1473233e-37 2.2282574e-37 -1.4258074e-36 -1.7585723e-36 6.632665e-38 1.8432145e-36 -1.2602504e-36 -4.6208458e-36
1.1832631e-36 -7.578009e-37 1.44281995e-36 -2.3292755e-36 -1.8150773e-36 4.8333255e-37 0.5377964 4.669458e-36
4.7677653e-37 4.1359056e-36 -2.2058284e-36 -2.5704267e-36 -2.8373829e-36 -3.3927107e-36 -3.0855556e-37 -4.4245312e-36

conv_layers.1.bias f4 [128]
00000000: efe8 473c ef98 bdbd 75fc e1bd 463f 343e
00000010: 4e9e 0ebe d99e e73d d6bc f8bd 111f 3dbe
00000020: 9d66 243a 526e 443d c93c b8bc c7ff aa3c
00000030: f012 7dbe bdc0 60be f5d4 5bbe 7b99 4a3e
00000040: a99b f3bb ef0d f3bc e33e 483e 26a0 293e
00000050: 0334 cd3b f310 853e 0f7a 513e 25aa 2b3e
00000060: 2bf4 1fbd 443b b93c fbc5 173e 93fe 23bd
00000070: cdc7 25bd 4008 4d3e 2813 04be 919e f4bc
00000080: 6cb6 a7bd 80dc 563e bf13 efbd 4d63 853e
00000090: c947 67be c52f 4b3e 0a96 a43d 2927 d03d
000000a0: 2bb5 3a3d d664 33bd b831 8cbe 9de1 bc3d
000000b0: fbd8 eabd 1298 febb 1669 7cbd 040d 39bd
000000c0: 43ce 213d b2df 593e c037 8b3e 1597 263e
000000d0: 0775 f63d 9540 58be ca26 43be 878f 033e
000000e0: d620 8c3e e827 0ebe 99ba fc3c cba1 ce3d
000000f0: 2cd4 363d c225 293e 5889 afbd 35a5 5f3b
00000100: 95c2 aebd 2fab 3e3c 0181 ff3d a000 7bbd
00000110: 0a84 8cbb f300 563e c8fc 5c3e ed54 f6bd
00000120: 9e77 963d 283e a7bc f345 9abd b33c af3c
00000130: d6ae db3d 434c d83d 88af 39be 0dba 35be
00000140: db30 42be 1a2e 8bbd 6ae4 55be 962f 7c3d
00000150: 6704 333e fef4 173d a1d2 f33b a04a d6bd
00000160: d6a3 2e3e 2368 27bd 58e3 94be 91ed 0fbe
00000170: c4ea 19be d32d 3dbe 120e a7bc 47be 863d
00000180: aa24 0c3e 4b7d e5bd f9be 87be 0b74 553e
00000190: f90a 7e3e 646d 1f3c e8c2 123d 8ad5 56be
000001a0: d690 73be 43c7 093d a5aa c33c d3c5 d4bd
000001b0: 9fbd ccbd b634 6d3d 7768 373d 97d9 0fbe
000001c0: 23ba 56be 4c90 923d ad3c 56bd 0075 773c
000001d0: 93ec 20be 69dc 6bbe 0847 1abe 5a8c d13d
000001e0: e853 1bbd d110 09bd 1482 f13d 9ed4 0cbe
000001f0: fc17 31be bdc4 33bd 62bc 9a3c 2389 293d
0.012201532 -0.092576854 -0.110344805 0.17602262 -0.13927576 0.11309595 -0.121453926 -0.18468882
0.0006271394 0.047956772 -0.022489922 0.020873917 -0.24714255 -0.21948524 -0.21467955 0.1978511
-0.0074343276 -0.02966973 0.1955524 0.16564998 0.006262304 0.25989494 0.20456718 0.16764124
-0.039051216 0.022611268 0.14821617 -0.040037703 -0.040473748 0.20022678 -0.12897933 -0.029860767
-0.08189091 0.20982552 -0.11673688 0.26052323 -0.22585978 0.19842441 0.0803643 0.10163719
0.04558293 -0.043797337 -0.27381682 0.0922272 -0.11467167 -0.007769593 -0.061623655 -0.04517843
0.039503347 0.21276739 0.2719097 0.1626857 0.1203404 -0.21118386 -0.19057766 0.1284772
0.27368802 -0.1388241 0.030850695 0.10089453 0.044635937 0.1651831 -0.08571118 0.003412557
-0.08533207 0.011637493 0.124757774 -0.061279893 -0.004288201 0.208988 0.21580803 -0.12027917
0.07347034 -0.02041538 -0.07532873 0.021391248 0.10726707 0.10561421 -0.18133366 -0.17746754
-0.1896395 -0.067959026 -0.20887914 0.06156882 0.17482148 0.037098877 0.0074408804 -0.10463452
0.17054686 -0.040870797 -0.290797 -0.14055468 -0.15030962 -0.18474512 -0.020392451 0.06579261
0.13685861 -0.11205538 -0.26512888 0.20845048 0.24808873 0.009730671 0.03583041 -0.20979896
-0.2378572 0.033637296 0.02388508 -0.103892945 -0.09997105 0.057911597 0.04477736 -0.14047848
-0.20969443 0.07156429 -0.05230396 0.015103579 -0.15715246 -0.23033299 -0.15066159 0.10231848
-0.037921816 -0.033463303 0.117923886 -0.13752982 -0.17294306 -0.043888796 0.018888656 0.04139055

conv_layers.1.lin.weight f4 [128, 128]
00000000: f375 cbbb 4c44 13bd 75ab 50bc c5cc 6fbd
00000010: 7066 673c cf48 0cbd aa9f e43c c95a 4ebc
00000020: b04a 7ebd 2676 74b7 5e7b 3d3c df70 36bc
00000030: b4ee 4cbc 2b26 0abd e739 50bd 4f4c 79bb
00000040: 2eb3 83ba 6d49 823a 1982 553b 37cf 87bc
00000050: 20bb 63bd 3e83 a0bc a0d5 85bc 931d 843c
00000060: ab60 f33a 6c96 03bd ff2a adbc 53d5 a13c
00000070: cb38 16bd 6844 c4bc 958e 12bd 9ee2 8cbb
00000080: c8d3 0dbc 6f70 a03c 4d15 343c 3f1a 4bbc
00000090: 7e0f ab3c 4149 293b 0043 2cbb e771 5dbc
000000a0: 6e9f 1ebd e0f0 17b6 1620 a93b 1b43 7cbb
000000b0: 3f88 abbc 40e8 fbbc c935 06bd 2524 71bc
000000c0: 83e0 9c3c d9ca 8bb9 b6b1 8a3c 6abf 71ba
000000d0: 3d3b 4cbc 8b72 853c cd1c ce38 2d67 a0bc
000000e0: 26da e2bb 75e9 0a39 608d 6abd 6ad1 a3bc
000000f0: 8570 ba3c f77f 25bd cc26 8f3a 2898 afbb
00000100: 2110 b13c 3c91 8e3c 69bb 84bc 046c 37bc
00000110: e96e 86bc 12ee 2d3b 5afb a83a bebb c5bc
00000120: ed9c 84bb 683e 24bd d125 893c 65c0 c33a
00000130: 259c 473b 6ae8 933b a6d2 02bd 90ba fbbd
00000140: 1b6b 093d f7fd d2bc 6cdd 633d 368e febc
00000150: c386 8bbc 33f1 a0bc 700b 583b 0e5b 9abc
00000160: 4940 7fbb a84a 9e3c 3f7e 3fbc 1f5c 8dbc
00000170: d23f 15bc e030 89bd ddae 9c3c 5779 f8bc
00000180: 9423 f2bb bb9c cebc 5643 1a3c 6c29 1d3d
00000190: 940d 4fbc 4bf9 e7bc 2023 e9bb 549d 27bd
000001a0: f352 443b 8d11 32bd 7f3f e4bb 56d2 9e3b
000001b0: b9b3 68bd a478 db39 fc8d 0d3c 8d26 04bd
000001c0: 6f7b 91bc 2317 0f3c 2d63 c1bc 287e b5ba
000001d0: 3478 82bc 1531 1abd 2d2f 28bd c461 1a3b
000001e0: 232b dcb8 4f82 5ebc fcdc f63c 83b2 093b
000001f0: 9867 2dbb f5a6 88bc 8d8c 8e3c e942 31bd
00000200: fa1b 98bc 7461 08be b9b0 c0bd 2149 04be
00000210: fdcd 2b3d 6277 99bd 3e46 503d 44a1 61bd
00000220: dbcc 263e cae4 e0b8 913d 9abd c13a 333d
00000230: f7d8 283e dc63 82bd 212b 89bd 7dd6 823d
00000240: 6eda 0c3d c442 41bb 074b 11bd e64e 48bc
00000250: df7e d6bd c7b6 1e3d 1912 bfbd 55a8 a23d
00000260: c9f5 27ba bf3d ffbd c85c 223d 0e40 1abd
00000270: 23d3 ba3d 74c9 1d3d 5107 cfbc f549 ad3d
00000280: 0fed b3bc 0861 be3d ee96 bdbc a20d 8a3d
00000290: 15e6 9ebc d7a1 c73b 982e 80bd 1c43 d2bd
000002a0: f933 1dbd b4d9 d5bb 5422 4fbd 5ebb af3d
000002b0: 7b85 79bd f79d 9dbd 2782 10be c706 83bd
000002c0: 7735 4f3d ba3e 4dbb f92b dfbc bab9 043b
000002d0: e46e f93d e221 c0ba 6ac0 80bb b013 733d
000002e0: fc0d 953d 67c7 72bb 75c8 4cbd 6ce7 c4bd
000002f0: 42fb c1bd 70aa be3c 9f5d cf3c e7f0 203e
00000300: 6594 cbbc da83 2c3d d004 a0bd 586d 5d3d
00000310: 5a9a bc3d 87a0 533d 6678 63b9 4abf 063e
00000320: 886e 86bd 6f4a 37be 2657 e7bd 687e cdbc
00000330: 0744 e8bc 40e5 1dbe 8742 ff3c 05d5 93be
00000340: 525e 06bc 9756 c2bd 32b6 8bbd acde 82bd
00000350: 4480 e6bc 6e91 ff3d 7cfe 513d 337f 0cbe
00000360: 7097 7b3b 68c3 263e a704 7dbd bc90 9bbd
00000370: dc3d 2d3b ca7c 493d 91cf 303c ede9 fb3b
00000380: 1283 72bd 313d 8fbd 9765 21bd 49cf 893d
00000390: 4f80 0dbe ede3 5ebd 715f 6e39 1bd6 33be
000003a0: dabd 7ebd ff66 1abe d162 babd 8710 30bc
000003b0: 1a29 b4bb 7d74 92bd 47b7 2ebd f3f1 f0bd
000003c0: 4c0a bdbd bbbb a5bd 5b6f 3dbe 9312 a0bc
000003d0: d8e4 8bbc e58e 82bd c9d4 d3bd a155 12bc
000003e0: 1326 d1ba 9c55 24be 1c18 12bd 154a ab3c
000003f0: 95f4 e1bb 2046 7cbd 7378 ef3b 3f82 5fbe
-0.006209129 -0.035953805 -0.012736191 -0.058544893 0.014123544 -0.034249123 0.027908165 -0.012594887
-0.062082946 -1.4571042e-05 0.011565058 -0.011135309 -0.012508083 -0.033727806 -0.05083647 -0.0038039868
-0.0010047907 0.0009940095 0.0032578765 -0.0165783 -0.05559838 -0.019593831 -0.016337216 0.016127383
0.0018568238 -0.032125875 -0.021138666 0.019755041 -0.036675256 -0.0239584 -0.035780508 -0.004299476
-0.00865645 0.019584863 0.010991407 -0.012396394 0.02088141 0.0025831016 -0.0026285052 -0.013515926
-0.038726263 -2.264096e-06 0.0051612956 -0.0038492146 -0.02093899 -0.030750394 -0.032766137 -0.01471809
0.019150024 -0.0002666328 0.016930442 -0.00092219433 -0.012465295 0.01628997 9.82821e-05 -0.019580448
-0.006922978 0.00013247675 -0.057263732 -0.019997317 0.022758732 -0.04040524 0.0010921597 -0.0053587146
0.021614136 0.017403238 -0.016202645 -0.0111951865 -0.016410308 0.0026539606 0.0012892291 -0.024137374
-0.0040470273 -0.040098578 0.016741665 0.0014934657 0.003045806 0.00451379 -0.03193917 -0.12291443
0.03354941 -0.025755865 0.055631086 -0.03107367 -0.017032033 -0.019646263 0.0032965802 -0.018842246
-0.003894823 0.019322708 -0.011687814 -0.01725584 -0.009109454 -0.06698775 0.01912635 -0.030331297
-0.007389495 -0.02522122 0.009415468 0.03836958 -0.012637515 -0.028317114 -0.007114783 -0.040921524
0.0029956668 -0.04347377 -0.006965577 0.0048468513 -0.056812022 0.0004186082 0.008639809 -0.032263327
-0.017759053 0.008733544 -0.023606861 -0.0013846802 -0.015926458 -0.037644465 -0.041060615 0.0023556808
-0.00010498452 -0.013580873 0.03013467 0.0021010942 -0.0026459452 -0.016681174 0.017401004 -0.0432767
-0.018568028 -0.13318425 -0.09408707 -0.12918521 0.041944493 -0.074934736 0.05084824 -0.055085436
0.16289084 -0.000107237676 -0.07531274 0.043757204 0.16489016 -0.06366703 -0.06697679 0.06388567
0.034388 -0.0029489258 -0.035471942 -0.012225842 -0.104734175 0.03874853 -0.09329624 0.07942263
-0.0006407169 -0.12462949 0.039639264 -0.037658744 0.091223024 0.0385222 -0.025272043 0.08461372
-0.021963624 0.09295851 -0.023143258 0.067408815 -0.019396821 0.006092291 -0.06258887 -0.10266706
-0.038379643 -0.0065261964 -0.050569847 0.08580659 -0.060918313 -0.07696145 -0.14112149 -0.06397777
0.050588097 -0.0031317906 -0.027242647 0.0020252303 0.12179354 -0.0014658535 -0.0039291875 0.059344947
0.07278058 -0.0037045123 -0.04999586 -0.09614453 -0.09471752 0.02327463 0.025313197 0.15716897
-0.024851033 0.04211793 -0.07813418 0.054059356 0.09209128 0.051666763 -0.00021693259 0.13158908
-0.06564051 -0.17899488 -0.11295919 -0.02508469 -0.02835275 -0.15419483 0.031159652 -0.28873459
-0.008201199 -0.09489172 -0.068218604 -0.063901275 -0.028137334 0.124789104 0.051268086 -0.13720398
0.0038389824 0.16285479 -0.061772015 -0.07595965 0.0026434576 0.049191274 0.010791675 0.0076877982
-0.05920703 -0.06994093 -0.039403524 0.0672899 -0.13818477 -0.054416586 0.00022733003 -0.17562144
-0.062192775 -0.15078352 -0.09100879 -0.010746128 -0.0054980638 -0.071511246 -0.042655256 -0.11764898
-0.092304796 -0.08092447 -0.1849951 -0.019540107 -0.017076895 -0.06374911 -0.1034332 -0.008931548
-0.0015956782 -0.16048282 -0.035667524 0.020909349 -0.0068956115 -0.061590314 0.00730806 -0.21827029
