Experiment/pre_trained_model/MUTAG/SimGRACE.GCN.128hidden_dim.pth (torch, 72680 bytes, 4 tensors)

conv_layers.0.bias f4 [128]
-0.086777546 0.16571185 -0.09563319 0.16183004 0.0527015 0.034090523 0.05212212 0.06751865
0.015290157 0.09046121 0.16861449 -0.06815551 0.17441057 0.16807854 0.065495804 0.030903582
0.1216152 -0.11841767 0.15553164 0.1270554 0.1686109 0.1301463 0.014899519 0.029724266
0.028670907 0.03336823 0.22321278 0.12059986 0.060774427 -0.10927449 0.09269795 -0.09396275
0.108659565 -0.071355745 0.04896478 -0.03859208 0.19281141 -0.0076487465 -0.12447632 0.005325622
0.0741469 0.07933954 -0.09996516 0.07833044 0.078842655 0.056841414 0.0463794 0.053272005
0.08338656 -0.045120865 0.055539828 0.0150851635 -0.043741677 0.1440924 -0.099837884 0.060661454
0.15080044 0.047510758 0.0436274 -0.10570044 0.087329246 0.017088814 -0.10244492 0.13935196
0.1127565 0.117943875 -0.025843224 0.061551854 0.26762795 0.07462147 -0.027014615 0.09978333
0.034691203 0.022983829 -0.011589431 0.03724352 -0.23732626 0.1124873 -0.017888755 0.038347136
-0.029406907 0.11669824 0.12750377 0.13351513 -0.016397761 -0.03680608 0.12775166 0.056049958
0.070144504 0.04022468 0.039851595 0.07576431 0.08437879 -0.053491745 0.111668535 0.098159544
0.13416784 -0.2731086 -0.05814179 0.07043736 0.027813958 0.16516225 0.08564006 0.010844407
0.14067264 0.07133286 0.15526593 0.005296148 -0.081951 0.0011675938 0.03396209 0.13744763
0.0074610147 0.043187823 0.017149746 -0.06749579 -0.087887146 0.15330908 0.13033728 0.10699951
0.10188902 0.026102215 0.035665296 0.0871732 -0.06429764 0.08993788 -0.023331173 0.16619268
00000000: 6db8 b1bd 5eb0 293e 55db c3bd c6b6 253e
00000010: 87dd 573d 81a2 0b3d 017e 553d 3847 8a3d
00000020: 9183 7a3c ba43 b93d 47a9 2c3e 1e95 8bbd
00000030: af98 323e c81c 2c3e aa22 863d 8229 fd3c
00000040: 6411 f93d f784 f2bd b043 1f3e d01a 023e
00000050: 56a8 2c3e 1245 053e 1d1d 743c 4e80 f33c
00000060: 40df ea3c 20ad 083d e491 643e 0ffd f63d
00000070: 9bee 783d 4ecb dfbd 6cd8 bd3d 8b6f c0bd
00000080: e888 de3d f622 92bd 4b8f 483d bb12 1ebd
00000090: 5b70 453e 56a2 fabb 71ed febd 8e82 ae3b
000000a0: 54da 973d c57c a23d 89ba ccbd b66b a03d
000000b0: 4278 a13d 8bd2 683d 53f8 3d3d bf33 5a3d
000000c0: 93c6 aa3d a8d0 38bd bb7d 633d c327 773c
000000d0: 792a 33bd f58c 133e ce77 ccbd 2578 783d
000000e0: 6e6b 1a3e a49a 423d a5b2 323d 7979 d8bd
000000f0: add9 b23d d7fd 8b3c a4ce d1bd 48b2 0e3e
00000100: e1ec e63d 8f8c f13d 2bb5 d3bc cc1d 7c3d
00000110: 8806 893e 24d3 983d c14d ddbc 345b cc3d
00000120: 5d18 0e3d 9548 bc3c 99e1 3dbc a98c 183d
00000130: a805 73be be5f e63d 708b 92bc e311 1d3d
00000140: c1e6 f0bc 7dff ee3d 5990 023e 31b8 083e
00000150: 9954 86bc f9c1 16bd 55d1 023e a494 653d
00000160: eca7 8f3d a2c2 243d 6d3b 233d 522a 9b3d
00000170: c9ce ac3d 291a 5bbd 79b2 e43d df07 c93d
00000180: 4b63 093e e4d4 8bbe 1626 6ebd 7641 903d
00000190: 19da e33c 4b20 293e 0e64 af3d bdac 313c
000001a0: 7d0c 103e f616 923d 08fe 1e3e 4f8b ad3b
000001b0: edd5 a7bd f209 993a d51b 0b3d 12bf 0c3e
000001c0: 877b f43b b7e5 303d a07d 8c3c 3c3b 8abd
000001d0: 2dfe b3bd 0efd 1c3e 2377 053e 8f22 db3d
000001e0: 31ab d03d 50d4 d53c c615 123d dd87 b23d
000001f0: 7bae 83bd 5a31 b83d 0421 bfbc 6a2e 2a3e

conv_layers.0.lin.weight f4 [128, 7]
-0.09675377 -0.01707077 0.012544883 0.00027133786 -2.778109e-05 0.0033204283 -5.1932035e-05 -0.22469747
0.016455103 0.72626233 -0.17891647 -0.121821135 -0.1860003 0.5889561 -0.007686908 0.5109081
-0.060184624 -0.00015807636 -0.0020426246 -0.0038952986 0.0022370138 -0.2404769 0.53982544 0.6275236
-0.19610035 -0.14629987 -0.1844467 0.65549535 0.24027295 0.06893047 -0.8829521 0.4463803
0.059751738 0.12040278 -0.31522653 -0.07688 -0.057855234 0.9790745 -0.1119685 -0.025400989
-0.071976505 0.26743686 -0.06958532 1.0333493 -0.07873964 0.17139576 -0.10267533 -0.14697509
0.26546842 -0.0033602237 1.0684985 -0.3246034 0.411345 -0.24402632 -0.1878301 0.19409195
0.2869018 0.5426579 -0.9233712 -0.021174485 -0.010852785 -0.30351084 -0.265043 -0.1353837
0.97894675 -0.080670826 0.603479 -0.12204996 0.06128354 0.34373453 -0.23231576 -0.2784528
0.78262997 0.65203923 0.05834844 0.80997264 0.1267389 0.02578648 -0.6705107 0.60225844
-0.009056068 0.011333987 -0.038642433 -0.00085181143 -0.26857167 -0.22719668 0.91078484 -0.25817522
-0.069359556 -0.2618338 0.4615685 -0.19651258 0.3391242 0.7691515 -0.21467708 -0.15664484
-0.20017588 0.6300897 -0.11034581 1.1450183 -0.058577612 0.40115553 -0.08907312 -0.11387987
0.3302177 -0.04135793 -0.11167952 -0.17793117 1.2642809 0.026543932 1.0417086 -0.031093977
-0.20549953 1.073968 -0.03386409 0.11724228 -0.13703077 -0.1661986 0.4517079 0.037328266
-0.2081229 0.10876377 -0.0006708706 0.00064933364 0.08956917 -0.00013060482 -0.16870695 0.547948
-0.7103044 1.9563559 -0.04118898 1.7699479 -0.19787528 -0.1434064 -0.16260892 0.7774727
-0.16867559 -0.021600448 -0.12558912 0.0943582 -0.20685305 -0.055728856 0.8189143 -0.21438886
-0.11560911 -0.2033991 0.6381826 0.1118591 1.3292382 -0.8029288 0.47739846 -0.38394666
-0.33433765 0.11410472 0.08898921 -0.9669717 0.5742996 0.022183305 0.35443676 0.5221933
-0.20481583 -0.16939853 0.7259082 0.20354578 -0.005707685 -0.019794744 -0.048160307 0.5346884
-0.049424544 0.30220369 0.6298935 -0.06640139 -0.023901146 -0.04533743 0.4008506 -0.056715876
-0.08916691 0.8018817 -0.07346392 -0.0016048034 -0.12711352 -0.002969433 -0.3344034 -0.2281439
0.8339544 -0.2945565 -0.088696234 -0.30850092 0.47297335 -0.17720659 1.0869806 -0.0689141
0.30943674 -0.13283385 -0.10181956 0.44320258 0.3237788 -0.55908597 0.00095415034 -0.30777156
0.26387578 0.10509845 -0.32571587 0.09850775 0.4634489 -0.32722268 -0.20882909 -0.050057158
-0.1387494 -0.06765874 -0.21610282 0.22794321 0.70709515 -0.110410504 -0.07842274 -0.12405152
0.63802516 0.041558057 0.005315114 0.026042612 -0.0002519634 0.00014864762 -0.00054267043 0.0001775321
-0.30877915 0.7901111 0.34660935 -0.063784115 -0.04623394 -0.058242522 0.64911675 -0.061287325
-0.19320898 0.032085843 -0.014617583 9.65351e-05 0.018814482 -0.00028360073 -0.059917264 -0.35546803
-0.27224454 1.197315 0.081142545 0.87214255 -0.099302284 0.17945667 -0.6048351 -0.33635974
-0.28313318 0.1564308 -0.252779 -0.08587058 -0.34128183 -0.14748979 0.70136523 -0.18494502
00000000: d726 c6bd 00d8 8bbc 0e89 4d3c 5a42 8e39
00000010: 700b e9b7 8b9b 593b 99d1 59b8 1817 66be
00000020: dacc 863c 54ec 393f e135 37be 5c7d f9bd
00000030: dd76 3ebe d4c5 163f 75e2 fbbb e0ca 023f
00000040: 2784 76bd 4dc1 25b9 8edd 05bb 4448 7fbb
00000050: dd9a 123b 943f 76be 0032 0a3f 63a5 203f
00000060: 88ce 48be a2cf 15be 99df 3cbe 8bce 273f
00000070: 1d0a 763e 6b2b 8d3d 2609 62bf f58b e43e
00000080: 3dbe 743d bc95 f63d 5f65 a1be 4373 9dbd
00000090: 9cf9 6cbd a0a4 7a3f be4f e5bd bc15 d0bc
000000a0: 6b68 93bd 7ced 883e c082 8ebd ca44 843f
000000b0: 4042 a1bd 5f82 2f3e 7247 d2bd a380 16be
000000c0: 7aeb 873e 3337 5cbb 8fc4 883f 6b32 a6be
000000d0: d09b d23e 09e2 79be 8956 40be 0ac0 463e
000000e0: cbe4 923e a1eb 0a3f 0e62 6cbf 1d76 adbc
000000f0: e1cf 31bc c665 9bbe b7b3 87be 06a2 0abe
00000100: 419c 7a3f bf36 a5bd 9a7d 1a3f 54f5 f9bd
00000110: 7304 7b3d f9fd af3e 2fe4 6dbe 5e91 8ebe
00000120: 705a 483f 0bec 263f c6fe 6e3d 5e5a 4f3f
00000130: d8c7 013e 2b3e d33c 97a6 2bbf 9c2d 1a3f
00000140: e75f 14bc 30b2 393c 8747 1ebd 194c 5fba
00000150: 3a82 89be 3fa6 68be 3229 693f 8b2f 84be
00000160: 620c 8ebd 140f 86be b552 ec3e 983a 49be
00000170: b0a1 ad3e 1de7 443f 4fd4 5bbe 8167 20be
00000180: e8fa 4cbe 8f4d 213f fcfc e1bd f68f 923f
00000190: 14ef 6fbd 4264 cd3e f86b b6bd d939 e9bd
000001a0: 4b12 a93e ef66 29bd 3bb8 e4bd 9733 36be
000001b0: f5d3 a13f a972 d93c b556 853f ccb8 febc
000001c0: 786e 52be c977 893f 12b5 0abd b81c f03d
000001d0: cb51 0cbe f72f 2abe 4246 e73e 86e5 183d
000001e0: 2b1e 55be 8abf de3d 5ddd 2fba 0b38 2a3a
000001f0: 0a70 b73d f7f2 08b9 84c1 2cbe 5246 0c3f
00000200: 82d6 35bf df69 fa3f c7b5 28bd a78d e23f
00000210: d19f 4abe 21d9 12be f482 26be 7308 473f
00000220: 4bb9 2cbe 6cf3 b0bc 6f9a 00be df3e c13d
00000230: 49d1 53be f143 64bd 5ea4 513f c188 5bbe
00000240: 78c4 ecbd db47 50be ef5f 233f 6216 e53d
00000250: 7a24 aa3f be8c 4dbf 926d f43e a894 c4be
00000260: 4e2e abbe bcaf e93d fa3f b63d 758b 77bf
00000270: 4c05 133f c3b9 b53c bc78 b53e 76ae 053f
00000280: 3ebb 51be cf76 2dbe 1fd5 393f 4e6e 503e
00000290: 8807 bbbb 9628 a2bc be43 45bd 57e1 083f
000002a0: 6471 4abd 71ba 9a3e b340 213f 74fd 87bd
000002b0: 56cc c3bc beb3 39bd 4a3c cd3e e84e 68bd
000002c0: 249d b6bd 1e48 4d3f 4074 96bd 4458 d2ba
000002d0: 0c2a 02be d29a 42bb ec36 abbe 8e9e 69be
000002e0: 097e 553f 1cd0 96be 5fa6 b5bd d5f3 9dbe
000002f0: 9029 f23e a575 35be 2e22 8b3f d622 8dbd
00000300: 7e6e 9e3e 9905 08be c686 d0bd 73eb e23e
00000310: 56c6 a53e 4220 0fbf f21f 7a3a 3c94 9dbe
00000320: ba1a 873e db3d d73d 3bc4 a6be 6ebe c93d
00000330: 2d49 ed3e bb89 a7be 4bd7 55be bc08 4dbd
00000340: 5314 0ebe aa90 8abd 0f4a 5dbe f269 693e
00000350: 3004 353f e71e e2bd 1a9c a0bd b90e febd
00000360: 9e55 233f c838 2a3d 682a ae3b 5157 d53c
00000370: f519 84b9 4bde 1b39 ff41 0eba e927 3a39
00000380: 4d18 9ebe b944 4a3f c876 b13e 3fa1 82bd
00000390: cd5f 3dbd b68f 6ebd 842c 263f 6b08 7bbd
000003a0: 93d8 45be 726c 033d 967e 6fbc e372 ca38
000003b0: d420 9a3c 3fb0 94b9 ce6b 75bd e8ff b5be
000003c0: a363 8bbe 9e41 993f 102e a63d bc44 5f3f
000003d0: ff5e cbbd 7dc3 373e 79d6 1abf 5837 acbe
000003e0: d5f6 90be 652f 203e 406c 81be eadc afbd
000003f0: 7ebc aebe 9007 17be ac8c 333f 3a62 3dbe

conv_layers.1.bias f4 [128]
0.024160597 -0.0055345637 0.009895594 -0.033910055 -0.015846359 -0.098256804 0.124496736 0.04561231
0.0008377355 -0.0015761174 -0.10406914 0.11737888 -0.19144674 0.18249145 -0.2089293 -0.2241058
0.11102386 -0.29991487 0.06136838 0.20634887 -0.08960573 0.0232537 -0.03646953 -0.15836917
0.06647944 -0.01108761 -0.04145944 0.13180703 0.23503736 -0.033260085 0.06553166 -0.09172012
-0.21068886 -0.18096395 -0.18580294 0.122074135 0.06208786 -0.19837782 -0.051675007 0.00052128633
-0.0025248905 -0.11753741 -0.02962314 -0.007123067 -0.099526 0.037546854 -0.022756146 0.09228792
0.05794523 0.26993978 0.031890187 0.029727004 -0.016058797 -0.02918676 -0.049133185 0.03605886
0.14070018 -0.053379405 -0.0879356 0.0956923 0.1371206 0.028863126 0.026127452 0.21042812
0.09503433 -0.004320237 -0.13832834 0.05377915 0.097853996 -0.2096088 0.032292567 -0.069048256
0.15647133 -0.14927708 -0.015028486 -0.12631342 -0.078524955 0.17495893 0.030608302 -0.14863805
0.010857409 -0.038609263 -0.06102826 -0.14588659 -0.014545658 0.0649297 0.048949797 0.0647961
0.057536993 -0.086390324 -0.20577462 0.06600903 0.15208222 -0.2365121 0.112567484 0.15080231
0.05021001 -0.11935255 0.028634023 -0.25905252 0.10370277 -0.092827596 -0.08696327 0.17769691
-0.060057115 0.094553106 0.11795513 -0.20833096 -0.024857879 0.088904575 0.032093324 0.15383634
-0.13096358 0.03999155 -0.057000868 0.17482413 0.07398652 -0.051487785 -0.03473161 0.06281433
0.1497073 -0.07514681 0.03479269 0.06851761 0.104133256 -0.070839025 -0.1845915 -0.1159638
00000000: 72ec c53c 495b b5bb 2121 223c 45e5 0abd
00000010: 39d0 81bc dd3a c9bd 25f8 fe3d f9d3 3a3d
00000020: 7a9b 5b3a b995 ceba 3422 d5bd 5764 f03d
00000030: 9d0a 44be 0adf 3a3e 90f1 55be fe7b 65be
00000040: 7a60 e33d 718e 99be 695d 7b3d 1e4d 533e
00000050: 3583 b7bd 8b7e be3c 1361 15bd 872b 22be
00000060: 5f26 883d cfa8 35bc 60d1 29bd 6cf8 063e
00000070: a2ad 703e ba3b 08bd 7735 863d c2d7 bbbd
00000080: d2be 57be 9d4e 39be 2043 3ebe 0102 fa3d
00000090: d74f 7e3d 8e23 4bbe 2ca9 53bd efa6 083a
000000a0: a278 25bb 74b7 f0bd 3aac f2bc 9e68 e9bb
000000b0: 4ad4 cbbd bbca 193d 196b babc 7301 bd3d
000000c0: fa57 6d3d 8c35 8a3e 499f 023d 0c86 f33c
000000d0: bd8d 83bc 1219 efbc e13f 49bd 75b2 133d
000000e0: b513 103e 5da4 5abd 9417 b4bd 53fa c33d
000000f0: 5869 0c3e 5d72 ec3c 3d09 d63c 787a 573e
00000100: 5ca1 c23d c690 8dbb f2a5 0dbe 8747 5c3d
00000110: ad67 c83d b0a3 56be 3645 043d 2c69 8dbd
00000120: 053a 203e 17dc 18be 0a3a 76bc 4e58 01be
00000130: b1d1 a0bd 6f28 333e 43be fa3c 9334 18be
00000140: 46e3 313c bf24 1ebd c5f8 79bd 4b63 15be
00000150: e950 6ebc ddf9 843d 957f 483d d1b3 843d
00000160: e9ab 6b3d 69ed b0bd 95b6 52be be2f 873d
00000170: 71bb 1b3e 3a30 72be c889 e63d ec6b 1a3e
00000180: 03a9 4d3d 1c6f f4bd e691 ea3c 88a2 84be
00000190: 1e62 d43d 651c bebd cd19 b2bd 2ef6 353e
000001a0: 73fe 75bd 0fa5 c13d 7692 f13d b654 55be
000001b0: c0a2 cbbc 9a13 b63d 4a74 033d 4687 1d3e
000001c0: 511b 06be 2ece 233d be79 69bd 1905 333e
000001d0: 3f86 973d dbe4 52bd bc42 0ebd cda4 803d
000001e0: df4c 193e 92e6 99bd c882 0e3d f652 8c3d
000001f0: d143 d53d 0d14 91bd 8e05 3dbe 6e7e edbd

conv_layers.1.lin.weight f4 [128, 128]
0.0007504238 0.21318583 -0.09596543 0.16178975 -0.12733455 0.22546907 -0.13512878 -0.2372644
-0.20003352 -0.20563698 0.04474656 0.1460499 0.3125118 0.16101962 -0.12413448 -0.16972768
-0.14232007 -0.03910969 -0.49406514 0.19268152 0.3496541 -0.3056699 0.17481129 -0.04809522
0.037320077 0.29237556 0.30468607 -0.19762488 -0.10530914 0.079489045 0.21872982 0.04205509
0.13887593 0.012507173 -0.26100957 -0.0085927965 0.28776985 0.122928485 0.052194905 0.38673306
-0.12545536 -0.026790569 -0.0011602709 -0.06314232 -0.056573316 -0.04679205 -0.15255938 0.04732367
0.1763489 -0.15802926 -0.24197239 0.020161506 -0.002615558 -0.059624556 0.08500222 0.030717961
0.48461232 -0.16662571 0.015807621 -0.0016923868 -0.33815446 -0.23033239 -0.08152998 -0.46929327
0.30942446 -0.15010332 -0.001554613 -0.019736007 -0.6841743 0.21605948 -0.07123646 -0.0882719
0.008309493 -0.3020055 0.042572755 0.17027345 0.044158045 -0.25971138 -0.063827716 0.17702383
-0.10032672 0.086338945 0.12725544 -0.2072124 0.04324392 -0.24484992 0.36426055 -0.20835017
0.00045433277 -0.10684428 0.33030835 -0.17388605 -0.27382323 -0.0015425305 0.40755513 0.17174095
-0.29936382 -0.110072434 -0.0011936435 0.0032178303 0.006993225 0.27226248 -0.14680317 -0.08669191
0.3520469 -0.10767065 0.28995618 -0.06620152 -0.034836445 -0.029722193 -0.11758402 0.079645224
-0.119278625 0.031542145 0.12478801 -0.013906848 -0.053658523 0.061865695 0.277553 -0.2890418
0.033184666 0.19867948 0.09228722 -0.17736039 0.008577545 0.36664462 -0.032225415 0.39838603
0.012085181 0.10393577 -0.19796269 0.031392086 -0.113085635 0.09739075 -0.46155775 -0.506443
-0.23320562 -0.5092926 0.20448329 0.13235122 0.3632897 0.14538948 -0.4014328 0.15867531
-0.53266 0.007595838 -0.16430584 0.096957624 0.22477399 -0.6528462 0.10713616 -0.23668058
0.051760226 0.07005447 0.19878748 -0.5362852 0.060119156 -0.0720191 0.12758306 8.3716855e-05
-0.12189952 0.021825144 0.0027963473 -0.017990272 0.1647535 0.20135131 0.11187242 0.32861972
-0.41565531 0.37565467 0.022778345 0.015805999 0.027923279 0.033579756 -0.10125439 0.058487616
-0.06194996 -0.122634485 -0.19030438 0.1281618 0.009567166 -0.2484333 -0.18322697 -0.080779746
0.33125934 -0.36663586 0.0018057249 0.01244269 -0.5160101 -0.14808282 -0.00074776553 0.047562737
0.13277382 -0.43190247 0.0020097839 -0.3955084 0.18917818 0.08843903 -0.2221777 -0.0073075397
0.17460538 -0.15842862 -0.3373727 -0.053732306 0.034779288 -0.5662605 -0.028222369 0.018372612
-0.07865286 0.17351542 -0.22784404 -0.45176956 -0.2538828 -0.05255456 0.30644727 -0.11428126
-0.06694344 -0.19900583 0.20348673 -0.13024263 -0.37122658 0.018146757 0.31399566 0.082667165
-0.59668577 0.08226544 0.013440487 -0.23755223 -0.028558092 0.23667386 -0.27848956 -0.031344805
0.32036382 -0.2702536 0.18199135 0.04023629 0.008268858 -0.08847481 -0.17687336 -0.023149967
-0.20339549 0.04439313 0.008712738 -0.18410075 -0.13505438 0.11081541 0.05649411 -0.29114738
0.1611256 0.07565535 -0.05687531 -0.41143233 0.007343601 0.08084522 -0.08141982 0.27161118
00000000: 17b8 443a 634d 5a3e 8689 c4bd 36ac 253e
00000010: fd63 02be 5de1 663e 335f 0abe 70f5 72be
00000020: 96d5 4cbe 8092 52be 2b48 373d 1b8e 153e
00000030: 8c01 a03e 54e2 243e 383a febd 18cd 2dbe
00000040: 5abc 11be 7b31 20bd 1bf6 fcbe 4e4e 453e
00000050: dd05 b33e c480 9cbe bb01 333e 7eff 44bd
00000060: f0dc 183d 40b2 953e d0ff 9b3e 2d5e 4abe
00000070: 52ac d7bd 27cb a23d b6fa 5f3e f541 2c3d
00000080: 7e35 0e3e e3ea 4c3c 0ca3 85be cdc8 0cbc
00000090: 9256 933e eec1 fb3d 53ca 553d e001 c63e
000000a0: 5f77 00be e577 dbbc 3b14 98ba c350 81bd
000000b0: 6cb9 67bd 05a9 3fbd 8738 1cbe 77d6 413d
000000c0: ce94 343e 6cd2 21be 9cc7 77be be29 a53c
000000d0: c869 2bbb e138 74bd a515 ae3d 3ca4 fb3c
000000e0: 1b1f f83e ee9f 2abe fc7e 813c 14d3 ddba
000000f0: 9522 adbe 41dc 6bbe 31f9 a6bd 3547 f0be
00000100: e26c 9e3e afb4 19be 28c4 cbba 68ad a1bc
00000110: 0c26 2fbf b23e 5d3e 6ce4 91bd e6c7 b4bd
00000120: 8a24 083c 77a0 9abe c560 2e3d 2a5c 2e3e
00000130: 11df 343d e4f8 84be 1bb8 82bd bc45 353e
00000140: 1878 cdbd 79d2 b03d 404f 023e 7d2f 54be
00000150: 8920 313d f0b9 7abe 5c80 ba3e bf59 55be
00000160: 8333 ee39 2dd1 dabd 2d1e a93e 2f0f 32be
00000170: 8f32 8cbe bc2e caba 11ab d03e dcdc 2f3e
00000180: 3746 99be a86d e1bd 0874 9cba 3ce2 523b
00000190: 6c27 e53b fd65 8b3e 9253 16be 878b b1bd
000001a0: 7e3f b43e 6e82 dcbd 2375 943e aa94 87bd
000001b0: a9b0 0ebd f57b f3bc e4cf f0bd 091d a33d
000001c0: 5a48 f4bd 5632 013d db90 ff3d 8cd9 63bc
000001d0: 0ac9 5bbd e266 7d3d 6d1b 8e3e 49fd 93be
000001e0: a5ec 073d a272 4b3e 1501 bd3d f69d 35be
000001f0: d588 0c3c d8b8 bb3e ccfe 03bd 41f9 cb3e
00000200: ec00 463c 47dc d43d bbb6 4abe fd94 003d
00000210: 7199 e7bd cd74 c73d 4c51 ecbe 40a6 01bf
00000220: 74cd 6ebe 0061 02bf 1164 513e 1487 073e
00000230: 1c01 ba3e fbe0 143e 9a88 cdbe c87b 223e
00000240: 685c 08bf 82e6 f83b ca3f 28be b891 c63d
00000250: 272b 663e ee20 27bf 346a db3d 655c 72be
00000260: 8802 543d b878 8f3d f28e 4b3e fd49 09bf
00000270: 813f 763d c07e 93bd 22a5 023e 2591 af38
00000280: 75a6 f9bd a5ca b23c ec42 373b 5660 93bc
00000290: 24b5 283e 0a2f 4e3e 5e1d e53d d840 a83e
000002a0: c6d0 d4be cf55 c03e a799 ba3c 957b 813c
000002b0: 5cbf e43c ed8a 093d 765e cfbd b690 6f3d
000002c0: 3ebf 7dbd ca27 fbbd 27df 42be d93c 033e
000002d0: 9abf 1c3c 4d65 7ebe da9f 3bbe da6f a5bd
000002e0: d39a a93e b2b7 bbbe 13ae ec3a 6ddc 4b3c
000002f0: 3d19 04bf 06a3 17be b205 44ba 25d1 423d
00000300: dcf5 073e 5222 ddbe 94b6 033b 1480 cabe
00000310: edb7 413e 861f b53d 8d82 63be 1674 efbb
00000320: c1cb 323e 1d3b 22be 1dbc acbe 6816 5cbd
00000330: ba74 0e3d 73f6 10bf 9932 e7bc 2982 963c
00000340: c014 a1bd 07ae 313e f34f 69be 574e e7be
00000350: edfc 81be 7343 57bd a8e6 9c3e 4b0c eabd
00000360: a419 89bd 2fc8 4bbe d35e 503e 535e 05be
00000370: 6911 bebe 82a8 943c 0ac4 a03e 674d a93d
00000380: 66c0 18bf c87a a83d 7d35 5c3c e440 73be
00000390: a9f2 e9bc a25a 723e 2f96 8ebe 6963 00bd
000003a0: ba06 a43e ae5e 8abe f15b 3a3e cfce 243d
000003b0: 1b7a 073c 4832 b5bd 4a1e 35be 00a5 bdbc
000003c0: e846 50be 92d5 353d dfbf 0e3c e884 3cbe
000003d0: b24b 0abe 31f3 e23d 5e66 673d 4511 95be
000003e0: 1cfe 243e 31f1 9a3d 16f6 68bd 42a7 d2be
000003f0: 97a2 f03b 2e92 a53d 6fbf a6bd 9f10 8b3e
